model/Adam_batch_size=2048_epoch=300.pt (torch_old, 210418 bytes, 10 tensors)

lstm.weight_ih_l0 f4 [256, 1]
00000000: 647e 04bd d796 0fbd db86 333e 8ec0 e43d
00000010: f0cf 193f 1ea4 9a3e 6b19 8c3e 63d7 e9bd
00000020: 95e2 f23c 175d 41be ef45 46be 4ce2 773d
00000030: 2928 bb3d ad7f 50bd 315a ed3d 08f0 903d
00000040: 569d 0e3e fc5c 82bd cdb1 5abe 2b05 cc3d
00000050: 9d2d 62bb 2d80 873e 89b4 f63e e4cb 7c3a
00000060: 3c84 b9bd f615 5b3e 19dc b2bd e924 eb3d
00000070: f3df 90bd 01c8 c5bd 02b7 3f3d bbc6 f33d
00000080: 05e4 b83e 7f36 4f3d 4354 b3bd dd5b 383d
00000090: 7c64 b0bd 3ea3 0fbe 9839 bdbd 3dd7 2c3d
000000a0: 8d8b 91bc 6c12 333d 7f83 593d ccf5 0ebe
000000b0: ccbf 053d d212 3d3e 6ed6 183e 9fa6 e63d
000000c0: d514 8dbd 1e7c 1f3e b6bf a83e cc5c ba3d
000000d0: 50cc 8e3e a389 cbba 6660 853d a2bb 953c
000000e0: 19cf 243d d0a0 94bd 519c 79be ab51 3a3e
000000f0: 8299 31bd 476a 2cbd e941 843e 83e4 40be
00000100: 7a33 963d 805c 01be b566 9d3d 67d4 30bd
00000110: 9187 4b3e b55c aebd c7cd 993e 02f2 893e
00000120: 536d 593d 8fdb 4e3f 951e dfbd 50c1 fb3d
00000130: 6b1a 73bd 6037 1f3e 7a9f 7e3e 0f0a 043f
00000140: 1ad2 84bd 96a0 183e 6500 5e3e b049 213c
00000150: a04e f0bd ce84 4f3e c78c 823e 6f9d 213e
00000160: 9c5c efbd d384 ae3d be61 753e 3685 2bbc
00000170: 20b6 143e 4a0b 07bd b6b3 853d c201 303e
00000180: 617c 303e 0ecd a5bd f4d6 743e 4523 933d
00000190: 7a56 1c3d 4279 df3e 28a5 81bc 0076 d73c
000001a0: 5541 953e 9e16 823e 7b7e 9c3d 2918 d73d
000001b0: e573 993e 7e9a 683d fdd5 973d 76b8 203e
000001c0: e748 9e3d 9257 0bbe ab1a 91bd 0c1e d83d
000001d0: ac73 3abe 87e7 0d3e e302 a73e a712 943d
000001e0: 5762 673c a244 243e 0cd9 993b a745 e8bd
000001f0: 2e9d 713e 38a7 6c3e 54a8 753e 3b8c 1fbd
00000200: 9081 4b3e 551b cabd b011 a5be 4f39 703d
00000210: e228 1c3e 7b24 9d3f 6a3d c3be 865e 4cbe
00000220: e3b5 0ebe 0acd 9ebe 0907 b5be 9bf5 6abc
00000230: fec1 3b3e 4734 2e3e d2e9 553e 87ba 45bd
00000240: 5a81 b5be 342a 093e 2c91 5f3e bb66 353e
00000250: a729 95be 438e f3bd 4960 34be cd80 453e
00000260: 9bee 163d 4809 c43e 3aec a73e 818d e1bd
00000270: afda 38bd b43d 0dbe 6268 a73c a949 9e3d
00000280: 89b6 f13d c65d 913d 865a e03e 8670 fdbd
00000290: 49e8 ac3d 607e 7d3e 4533 6d3e 9555 e13d
000002a0: 9a6f 93be bf0d ae3e 7e4e e2bc 3f59 a0bd
000002b0: ffea 0bbf 9cd8 84be 35fd 1e3e 7575 8cbd
000002c0: e7f1 88bd dccb 8abf 0e2a a8be 2edb 83bc
000002d0: 2932 513e 7211 043f f601 7bbf f3e6 c3bc
000002e0: 2010 03be f8e2 adbd 0b13 71be 0750 e73d
000002f0: 3ca4 053e 52ca 773d d1b3 6abd 2aa7 96be
00000300: 7bf5 343c b395 2b3f 524e 88bd fa4a e13d
00000310: ceb4 7e3d c400 6cbd 5ca6 b7bd 2154 293e
00000320: 3161 b73c 5fd9 ed3d e8bf 8c3e 8233 a83e
00000330: d3bf 6dbe 1551 073e a09f 41be dab4 8b3d
00000340: b6cc 583e 0096 023e 5a12 ae3e 9f42 d33e
00000350: 2739 e53d 003f 083d 4198 273e 84a3 c5bd
00000360: dc28 60bd 79e5 57be 8f88 443e 2f08 063e
00000370: 8a7a 72be 8334 a43d eaa5 653d 5486 313e
00000380: 7043 1a3e 9cdf 573e b211 463d c6cc 7a3e
00000390: 29dc 783d b944 483e a8a6 353e 98ab 953e
000003a0: 2ae3 023d 0dd9 863d c700 d9bd 2524 c53d
000003b0: 4a86 f3bd d5ce 103e d8bb aabb e1b9 81bd
000003c0: fd33 50be 8edf 39be 8a12 803e f604 083e
000003d0: 4c21 6a3e 6a87 dcbd f285 10be 1c8d 1d3e
000003e0: 8c88 513d ae9c 943e 1a29 023e a5e7 5c3e
000003f0: cce6 433e cd8c 363e 9614 533e b527 903e
-0.032347098 -0.03505596 0.17531912 0.111695394 0.6008291 0.30203336 0.27363142 -0.11418035
0.029649058 -0.18883167 -0.19362615 0.060518548 0.09138519 -0.05090301 0.11589468 0.07077032
0.13927206 -0.063653916 -0.21356888 0.09961923 -0.003451205 0.26464978 0.48184612 0.0009643419
-0.09058425 0.21395096 -0.087333865 0.114816494 -0.07073965 -0.09657288 0.04680539 0.11903139
0.36111465 0.05058908 -0.08756306 0.045009483 -0.08612916 -0.14027116 -0.09239501 0.042197455
-0.017766738 0.04371874 0.05310392 -0.13960952 0.032653615 0.1846421 0.14925548 0.11262249
-0.06888739 0.1557469 0.32958764 0.09099731 0.27890253 -0.001552869 0.06512527 0.018277947
0.040236566 -0.07257235 -0.24376036 0.18195216 -0.043359287 -0.04209354 0.25831535 -0.1883717
0.07334037 -0.12632942 0.076856054 -0.043171313 0.19875933 -0.08513776 0.30039808 0.2694245
0.053082775 0.8080377 -0.10894505 0.12292731 -0.059351366 0.15548468 0.24865523 0.5157785
-0.06485386 0.14905009 0.21679838 0.009844229 -0.117337465 0.20265505 0.2549803 0.15782712
-0.11687586 0.08521428 0.23963067 -0.010468772 0.145226 -0.03296975 0.06528418 0.1718817
0.17234947 -0.08095752 0.23910123 0.071844615 0.038168408 0.436472 -0.015825823 0.026301384
0.29151407 0.2540788 0.07641312 0.10502655 0.29971233 0.05678796 0.07413862 0.15695366
0.07728749 -0.13607624 -0.07085165 0.10552606 -0.18208188 0.13857852 0.3261939 0.0723012
0.014122567 0.16041806 0.0046950635 -0.1134141 0.23595116 0.23110664 0.23989993 -0.038952094
0.19873643 -0.098684944 -0.32240057 0.058648404 0.1524997 1.2276758 -0.38132793 -0.19957933
-0.13936572 -0.31015807 -0.3535693 -0.0143407835 0.18335721 0.1701213 0.20889977 -0.04827359
-0.3545025 0.13395005 0.21832722 0.1771497 -0.2913334 -0.11892369 -0.17614855 0.19287415
0.036848646 0.3828833 0.32797414 -0.11013318 -0.045130428 -0.13793069 0.020435516 0.07728893
0.11802394 0.07097964 0.43819064 -0.12374978 0.084427424 0.2475524 0.23164089 0.110026516
-0.28796083 0.33994862 -0.027625319 -0.07829522 -0.5465545 -0.2594651 0.15526278 -0.06858341
-0.06686764 -1.0843463 -0.32844585 -0.016095724 0.20429291 0.5158912 -0.9804987 -0.023913836
-0.1279912 -0.084905565 -0.2354242 0.11294561 0.13050932 0.060495682 -0.057300393 -0.2942441
0.011044855 0.670253 -0.066555634 0.11000629 0.062184148 -0.057617918 -0.089672774 0.16535999
0.022385212 0.11613726 0.27490163 0.32851797 -0.23217706 0.13214524 -0.18908548 0.06821604
0.21171841 0.12752533 0.33998376 0.41261765 0.111925416 0.033263206 0.16366674 -0.09650329
-0.054726467 -0.2108363 0.19192718 0.1308906 -0.23679557 0.08017828 0.05606643 0.17336398
0.15064788 0.21081394 0.04835672 0.24492177 0.060756836 0.19557466 0.17739356 0.29232478
0.03195492 0.06584368 -0.105958514 0.09626035 -0.11890848 0.141414 -0.005210381 -0.06334282
-0.20332332 -0.18151686 0.25014144 0.13283142 0.22864264 -0.10768016 -0.14113596 0.1538586
0.051155612 0.29025787 0.12710992 0.2157274 0.19131011 0.17827149 0.20613322 0.28155294

lstm.weight_hh_l0 f4 [256, 64]
00000000: 7aad 8fbd ffcd 493d 2d17 a4be 4bcc 623e
00000010: e02b 58bd d347 5f3d bf2a aebd 318a 82be
00000020: 0a91 cebd d1f4 75be bdae 0bbe 532d 703d
00000030: 6be5 943e 157b dcbd 48e8 6d3e b297 ed3e
00000040: cc9e a33b 0758 713e 4006 a43d 237a 21bd
00000050: c883 d53d ab8d 863e 035d d6bc 1aa4 863e
00000060: c22d c9be c47b 323e afcc 533e b8a2 c0bd
00000070: 0c4f c6be a68f dcbe 7a17 eebc cb75 183e
00000080: 4fe4 093e 75f1 113d 7cfe 973e 29ae 6ebe
00000090: 853d bb3e 8121 7c3e f5af 613e eb3e c0be
000000a0: 6059 5bbe 8d3e c13d a7cc d8be 587d c2be
000000b0: a463 8dbe 0e08 1ebd 5fb1 ddbd 8c3a a8be
000000c0: 29fd 8ebe 4403 87bc 7482 9fbd bc25 bd3d
000000d0: 2ca6 33be 7087 bb3e 580d 72be 8ca0 94be
000000e0: 5141 f9bc 9ef5 abbe 96d6 b13d da35 01bd
000000f0: b165 ff3c b5f2 553e a22e c73e e87d aebd
00000100: e700 043e b8b7 b43e 3fa2 94bd 7c55 083e
00000110: d2ac e6bd 3e55 a13d c911 28bd 5252 873d
00000120: 50e8 3abe 8bd5 31be f1bf 83be 8ebb 23bc
00000130: bd47 6f3e fa1c 923d ac6c 543e dd57 b73b
00000140: 8010 38be 811e 95bc f994 523e 2fd3 13be
00000150: bc73 b93c 90ed 013d 2078 9dbd e2e8 3c3d
00000160: 097d 82be 6145 f43d 2721 22bd 7f78 d0bd
00000170: c289 5fbe e789 5fbe 90c1 773e aa12 9a3d
00000180: 51a3 9e3c e945 6b3d fec1 963d d65e 2bbe
00000190: 0a66 bd3d 2b6e fe3c 35d0 463d 26cf aebd
000001a0: f517 543c b40d a43d 96a3 57bd f559 17be
000001b0: ec25 51be bc54 263d 9640 c03b ec47 69bd
000001c0: f494 84be a193 00be 3469 3abc 09be c6bb
000001d0: cd4f 7fbe b21d 893d 55d0 39be de22 4ebd
000001e0: 5593 4dbe 0d5c 0ebe e3eb b7bd fe9d 1a3d
000001f0: ba9e de3d 9ba9 443c e77e 6e3d b982 e0bd
00000200: 9694 0ebd f399 c03e f9f0 3dbd f878 5d3e
00000210: 419f 74be 2e69 093d bee4 bbba f406 a6bc
00000220: 570e 223c 3134 a3bd 3d53 29be 1d80 cdbd
00000230: 3bfd ed3e 7f02 2bbe 7a05 d23d fb4c 843d
00000240: 1299 33bd 6c2a 04bd f7e0 583e dd93 693d
00000250: 6273 0e3c 07d4 693e 9934 e53d 6e91 8cbd
00000260: cfa5 b1be 291e 333e b56c 913d f29d 04be
00000270: 20a8 a7be bf75 a0be 584b 7f3e e76c 203e
00000280: 9038 edbd 327a 1f3e 3499 993c 281e 49be
00000290: 063c 7c3e 4c3c ab3b f713 16bc e1a0 05be
000002a0: d1b0 823d d24a b7bd eb25 83be 4a21 a1be
000002b0: 0863 8fbe cba7 4d3e af34 b1bd 7917 b5bb
000002c0: 4f46 88be ea88 d0be 48b1 703c d344 7dbd
000002d0: ef38 b4bd d802 333e 6ee0 5bbe ee2c 47be
000002e0: e0be 98be 9347 34be c4fb 6d3e f9b9 cdbc
000002f0: bd73 243e b729 c73d bf81 953c 551a 1d3e
00000300: feab 313c 2a70 e53c d014 2a3d cdeb a03d
00000310: 5e44 ba3d f418 2b3e 502c 1abe cbdd 86bc
00000320: 4dac 273d fbf0 fdba 0510 1bbd 1a06 13be
00000330: a4ef 9f3c 7963 8abc b32d b33d 591f e7bd
00000340: d9f6 633d 8211 ccbd 07ce 0e3c 820a fdbc
00000350: 1197 d5bc 3020 80bd e044 733d 1983 7b3d
00000360: 4516 acbd 22df 4c3d 271f 2b3d 748a f2bc
00000370: 625e 00be e995 97bd c698 0c3d 19b6 473d
00000380: 96c5 223e 065a 12bd f20d 9f3d 6d96 23be
00000390: e13d 1c3e e3dc d7bc 9e53 d43d 475f ecbc
000003a0: b98f 1abe 4e80 003e 4242 37be 4e0b cdbd
000003b0: 674e 803d 732c 923d f449 89bc e4ad cebd
000003c0: 63eb 133d 009c 163d 7345 35bd 00b9 febd
000003d0: 354c a8bd 82de 96bd 9ddd efbc e652 153c
000003e0: 8c88 6bbd 73ce 55bd 11fc 1a3e 45bf 4a3d
000003f0: b990 22bd 1431 9a3d 5842 df3c c633 073e
-0.0701551 0.04926872 -0.32048932 0.22148244 -0.052776217 0.054511856 -0.08504247 -0.25496057
-0.10086258 -0.24019171 -0.13640876 0.058636975 0.29081282 -0.107656635 0.2323314 0.46404797
0.0049932953 0.23568736 0.080090046 -0.03942312 0.10425526 0.2627996 -0.026167398 0.26297075
-0.39292723 0.17430025 0.2068355 -0.09406036 -0.38732183 -0.43078345 -0.029063929 0.14888684
0.13465999 0.035630662 0.29686344 -0.23308624 0.36570373 0.24622156 0.22039779 -0.37548003
-0.21420813 0.09435759 -0.42343637 -0.37986255 -0.27615082 -0.0385819 -0.108248465 -0.32857168
-0.2792752 -0.01648105 -0.07788554 0.09235713 -0.17543858 0.36626768 -0.23637903 -0.29028738
-0.030426653 -0.3358583 0.08683507 -0.031545497 0.03117642 0.20893367 0.38902766 -0.085201085
0.12890969 0.35296416 -0.072575085 0.1331386 -0.112634316 0.07877587 -0.041032586 0.06607498
-0.18252683 -0.17366616 -0.25732377 -0.009993447 0.2336721 0.07134433 0.2074458 0.005595191
-0.17975044 -0.018203022 0.20564641 -0.14436029 0.022638194 0.031720698 -0.07688928 0.04612053
-0.2548602 0.119272955 -0.039582398 -0.10179233 -0.21829894 -0.2182995 0.24194932 0.07523091
0.019364985 0.05743972 0.0736122 -0.16735396 0.09247978 0.031058392 0.048538405 -0.08535604
0.012945165 0.08010426 -0.052646242 -0.1478041 -0.20424622 0.040608153 0.0058670742 -0.056953356
-0.25894892 -0.12556316 -0.011377621 -0.0060651344 -0.24932785 0.06695117 -0.18145879 -0.05032622
-0.20075734 -0.13902302 -0.08980539 0.03774833 0.108701184 0.012003328 0.058226492 -0.10962433
-0.03480967 0.37617454 -0.046372388 0.21628177 -0.23888876 0.033547573 -0.0014335138 -0.020266987
0.009891114 -0.07968939 -0.16535659 -0.10034201 0.46482262 -0.16700171 0.10254951 0.06459995
-0.04384715 -0.03226702 0.21179567 0.05702578 0.008694502 0.22834788 0.11191673 -0.06863676
-0.34696814 0.17491974 0.07100812 -0.12950876 -0.32745457 -0.31339833 0.24931085 0.15666543
-0.11583054 0.15573958 0.01874981 -0.1964041 0.24632272 0.005225694 -0.009160033 -0.13049652
0.06381381 -0.08949818 -0.25614867 -0.3147071 -0.28005242 0.20083539 -0.08652627 -0.00552648
-0.2661614 -0.40729457 0.014690705 -0.061833214 -0.08799922 0.17481554 -0.21472332 -0.19450733
-0.29833126 -0.17605428 0.23240572 -0.025113093 0.16059776 0.09724753 0.018250344 0.15342076
0.010844229 0.028007586 0.041523755 0.078574754 0.09095071 0.16708738 -0.15055966 -0.016463181
0.040935803 -0.0019374186 -0.037857074 -0.14357796 0.01952345 -0.016893135 0.08748951 -0.11285276
0.055655334 -0.09964277 0.008716113 -0.0308888 -0.02607301 -0.06256139 0.059391856 0.06140432
-0.08402685 0.050017484 0.041777756 -0.029607035 -0.12536004 -0.0740164 0.034325384 0.048757646
0.15895686 -0.035730384 0.07766332 -0.15975352 0.1525798 -0.026350444 0.10367511 -0.028854026
-0.15093888 0.12548944 -0.17896369 -0.10011922 0.06264954 0.07137384 -0.016758896 -0.10091761
0.036113154 0.036769867 -0.044255685 -0.1243763 -0.0821766 -0.07366659 -0.029280478 0.009114003
-0.057503268 -0.05219884 0.15135218 0.049498815 -0.0396888 0.07528892 0.027253315 0.13203344

lstm.bias_ih_l0 f4 [256]
00000000: c5ff 033d 590a ca3d bd67 0a3d 0536 a5bb
00000010: 1062 883c e9ef 5a3e a2e9 e33e 85e8 333e
00000020: cc17 363e e86a 473d b8b6 0a3e 01e6 1f3d
00000030: 2d03 a4bd 86cf 383e cd59 163e 0b30 c1be
00000040: eb71 403e 0769 7f3c b076 a03d 9ae7 483e
00000050: 9a57 143d b5ee e5bc bbda 5f3e 2615 de3d
00000060: debe 3d3d 3b21 843e ab41 583a 0c12 3a3d
00000070: d02e eabc 736d 793d ca2d ddbd cb38 01be
00000080: ced3 5e3e d6b0 903d 7dd7 123e 60b8 bcbd
00000090: 8d13 c03c 83c6 1c3e 6cc2 213e 0de8 b03d
000000a0: 5745 303e 60c2 1a3e 3349 2d3e 4e6d fa3c
000000b0: 05bf 303e 9c1d 993e 7185 6b3d a090 1abe
000000c0: 800c 023d 6348 653e 8659 e83e 9cab 57be
000000d0: 242a 18be f157 203d 222e 803e 020a 1b3d
000000e0: f276 3dbd 5ed4 8b3d 0cf9 e93d de4c 863e
000000f0: cb58 033e 96cd 4f3e 46d8 6abd c98f 313d
00000100: 5179 1abe 20b1 233e c84e a8bd 13ac ce3d
00000110: b1f2 35bd fe02 63be 59cd f13d 694d 0ebe
00000120: 3248 023e dae9 fabc 91f9 263e cdee 1c3e
00000130: 3ca5 fd3d 37c6 f43c cc88 2bbe ebaa 9d3b
00000140: 6190 f3bc 9cbc 6d3d 8fad 2dbe be7a c23c
00000150: 3686 84bd 8cf5 6a3c ba30 10bd 810a f8bd
00000160: a860 3abd e649 843c 71eb 98bd 3db8 d83d
00000170: 1091 37bd e4cd 46bd 406c a4bd 159d 653e
00000180: 8444 f7bd f347 ed3d dedd 223d 90f5 dfbd
00000190: c609 0abe d612 31be 5822 223d 7d15 3fbd
000001a0: 9570 d6bd 2922 f0bd 1f03 603e d603 2bbc
000001b0: 208a d0bd 48f6 90bc 1399 bbbc fc97 f13c
000001c0: 94eb 423e 960b eb3d 41fa 43be 446e da3d
000001d0: cd0b 30be f09e ce3d 80ed 3ebe c6e3 9d3d
000001e0: 4a65 80bd a764 32bd ebc4 c13d 764b 573e
000001f0: a1dd 8e3d 1c72 60bc 2039 98bd e407 f7bd
00000200: d8b0 a4bd cca8 0e3e 265f d23d 944a 59bd
00000210: 9e65 48bd d140 af3d 20b4 a2be 79b7 223e
00000220: 3c7f 79bc 06f9 a43e 9033 41bd f79f f6bc
00000230: 2dda edbd 2687 543d 1a47 1bbe 44e3 9f3d
00000240: 72b5 9ebe 17c4 8ebc 1db5 82be 6bb5 0cbe
00000250: f48d 193d f298 3a3a d329 ec3d 310a 5e3d
00000260: 44c5 f93c f84c dd3e 1f51 243e a581 9d3d
00000270: 72e3 a83c c86e a03d e875 ee3d 18a6 73be
00000280: ad01 0b3d b103 413d 919d b23e ffe4 713e
00000290: 6aca 053d b21e 45bd f4ec 99bd c15b 8bbd
000002a0: 6a8c 443e 7a74 f23d 3f75 a2be 990b 01be
000002b0: bc97 2abd ff38 96bd 65f2 90bc ffaa b0bd
000002c0: 2b38 27be 42e4 873d 1224 e6bc 3349 e53d
000002d0: d8f1 5ebe e6d8 013e 1cea 143d ffc3 0cbd
000002e0: db97 103e 7836 8fbd e922 823d fe10 633e
000002f0: 9e2c b2bc 78ba a83d 7a0f 47bd fd20 54bd
00000300: ebbe 853d dd20 e7bd 63de 233d ce24 263e
00000310: 7e24 763e e176 723e af45 1c3d 2a7a 353e
00000320: 52c6 50bd 79b9 643e 4e9e 823e 038a 49bc
00000330: 2346 ee3d f693 f63d 186a 2c3d 432f bc3d
00000340: 11f9 65bd 33d6 243e 5732 de3d 93c9 253e
00000350: ebf4 83b9 4b0c 4b3e d030 8ebc 78c8 e83a
00000360: 10ea 83bd 7f39 f33d 4a07 1bbd be49 8c3d
00000370: cd16 2e3e 5681 0c3e 11fb 983d f973 eabc
00000380: 4124 803e 40e6 603d 8ce3 143e 7f17 0b3e
00000390: 67cd f4bc a8f0 993d f65b 013e 45c1 1e3d
000003a0: dee8 1f3e 3fde bd3d 6444 923b b42e 68bd
000003b0: 2796 243e ea23 02bd 08bf ad3b d3e2 77bc
000003c0: 23d7 6c3d 820f b63e 9f23 eb3e c1b3 d03c
000003d0: 2a86 393c 176c 053e b837 453e 2e37 a73d
000003e0: 5721 c93d 1959 a7bd aa0a 4a3e c6ae 4d3d
000003f0: 765e 2cbd 72f1 3c3e d73b 1f3e 37f1 ce3e
0.032226343 0.09865255 0.03379034 -0.00504184 0.016648322 0.21380581 0.44514185 0.17569168
0.17782515 0.048685938 0.13546264 0.03903771 -0.08008418 0.18047914 0.14682694 -0.37731966
0.18793456 0.015589005 0.07835138 0.19619599 0.036216356 -0.028067926 0.21860783 0.108438775
0.046324603 0.25806603 0.00082495314 0.045427367 -0.028586775 0.060895395 -0.10799749 -0.12619321
0.21760485 0.07064979 0.14340015 -0.09214854 0.023446823 0.15310101 0.15796822 0.0863801
0.17213951 0.1511321 0.16922455 0.030569699 0.17260368 0.29905403 0.057500307 -0.15094233
0.031750202 0.22390895 0.453808 -0.21061558 -0.14859825 0.039146367 0.25035197 0.03785134
-0.046256013 0.06827615 0.11424455 0.2623052 0.1282684 0.20293269 -0.05733516 0.043350015
-0.15085341 0.15985537 -0.08218151 0.10091414 -0.0444209 -0.2216911 0.11806745 -0.13896717
0.12722853 -0.030629087 0.1630614 0.1532547 0.123850316 0.029879672 -0.16751403 0.004811635
-0.029731931 0.0580412 -0.16960739 0.023740169 -0.06470911 0.0143407695 -0.03520272 -0.121113785
-0.045502335 0.016148519 -0.07466782 0.10582016 -0.044816077 -0.048536196 -0.080284595 0.22423203
-0.12073615 0.11585989 0.03976237 -0.10935509 -0.13480291 -0.17292342 0.039583534 -0.046651352
-0.10470692 -0.117252655 0.2187619 -0.010437926 -0.10182595 -0.017695561 -0.02290014 0.029491417
0.19035178 0.11476819 -0.19138433 0.10665563 -0.17192002 0.10088909 -0.18645287 0.0770946
-0.06269319 -0.04355302 0.09461387 0.2102488 0.06975866 -0.013699081 -0.07432771 -0.12062052
-0.08041543 0.13931578 0.102720544 -0.05304964 -0.048925035 0.085572846 -0.3177805 0.15890302
-0.015228089 0.3222124 -0.047168314 -0.030105574 -0.11613879 0.0518867 -0.15163842 0.07807019
-0.30997807 -0.017427487 -0.25528803 -0.1374108 0.037488893 0.00071181275 0.11531415 0.054208938
0.030489571 0.43222785 0.1604657 0.07690743 0.020616267 0.0783363 0.116435826 -0.23793828
0.033937145 0.04712266 0.3488584 0.23622511 0.03266374 -0.048124976 -0.07515898 -0.0680461
0.19194189 0.118386224 -0.31730077 -0.1260208 -0.04164861 -0.0733509 -0.017693708 -0.08626365
-0.1633002 0.066353336 -0.028093372 0.11195602 -0.21771944 0.12680396 0.036356077 -0.034366604
0.14120428 -0.06992811 0.06354315 0.22174451 -0.02174979 0.08238691 -0.048598744 -0.051789273
0.06530555 -0.11285565 0.040007006 0.16224977 0.24037358 0.23678161 0.038152393 0.17722383
-0.050970383 0.22336377 0.25511402 -0.012300971 0.11634471 0.1203994 0.042093366 0.09188702
-0.05614573 0.16097336 0.10849445 0.16190176 -0.00025168745 0.19828908 -0.01735726 0.001775994
-0.06441128 0.11876201 -0.03784875 0.06850003 0.17000885 0.13721213 0.07469762 -0.028619753
0.2502766 0.054907084 0.14539927 0.13583182 -0.0298831 0.07516605 0.12632737 0.038758535
0.15616176 0.09270906 0.004463719 -0.056685165 0.16072904 -0.03177253 0.0053023137 -0.015129763
0.057822358 0.35558707 0.45925614 0.025476338 0.011323491 0.13029514 0.19259536 0.081648216
0.09820812 -0.08171291 0.1973063 0.050215505 -0.042082272 0.18451479 0.15550171 0.40418407

lstm.bias_hh_l0 f4 [256]
00000000: 4385 393e 28ca 4d3e 0535 433e a028 e53d
00000010: 0af0 80ba 449a 913e eba6 a23e 2054 f03c
00000020: 0673 553e c275 4f3e c171 f4bc ae39 9b3d
00000030: 4a5a 5abd 0ed2 403d 1411 a33d 69f0 1bbf
00000040: 33d3 8c3e 3b85 ab3d 5fc0 503e e00d 123e
00000050: b524 d4bd 34af 0c3e a125 1e3d 2676 173e
00000060: 8b80 393e ceb3 513e 4b88 583c de9b 9a3d
00000070: 47a1 9c3d abcd c43d cd12 fe3c 5a19 383d
00000080: 726b c73e 1ad6 403e 0c8e 373e f8ec 043d
00000090: 6cc9 ccbb 4717 bf3d 65dd 553d 6124 1f3e
000000a0: 2c40 0f3e 4a08 1e3e 8563 0c3e 686f 7c3d
000000b0: c5a5 f73d 5c23 c23d 1482 b83d afc2 44be
000000c0: ce02 083e 0a17 9b3e 548c f23e 2afd d4bc
000000d0: d58a 24bc 5588 bd3d 8715 833e 7444 833c
000000e0: 1896 123d 153b bcbc 0cb2 0f3e 1793 843e
000000f0: 573f 3b3d d210 0a3d 9a2d c53d 8bee 8a3d
00000100: 0342 f8bd 1c23 b5bc 6223 81bc 0c95 39bc
00000110: 64c0 65be f17b 17be 4cde 1dbd 1935 cfbc
00000120: 3926 043e 6a71 ebbd 2572 443d 2c92 583d
00000130: bcb3 cf3d 6b2b a9bd 5636 32be 9705 abbd
00000140: ae81 0c3e c4e3 1e3e 8197 cdbd 363c 6dbd
00000150: ef16 c1bd 95d6 4fbd 6e0b 283d cfda 55bd
00000160: 8a03 913d b1a4 b73d 9cd3 e7bb 9a94 1a3e
00000170: 5c14 fe3d c431 623d f335 0c3e 45af 553e
00000180: ac73 a83d db4e 1c3d 20a3 06ba 8e08 bfbc
00000190: 41ce 543c ef8b bb3b cede f6bd 9c79 82bc
000001a0: dea7 2a3d 7b32 acbd bab9 053e 75a0 7fbd
000001b0: 5bec 7d3d 42d5 9b3d 277d d63c 5e97 93bc
000001c0: 2e61 7abb bc6b 4fbd 4cb0 68bd 423e cabc
000001d0: ee47 bdbd 4b0a 99bd 70a5 9abd c924 923e
000001e0: 4fef e8bb 9d28 ba3d b781 97bd e200 353e
000001f0: e3c1 cdbc ef62 0c3e 8fa8 063b ef72 cbbd
00000200: 7cc2 bcbd 95b8 a13d 7987 353d 4038 a2bd
00000210: aede a63d 55b8 bebc 0404 9cbe 387a c13d
00000220: db30 43be ddf3 793e 4658 95bd 7edb a23c
00000230: 81f1 25be 715d e03d 4367 4b3d 01a3 393d
00000240: f0d3 6ebe 7766 c03d 6159 3fbd 3fe4 91bd
00000250: fff3 e5bc 3a53 e0bc 4b17 f43d db82 1d3d
00000260: bdd2 f13c f9dd b23e 9f95 e93c 570f d3ba
00000270: 3680 e0bd 2335 14be 625d fa3d 29d3 4cbe
00000280: 9781 f83d 11da 0c3d 28d0 923e c93a 373d
00000290: eb90 0e3d 72be efbb f6a2 a23b c9a2 28bc
000002a0: c9b5 953d 768e 2c3d 844f 11be dc51 103d
000002b0: b5fe 0c3e 5a13 263d 2501 dfbd e60b 59bc
000002c0: 8040 00be 96b7 ca3d ccd4 1f3e d678 d83d
000002d0: cb9d 62be 8f49 083e 88bb 103e e1f5 bdbd
000002e0: 7458 df3d 8a28 99bd a1af cd3d f95a 913e
000002f0: 55fb 31bc efda 713e 6449 6b3d bfa5 3f3b
00000300: 0dbf 763c 01b9 2ebd db93 3e3d a727 3a3d
00000310: af60 853e 1a99 903e 02d4 923d 97d0 833e
00000320: 081a 03be 5e98 1a3e e80f 243e 523d 513c
00000330: 6fab 6d3d 2211 49bd 3381 543e fdc2 ae3d
00000340: 0972 cc3d 23b1 7a3e 09be 353e 7d10 ce3d
00000350: 14d1 eb3c 35c7 253d 766e 8e3b 3e41 45bd
00000360: f21f 553d c09b 333e 4180 3a3e 0347 5e3e
00000370: 064d 2d3d 18fd bf3b 9114 d93d 7a03 c03c
00000380: 87e5 e53d 8a50 0f3d 0aca c83d bb19 223e
00000390: 9ce7 a939 56fc e1bd 4b43 d23d 2b51 f2bc
000003a0: 7979 bf3d ba65 b33c 0d8d e03d 1c31 313d
000003b0: 7b73 723e 59d5 603d 19c1 c03c 3895 c53c
000003c0: d21d a63d e3b6 953e 2ac1 c63e aa21 e9bc
000003d0: aaa2 073d 12f5 603e 98c3 783e d876 b93d
000003e0: 8cdc c93b 8210 4d3d a2a3 a33e 4bc5 96bd
000003f0: 71fe fe3c 0706 823d 9bb0 063e 6e89 ff3e
0.18117242 0.20096648 0.19063194 0.11189389 -0.0009837162 0.28438008 0.31767973 0.029336989
0.20844659 0.20259765 -0.029839398 0.07579361 -0.053308763 0.047075324 0.07962242 -0.6091371
0.27504882 0.08375021 0.20385884 0.14263105 -0.10358564 0.1373871 0.038610104 0.14791164
0.18115442 0.20478746 0.0132160885 0.075492606 0.07647949 0.096095406 0.031014824 0.044946052
0.38949162 0.18831673 0.1792528 0.032452554 -0.0062495973 0.09330612 0.05221309 0.15541221
0.13989323 0.1543285 0.13709839 0.061629683 0.12092165 0.094794005 0.090091854 -0.19214891
0.1328232 0.30291015 0.47372687 -0.025999624 -0.010042866 0.09254519 0.25602362 0.016023852
0.03578767 -0.022977391 0.14032763 0.2589347 0.045714702 0.033707447 0.096278384 0.0678378
-0.12121966 -0.022111468 -0.015763942 -0.011327039 -0.22436672 -0.14793374 -0.038542077 -0.025293874
0.12905206 -0.114962414 0.04796042 0.052873775 0.101417035 -0.082602344 -0.1740354 -0.083506756
0.13721344 0.15516573 -0.10038663 -0.05791875 -0.09428202 -0.05074175 0.041026525 -0.052210625
0.07080753 0.08966959 -0.0070747864 0.1509575 0.12406227 0.05522324 0.13692455 0.20867641
0.08225188 0.03816114 -0.0005136002 -0.023319509 0.012988628 0.0057234685 -0.12054215 -0.015927128
0.041663997 -0.08408066 0.1305913 -0.062408883 0.061992984 0.07609035 0.026182724 -0.018016513
-0.0038204896 -0.050639853 -0.056808755 -0.02468789 -0.09242235 -0.07472666 -0.07551086 0.2854369
-0.007108606 0.090897776 -0.07397788 0.17676118 -0.025116866 0.13709615 0.0020547246 -0.09934031
-0.092167825 0.07896534 0.04431865 -0.07920885 0.081479415 -0.023281256 -0.30471814 0.094471395
-0.19061606 0.24409433 -0.072922274 0.019880053 -0.16205408 0.109553225 0.049659025 0.04532147
-0.23323035 0.093945436 -0.046716098 -0.071236126 -0.028070448 -0.027383436 0.11918505 0.03845487
0.029519433 0.34934977 0.028513728 -0.0016102594 -0.10961954 -0.14473395 0.122248426 -0.20002426
0.12134092 0.03438765 0.28674436 0.044733796 0.034806173 -0.007316404 0.004963274 -0.010292717
0.073100634 0.04212805 -0.14190489 0.035234317 0.13769038 0.0405458 -0.1088889 -0.013247466
-0.12524605 0.098982975 0.1560852 0.105699226 -0.22130506 0.1330931 0.14134037 -0.09275413
0.10905543 -0.07478435 0.10043264 0.2838972 -0.010863145 0.23618673 0.057443038 0.002924308
0.0150601985 -0.042656902 0.046527725 0.04544797 0.26050326 0.28241807 0.071693435 0.2574508
-0.12802899 0.15097186 0.16021693 0.012770968 0.05802482 -0.049088605 0.2075241 0.08533285
0.09982688 0.24481635 0.17748274 0.10061739 0.02878622 0.04047318 0.004346664 -0.048157923
0.05203242 0.17539883 0.18212987 0.21706776 0.042309783 0.0058590285 0.10599626 0.023439158
0.112254195 0.034988917 0.09804161 0.15830128 0.00032406754 -0.110344574 0.10266741 -0.02957972
0.09349341 0.021899093 0.10964403 0.043259725 0.23676865 0.054890964 0.023529576 0.024119005
0.081111565 0.29241094 0.38819247 -0.028458435 0.033114113 0.21968487 0.24293363 0.09055871
0.0061603244 0.05006457 0.3196078 -0.073618494 0.031127186 0.06348806 0.13153307 0.49909538

lstm.weight_ih_l1 f4 [256, 64]
00000000: 7b11 9c3d dec5 3a3e 8a0b a4bc a491 3a3c
00000010: c19f 72be 9147 14bd 3937 c83c 6aba 2f3e
00000020: 20da 643d 6060 973c a1d8 bb3c b5fd 4d3e
00000030: b288 4e3d ed88 27be 9b90 b8bc df3d 353e
00000040: 1105 d8bd ba04 d3bd 0aee c33d f926 3dbe
00000050: 204a 9abe 595e a63d 6e02 3b3e be51 f5bb
00000060: 7608 10bd 01bc 11bb a41b b7bc 608f 97bd
00000070: e39e 8bbe 2d62 a93c bff8 ec3d 3d6d 503e
00000080: 22c5 14bd 0a56 eb3d e9e4 803d c00e a13d
00000090: c55d 513e e39e f93b e23d 3f3d de91 c2bd
000000a0: 8e87 7a3d b22d 98bd 93ee 463d 2c03 b0bc
000000b0: 6a3d cdbc 4755 9c3d 43b7 37be e465 af3d
000000c0: ff9c 343d dab1 eb3d 67fd 4d3d 82e5 21be
000000d0: 7c88 783e 0103 203c 2ab8 3e3c 4422 bb3d
000000e0: 3c13 26be 54f8 60bd 16d5 b43d a4f0 13bd
000000f0: 473c 183e 6c9e c73d 815b 413e 83d0 babd
00000100: 1e52 80be 2f38 013e 2e75 11bd fcbe 903d
00000110: 2c21 e7be 8b6e 053e 4d51 77bd e32a 063e
00000120: 21f0 38bd f3d2 9f3e 1d50 42be 5d75 cd3e
00000130: 3629 bcbe 07f1 27bf 9b2b 47be a077 5c3e
00000140: 13a5 643e 381e b2bc f458 c8bd 204b 1fbe
00000150: 67d5 c03e 1df7 f93e 66f9 0e3d d9ed 92be
00000160: 3749 0739 34d7 533e e7ef ddbd 950a f1bc
00000170: 3c51 3ebe 8531 aebc eb82 e03d df22 e0bd
00000180: 3ac3 85be cb04 16be 1f72 d33d a057 103e
00000190: a3c3 213d cbf8 c7be 2beb c1be 5f8e 623e
000001a0: 706b 553f e64d 70bf 4077 573a 326a cc3d
000001b0: e56d 26bd 7d9e c43e 4828 cdbe f2e8 2d3f
000001c0: 771f d3bd 95f8 43be 7e8d 063f 35b3 503d
000001d0: 902d 94be 9119 1cbd 26c5 d53d 8ee3 83bd
000001e0: a042 ca3b ddaa a73d e80d 0ebe 8f2c d8bd
000001f0: 3024 53be d199 5abe 518c 7ebe 763d 163f
00000200: cc3d debd 4569 b93e 18bd b4bd 7c01 873d
00000210: 9f60 39be 5b99 073e 63bc 20be 1d56 2bbe
00000220: cc42 fa3c d108 31be fea8 bbbe 8dca 02be
00000230: 4fb2 b53e 770c 7abd 034b 393e f14e c13e
00000240: e4cd a53d 43af 213e 5fd5 d53d e418 1c3d
00000250: 5f8d da3d 5aab d33d 7d3b 0a3e 831e 1f3d
00000260: aebd 95be 9231 973e f010 db3d b06f 2d3b
00000270: ff5b 97be ebfc a1be 04c3 a7bd fabf e13b
00000280: bc26 803d f1d3 95bc bdcf 1b3d ddb3 823d
00000290: a514 2c3e 4be8 843d 2be9 6a3e a471 2cbf
000002a0: 9bb2 fb3c 6b2e 5bbd 4fd4 b0be 0401 80be
000002b0: 70b4 acbe b3d1 a83c 7d20 0dbe 6b6e 0abe
000002c0: f423 c6be 8248 41be 6554 a4bd 9a2b fe3c
000002d0: 1013 6abe 3919 ba3e 7e2a 89be 3993 49be
000002e0: 6e8f 77bd 113e 4ebe 0216 98bd 3746 a13d
000002f0: c87a 47bd 98c7 c53d e6a1 983e 188a b5bd
00000300: 5a66 823d 885f 673e 7240 d73b e174 843d
00000310: 8065 e23d 2a53 ac3c bd0a e0bd 2122 e9bc
00000320: 32f1 e2bd 1df3 763c 007a 0fbe 2411 eebb
00000330: da5a 203e 9092 0c3e 58ad 7a3d 4afa 9c3d
00000340: c817 d4bd 3605 d13d d5b0 bbbc e5e7 b03c
00000350: 2260 b9bd 00e7 a4bd 5e8e c83d fc47 93ba
00000360: 2082 8dbb 0b21 363e c271 d13c e290 34bc
00000370: 1a51 71bd b8b1 e1bd 7819 2abc 11cb 9d3d
00000380: be5c 653d 1a74 c63d 5c8c 703c a008 cbbc
00000390: 2fba 65bd 98d6 043e 346f 4d3d 7565 983c
000003a0: d654 0fbd 7bbe ef3d 3194 21bd c639 0abe
000003b0: c177 59bd f53e a73c 23c3 dfbd 2651 4cbd
000003c0: 388d 49be f1b6 8abe 6b07 8a3c c6b5 2fbe
000003d0: dd7c 983d d586 7f3e 572f 3bbe ebe2 003d
000003e0: c179 5a3d 4121 75bd 119a b9bd cf3e 083e
000003f0: 48d8 063e 0dec 5c3d 01db eb3d 06e3 afbd
0.07620522 0.18239543 -0.020025034 0.0113872625 -0.23693754 -0.036201064 0.024440395 0.17160955
0.055872083 0.018478572 0.022930445 0.20116313 0.05042333 -0.16360827 -0.02252989 0.17699383
-0.10547841 -0.10303636 0.09566887 -0.18471898 -0.30134678 0.08123464 0.18262646 -0.007486551
-0.03516432 -0.0022237303 -0.022352047 -0.074003935 -0.27269658 0.020676697 0.11570882 0.20354171
-0.036320813 0.1149102 0.06293661 0.078641415 0.20445926 0.0076178177 0.046689875 -0.09500478
0.06116443 -0.07430591 0.048567366 -0.021485887 -0.025053699 0.07633453 -0.17941003 0.08564356
0.044095036 0.11508532 0.05029049 -0.15810207 0.24270815 0.009766341 0.011640588 0.09137395
-0.16218275 -0.054924324 0.088297054 -0.036118165 0.14866744 0.097470134 0.18882562 -0.09121802
-0.2506265 0.12619089 -0.035512142 0.070676774 -0.45142496 0.1303045 -0.06038027 0.13102297
-0.04515088 0.3121563 -0.18975873 0.40128604 -0.3675019 -0.65602154 -0.19450228 0.21530008
0.22328596 -0.021742925 -0.097825915 -0.15556002 0.37662813 0.48821345 0.034905814 -0.28697088
0.00012901878 0.20687562 -0.10836773 -0.029423991 -0.18585676 -0.021263847 0.109624706 -0.10944151
-0.2612551 -0.14650266 0.10324501 0.14095926 0.039493214 -0.39057 -0.3787473 0.22124623
0.8336706 -0.93868864 0.0008219369 0.09981193 -0.040632147 0.38402167 -0.40069795 0.6793357
-0.10308736 -0.19137795 0.5255965 0.050952155 -0.2894101 -0.03811032 0.10437994 -0.06439887
0.006172493 0.081868865 -0.13872492 -0.10555374 -0.20619273 -0.21347739 -0.24858214 0.5868753
-0.108516306 0.36213127 -0.08825129 0.0659208 -0.18103264 0.13242094 -0.15696864 -0.16732068
0.03054943 -0.1728852 -0.36652368 -0.1277258 0.354876 -0.061047044 0.18095021 0.3775554
0.08095911 0.15789513 0.10441088 0.038109675 0.10671496 0.10335417 0.13499255 0.038847458
-0.29246277 0.29530007 0.1069659 0.0026464276 -0.29562375 -0.31638274 -0.08191493 0.0068893405
0.06257388 -0.018289538 0.03803991 0.063819624 0.1680475 0.06489619 0.22940509 -0.673609
0.030724814 -0.053511064 -0.3453698 -0.25000775 -0.33731413 0.020607805 -0.13781925 -0.13518684
-0.38699305 -0.18875316 -0.080239095 0.03102665 -0.22858834 0.36347368 -0.2679023 -0.19685067
-0.06043952 -0.20140864 -0.07426073 0.078747205 -0.048701078 0.0965721 0.2981102 -0.0886423
0.06367178 0.22595036 0.006568962 0.064676054 0.11054516 0.02103575 -0.10939548 -0.028458657
-0.110811606 0.015072611 -0.14011383 -0.007265227 0.15659657 0.13727784 0.06120047 0.07664926
-0.103560984 0.10206072 -0.022911469 0.02159495 -0.09051539 -0.08051872 0.097927794 -0.0011236663
-0.0043184906 0.17786042 0.02556694 -0.011020871 -0.058915235 -0.11020225 -0.010382049 0.077047475
0.05599665 0.09690113 0.014681902 -0.024784386 -0.05608576 0.12972486 0.05015488 0.018603066
-0.034993015 0.11706253 -0.039447967 -0.13498601 -0.05309272 0.020415762 -0.10925891 -0.049882077
-0.19682777 -0.27092698 0.01684924 -0.17159185 0.07445691 0.24953778 -0.18279777 0.031466406
0.05333877 -0.059846167 -0.09062589 0.1330521 0.13168442 0.053936053 0.11516381 -0.08588223

lstm.weight_hh_l1 f4 [256, 64]
00000000: 73ac ab3d e9dd cabe 574f 6c3c e409 34bd
00000010: aada 89be e0c5 90bd 98ce 003e 6dba 663d
00000020: 6eaf de3d 09aa 213d 5f8c 953e d2ad 49be
00000030: 61d7 b03d 01f8 353e 4573 39bd 6370 86bd
00000040: 8ff2 903e a53a 273e b563 b9be e27a 393e
00000050: 610f 023d 0f9d 41bd e211 553e 16fe 403e
00000060: 2908 c63d ed1d f3bd 3c6f a83d 1a1c 503d
00000070: 8622 153e 6f48 333e b17b 53bc 94f4 1dbd
00000080: fdcc aabe ddb5 e7be b654 2bbe ab73 f9bd
00000090: 5320 353e f882 8a3d 4d4a b7bc 6f87 e63d
000000a0: 3042 213e 96e2 cbbc 80ac 7e3d 177d 9cbc
000000b0: 364d 88bd 3396 5a3e 54b2 bbbd a398 ec3d
000000c0: fd09 1d3e ee16 09be f66c f6bd b424 013e
000000d0: 15b7 363e 2a8e 34bc 180c ffba 6d9f 133d
000000e0: 28be 2abd dc22 09be 488a 983d f878 c6be
000000f0: 5332 273d e597 63be 9e46 47be 64f5 09be
00000100: 0d87 163e a2e6 5ebe c877 da3d 1915 26be
00000110: 8c64 12be 3884 14be 48d3 52be a777 fabc
00000120: d286 3e3e 5c50 953e d9c8 b63d b6ea df3d
00000130: cfdb 293d 0866 e43d 48ce 1bbe 570e 143e
00000140: 32c9 0f3e f0cf cdbd 276d d83e b4e9 d1bd
00000150: f7dd 44bc e558 e23d 8370 db3d af75 0d3e
00000160: 374b 143f 575c c9bc a18b 8e3d e63b 86bb
00000170: 798c 9ebe 7c95 e5bd 08bd 30bf 6338 583e
00000180: 9011 03bf b0a1 853e 32a7 5fbc 8584 b3bd
00000190: d284 0d3e 5e3a cabc b8e0 1b3e f42d 653e
000001a0: 609d e53d 602f c5bc a4d2 b13d 4460 6e3d
000001b0: 670c 92be f393 2e3e aa82 f3bd 7047 653d
000001c0: 0525 b63d ed7a 013e 72c7 453e 73d6 27be
000001d0: f531 cf3c 2398 9d3e a45c b23d 2ec8 21bd
000001e0: 5da0 c83d d742 0fbe a329 af3d 9984 60be
000001f0: 3eb7 9d3b 5f5f 0ebe 6ae4 913e eeae 453e
00000200: 84d3 8dbc 4f70 22be b590 2cbb 2721 30be
00000210: 9fd6 a8bc 9ba0 753d 80e1 4fbe de55 df3c
00000220: b6f5 643e 767d 2abe 062d 70bb 6f44 763e
00000230: d855 7f3e da3b b13d 7cf5 ad3c 5a85 923c
00000240: fd99 14be 419f bf3d b64a 023e f5b7 133e
00000250: 1cc0 0c3e 340c 603e 9ef1 bf3d a2cc 433e
00000260: a2a4 56bd 6123 ca3d 5ca3 dabc 00fa 46bc
00000270: 06f4 da3d f23b 18bd 0c22 78bd 9ea2 c8bd
00000280: 6090 a7be 28f8 fc3c 4ba4 3d3d 7ac0 21bd
00000290: 5cb3 d33d 9aac 85bd fb2b d6bd 74ae dc3c
000002a0: 65ee 463b ade0 063e eb2c e63c abcd 77be
000002b0: bff0 95bc 9da9 26be 9b73 babd 8463 6f3e
000002c0: 4215 ff3b b472 7d3d c640 43be 6afb d33d
000002d0: 91b3 173e 09ab 413d 5269 853d 0233 adbe
000002e0: 1b05 973c 1bd7 0bbd 3f96 083e 2797 1c3e
000002f0: 16f1 64bd 4539 f4bd 4d77 483e 5444 84bd
00000300: a495 bc3d dfbe 43be cead 263e 15c0 10be
00000310: dbba d13d e44a aebb 69e7 2b3d 9670 e23c
00000320: 92f0 0c3c 61c5 eebd 19d1 b2bc 21e7 d4bd
00000330: 602a 1a3e 5da0 cbbc aa04 de3c 2dd0 263e
00000340: cabb 1f3e f5fb e43d bdee 95bc a961 243e
00000350: 8f8d ce3d 35e6 033e 851c aa3d 36ca d1bd
00000360: 85af 23bd 6ed3 eb3d 2ed0 9ebd fed3 993d
00000370: 3b3e f43d d284 5ebd 8eca d7bc cef0 593d
00000380: f62d 333d 2696 70bd f261 04be c33f af3c
00000390: 11fa 353e d423 9ebc 6562 2fbe 1e11 f6bb
000003a0: 615b 9e3d 0938 b83d ff77 773d 62d3 b7bc
000003b0: d732 993d 39f2 523c 5504 9ebd 030b 99bd
000003c0: b417 2a3d ac50 f0bd e1c5 8f3b a4cd af3d
000003d0: df40 06bd 4c37 5d3d 3cb9 62bd 5a60 383b
000003e0: 3027 9cbd d1a1 36bd c87f 59bd a133 0ebe
000003f0: 8f19 783d 7a2d eebc 0dff 0cbe 063d fe3d
0.083825015 -0.3962243 0.014423213 -0.043954745 -0.2692464 -0.07068992 0.1257881 0.056330133
0.10873304 0.0394688 0.29208657 -0.19695213 0.0863483 0.17770387 -0.045275945 -0.06564405
0.28310058 0.16330965 -0.36208883 0.18113282 0.031752948 -0.047268923 0.20807603 0.18846926
0.09669525 -0.11870942 0.08224341 0.05080805 0.14563951 0.175081 -0.012907908 -0.038563326
-0.3335952 -0.45255938 -0.16731533 -0.12180265 0.17688112 0.067632616 -0.022374297 0.11256301
0.15747905 -0.024888318 0.062176228 -0.019102616 -0.06655352 0.21346359 -0.09164873 0.11552551
0.15335841 -0.13387653 -0.120325014 0.12611657 0.17843278 -0.011020223 -0.001945856 0.036040712
-0.041685253 -0.13392204 0.0744825 -0.38764167 0.040819477 -0.22225912 -0.19460532 -0.13472515
0.14699955 -0.21767667 0.10667378 -0.16218986 -0.14296168 -0.14503562 -0.2058841 -0.030574633
0.18606117 0.29162872 0.089250274 0.109334394 0.04146939 0.111522734 -0.15215409 0.14458595
0.14041594 -0.100494266 0.42270777 -0.102496535 -0.012015811 0.110521115 0.10714819 0.13814424
0.5792727 -0.024580164 0.06960226 -0.004096496 -0.30966547 -0.112101525 -0.6903844 0.2111526
-0.51198673 0.2609992 -0.013650702 -0.087655105 0.13820198 -0.024686035 0.15222442 0.22380811
0.112116575 -0.024070442 0.08682755 0.058197275 -0.28525087 0.17048626 -0.118901566 0.05597633
0.0889378 0.12644549 0.19314364 -0.163904 0.025292376 0.30780134 0.08709076 -0.039497547
0.09796212 -0.13990341 0.085528634 -0.21925582 0.004813104 -0.13903569 0.2849458 0.19305012
-0.017312773 -0.15863155 -0.002633137 -0.17200147 -0.020610152 0.05996762 -0.20300865 0.027262624
0.22359356 -0.16649422 -0.003664793 0.24049543 0.2493509 0.08653994 0.02123522 0.017885853
-0.14511867 0.09356547 0.12723812 0.14425643 0.13745159 0.21879655 0.09372257 0.1912103
-0.0524031 0.09870029 -0.026689224 -0.012144566 0.10691075 -0.037166543 -0.060579345 -0.09796642
-0.32727337 0.030880049 0.04629926 -0.0394902 0.103369445 -0.06527062 -0.10457607 0.026938654
0.0030354497 0.13171645 0.02809759 -0.2419955 -0.018303273 -0.1627564 -0.09104081 0.23377806
0.0077845166 0.061876968 -0.19067678 0.10350688 0.14814593 0.047282252 0.06514229 -0.33827978
0.018435052 -0.034140687 0.13338564 0.15292035 -0.05589398 -0.11924986 0.1957676 -0.06458345
0.09208229 -0.1911578 0.16277239 -0.14135773 0.10240718 -0.0053189863 0.041968737 0.027641576
0.008602278 -0.11658741 -0.021828221 -0.10395647 0.15055227 -0.02485674 0.027101833 0.1629035
0.1559898 0.111808695 -0.018302316 0.1605288 0.10085594 0.12880786 0.08306221 -0.10243647
-0.03996231 0.115149364 -0.07754551 0.075111374 0.11925932 -0.054325886 -0.026341703 0.053208165
0.043745004 -0.058736943 -0.12927988 0.021392709 0.17771174 -0.019304194 -0.17127378 -0.0075093647
0.07732273 0.08995063 0.06041717 -0.022439662 0.074804 0.012875133 -0.0771567 -0.074728034
0.04152651 -0.11734137 0.0043876027 0.08584145 -0.03277671 0.054007813 -0.055352435 0.0028133602
-0.07624662 -0.044587914 -0.053100377 -0.13886882 0.06057125 -0.02907442 -0.13769169 0.12413983

lstm.bias_ih_l1 f4 [256]
00000000: be34 8b3d bc5b df3c b592 ee3d 5d68 263e
00000010: 4e7d b5bd 3592 f3bc 9c6b 3cbd a069 93bd
00000020: c5b8 193d cb17 1b3e d435 893d e2b9 703d
00000030: 3c1d 083d 0b2d 983b 7b57 4abd 96ad 96bd
00000040: 1bae 5bbc 9c37 38bd f519 303e d429 633d
00000050: a629 0c3c 96a5 173d 24d0 763e cb16 243d
00000060: a383 4e3d b032 a93d f700 063e 91c3 01bc
00000070: 97b6 9e3c c6e1 f63d 7185 eebd 0588 333e
00000080: 9ce7 1fbd 5a5e 6cbc 4d80 9ebd 56a7 95bc
00000090: 8ab6 873d 1c92 0a3e 90ec e63d cbef 0f3e
000000a0: 5084 283e 9293 103e 2425 823e fb04 6cbc
000000b0: 55e0 bc3b 452e f23d d732 d6bd 542b 353d
000000c0: 6ec7 9e3d dfff 003e 4277 473e d060 f13d
000000d0: fcae 043e 627d 2e3e 2ccc 25bd be03 d33d
000000e0: 27a3 d63d 0476 403e 22f7 3bbc 2cc8 8cbd
000000f0: 2513 433d f023 aabd 5055 02bd 8715 ab3d
00000100: 0530 e13d d1cf 0d3d 9dd7 89bd fa4b a13d
00000110: 2845 0b3c 5fbe b53d aea5 c03d f90c 2b3e
00000120: 57ea c33c b237 303d 62d3 653d 89bf 40bd
00000130: 277e 3f3d 97b1 8dbb 573b 093e 7034 273e
00000140: 9bb6 43bb 8a43 123d 6e16 8f3d 761f 08bd
00000150: 9bff fe3d 2b37 d8bc 40fa 723d cdea 553c
00000160: 0124 123e 9ffa 513d d4fe fc3d f608 6d3d
00000170: a648 ad3d 129e a33d 391b 5d3c 2920 003c
00000180: ed1b 73bd ea1e 5dbd 7277 a33d a16c 373d
00000190: 5824 1fbd 0d32 f43c 3b0a bc3d 5e2c 9c3d
000001a0: 8641 1b3e 29c0 4f3d 8507 253d aaa9 973d
000001b0: aa1b 843d 9598 203e 53bf 183d a9b0 e13d
000001c0: 6ea5 5a3d e40c d23d 6280 d03d 0d80 e33d
000001d0: b5f3 e83d 0c05 ac3d a963 05bd 472e 0e3e
000001e0: ff1b c13a fa9b d3bd 8bbd 99bd 875e 4e3b
000001f0: 51c5 033e 5c91 c9bc 9f48 d23c 8c0a 92bc
00000200: 72a1 db3d d417 9cbd 20e2 0fbe e6cc 5fbe
00000210: f8f6 543e c263 39bd c083 afbd 1bca 83bd
00000220: 1da3 243e 1cfa cc3c ceeb 3abd b622 613d
00000230: f87c 993d cbb8 78bd b224 69bc e035 c53b
00000240: 3330 44bd d722 01be 3ae0 aebd ca0d cc3d
00000250: ccbc 20bc f052 683d e635 873d c9b7 cbbd
00000260: 771f 70bd 4711 7c3d 672f 7cbc 2158 34bd
00000270: e70c da3d 30f9 30bb 08f7 003c 3775 313c
00000280: 75e8 a83d 0636 df3d b39b 94bd 6016 2ebe
00000290: 2701 003e b674 c2bc 9b97 a6b9 20d2 ba3d
000002a0: 1339 d13d 52cb 0c3e a5e8 d93b 44b4 dbbd
000002b0: 5e01 613d 4788 063e f586 9abd 4e7d c73d
000002c0: fb2d d63d 7365 423d 0a26 743d 92e5 a93d
000002d0: 8150 a0bd d3dc b93d 498e 933d 5731 71bd
000002e0: 8326 ca3d 18d4 ec3d 29c3 8b3d 023e 08bd
000002f0: 578f 2d3e b1cd 37bd 0f47 05ba 0647 c5bd
00000300: dcba 2f3e 5dfd 173e 8683 343e 7f19 9dbc
00000310: 9702 383e 9383 0c3e d1a2 483e 293d 10be
00000320: 1cf9 a23d fb01 8d3d 3a37 91bd 620b 113d
00000330: 8145 ff3c 17ec 913d 1258 b6bb 159b 4c3d
00000340: 4d8f be3c 64fe 833c 4cc6 3dbd 2919 6d3d
00000350: 5621 da3d d0ea ab3d 9b3f 4d3d d6fd 3e3e
00000360: 0f36 123e 255c 49bc d85d 253c b625 b33c
00000370: af37 cf3d 04ea 703d f006 b23d bead 4c3c
00000380: 1f84 babc a98a 93bd f86d d03d a505 593d
00000390: 2dd1 5dbb 060c a83d c135 96bd 0e79 a93d
000003a0: 4f2b be3d 7e61 c6bc 468c 0c3e 8ef8 6d3c
000003b0: e231 3abd 0686 ecbd 7311 e33d dd9c be3d
000003c0: e32f c7bc 22b3 9cbd fa78 cf3d 1653 3f3c
000003d0: 6b13 d03d 4b4f 613d fd3c a2bc a00f 9c3b
000003e0: e412 d83b d2aa 9abd 97b2 9d3d 0273 323d
000003f0: 87ac cf3d 0a51 05bd 1e90 e43d 1399 2b3e
0.06797169 0.027265422 0.11649076 0.16250749 -0.088617906 -0.029732803 -0.04600106 -0.07197881
0.037529726 0.15145795 0.0669972 0.05877102 0.033231005 0.0046440414 -0.049399834 -0.07357328
-0.013408209 -0.04497491 0.17197402 0.055459812 0.008554852 0.03702315 0.24102837 0.0400608
0.050418507 0.08261621 0.13086306 -0.007920162 0.019374175 0.120547816 -0.11646546 0.17532356
-0.03903924 -0.014426792 -0.07739315 -0.018268269 0.066266134 0.13532299 0.112755895 0.14056318
0.16456723 0.14118794 0.2541896 -0.014405484 0.005764047 0.118252315 -0.10458916 0.044230774
0.07752882 0.12597607 0.19479087 0.11786044 0.12957376 0.17040017 -0.040477917 0.10303448
0.104803376 0.1879502 -0.011472495 -0.06874117 0.04762568 -0.08307636 -0.03181964 0.083537154
0.10995487 0.034622017 -0.06730578 0.078758195 0.008500375 0.08874201 0.09406601 0.16704167
0.023915453 0.043021865 0.056109793 -0.047057662 0.046751168 -0.004324149 0.13401543 0.16328597
-0.002986348 0.03570894 0.069867 -0.03323313 0.124510966 -0.026393494 0.05932069 0.013056469
0.14271547 0.0512644 0.12353292 0.057869874 0.08461122 0.07989134 0.01349526 0.007820168
-0.059352804 -0.05398456 0.07981767 0.04478133 -0.03885302 0.029809022 0.09181639 0.0762565
0.15161714 0.050720368 0.040290374 0.07405408 0.06450589 0.15683205 0.037291836 0.110200234
0.053380422 0.10256365 0.10180737 0.11108408 0.113746084 0.083994 -0.032565746 0.13884841
0.0014733075 -0.103324845 -0.075068556 0.0031489448 0.12868239 -0.024605446 0.025669394 -0.017827295
0.107241526 -0.07621732 -0.14051104 -0.21855506 0.20797336 -0.045261152 -0.08570051 -0.06435033
0.16077848 0.025021605 -0.045635037 0.054964744 0.07494539 -0.060723107 -0.01422994 0.0060183853
-0.04789753 -0.12610947 -0.085388616 0.099635676 -0.009810638 0.05671972 0.06602077 -0.099471636
-0.058623757 0.061539914 -0.015392161 -0.04402936 0.10646992 -0.0027003996 0.007871397 0.010831169
0.08247463 0.10898976 -0.0725626 -0.17000723 0.1250044 -0.023737293 -0.00031774942 0.091221094
0.10215964 0.13749436 0.006650048 -0.10727742 0.054932944 0.13137923 -0.07545272 0.09740697
0.10457989 0.04746003 0.05960659 0.0829574 -0.07827855 0.09075322 0.07204873 -0.058884945
0.09870627 0.11563891 0.06824333 -0.03326226 0.16949211 -0.044873897 -0.0005084136 -0.09632687
0.17161125 0.14842744 0.17628297 -0.019177197 0.17969738 0.13722067 0.1959336 -0.14085831
0.0795767 0.06885143 -0.07090612 0.035411246 0.031161072 0.07125109 -0.005564698 0.049952585
0.02326169 0.016112514 -0.04633169 0.057885323 0.106508896 0.08394396 0.050109487 0.18651518
0.14278434 -0.012290035 0.010093175 0.021868568 0.10118043 0.058816925 0.086927295 0.012492595
-0.022768078 -0.07204182 0.10177225 0.0529839 -0.0033846602 0.08205418 -0.073344715 0.082750425
0.09285604 -0.02421641 0.13725385 0.014524592 -0.04545773 -0.115490004 0.110873125 0.09307263
-0.024314826 -0.07651354 0.10130496 0.011677524 0.10159954 0.05500726 -0.019804472 0.004762605
0.006594049 -0.07552113 0.07700079 0.04356671 0.10140329 -0.032547988 0.11160301 0.16757612

lstm.bias_hh_l1 f4 [256]
00000000: 6740 02bd 6a70 70bd 4fa4 873d 27c5 463e
00000010: c0ec c53d 3f11 b93c e8f2 32bd c824 c7bd
00000020: 212e 0d3e 14b1 0a3e 483a 5c3e 58b6 043e
00000030: 7818 4f3e b4e1 e33d 0514 f9bb 51df 53bd
00000040: 7995 c4bc 46d9 813d 1148 d93d 2917 e23c
00000050: 999f 6bbd 0495 b2bd 0147 563e d416 063e
00000060: c39c 253e 877c 9bbd 67ad ba3d de5d 8c3d
00000070: 1c8a 9c3d 37be 7c3d e922 553d af22 873d
00000080: 64b6 063e c86d e53b 175f 9bbd 43bf 183e
00000090: 1ede 4d3c e303 343e 8b52 20bd e9ee 273d
000000a0: 9c39 883d 297f cabd 9972 9d3c 1cfd b93d
000000b0: 2d94 133d ed1d 20bd 9434 fd3d dc2d c2bd
000000c0: 1acf 353e 428b 203e 212a 903d 087c e7bc
000000d0: aac4 103e ae66 023e 9600 ce3d acf7 3d3e
000000e0: 0015 65bd 12f0 523e 131a 43bc 1c1e 293d
000000f0: dc8d 263c 1441 e43d 8635 f93d ad69 26bd
00000100: 21fb 96bd ff1e 5eb9 3b92 f33b 254b 883d
00000110: 23f1 c33c 9936 8abd e418 863c 5fc0 233e
00000120: ecd7 37bd 4a4f 56bd 0cd8 2c3e cb31 e03d
00000130: 5c33 47bd 8dc4 113e 3571 973d 7a02 88bd
00000140: 0e59 573d b8a0 963c b695 fb3d c9ae f73c
00000150: 2695 923c 2da6 0d3e 8929 74bd 1b5d 823b
00000160: d070 97bd ccdc 143e eb59 253e 72eb 93bc
00000170: c789 12bd d11d b23d 53e0 3ebd 942f dc3d
00000180: 2dfb 513d 70bf 8bbd 1d9a da3d 8f8d 3e3d
00000190: 0f23 083e b4f2 0a3e 5975 f23d 0ca3 343e
000001a0: 00e6 243d f1c6 b63d 8948 153d 06cd 103d
000001b0: e5a3 f43d 2c4d 4cbd 8f67 0d3e fd80 a63d
000001c0: 10ef 6f3d e398 123d 891d 9e3d 83f5 60bd
000001d0: 35b3 403c f03d 023e 36a1 c83d 7ee7 29bc
000001e0: 9f8d a1bd ea71 c43d 6971 e93d da3e f7bd
000001f0: 1515 173d 7227 fa3d 02bf 423c cc8e a83d
00000200: 563a c1bd a174 50be 5d98 893c bc92 1dbd
00000210: 7f18 f33d 4900 9e3d 0a23 e1bd 66d6 d03d
00000220: 6267 5d3e 5397 b73c 00e9 b73d 83a7 d2bd
00000230: 04a8 46bd e681 083d e9b9 73bd c232 9f3d
00000240: 49f8 a33c d27f 303d cca9 b0bd 62c3 dbbd
00000250: cdde 2abd abe8 233d 87dc b43d 7504 babd
00000260: bf0d 63bd 6592 ae3d e0f9 15be 329d 983d
00000270: 1fc9 233d c066 883c 8e22 bf3c 77dd 623d
00000280: 1578 fdbd b40e 8ebd 6408 5fbc b0fb 6c3d
00000290: 3897 093e 42b2 683d 2ba7 c2bd 21db c13d
000002a0: 939b 113e 65fc a53c 3a67 523e b254 82bd
000002b0: 352e 29bd 48d9 543d dd39 b93d bb75 b03d
000002c0: 2ca8 203c 2a7d 1fbe 8b23 843d 7bbb f93d
000002d0: 6dbd e23d 8fbf 033e a85d a53d 04ca c2bd
000002e0: 73cb cb3d beb2 02bd 4fbe d23b c797 f8bd
000002f0: 1c4a 8abd 18de c63d 2a3c d3bd ec23 8abd
00000300: a6ba 073e af48 763c bad5 953c 7635 873d
00000310: a932 ad3c 6c9f 5abd 344b cbbb 66b0 b9bd
00000320: a140 4d3d 0e7f ccbc 864b 0c3d fad1 1d3d
00000330: 7a4d 24be 46fa 373c 4ebf 96bd 1541 3f3d
00000340: 9651 1a3e 7f8d d4bc e048 dd3d 8cf2 f83d
00000350: 074b e13d bcf3 c03d 3788 3cbd 9fd0 f3bc
00000360: 2ca5 653e c81e f7bd 9086 a0bd 5997 1ebc
00000370: bc0a 333b 56d2 00bc ee8e 3d3e 7181 143e
00000380: 815f 723b 727e e1bd 370f d3bd 2c19 f2bc
00000390: 9b83 d8bc b266 373e 4e68 0e3e 2c89 ea3d
000003a0: 3c4d e7bc deb7 dd3d 4e66 953c 7f63 903d
000003b0: 0106 87bd 20e2 ffbd 707a 4b3c 72dc 1c39
000003c0: 18a3 083e 5125 b43c dd0e 3a3e 1f08 c4bd
000003d0: 15a0 babd fcca a23d 59a2 e9bd 3692 f43b
000003e0: 854d 62bd 54f5 2bbd 491b d3bd 15c5 4cbb
000003f0: a872 783d 8cb8 9b3d f827 1f3e 9425 f63d
-0.0317997 -0.058700956 0.06623136 0.19411145 0.09664297 0.022591231 -0.043688685 -0.09723812
0.13787128 0.13544112 0.21506608 0.12960184 0.20224178 0.11127034 -0.0076012635 -0.051726643
-0.023997055 0.0634027 0.10609449 0.027598934 -0.05752525 -0.08719829 0.20925523 0.13094646
0.16173081 -0.07592111 0.09115105 0.06853841 0.0764353 0.06170484 0.052035246 0.06598412
0.13155514 0.0070016123 -0.07586496 0.1491671 0.012565164 0.17579608 -0.03914122 0.040999327
0.06651613 -0.09887535 0.019219683 0.0908148 0.036029983 -0.03909104 0.12363544 -0.09481403
0.17754784 0.15678123 0.070392855 -0.028257385 0.14137521 0.12734482 0.100587055 0.1855151
-0.05592823 0.20599392 -0.011908072 0.04128848 0.010165658 0.11145225 0.12168412 -0.040628124
-0.07372118 -0.00021183117 0.0074332035 0.06654958 0.023918694 -0.06748695 0.01636929 0.15991352
-0.044883654 -0.05232171 0.1687929 0.10946997 -0.048632964 0.14235134 0.073946394 -0.06641097
0.052575164 0.018387184 0.122844145 0.030234711 0.017893385 0.13832922 -0.059609924 0.003978384
-0.07394564 0.14537352 0.16147582 -0.018056605 -0.035775926 0.08697093 -0.04660065 0.10751262
0.05126493 -0.06823623 0.10673926 0.04652172 0.13294624 0.13569146 0.118387885 0.17640322
0.040258408 0.08924664 0.036446128 0.035351776 0.11945323 -0.049878284 0.13809036 0.08130071
0.058577597 0.035790335 0.07720477 -0.05492164 0.011761476 0.1271894 0.097963735 -0.010370133
-0.0788834 0.0959204 0.113985844 -0.12072535 0.03688534 0.12214555 0.01188636 0.08230361
-0.09434955 -0.2035699 0.016796285 -0.038470015 0.11869907 0.07714898 -0.10993011 0.10197143
0.21621469 0.022411024 0.08979988 -0.102858566 -0.048500076 0.033327006 -0.05950347 0.07773353
0.020015853 0.04309065 -0.08626136 -0.10730626 -0.041716386 0.04001681 0.08831125 -0.09082881
-0.05543303 0.08524016 -0.14646101 0.074518576 0.039986726 0.016650558 0.023331907 0.055386987
-0.123764195 -0.06936398 -0.01361284 0.057857215 0.13436592 0.056810625 -0.09504541 0.09465624
0.14219503 0.020261953 0.2054719 -0.063638106 -0.041303832 0.051965028 0.0904424 0.08616205
0.00980572 -0.1557509 0.06452092 0.12193962 0.11071286 0.12866043 0.08074504 -0.09511188
0.09950914 -0.031908743 0.006431378 -0.12138324 -0.067524165 0.0971033 -0.1031421 -0.06745133
0.13254794 0.015031978 0.01829039 0.06601994 0.02114232 -0.053374693 -0.0062040333 -0.090668485
0.050110463 -0.024962928 0.034251712 0.038530327 -0.1604518 0.011229103 -0.07360707 0.046692926
0.15070185 -0.025946377 0.108049154 0.12155637 0.110006385 0.09421489 -0.046028342 -0.029762564
0.2242629 -0.12066418 -0.07838166 -0.009679639 0.002731963 -0.007862648 0.18511555 0.14502503
0.0036983194 -0.11010446 -0.103056364 -0.029553019 -0.026429942 0.17910269 0.13906977 0.11451945
-0.02823507 0.108260855 0.01823726 0.070502274 -0.06592942 -0.12494302 0.012419328 0.00014959442
0.13343465 0.02199045 0.18169732 -0.095718615 -0.091125645 0.079488724 -0.114079185 0.0074637188
-0.05524971 -0.04198201 -0.103079386 -0.00312454 0.06065622 0.07603559 0.1554259 0.12018886
