model/add_padding_batch_size=2048_epoch=300_window_size=10.pt (torch_old, 211458 bytes, 10 tensors)

lstm.weight_ih_l0 f4 [256, 1]
00000000: c218 123e fa01 d23e f292 1c3e 8515 c03e
00000010: 8e99 3c3f d038 a33e c882 cb3d 76f7 d73e
00000020: e6c6 f63e 9119 5c3f edeb 8d3e 75cf 4d3f
00000030: 24d8 a03e 5f68 383f 9b74 ce3f 9856 323e
00000040: c4dd b03f 3ea4 c33e 4ea5 803e 319d 1abe
00000050: 95da e93e 0d72 cf3e 65c6 fa3e c36a a6be
00000060: 8b45 8c3d b7e2 da3e 820f e13f c711 c83e
00000070: 31f5 d83e f1df 533e 2331 8e3e 2d42 733f
00000080: 671e 923d b5bf b93e 4698 3fbe 7dc5 8b3f
00000090: 5967 7f3e 7ab1 0d3f 1c62 ebbd e9a8 833e
000000a0: 8ef8 213f aca9 143f 5d1b db3e 8678 213e
000000b0: 108f d73e 327f d23f 3936 273e fbdf 1a3f
000000c0: 2388 ef3e 792f a53d 4b8e c73e 8dca e33e
000000d0: 5d93 a73d 406a 8f3e e758 3f3e 35a8 513f
000000e0: 1efc 4e3f 1261 a23e a977 18be 3450 1a3f
000000f0: f990 0cbe 9206 d13f 9ceb 713e c757 423e
00000100: 3aa8 343e 92c4 18be 73aa b9bd 221c 93bd
00000110: 58f9 95bd caa0 babc f654 0a3e 35c6 a0be
00000120: 738d 86be f8f5 05be 0f7c a23e 33e8 08bf
00000130: 69a2 8c3e 5a46 053e 28c5 b93d c30d 043e
00000140: a367 7abe 9938 353f f3be 5cbd d0c3 ddbb
00000150: 6eb1 4a3e a8b4 dbbd b4af febc c064 703e
00000160: e5bb 91bd a4da b43e f3ea 953d f27a 163f
00000170: 71e5 f8bc 7402 c2bd c740 44be 4c1d 2dbd
00000180: e151 243d 966a 68bd db75 743d f833 da3d
00000190: c5e7 0fbd fec2 a53e e33b 89be 0102 743e
000001a0: baaf 873e 920f 82be a6ea 4b3e 7d82 9a3e
000001b0: 2e56 1abe 4a9d 82bd 37c9 0d3e ea4c a93e
000001c0: 2bfe 233d f45a 9c3d 2d99 f6bd f4bf d1bd
000001d0: d036 183e 3eb8 1abd f3af 35be 3b0a 75be
000001e0: 8e07 75bd 8f75 ae3e 2ac7 7ebd e337 61be
000001f0: 4418 0dbe eb9c 25be 759c 71be 3d52 32be
00000200: 5cc2 85bd 27f8 e63e 6127 183e 08ec a8be
00000210: 12d5 983e 687e 9cbd 1d36 21be ab36 6bbe
00000220: 29bb 483e e7c0 cebd 6d6d 05be e972 5abe
00000230: f234 1fbf 3820 56be eecb fabe 1a68 90bd
00000240: 86d9 b0be 7805 83bf f6e2 62be 082d ba3e
00000250: 0e53 863e fece 5ebe d502 103e df01 e6be
00000260: 0d7f 24bd 4810 ab3d 1113 efbe cb22 c4be
00000270: 31eb c63d bb92 ed3d 3e52 14be 4d01 2fbe
00000280: f990 33bd 4154 263f 7d25 a4be f3a7 cf3e
00000290: 2f48 8e3d 75a6 053f 8aff f03e c5fc 4dbe
000002a0: 323d 353f b818 52be 7834 0bbf 7418 013f
000002b0: 64de 49bf 98de ba3e 3914 893d 00ab c3be
000002c0: bd9e 2cbf db0f d4be 9ba6 f1be 5cdb c7bd
000002d0: ee4a 0cbf 51fa e8be 2859 893e 1810 ad3e
000002e0: ca1d f7bd dd77 cfbe ec1c c23e 9bb5 7f3f
000002f0: 9656 c0be fd95 f93e d898 093e 02e7 1ebf
00000300: 743a 443e cff2 14be e07c 1e3e 24ff 8f3e
00000310: 9f2e 623f d27f 823e a2a7 163e 9c5b 083f
00000320: b385 393f 538a c53e 8387 a73e dae4 203f
00000330: 4fb9 ffbd 96ce 4c3f f6b5 673f b6b0 b03e
00000340: 9a8b 3c3f 6d81 1fbe ce2e 9b3e 3c36 313f
00000350: cb4c b73e a0be 0a3f 173c 803e 26c0 703c
00000360: e2bd 573d 1401 143e a483 283f 0d85 c3bd
00000370: 8def 573e ca2c 9a3e df80 9c3e 00e3 6b3f
00000380: ed19 993c 40fc 10be 2913 483e c57f 8e3f
00000390: c983 c23e 3976 13be b64b d83e c800 6e3e
000003a0: 41f1 28be 3995 2c3f ef63 0cbe 3802 823e
000003b0: da13 733d 2707 d13f 1f66 453e 058f 0cbe
000003c0: 0fbd 04be fb47 fd3d b026 be3e d353 a03e
000003d0: 813b 0e3e 323f a93e 7f69 7f3e 5f71 07be
000003e0: ccad e33e 3f94 943e e0ee 2e3f 3130 22be
000003f0: 2eca b53e e597 bc3f 7374 c63e e5d4 873e
0.14267257 0.41017133 0.1529043 0.37516418 0.73671806 0.31879282 0.09937054 0.42180985
0.48198622 0.8597651 0.2771906 0.8039468 0.31414902 0.7203426 1.6129335 0.17415845
1.3817677 0.38211244 0.25126117 -0.15099026 0.45674577 0.405167 0.48979488 -0.32503328
0.06849202 0.42751095 1.7582858 0.39076063 0.42374566 0.20690896 0.27771863 0.9502285
0.07134705 0.36279073 -0.18710431 1.0919644 0.24941768 0.5534893 -0.11493322 0.25714806
0.6326989 0.580714 0.42794314 0.15768632 0.42101336 1.6445067 0.16329278 0.6049802
0.46783552 0.08065695 0.38975748 0.4449047 0.08182404 0.2801075 0.18686257 0.8189729
0.8085345 0.31714684 -0.14889397 0.6027863 -0.13727178 1.633013 0.23625034 0.18978797
0.17642298 -0.14918736 -0.09065714 -0.071831 -0.07322949 -0.022781748 0.13508973 -0.3140122
-0.26279792 -0.13082111 0.31735274 -0.5347931 0.2746766 0.13015118 0.09070808 0.12895875
-0.24453597 0.70789486 -0.05389304 -0.0067677274 0.19794247 -0.10727817 -0.031089641 0.23475933
-0.07115916 0.3532306 0.07320204 0.5878135 -0.030382844 -0.09473124 -0.19165336 -0.042264268
0.04011715 -0.056742273 0.05968271 0.106544435 -0.035133142 0.3237533 -0.26803502 0.2382889
0.26501256 -0.25402504 0.1991373 0.3017768 -0.15071937 -0.06377657 0.13846289 0.33066493
0.040037315 0.076345354 -0.12040935 -0.1024169 0.1486466 -0.037773363 -0.177429 -0.23929684
-0.059821658 0.34074065 -0.062201656 -0.21993975 -0.13778788 -0.1617314 -0.2359484 -0.17414184
-0.06531212 0.451112 0.14858772 -0.32992578 0.2985006 -0.076412976 -0.15743299 -0.22970073
0.19602646 -0.10095387 -0.13030024 -0.21332897 -0.62190163 -0.20910728 -0.4898371 -0.07051106
-0.34540957 -1.0236044 -0.22156891 0.3636248 0.2623524 -0.21758649 0.1406358 -0.44923303
-0.040160228 0.08352715 -0.46694234 -0.38307795 0.09712828 0.11600252 -0.14484498 -0.1709034
-0.04383943 0.6497231 -0.3205985 0.40557823 0.06947362 0.5220712 0.4706996 -0.20115955
0.707965 -0.20517242 -0.54376936 0.5042794 -0.78854966 0.3649795 0.0669331 -0.382164
-0.67429715 -0.41418347 -0.47197422 -0.09758636 -0.54801834 -0.45503476 0.26825833 0.3380134
-0.12066229 -0.40521136 0.3791269 0.9988648 -0.3756606 0.48747244 0.13437212 -0.6207124
0.19162923 -0.14545749 0.15477324 0.28124344 0.8835239 0.25488144 0.14712384 0.53264785
0.72469634 0.38582096 0.32720575 0.628492 -0.12486517 0.80002725 0.90512025 0.3450982
0.73650515 -0.15576716 0.30309147 0.6922338 0.35800776 0.5419712 0.25045845 0.014694249
0.05267132 0.14453536 0.6582587 -0.09546862 0.21087475 0.30112296 0.3056707 0.9214325
0.01868912 -0.14158726 0.19538559 1.1132742 0.3799117 -0.14400567 0.42245263 0.23242486
-0.16498281 0.67415196 -0.13709997 0.25392318 0.059345104 1.6330308 0.19277237 -0.13726433
-0.12962745 0.12367245 0.3713889 0.31313953 0.13889886 0.33056027 0.24942587 -0.13226841
0.44468534 0.29019353 0.68333244 -0.15838696 0.35505813 1.4733855 0.3876072 0.26529613

lstm.weight_hh_l0 f4 [256, 64]
00000000: 903c 293d 93cf 28be a13e 9d3e 3e00 c73d
00000010: 4705 bdbd 0764 3dbf 7143 dabe 8881 0dbe
00000020: 5e7e e13d 8f98 20be 5494 7ebe 2b74 69be
00000030: bab7 d53d 06ab 073c e2ff 43bb 5784 92bf
00000040: c3b7 373e 8800 a13d 63df 81be 9636 3b3e
00000050: 80e5 91ba 132e e73d 8054 d83e 2fe0 9d3e
00000060: a5e1 043e 98a1 d33c 5a1a debc ca13 f73d
00000070: 50c6 1f3e 89a6 acbc 2301 98bd 6321 ba3d
00000080: be58 ab3d c4b3 073e bd49 86be b5d9 c2bd
00000090: edc8 2e3f 363d 90bd 977b d9bd 2c35 4a3d
000000a0: 8b9d ffbd 8e9b 6bbf 95e9 ffbd 023d 133e
000000b0: 9cf9 003d bea4 9ebe b37f 443f 2b4f f5bd
000000c0: bbcb 03be 9d03 16bd 522d 053e aa73 52bd
000000d0: 8632 d0bd bc6f 04bd 3548 5b3d cc6e a83d
000000e0: ccc6 25bd 9334 713e 486a 8dbe 1b2f 3bbd
000000f0: 2522 3a3d 7ea6 74bd 1a67 dd3d 4083 a73c
00000100: f4f8 f7bd 2f6c 803e a031 43be 1267 35bd
00000110: 330f f83e 1ed0 0dbf 2e15 0e3e 4232 a1be
00000120: e185 edbd 84e8 643e 042c b93d 584c b53d
00000130: 53fb f2bd 46de 03bf cbe5 8dbe 2ea5 36be
00000140: f65b 28bf 7e7e 6fbf db81 003e 9baf ea3e
00000150: 8279 0e3e 7512 163f 54ba 463f 570b 8bbd
00000160: a3a1 8bbe 48f0 253e 5b04 50be b918 25bd
00000170: 9a9f 9c3c a154 b53e bdda 243e 3348 a8be
00000180: 1463 983d 3d88 2c3f 75f6 3dbd afc0 2f3e
00000190: c8ac 983e a59e 463f edf5 a2bc fc01 2cbf
000001a0: 6779 e53e 8aad 963d 353e d0be cb25 203f
000001b0: 2e7d 273e de55 8e3e 18f5 5c3e 76f6 43bf
000001c0: 348a 0ebf ce7e fa3b cbf7 10bf 2dca 48be
000001d0: 65c2 81bd d79f 9cbe 362a f63d 73f2 cdbb
000001e0: 2111 e5bc 7da0 c8be 17a9 c33c b05d 813e
000001f0: 2c27 a1be 1652 bf3e dd53 053e d2b0 893d
00000200: 1b23 2d3e 52a5 d23d 7ad3 3fbd d392 1f3e
00000210: d73e eebc 5728 01bf ea60 bebd 5e12 e9be
00000220: 5558 023e 4009 d4be 3ee3 91be ad4e bfbe
00000230: f9a0 b13d 90b5 4fbe eb06 3e3c 4920 56bf
00000240: 4b8b 8ebd a9a2 69be 4d36 9ebd 7af6 54be
00000250: 109d a2bd 10a7 03bd 3dba c93e 45c9 f8be
00000260: 0d2c eebd c4e7 8c3e 83e8 51be c56a 273e
00000270: b977 1f3f 1ee0 a53e aab8 1fbe e25a 4dbf
00000280: ac5d a5be 41e4 a03e d8cc b3be 6912 da3c
00000290: 757e d43e a69e 6e3e 4e10 2bbe 459e 11be
000002a0: c0b3 6dbd 4557 24be 1960 02be 3524 893e
000002b0: 0b46 acbd f64c 29be 93c6 633c 1b8b 8d3e
000002c0: 4558 333d abf0 b0be ce9e 9f3c 3a72 23bf
000002d0: 6ccd 28be 4507 73bd 8519 53bd eec2 7a3d
000002e0: 2d4b 25bf eccd 303d 063b a6be 50c9 b6bc
000002f0: 413a 89bd 4ffc 1639 053c ba3d ae73 83be
00000300: 77de afbd 2bb6 fa3e bbc2 803e 5deb dfbe
00000310: 6aec 353d 22e4 953e a1f8 94bf 680d 18ba
00000320: 7c41 c3bd f820 bd3d 3b23 21bf 25e2 d43e
00000330: 6358 7ebe 51ee 12bf 4abf 94be b461 a1bd
00000340: ef66 cf3d fa4b 23bf dda5 bcbe 50a3 15bf
00000350: b90b 6b3f e7ee 2cbf ffa6 d8bd 6a8b bebe
00000360: a273 86be 5ddb 5a3e 9815 e3be 791c 20bf
00000370: 3423 653d a90c cd3e 46c7 c6be 9304 13be
00000380: a2b0 2dbe 56af aebd c1c5 873e 0bfc 363e
00000390: de51 0dbf b127 583e d06c dc3e 4824 50be
000003a0: 50a5 a73e f9ba cb3c bf48 dcbe ecf8 493f
000003b0: ba67 efbd d8a6 b1bd 2daf 903e 7029 cabe
000003c0: 6720 03bf eadf f5be 63e0 6bbf 3e6a d53e
000003d0: 0367 efbe 9aa0 debe c256 f33e 23fe 023e
000003e0: a8b1 b8bd 230e 7a3c c4f4 603f 0b00 453f
000003f0: f8ec 38bd 5287 adbd 0661 e33e fa0e 8fbf
0.041317523 -0.16485433 0.30711845 0.09716843 -0.09229522 -0.73980755 -0.4262958 -0.13818944
0.11010431 -0.15683196 -0.2486127 -0.22798221 0.10435434 0.008280521 -0.0029907157 -1.1446637
0.17941193 0.078614295 -0.25365743 0.18282542 -0.0011131018 0.11288085 0.42251968 0.308351
0.12976702 0.02583389 -0.027112175 0.12064321 0.15602994 -0.021075504 -0.07422092 0.09088399
0.083665356 0.13252169 -0.26228133 -0.095141806 0.6827534 -0.07042925 -0.10619276 0.049367115
-0.12481221 -0.9203423 -0.12495724 0.14378741 0.031488046 -0.30985063 0.76757354 -0.11977991
-0.12870686 -0.03662454 0.1300557 -0.051379837 -0.101658866 -0.03233312 0.05353566 0.08224258
-0.04047279 0.23555212 -0.2762015 -0.04569922 0.04544272 -0.05972909 0.10810681 0.020448327
-0.12108031 0.25082538 -0.19061899 -0.04428775 0.48449096 -0.55395687 0.13875267 -0.31483656
-0.11597801 0.22354323 0.090415984 0.08852452 -0.118643425 -0.5151104 -0.2771438 -0.17836449
-0.6576532 -0.93552387 0.12549536 0.458371 0.13913539 0.58621913 0.77628064 -0.06789272
-0.27271757 0.16204941 -0.20314161 -0.04030678 0.019119073 0.3541613 0.16099067 -0.32867584
0.07440773 0.67395383 -0.046377618 0.17163347 0.29819322 0.7758582 -0.019892657 -0.6719053
0.44819185 0.07357319 -0.4067246 0.6255767 0.16356346 0.27799886 0.21577871 -0.76547945
-0.5567963 0.007644511 -0.566281 -0.19608374 -0.06335906 -0.30590698 0.1201977 -0.0062850057
-0.02796227 -0.39184943 0.02388434 0.2526679 -0.31475198 0.37367314 0.13020273 0.06723179
0.16907923 0.102854386 -0.04683254 0.15583353 -0.029082699 -0.5045218 -0.09295829 -0.45521826
0.12729008 -0.41413307 -0.28493685 -0.37364712 0.08673281 -0.20284104 0.011598329 -0.83643013
-0.06960162 -0.22815956 -0.07725201 -0.20797148 -0.079401135 -0.032141745 0.393999 -0.48591056
-0.11629496 0.27520573 -0.20498852 0.16349323 0.6229206 0.3239755 -0.15597787 -0.802168
-0.32298028 0.31424144 -0.3511722 0.026620107 0.4150273 0.23302707 -0.16705438 -0.14220531
-0.05803275 -0.16048916 -0.12731971 0.26785436 -0.08411797 -0.16533265 0.013902324 0.27645192
0.043785352 -0.34558615 0.019484904 -0.6384617 -0.16484612 -0.059333105 -0.05153801 0.061221056
-0.64567834 0.043165132 -0.32466906 -0.02231279 -0.06700564 0.00014399107 0.09093479 -0.25674194
-0.08587354 0.48967108 0.25148568 -0.43734255 0.044414915 0.29275614 -1.1638376 -0.00058003375
-0.095339745 0.09234804 -0.6294438 0.41578785 -0.24838404 -0.5739489 -0.29052192 -0.078799635
0.10127055 -0.63787806 -0.36845294 -0.5845232 0.9181476 -0.67552036 -0.10578727 -0.3721574
-0.26260096 0.21372743 -0.44352412 -0.62543446 0.055941775 0.4004872 -0.3882391 -0.14357214
-0.16961911 -0.085295364 0.26518062 0.17869584 -0.55203044 0.21108891 0.43051767 -0.2032634
0.3274331 0.024869429 -0.4302425 0.7889545 -0.11689706 -0.08674401 0.2825865 -0.3948474
-0.5122132 -0.48022395 -0.9213926 0.4168262 -0.4675828 -0.43481904 0.47527128 0.12792258
-0.0901826 0.0152621595 0.8787348 0.7695319 -0.045147866 -0.08473076 0.4440996 -1.1176445

lstm.bias_ih_l0 f4 [256]
00000000: 33e4 3bbf 9c40 163f a9d4 48bf 694e 1c3e
00000010: c3c5 933f 349a 893e a7a2 d7be 580b 613d
00000020: 434e 2cbf c886 1d3f 3865 c93c 7218 973f
00000030: bbd4 893f 35e3 133f ddba c53e dbcc 36be
00000040: 2254 563f 7d51 b0bd ce3a 82be 4e6d 853f
00000050: a5c7 a13e a06a f5be cc41 59be d476 893e
00000060: 51fe 373e b3c4 05be e2a9 b3be 033d 5a3f
00000070: 159a b73e 373a a93e bf7b 10bd f755 cf3f
00000080: 2415 be3d b527 1b3f 15fb 643e feac d53e
00000090: a8b7 bcbe 9a0e 483f 993d 383f e4c5 3d3e
000000a0: 0cdb b53f 2a79 4fbd f768 533f c156 363e
000000b0: 1a87 763f 618a d53e deeb 67bf 7dc1 dc3e
000000c0: 8408 223f c321 2e3e 0835 62bf 24bd 25be
000000d0: 8936 78be 7515 d73e 53f9 e6bc 076b 5b3f
000000e0: f031 af3e aaab a73a c85a 903f 21af 603f
000000f0: 1374 543f a53f 1e3e 86c5 313f 4b1f 543e
00000100: 5d2b 95bd af89 ffbd c411 ee3d f2b8 ab3d
00000110: 38d2 0cbb 6837 8b3d 6256 d6bd d694 c4bd
00000120: 0c63 113d ddd3 9f3c 093a bdbd b15d 01be
00000130: b03d b23c 887e 5a3e ad82 013d 54ca 5f3d
00000140: bc30 83be 0c17 d9be 3bf8 3cbd ce05 efbe
00000150: 076f 08be 97aa fb3d 46d0 63bb f911 95be
00000160: c533 9b3d 99db 9d3e 0a98 b5bd bd2f bc39
00000170: f85b d2bd 39bb 7a3c f052 4d3d fe7a b0bd
00000180: ebd1 0d3e 6d19 133c 1226 02bd a40c 3abe
00000190: b7b4 a93c 2a1d 43bd 4d95 843e 5788 d03d
000001a0: a33b 3cbd 5dbd b3bd 6507 b4be 90db fabd
000001b0: cc7e 2a3d 5936 9ebd a1ca ccbc b821 91be
000001c0: 8c00 3ebd 169e c93c 3913 04be e040 c73c
000001d0: e4cc 8c3c 259c bd3d 99ad a63d 001f 043d
000001e0: d650 0d3d c1ab 7bbe 6817 d2bd 25bd ba3b
000001f0: 0138 f13d dc58 66bc 444c 573e 05fd a4bc
00000200: 28b9 f13e 233a 863e 766a a2bd d313 1fbe
00000210: 50f4 34bf d34c 4b3f 44b1 be3d 5760 dc3e
00000220: 2459 34bf 2555 813f 94b4 ae3f 3e2a 393f
00000230: 780a 17bf d732 fd3e f797 433f 800c 233f
00000240: 55e5 213f 4690 843e 51d6 ca3d addf c4be
00000250: 150b ef3d 907b 803e d9c0 c1bf 3d25 903d
00000260: 988a 4ebf 9424 58bf 4a93 6a3f d3ae 2dbf
00000270: 89d4 7fbf 99f6 233e e1d8 073e 2aca 5b3f
00000280: c574 81be 71ce 453e 0dfa 6f3e 5596 4bbf
00000290: 3ee8 2ebf ce9c 09bf 7aa3 d53e cacd 99be
000002a0: 01da adbe 8274 283f 45e4 debe a5e8 95bd
000002b0: 4913 0c3f 3e16 6dbf 8460 bcbe 042f 99be
000002c0: 5eda c2be 7994 12bf c66d 433e 985f ef3e
000002d0: 6731 00bf 0744 e6bc 2e6c 523e 4f79 063f
000002e0: cfa4 a63f 13ba d83e b86f 203e 85f4 453d
000002f0: 918c d1bd 7eca 6ebf 0df0 343f 86c0 6bbe
00000300: 0975 c6be c06f 833f 8915 28bf f41e b9bd
00000310: 27b3 833f c7ed 42be df5b 57bf 620a 5a3d
00000320: 0e5f 1abf 4621 8fbc 8aa3 dcbd a24f 613f
00000330: abe0 523f 70d0 bc3d 365d 613f fa6b 15be
00000340: 904b 653f 24c6 743f 3b96 213d db39 a53f
00000350: ad3e 11be 5031 26be 5c8a 03bc 2e29 f43e
00000360: 0f6c 643e d168 9e3d e6db aa3f 1e8a 1c3f
00000370: 2e5c a13d 3332 d73d f11b 0f3e a67c a73f
00000380: 774f ff3d abba 8d3f 3fbb d43e d39d 283f
00000390: d729 e4bd 39fa 813f f42f f13e 073d 3c3d
000003a0: 3fc8 873f 48c1 98bd a2de 4d3f 2e50 3e3e
000003b0: ab97 c23e 6fc8 d63e e0e6 27bf f1e3 163f
000003c0: f5ad 313f 7b48 973d f678 75be 46f4 303e
000003d0: 34e9 62be afba e03e 8aa9 d7bd 463a 473f
000003e0: 858e b83e 9b0a 9ebd 76c9 f73e 4752 813f
000003f0: 4357 113e 1cb8 063f e5db 033f 8d9e 8f3e
-0.7339508 0.58692336 -0.78449494 0.15264286 1.1544727 0.2687546 -0.4211628 0.05494246
-0.6730692 0.61533785 0.024584398 1.1804335 1.0768045 0.57768565 0.38619128 -0.17851584
0.83722126 -0.08609293 -0.2543549 1.0423982 0.3159763 -0.4793291 -0.21216506 0.2684847
0.17968108 -0.13063316 -0.35090548 0.85249346 0.35859743 0.33052227 -0.035274263 1.6198109
0.09281376 0.60607463 0.22361405 0.41733545 -0.3685887 0.7814728 0.7196899 0.1853252
1.4207473 -0.05065266 0.8258204 0.17806531 0.962999 0.41707137 -0.9059428 0.4311637
0.63294244 0.17005067 -0.8836217 -0.16185433 -0.24239554 0.42008558 -0.028195059 0.85710186
0.34217787 0.0012792249 1.1277704 0.87767226 0.82989615 0.15453966 0.6944202 0.20715062
-0.072836615 -0.12477433 0.11624482 0.08384885 -0.0021487605 0.06797677 -0.10465695 -0.09598701
0.03549485 0.019510204 -0.09239585 -0.12633397 0.02175793 0.2133733 0.031618763 0.054636315
-0.2562312 -0.42400396 -0.04613517 -0.46684116 -0.13323604 0.12288397 -0.0034761592 -0.29115275
0.07578234 0.30831602 -0.0886689 0.00035893722 -0.10271448 0.015303426 0.050127923 -0.08617209
0.13849609 0.00897823 -0.031774588 -0.18168885 0.020716054 -0.047635235 0.25895157 0.10182255
-0.04595531 -0.087763526 -0.35161892 -0.122489095 0.04162483 -0.0772521 -0.024998965 -0.28346038
-0.04638724 0.024611514 -0.12897958 0.024322927 0.017187543 0.09258298 0.0813858 0.032256126
0.03450092 -0.24577238 -0.10258371 0.0056988173 0.1177826 -0.014059272 0.21025187 -0.02014018
0.47211576 0.2621623 -0.07930462 -0.15534906 -0.7068529 0.794141 0.093111545 0.4304225
-0.7044852 1.0104109 1.3648858 0.7233008 -0.5900035 0.4945285 0.76403755 0.6369095
0.6324056 0.25891322 0.09904159 -0.384519 0.116720356 0.2509427 -1.5136977 0.07038353
-0.8068023 -0.84430814 0.91630995 -0.67844886 -0.9993368 0.16012038 0.13266326 0.8585535
-0.252844 0.19317032 0.2343523 -0.79526263 -0.68323123 -0.5375489 0.41726285 -0.30039817
-0.33955386 0.65802777 -0.4353353 -0.07319764 0.54716927 -0.92612064 -0.36792386 -0.29918683
-0.38057226 -0.572578 0.19084844 0.4675262 -0.5007538 -0.02810861 0.2054908 0.5252885
1.3019046 0.42329463 0.15667617 0.048328895 -0.10231889 -0.9327773 0.7067879 -0.2302266
-0.38761166 1.0268478 -0.6565786 -0.09039107 1.0289048 -0.19036017 -0.8412456 0.053232558
-0.6030129 -0.01747192 -0.1077338 0.88012135 0.82374066 0.09219444 0.88032854 -0.14591971
0.89568424 0.9561484 0.03944991 1.2908281 -0.14184065 -0.16229749 -0.008028593 0.47687668
0.22306846 0.07734836 1.3348358 0.6114825 0.0787891 0.105076216 0.13975503 1.3084915
0.124663286 1.1072592 0.41549107 0.6586582 -0.11140793 1.0154487 0.47106898 0.045956638
1.0607985 -0.074587405 0.80417836 0.18585274 0.38006338 0.41949794 -0.6558666 0.5894156
0.6940606 0.073868714 -0.23971924 0.17280683 -0.22159272 0.43892428 -0.10530384 0.77823293
0.36046234 -0.077168666 0.4839589 1.0103234 0.14193444 0.5262468 0.5150741 0.28050652

lstm.bias_hh_l0 f4 [256]
00000000: 23b0 1bbf bd99 153f 9aa3 59bf cabf fc3d
00000010: d70d 8a3f f78a 553e 5ef1 c3be 8d03 903d
00000020: be2c 27bf cc11 2f3f e6af e83d c864 a43f
00000030: 584c 893f 00a6 283f 48c4 b63e 9a2d 53be
00000040: 04d3 723f f567 7a3c 13f4 b6be 7603 863f
00000050: fffd 4b3e a6ba a5be 4825 2fbe cfec b43e
00000060: 4b7c 633e 3600 f0bd 4780 8cbe c5fc 723f
00000070: 1bac c43e d16d 893e eea5 4eba 9bfe db3f
00000080: d2aa d8bb f2e6 223f 5fc8 503e 9864 613e
00000090: 379a 0bbe c19b 243f 96bd 5d3f 2b9f a0bc
000000a0: 5eb5 a33f c04a d2bd e35b 543f 3539 4a3e
000000b0: 718a 813f f8b4 8f3e 3c75 42bf 7952 083f
000000c0: 6807 313f 10f1 c43d 4d6f 31bf 55db 27bd
000000d0: a55a 98be 4615 983e 4be4 8dbd 37be 483f
000000e0: 852c 713e 6e6d cebd a523 8e3f 4d3a 303f
000000f0: 9317 393f f871 5e3e e549 113f 9b3c e13d
00000100: 1c17 8b3d d895 0c3d 40a4 233e b4d8 b6bd
00000110: a1a2 5abc fe52 f2bc 2cff 83be f013 61bd
00000120: 8fd8 443d 12fa 17be 4c08 37be 1238 d3bd
00000130: eae6 16be ce01 493e e7f2 2fbe 26b6 9cbd
00000140: 1712 e4bc 2308 c9be 7324 4fbd 7765 cfbe
00000150: 14ed b5bc e9ae 053e 2064 073e fe5a 31be
00000160: aedb 653e 38af 643e 20d2 b83c 2a0f bcbd
00000170: e913 94bd 3dac f73d a297 113e 8bec 9ebd
00000180: 1502 d93a 23f0 bcbd 0005 393d ae0d 6abe
00000190: ba42 59bd 8ee1 38be e62f 3f3e e61c 8dbd
000001a0: b278 f4bd e68e 003e e38c 9fbe 863c 10be
000001b0: b24e 753e e60b 88bd 861f 693d f1be a7be
000001c0: 3245 05bd 73d1 99bd 7bb2 f7bc 8b8c 6cbd
000001d0: 5b25 4cbc dfe4 a23d 1a43 08bd f5a4 043e
000001e0: ded5 30bd fbd4 8abd 6275 0abb f255 073e
000001f0: 0474 40bd 47dc 2fbc 1f4a 443e f0fa 0f3d
00000200: 80f5 c53e f12a 793e 40e9 dbbd abca fdbd
00000210: 1267 3fbf 4da8 3b3f 7d1a b03d 8eff 213f
00000220: 3382 16bf c897 8d3f e54d bb3f cbfa 473f
00000230: 696a 28bf b0dc 243f b0c5 6f3f f8a4 243f
00000240: 9a27 5a3f f29d c73d d4fb bd3d 83cb d9be
00000250: e002 8f3d 22ad 773e 664c cdbf 16a4 213e
00000260: e223 42bf 0600 5cbf 6a41 3c3f dd9f 22bf
00000270: 34ad 8abf 6000 683e a854 bd3d d3e2 6e3f
00000280: 7cfb edbd 7210 0a3e a6a0 633e 4870 60bf
00000290: ea9f 31bf f070 07bf b380 9b3e e81d 34be
000002a0: bca3 1ebe b6e9 333f f4ea 03bf 1cc9 e5bd
000002b0: c1e6 d33e 8bf4 69bf d5ac f3be 48fa f5bd
000002c0: 0fa4 bcbe 0409 cebe 6fec 003e 212c 023f
000002d0: 9aff e9be 9dd3 66bc a3ce 073e 7450 013f
000002e0: 5e0f ac3f faae b23e 5a33 c93e 0433 6abd
000002f0: ab9c cdbd 4b11 67bf 2df8 273f 46db c9be
00000300: af50 03bf 4531 823f c2d6 0cbf 66f2 143d
00000310: b8d8 673f 825c e2bc 7dc9 46bf b105 0bbd
00000320: d7cc 21bf e930 393e 3a3c 493c 2185 3d3f
00000330: c706 333f 304f e93c 4c90 843f 0685 55bc
00000340: 7623 6d3f 0535 4e3f ef78 f4bd 5cf7 973f
00000350: 5d99 13be 5d9b 9fbd 6639 0ebd 5c80 223f
00000360: 753b aa3d ba46 ce3d 84bc 993f e7b4 333f
00000370: 65bc b63c a62f 763d eb68 093e 464e b33f
00000380: a915 da3d 6729 8d3f cde4 903e 0e73 1e3f
00000390: d64b bebd 21cd 4e3f 0dd8 cd3e b617 5d3e
000003a0: 4646 723f 3d32 65be 9bab 403f 25f7 993e
000003b0: c705 933e c8ce a23e 94f3 52bf d1b3 203f
000003c0: 7c01 5f3f c274 483e 2ed6 c1be aef5 883e
000003d0: 7409 40be d22a e93e 900f 27bd 07f3 393f
000003e0: 4ca1 e93e 0120 05be bede e03e cf47 813f
000003f0: eb83 913e d11d df3e 70c7 043f e20e 123e
-0.6081564 0.5843771 -0.8501526 0.12341268 1.0785474 0.20853792 -0.38270086 0.07031927
-0.65302646 0.6838653 0.11361675 1.2843256 1.0726423 0.65878296 0.35696626 -0.20622864
0.94853234 0.015283574 -0.3573309 1.0469806 0.1992111 -0.32368964 -0.17104065 0.3533692
0.22215383 -0.1171879 -0.27441618 0.94916946 0.38412556 0.26841596 -0.0007883002 1.7187074
-0.0066121602 0.63633645 0.20388936 0.2201103 -0.13633047 0.6430016 0.8661741 -0.019607147
1.2789724 -0.10268164 0.8295271 0.19748385 1.0120374 0.28067756 -0.75960135 0.53250843
0.69151926 0.096162915 -0.69310457 -0.040980656 -0.29756656 0.2970373 -0.06928309 0.78415245
0.23552139 -0.10079466 1.1104628 0.6883896 0.72301596 0.21723163 0.5675338 0.10997888
0.06791517 0.03432259 0.15980625 -0.089280516 -0.013344438 -0.02958059 -0.25780618 -0.054950655
0.04805809 -0.14841488 -0.17874259 -0.10313429 -0.14736524 0.19629595 -0.17182504 -0.076519296
-0.027840657 -0.3926402 -0.05057187 -0.405071 -0.022207774 0.13055004 0.13221788 -0.17319867
0.22447082 0.22332466 0.022561133 -0.0918258 -0.0723036 0.12093399 0.14218 -0.07759961
0.0016556407 -0.0922549 0.045170784 -0.22856781 -0.05304215 -0.18054792 0.18670616 -0.068902776
-0.11937083 0.12554511 -0.31162176 -0.14085588 0.23955801 -0.066428944 0.05691483 -0.32762864
-0.032536693 -0.075106524 -0.030236473 -0.05775122 -0.012460078 0.0795381 -0.033267118 0.12953551
-0.04317271 -0.06778904 -0.0021127095 0.1321638 -0.04698564 -0.010733671 0.191689 0.035151422
0.38663864 0.24332787 -0.10737848 -0.123921715 -0.7476665 0.7330368 0.08598802 0.6328057
-0.5879242 1.1061945 1.4633147 0.78117055 -0.6578737 0.6439924 0.9366102 0.6431422
0.8521668 0.097469226 0.09276548 -0.4253808 0.0698297 0.24187139 -1.603894 0.1578525
-0.75836 -0.85937536 0.73537314 -0.6352518 -1.0834107 0.22656393 0.092446625 0.93314856
-0.116202325 0.13482836 0.22229251 -0.8767133 -0.69384634 -0.52906704 0.30371627 -0.17589533
-0.15492147 0.7027849 -0.51530385 -0.11219999 0.4138699 -0.9138877 -0.47592798 -0.12010628
-0.36843917 -0.40241253 0.12590192 0.50848585 -0.4570282 -0.0140885385 0.1326242 0.50513387
1.344219 0.34899122 0.3929699 -0.05717756 -0.10039648 -0.9026076 0.6561306 -0.39425105
-0.5129499 1.0171286 -0.55015194 0.03636398 0.9056506 -0.027632002 -0.77651197 -0.033940975
-0.63203186 0.18085064 0.012282426 0.74031264 0.69932216 0.028480142 1.0356536 -0.013032204
0.92632234 0.8054965 -0.11937129 1.1872363 -0.14413972 -0.07793305 -0.03472271 0.6347711
0.08312122 0.10072084 1.2010655 0.7019791 0.02230663 0.060104035 0.1341893 1.4008262
0.106486626 1.102826 0.2829956 0.6189431 -0.09291808 0.8078175 0.40203896 0.21591076
0.9463848 -0.22382446 0.7526185 0.3007137 0.28715345 0.31798387 -0.8240292 0.6277438
0.8711164 0.1957579 -0.3785872 0.2674994 -0.18753606 0.45540482 -0.040786326 0.72636455
0.45630872 -0.1300049 0.4391994 1.0100039 0.28420958 0.43577436 0.5186682 0.1426349

lstm.weight_ih_l1 f4 [256, 64]
00000000: 0de4 983e 2d67 af3d 5f84 f43e fc60 43bf
00000010: 5764 4e3d a051 ab3e d8d6 c9be 42e5 33be
00000020: bef2 b1be 42d7 afbe 357b 3fbe f415 15bb
00000030: edf9 0abe 41d2 ebbe f720 a6be 339c 00bf
00000040: ce53 52bf b039 90bf 0014 1fbf efad 653f
00000050: d0b9 293f b79a 0fbf da2b c63e 8707 48bf
00000060: 80d8 aa3d 3df2 523d 741e 09bf 18a0 b3bd
00000070: f864 053f 62e8 963e 7a2b d3be 56b8 01bf
00000080: 5da9 8cbe 25eb 6dbc aedf 4dbf 287a 643e
00000090: 141c e63d 5b19 093f d32d 6d3d f68e c2be
000000a0: 9ca0 593f 5779 1ebe d876 22be 1648 b73e
000000b0: bba8 64bf 7bab 2f3f 6ae3 2f3e 9b3e 113e
000000c0: 0849 35bd 2708 78be 554e edbc 2333 30be
000000d0: 01d2 a2be 762c 31bf ea59 473e fee7 743e
000000e0: d2c3 61be 0fd8 1bbf ef92 9b3e 6c74 de3e
000000f0: ead8 b0be 039d c73e b63a 833e 2cd1 0bbe
00000100: 44bb ea3e 5327 57be 8eaa 52be fa72 0b3e
00000110: 02bd 023d 882f a73e 01fa db3d 2227 253d
00000120: 4dc5 f0bd dbd5 dd3e 43cd a33e 211c da3d
00000130: fc1d bebd 0303 1fbd 385c 85be e0b8 193f
00000140: 6ccc 84bd c447 0dbe 9c32 12be 3e46 bd3d
00000150: 6ff2 f53c 1728 5e3d 20ea efbe da2c 503f
00000160: 9b1d 09be 4f8d d3be 7679 7bbe 2210 cebe
00000170: b9c9 dcbe cad6 993d fa90 873d e668 bcbd
00000180: 0765 303d b572 6d3e 6544 013e 13b2 3a3e
00000190: 0fc7 e5be 732e 843d 9f3f 2c3e 19ce c2bc
000001a0: 2648 c63e 603d 383e 9ef4 3abe 98e3 bdbd
000001b0: 9cb0 3fbe d5c6 e83c 494f e5be b783 5bbe
000001c0: 4296 e7bd f438 653d 2d04 a23b ced0 bd3e
000001d0: 68f7 cbbd 62f3 c6bd 9641 1e3e 81ba 9b3e
000001e0: 62d3 cb3e a474 eb3d 6a25 273d 8564 1b3e
000001f0: 7802 cc3d 6c13 893d 940d 283c 050b 3a3d
00000200: 65a3 5e3e bdd2 383f 9be2 2b3e 81ab 0fbf
00000210: 4dd8 f0bc 612d a4be 730e 07be cc2c 00bf
00000220: c5ad afbd 9026 22bc c871 e33d dd77 b3be
00000230: 5e97 0fbf 6281 0bbe a58c 743d 8a7e 543e
00000240: 7007 a7be cfe6 8ebe 6dd9 cdbe 1e70 203e
00000250: 9db3 cb3e a9a2 0c3c a4d6 3bbe 8c95 a7be
00000260: 2cbe 04bf 4cc7 adbd 8444 333e ab02 d7be
00000270: 1198 c7be 2f76 033f e2eb b3bd 52ff 243e
00000280: 9ca0 92bd baed 033f 5529 03bd 3775 acbd
00000290: 698e 443e 0368 2abe 92dd ca3e 901b 8fbe
000002a0: 367c 0b3e a358 30be 0667 e8be 9a78 693e
000002b0: df17 353e 1ca9 fc3e 51f2 8abd 091b 04bf
000002c0: ecee f2be 2cb2 9fbe 06c1 4abd 1476 95bd
000002d0: 4390 0abe ce93 02be 2453 ad3e 3fee 0e3f
000002e0: fb8b b23d 11eb 98be e5eb 343f d12c ac3e
000002f0: 47d0 27be e31f 253d 2c00 9a3e 8561 a03a
00000300: 80b7 dabe 580b 4b3f 54eb c03e be30 0fbf
00000310: 7268 a9bc b67e ff3b 6896 02be 24dd 62be
00000320: 9000 f43e 118b 4ebe c400 9e3c 7800 02bd
00000330: a8b4 5ebf 5174 d6be 9d46 53bc 236a 813d
00000340: a7a6 d2bd 89b4 bfbe 4572 35be e008 b4bc
00000350: 1768 1b3f 62a0 28be 03c4 8abe b190 0ebd
00000360: 6d3f 11bf 91ad 3cbe 3cc1 9bbe c65a 23bf
00000370: 117b e3bd 6cf1 363f 850d b3be b372 203d
00000380: 144b 92be e2d2 773f 9e00 f43c e9bc 483d
00000390: d80e 24be 505a 77bd dcf0 233f db6c f3be
000003a0: 7bc5 d53e 3790 bebe 2f8b 2abf 9496 8d3e
000003b0: ea88 d0bd bcd7 29bc 7316 8b3e e1d5 3bbf
000003c0: 871f 27bf afce fabe 4a04 fabe 0e27 38be
000003d0: efa0 b7be efc9 16bf e3f3 1c3f 2942 7b3f
000003e0: 9e0d 1e3e 54be 70be 993d 143f b734 503f
000003f0: c467 34bf fec5 373e b021 0e3f f560 69be
0.2986149 0.08564601 0.4775724 -0.7631986 0.05038866 0.33460712 -0.39421725 -0.17567924
-0.3475551 -0.34343916 -0.18699344 -0.002274868 -0.13571902 -0.46058849 -0.32447025 -0.5023834
-0.82159126 -1.1267605 -0.6213989 0.89718527 0.6629915 -0.5609545 0.3870533 -0.78136486
0.08342075 0.051500548 -0.5356209 -0.0877077 0.5210719 0.2947417 -0.41244107 -0.506719
-0.27472964 -0.014521395 -0.80419433 0.22312224 0.11235824 0.53554314 0.05790503 -0.37999696
0.85010695 -0.15475975 -0.15865648 0.35797185 -0.8931996 0.68621033 0.17176595 0.14184038
-0.0442591 -0.2422186 -0.028968016 -0.17207007 -0.31800845 -0.69208467 0.19467893 0.23916623
-0.22047356 -0.60876554 0.3038554 0.43448198 -0.34540492 0.38986978 0.2563073 -0.13654011
0.45845997 -0.21011095 -0.20572874 0.13618079 0.031918533 0.3265345 0.10741044 0.040320523
-0.11756382 0.4332722 0.3199254 0.106498964 -0.09283063 -0.03882123 -0.2604692 0.6004772
-0.06484303 -0.13796908 -0.14277118 0.09241913 0.030022828 0.05423745 -0.4685831 0.8131844
-0.133902 -0.41318747 -0.24558052 -0.40246683 -0.43122652 0.07511671 0.06619449 -0.09199695
0.043065097 0.23188289 0.12623747 0.18231992 -0.44878432 0.06454172 0.16821145 -0.023779916
0.3872692 0.17992163 -0.18257377 -0.09271926 -0.18719715 0.028415123 -0.44787052 -0.21436964
-0.11307956 0.055962518 0.0049443454 0.37073368 -0.09959298 -0.0971439 0.15454707 0.3041573
0.3980971 0.11496857 0.040807165 0.15175064 0.099614084 0.066931576 0.0102571435 0.045420665
0.21742018 0.7219656 0.16785662 -0.5612107 -0.029400015 -0.3206587 -0.13189106 -0.50068355
-0.08578066 -0.009896889 0.111056864 -0.35052386 -0.56090343 -0.13623574 0.05970444 0.20751396
-0.32622862 -0.27910468 -0.40204945 0.1566777 0.39785472 0.008583703 -0.18343598 -0.32731283
-0.5185268 -0.084852785 0.17506605 -0.41994223 -0.38983205 0.5135221 -0.087852255 0.16113022
-0.0715954 0.51534617 -0.03202184 -0.084207945 0.1919495 -0.1664124 0.3962217 -0.27950716
0.13621601 -0.17221312 -0.453911 0.22799912 0.17684887 0.4934777 -0.067844994 -0.5160375
-0.47447908 -0.31190622 -0.049500488 -0.07297912 -0.13531594 -0.12751696 0.33852494 0.55832285
0.087181054 -0.2986684 0.70672446 0.33627942 -0.16388045 0.040313613 0.30078256 0.0012236094
-0.42718124 0.79314184 0.3767954 -0.5593375 -0.020679686 0.0077970875 -0.12752688 -0.22154671
0.4765668 -0.20170237 0.019287474 -0.03173873 -0.8699441 -0.41885617 -0.0128952535 0.06319072
-0.10285693 -0.37442425 -0.17719372 -0.021976888 0.60705703 -0.16467431 -0.2710267 -0.034805957
-0.56737405 -0.18425585 -0.30420864 -0.63810384 -0.111074574 0.7146213 -0.34971252 0.039171886
-0.28572905 0.96806157 0.02978545 0.049008284 -0.16021287 -0.060388863 0.640394 -0.47543988
0.41752228 -0.37219402 -0.6661863 0.27653944 -0.10182364 -0.0103663765 0.27165565 -0.7337323
-0.6528248 -0.48985812 -0.48831397 -0.17983648 -0.3586497 -0.58901876 0.6130964 0.9814783
0.15434882 -0.23510104 0.5790649 0.81330436 -0.70470834 0.17946622 0.55520153 -0.22790892

lstm.weight_hh_l1 f4 [256, 64]
00000000: 70df 02bf bd04 f83e 32b4 bb3e 7eb6 17bf
00000010: 355f 3e3f 2b31 37be 1ace 8fbf 414d 933d
00000020: 7eb1 b2bd edf6 74bd c974 84bf 268f 71be
00000030: 9588 20bf 4907 a73d a49c 1d3f 5a60 98be
00000040: 36a8 3cbe b374 da3c b876 33bf e207 31be
00000050: cdb0 04bc e61b 1a3f bc84 543e 9f00 e63e
00000060: 61d7 79be 4d6b abbd 0f8a 1c3c 68a1 bf3d
00000070: cd67 a43e 5601 01bf c28e c4be d262 81be
00000080: f889 eabe ddd4 66be da26 293e 2eb9 223e
00000090: 3aa3 423e e00a 243e 53d2 503f 9ccd 353f
000000a0: dc09 8a3e 6ca5 1ebf 6905 8cbe b7f1 b63d
000000b0: c599 c1bd 61cb 60be caf5 223d e214 fa3e
000000c0: 355f 523d e2d5 f93e c32e 843e 4b47 ec3d
000000d0: 3d10 7f3d 10c6 49bd 8606 3cbf b376 923c
000000e0: 422c 003b bdc3 1a3e 96fb fa3e 53ae bfbe
000000f0: 23dd 8ebe c815 3ebd 15f6 883d e65a a1be
00000100: ad43 67be abf0 70be db86 b23b 76f7 23bf
00000110: 9323 b5bd bfe8 60be d983 873c 5e75 393e
00000120: 1959 16be ca03 043a f985 643d c47c c83d
00000130: 3df6 99bf e748 67be c0a8 ed3e 30d7 2e3e
00000140: be77 5cbe 2229 6abd c7f5 64bc 8cf6 b8be
00000150: af65 b8bd bfe9 e63e b3cd cb3d 2072 84bc
00000160: 6646 3d3e e52f 363e 5609 cc3c fe54 bbbe
00000170: 4c41 0f3f 6a64 4abf edcc d7be 81a7 5abe
00000180: dd8f c4be 78dc 5ebd 00f9 503e 3062 ddbd
00000190: d405 b43c ffbe 11bf 7d3c dbbd 7324 bcbc
000001a0: d193 673e 1249 8d3d 784d 603e 0563 b3bd
000001b0: 38e2 3bbe 18be 36be 5195 e7bc fb11 42bd
000001c0: 9f0b 8d3e dda8 483e 4c1a 1bbe a2e2 42bd
000001d0: bb84 56be 2333 033e e060 0dbf 6c83 793d
000001e0: ab3a ad3e b1dc 50bd 4b28 d63e 836a 69be
000001f0: 522e fa3e 7dce fdbc 7319 51be 80cf 47be
00000200: bbb9 2abe 0aba e13d 7320 dabd 3b8d c93d
00000210: 9713 3cbe 46a8 debe e092 11bf 7e2f 993e
00000220: 6e20 6c3e f1e7 973e f2ad f33e 12e1 df3e
00000230: d2da 643e c76a b53d f14f 96be dcce 43be
00000240: 1ad0 533f a34c 6abe fb10 7d3d 7927 413d
00000250: cc79 a23d 753c 53be 583a a3bc 46e5 523e
00000260: d251 52be 081e 883e 7dc5 a33e 0329 5dbf
00000270: b4c5 a93e ed44 8abe 7345 2e3d e8a5 523e
00000280: 9e0a b8be fac1 bc3e 0cb6 3fbe 5946 2cbe
00000290: 50d1 f7bd f7d6 13be e256 38bf 851e 20bd
000002a0: b3ed 60be 066d 2b3e e706 a93e fcfe 003f
000002b0: cf2d 243e 8efc 0cbf ebfc 763d f423 4dbd
000002c0: d61d 4d3d 1031 a7be 42a1 1c3e c7b0 02bd
000002d0: d71b 883c 6280 edbd 532f 8dbe d54b 80be
000002e0: 18c9 35bd 9842 dbbd ae3b 283f 2ad6 34be
000002f0: 2e3d bd3e dd06 f5bd 9ddc 203f 8a27 2d3e
00000300: 5f6d ef3c 3389 d13e f88c 363d 9de3 fabd
00000310: c6f6 883d 092c 5c3c 87b3 b1bd d353 06be
00000320: 43b0 97be b88f e43d b599 163e be8b f53d
00000330: 73b2 3abd 1052 373e 4a84 90be 87af fcbb
00000340: 93ef 2f3e 1883 843c 3d41 b73d 8127 9c3d
00000350: 2d23 d4bc ff9b 823e 9749 ae3e 44b9 12bd
00000360: 0a4a 3e3e c34c 3ebe db18 353e cd13 d7be
00000370: f4a9 243e 8709 df3c 82ef b13c dbe9 8c3d
00000380: 07d9 09be 043b 3b3e 0114 edbc f8c1 153d
00000390: 6159 bd3d 2df7 ddbd 34db 143e 2441 e7bd
000003a0: 6c0a 50be 41cb 843e f9c2 c23e 0840 863e
000003b0: aee1 cc3d 68f1 193e f2ac 55be c9f4 2fbc
000003c0: ae6f 9c3e 565e b2bc 6f02 c73e 104b c7bd
000003d0: 033d 44bd 9f31 dbbd 90a2 b0be a6b3 833d
000003e0: 4085 88bd 1405 cabd 7cb7 5c3d e98d 80be
000003f0: 5fc6 d2be df82 a43e 8dfc ff3d d289 7c3e
-0.5112219 0.48441115 0.36660916 -0.59262836 0.74364024 -0.1788985 -1.1234772 0.071924694
-0.0872526 -0.0598058 -1.034814 -0.23589763 -0.6270841 0.081556864 0.6156714 -0.2976101
-0.18423542 0.026666975 -0.70103025 -0.17288163 -0.008098793 0.6019882 0.20753759 0.4492235
-0.24398567 -0.083700754 0.0095544 0.09356958 0.32110444 -0.50392663 -0.38390166 -0.25270706
-0.45808387 -0.22542138 0.16518727 0.15890953 0.19007578 0.16019773 0.8157093 0.7101686
0.26960647 -0.61971164 -0.27347878 0.08932822 -0.09453157 -0.21952583 0.039785184 0.48844057
0.051360328 0.48795992 0.25816926 0.115370356 0.062271345 -0.049261153 -0.73447454 0.017878866
0.001955763 0.1511373 0.4902007 -0.37437686 -0.2790309 -0.04640749 0.066875614 -0.31514663
-0.2258441 -0.23529308 0.005448205 -0.6404947 -0.08844676 -0.21963786 0.016542362 0.18111178
-0.14682426 0.0005035965 0.05579183 0.09789422 -1.2028271 -0.22586404 0.4641781 0.17074275
-0.21530053 -0.057168134 -0.0139746135 -0.361256 -0.090037696 0.4510021 0.099513434 -0.0161677
0.18483886 0.17791708 0.024906795 -0.3658828 0.5595901 -0.7905947 -0.42148533 -0.2135296
-0.3839101 -0.054409474 0.20407486 -0.108097434 0.021975435 -0.5693206 -0.107048966 -0.0229666
0.22614981 0.06898703 0.21904552 -0.08759121 -0.18348014 -0.17845953 -0.028269442 -0.04738043
0.2754793 0.19595666 -0.1514675 -0.047579415 -0.2094907 0.12812476 -0.55225945 0.06091635
0.33833823 -0.050991718 0.41827616 -0.22794537 0.48863465 -0.03098225 -0.20419864 -0.19512749
-0.16672413 0.11021812 -0.106507204 0.09841391 -0.18366848 -0.43487757 -0.5686474 0.29919046
0.23059246 0.29669145 0.47593647 0.43726403 0.22349098 0.08858257 -0.29357865 -0.1912188
0.8273941 -0.22880797 0.061783772 0.047156785 0.07933387 -0.20628531 -0.019925281 0.20595273
-0.20539024 0.26585412 0.3198661 -0.86390704 0.33158648 -0.2700571 0.0425467 0.205711
-0.359456 0.36866742 -0.18721789 -0.1682371 -0.1210047 -0.14437471 -0.7200757 -0.039091606
-0.21965675 0.16740808 0.3301308 0.50389075 0.160331 -0.5507287 0.060299795 -0.050083116
0.050077282 -0.3265462 0.1529589 -0.03190687 0.016614838 -0.11596753 -0.27575168 -0.25057855
-0.04438123 -0.10706061 0.65716064 -0.17659822 0.3696074 -0.119642 0.6283663 0.16909614
0.029226957 0.40924987 0.044568032 -0.12250445 0.06687693 0.013438233 -0.0867682 -0.13117914
-0.29626665 0.11160225 0.14707072 0.11989544 -0.04558034 0.17902398 -0.2822593 -0.007711354
0.17181234 0.016175792 0.0894799 0.07624722 -0.02589568 0.2550964 0.3404052 -0.035821214
0.18582931 -0.1858397 0.17685263 -0.42007294 0.16080457 0.027226223 0.021720652 0.06880542
-0.13461696 0.18284231 -0.028940203 0.036561936 0.09245563 -0.10838161 0.14536744 -0.112917215
-0.20316476 0.2593632 0.38039377 0.26220727 0.100039825 0.15033495 -0.20866755 -0.010739514
0.30553955 -0.021773499 0.38869044 -0.09731114 -0.047909748 -0.10702824 -0.34499025 0.064307496
-0.066660404 -0.0986425 0.05388592 -0.2510827 -0.4116697 0.32131097 0.12499342 0.2466195

lstm.bias_ih_l1 f4 [256]
00000000: 8273 18bd 82ac b13c dc99 e23e f14d ff3e
00000010: 66ed dc3e 1c51 013f 1ed3 d03e 4930 8d3e
00000020: 4f0f 1d3f 76f5 6c3d 9bd9 1b3f 96e0 523c
00000030: 0bdd 043e 096b 383f 54ae 153e b7f3 a83e
00000040: 0d4a 4e3e ef41 05bd 64fc c83e 4af6 adbd
00000050: 8210 7d3d 075c 0f3e 1308 5fbe 8a85 803e
00000060: 01a4 b03d be89 3a3f 76fc af3e 73c6 a33e
00000070: c487 243f 1040 763d 9820 113f 7f82 d53e
00000080: 76d2 e93d f81d ef3d 592b 113e 53d9 663e
00000090: 526f 7f3e 4e5c b13e 3f23 743c 335d 583d
000000a0: 9e88 033f e332 423e 4666 c53e bbd2 023f
000000b0: 879d cb3e 17f3 13be 29ac cc3e 8010 2dbe
000000c0: 66d9 f5bd 547c 383d dbc3 c03d ee7c a93e
000000d0: 2392 57bd 1d7e 4f3e 4619 3f3f 27aa af3e
000000e0: 9c2f 41bd 531e d53d 3f17 133d 00fe 9e3d
000000f0: 0d86 213f c636 d23d bdf0 7a3e 9560 103f
00000100: 95d4 913c 02f0 8c3d 0c7b f63d 1ee4 2e3b
00000110: a30d 18bd 81f2 213e e402 19bd c222 7abd
00000120: b86d 4f3d 8806 c13d 7034 4bbe 2381 91bd
00000130: 2bd0 01bd de19 143e 426d 4e3d cb17 df3d
00000140: 24db d43d c028 5b3d 5638 c13c 1cc2 e2bd
00000150: c424 ddbd 2598 c73c 32e7 1cbd 1ebf 2f3e
00000160: 494f 84bd c390 b6bd 1c7b a93d 2a65 d73a
00000170: 5873 b23d c262 7abd 6e4f 8bbc 7073 93bb
00000180: 88bc 1b3e 7bdb a03c 3cb6 5ebd 4aae 433d
00000190: d709 033d c892 3ebd f6dd b1bd 66a5 343d
000001a0: 02d8 2b3e e33c f1bc d02b 68bd e211 a5bd
000001b0: 023e 093e b8b3 a6bd 81dd b83d 4381 0c3b
000001c0: f3d0 0d3b 4c67 0dbe 84b6 393e 5a0f 003e
000001d0: f6db 8c3a 5746 633e 6678 803e 82f5 e43d
000001e0: 682a bf3d 0c71 a3bd ec91 023d a8ce 2c3d
000001f0: 5f1d 133d aadb 79bd 3bad 1bbb c0e3 7d3d
00000200: f66f 89be 4c98 9bbd 2fb2 9c3e 2c48 8a3e
00000210: 8123 993e 3a10 57be f641 94be 87fc b83d
00000220: a33d ea3d 74cf fe3c 02e7 d43d d2c6 76be
00000230: 7b8b 313d 551c e43c 1579 37bd 48db 8fbd
00000240: debd f53d 4cea e13c 55b3 f33d c875 a4bd
00000250: 1372 aebd 66ee 0f3e 2092 c8bc 6b39 2c3d
00000260: 2b5f eb3d 3386 773d aeeb d43c dd9c 0abe
00000270: 7c66 953d e576 9b3d 3194 493e 1556 65be
00000280: 5f0a e0bc 95b9 fd3d 99a0 b63d 1c05 67be
00000290: be75 f73d b7b2 b3be c054 36be 6df5 cfbd
000002a0: 2430 8fbe e302 95bc 7974 c5bd d6af cc3d
000002b0: 83a8 7fbd 0166 b93d ef59 e6be 4f3e 80be
000002c0: c57a 96bc b059 88bd ec56 8bbd 0c69 673e
000002d0: 8f6d a5bd c5d8 5b3c 80c8 b9be 8da5 8dbd
000002e0: 4c10 a23d e83d 8dbc 12a7 64bc 0a6c 813c
000002f0: 33ce 1cbe 7593 2e3e 3a65 03bd de44 b33e
00000300: f15d 093e b68c 563e 6e47 013f cf1f 5b3e
00000310: 884d c33e e776 9c3e d852 c4bd f0da 583e
00000320: 7516 853e bae5 363b 23dc 4fbe 6e71 d23e
00000330: 011d b83d 2b5e 9a3e b5dd fc3d 2041 273f
00000340: a888 2b3d 1919 dc3c 30d8 843e 96a7 b23c
00000350: 2e68 b93e edf3 913e 8e04 213e 6800 de3d
00000360: e211 333c dee5 c13e 6f2b 8a3d 0f48 8d3e
00000370: 44e0 c53e d283 f43e c7c9 f43e 096d 5d3e
00000380: abcf 603e c5af 4d3b fb64 333e 10f1 b03e
00000390: 706c 933e fbc2 0f3f 5f4e 8f3e 1dca 8abc
000003a0: 7b16 ed3e 899d acbd c7f6 9a3e e5f9 373e
000003b0: 080c d33e f19e f1bc 5b24 993e ba91 943e
000003c0: 9d0f 343e f2bb 483e 65af 493e 9c81 833e
000003d0: 3605 e43d 4930 4a3e ed10 023f c763 d03e
000003e0: 3f21 c9bd 109f 1c3e 9ba9 29be 93d4 c4bc
000003f0: 27c2 033f b87f f93c b9c1 523e 8836 bd3e
-0.03721953 0.021688703 0.4425801 0.49864152 0.4314987 0.5051439 0.4078607 0.275759
0.61351484 0.057851277 0.60878915 0.012870928 0.12974946 0.7203832 0.14617282 0.3299844
0.20145436 -0.032533582 0.3925506 -0.084942415 0.06178332 0.1399995 -0.21780424 0.25101882
0.08625031 0.7286643 0.343723 0.31987342 0.6426966 0.06011969 0.5669036 0.41701123
0.11417095 0.11675638 0.14176692 0.2254384 0.24944809 0.34640735 0.014900981 0.052823257
0.51380336 0.18964724 0.3855459 0.511028 0.3976862 -0.144482 0.39975098 -0.16900826
-0.12004356 0.045040444 0.094123565 0.33103126 -0.0526296 0.20262952 0.7464794 0.34309503
-0.047164544 0.104061745 0.03591084 0.077632904 0.6309517 0.102643535 0.24505897 0.5639737
0.017801562 0.06881715 0.12035188 0.0026686261 -0.03712238 0.15815164 -0.037356272 -0.061068304
0.050641745 0.09425074 -0.19844222 -0.07104709 -0.031692665 0.14462993 0.050397165 0.1089321
0.1039336 0.05350566 0.023586433 -0.1107218 -0.10798028 0.02436454 -0.038306423 0.17162749
-0.06460435 -0.0891433 0.082754344 0.0016433347 0.08713406 -0.06112934 -0.017005648 -0.004499845
0.15208638 0.019635906 -0.05437301 0.047773637 0.031991806 -0.0465267 -0.08684914 0.04410305
0.16781619 -0.029447978 -0.056682408 -0.080600515 0.1340256 -0.081397474 0.090266235 0.002143935
0.0021639436 -0.13808936 0.1813603 0.12505856 0.0010746706 0.22194801 0.25091857 0.111796394
0.0933426 -0.07980546 0.031877443 0.04218927 0.035916682 -0.061000504 -0.0023754376 0.061984777
-0.26843232 -0.07597408 0.30604693 0.27008188 0.299099 -0.21002284 -0.28956574 0.09032541
0.114375375 0.03110478 0.10395624 -0.24099281 0.04334591 0.027845541 -0.044793207 -0.070242465
0.11999105 0.027577542 0.11899439 -0.080302775 -0.08517852 0.14055786 -0.02448374 0.042046946
0.11492761 0.060430717 0.025991287 -0.13536401 0.07294938 0.07591037 0.19685437 -0.22396119
-0.027348695 0.123889126 0.0891735 -0.22560543 0.120830044 -0.35097286 -0.17805767 -0.10154233
-0.27966416 -0.018189853 -0.09641356 0.099944755 -0.062416565 0.09052659 -0.4499049 -0.25047538
-0.018369088 -0.066577315 -0.068036884 0.22598666 -0.08077537 0.013418381 -0.36285782 -0.06916342
0.07913265 -0.017241433 -0.013955848 0.015798587 -0.15313034 0.17048438 -0.03207896 0.3501348
0.13414742 0.20952114 0.5049962 0.21398853 0.3814509 0.30559465 -0.09586114 0.21177268
0.25993696 0.0027907924 -0.20298819 0.41102165 0.08989907 0.3014997 0.12346975 0.6533375
0.041878372 0.026867436 0.25946188 0.021808427 0.36212295 0.28506413 0.15724394 0.10839921
0.010929557 0.37870687 0.067465656 0.2759404 0.38647664 0.4775682 0.47810194 0.21623625
0.21954219 0.0031385284 0.1751899 0.34558916 0.2879367 0.5615689 0.2798948 -0.016942078
0.46306214 -0.08428485 0.302664 0.17966421 0.41220117 -0.029494734 0.2991055 0.2901743
0.17584081 0.19602945 0.19695814 0.25684822 0.111338064 0.19744982 0.50807077 0.40701124
-0.09820794 0.15295053 -0.16568606 -0.024027145 0.5146813 0.030456409 0.20581712 0.36955667

lstm.bias_hh_l1 f4 [256]
00000000: a09b ec3c fe32 253b 0ac6 cf3e c276 b53e
00000010: c10a e73e ec6a 193f 8a64 b83e 1895 ef3e
00000020: 910f 0a3f 9a34 4a3d 54c5 043f 51aa f03c
00000030: 513b 16bc b8e2 443f 4ac9 ef3d 5895 a63e
00000040: 7083 ae3d 8a9d 053e 24f4 253e a5b8 1fbe
00000050: 5400 32bd 9fa2 8b3e ab36 debd ccac 753e
00000060: c28b 433e 3fdd 223f d101 6b3e e21d e43e
00000070: 49be 243f 4e15 913d 0b78 0d3f d4bf f93e
00000080: 6bc3 d03d 2b8c 09bd 13c4 9c3d 5e0a 953e
00000090: 78df 143e 0c74 953e 32ce 683e 32ec fa3c
000000a0: 5036 013f 4888 9d3e a12b e13e 1c8e fa3e
000000b0: 3655 913e 1d80 0abd 5830 673e d106 59bd
000000c0: efab 67be 3afb 363d fa86 a23e 093b 8d3e
000000d0: 5bb7 cc3d 2a0d c93d 1758 053f 3380 a03e
000000e0: 40c6 9bbd 9f89 683e a3e9 c23d 1aa1 273d
000000f0: a522 233f 5bcd 263d 4bda 183e bdf9 0c3f
00000100: 5741 8ebd db4a 4b3e 5f17 e8bd 0576 9b3d
00000110: f75f 90bd 629e 993d cb93 16bd 1d0c 06bb
00000120: 0c9e 67bd cb22 75bd 14ef 18be 0457 fa3d
00000130: 8e66 82bd c5c8 073d ccb0 203d 99ec a9bd
00000140: 087f 67bc 634b 83bd 4995 173e c2bf 2c3d
00000150: 843d 38bd 5596 abbd d0f8 a13d acd0 ac3d
00000160: ebb7 99bd 40b1 9c3d 0ee1 aabd 4ad5 e1bd
00000170: b1ea a83d 5df5 a63d 4cd3 0abc f77f 5ebd
00000180: 3553 2f3d 2652 353c 4f97 0d3e 8831 1b3e
00000190: 556b f63d 7e92 e1ba 7a42 0fbd b29f 77bb
000001a0: 8450 363e fd8f 82bd 9f11 d0bc 5882 cc3c
000001b0: 3317 7a3d 8c3d 3cbe 3ca0 fc3d e996 f339
000001c0: 7d81 a33d c5d2 06bc 7209 1c3d 049a 843e
000001d0: 0fe7 d2bd ce8b ad3d f4de 893e 1599 4ebd
000001e0: a6b0 043e 80be db3d 18c7 183d 6033 173d
000001f0: c291 863d 5583 ba3d 53dc 81bd f4b2 443e
00000200: 94d1 bcbd 996a 6e3d fb56 8a3e db09 6a3d
00000210: d1d5 a83e 6482 15be f00b 67be 4037 5abd
00000220: 2aca 9cbd 316a cfbd 3a95 243e 4c77 71be
00000230: f070 f33d 420a 103d 8d03 19be de87 2ebd
00000240: 0b06 c23a d5b2 613d d765 973d c390 1e3d
00000250: 13fb aebd 9498 653e ec61 ee3d 9b29 a93d
00000260: b252 e0bd 0a48 4a3e a70f 0f3d 1f35 a1be
00000270: 94d4 1f3e 70a9 a03e 947a 9f3e 60cc 09be
00000280: a355 88bd 764f b83d db61 2b3d 4f93 9abe
00000290: af17 a23e a989 d3be d831 d9bd cfed 32be
000002a0: 06d7 44be 8897 a1bd 8f80 fdbd 21a0 3d3e
000002b0: 2bed 83bc c850 183e 2f89 e7be f871 eabd
000002c0: e8ef 28bd 3a47 46be a858 c0bb 6d55 8e3e
000002d0: b331 1cbe 84c9 babd 5f32 93be 7c7b 223c
000002e0: 6275 cfbd 6e32 8d3d 2575 c7bd d61e 7b3d
000002f0: 8405 9bbe 456a 943d a237 773d 3492 c23e
00000300: ee48 463e 617e 9d3d 5336 db3e cd50 263e
00000310: b40f 8f3e d75e 8f3e db58 10be feac 113d
00000320: df98 393e cc57 d73d a0af febd 4c5f a53e
00000330: b560 2a3e 109c 5e3e 66be dc3c eb1c 1b3f
00000340: 660c 3f3e 0b38 64bc 24ed 733d 1094 b1bd
00000350: 46ac 1c3e fdaa 1f3e 274e 363d a8ea 0a3e
00000360: 9b9e 3e3c a07f d63e 0be3 563e e99d 3a3e
00000370: 4901 8a3e 9343 f23e bd3e bf3e b5aa 843e
00000380: 3616 453e 9cd5 223e ede6 8a3e 0586 043f
00000390: 32a3 b43e c408 2c3f fd63 c63e a499 1abd
000003a0: 3a16 953e f6b9 623d f213 7a3e e18a 5c3e
000003b0: a342 b23e ef44 d83d 74a3 6e3e 3230 be3e
000003c0: d9ed 6e3e e00e 983e 5979 123e 70b8 a43e
000003d0: 544e 4b3d 8516 4b3e a5a3 f93e bbce 893e
000003e0: 9d4e 85bd 78b3 5d3e 9f4c eabd a756 ae3d
000003f0: b280 123f f432 29bc 6e80 cc3e bb2c a83e
0.028882802 0.0025207396 0.4058078 0.35442168 0.45125392 0.59928775 0.36014205 0.46793437
0.5393 0.04936657 0.518636 0.029378088 -0.009169416 0.76908445 0.11708315 0.32535815
0.085211635 0.13048378 0.16206414 -0.1559778 -0.043457344 0.27272508 -0.10850271 0.23991698
0.19096282 0.63618845 0.22949912 0.4455405 0.6435285 0.07084142 0.55261296 0.48779166
0.10193523 -0.03358094 0.07654586 0.29109472 0.14538372 0.291901 0.22734907 0.030630205
0.504735 0.30768037 0.439786 0.48936546 0.28385323 -0.033813585 0.22577035 -0.052985016
-0.22624181 0.044673182 0.31743604 0.27584103 0.0999591 0.09816964 0.5208754 0.31347808
-0.076061726 0.22708748 0.09517219 0.040925123 0.6372474 0.040723186 0.14927022 0.5506857
-0.06946056 0.19852774 -0.11332583 0.0759087 -0.07049554 0.07500912 -0.03676204 -0.0020453997
-0.05654721 -0.059847634 -0.14934951 0.12223628 -0.06367217 0.033150453 0.039231107 -0.082970805
-0.014129408 -0.06410863 0.14803042 0.042175062 -0.04498054 -0.08378283 0.07908785 0.084382385
-0.07505783 0.07650995 -0.08343707 -0.1102701 0.08247889 0.08152268 -0.008473229 -0.054321256
0.04280396 0.011066949 0.13827251 0.15155613 0.12032191 -0.0017209796 -0.034975506 -0.0037784395
0.17804152 -0.0637512 -0.025399027 0.024964496 0.06105728 -0.18382853 0.1233525 0.0004646101
0.07983682 -0.008228962 0.038094945 0.25898755 -0.10297977 0.08473931 0.26927912 -0.05043896
0.12958011 0.10729694 0.037299246 0.03691423 0.0657077 0.09107081 -0.06340852 0.1920889
-0.09219661 0.05820713 0.27019486 0.057138305 0.3297563 -0.14600521 -0.22563148 -0.053275347
-0.07655747 -0.10127676 0.1607255 -0.23580664 0.118867755 0.035166033 -0.14942761 -0.04261004
0.0014802826 0.05510219 0.07392471 0.038712274 -0.08543982 0.22421485 0.11639771 0.08259889
-0.10953273 0.19754043 0.034927037 -0.3148584 0.15608436 0.3137927 0.31148207 -0.13456869
-0.06656959 0.08999531 0.04184137 -0.30190513 0.31658694 -0.41315964 -0.1060521 -0.1747353
-0.1922265 -0.078902304 -0.12378036 0.18518116 -0.016104301 0.14874566 -0.4522185 -0.11447519
-0.041244417 -0.19363108 -0.0058699436 0.2779955 -0.15253334 -0.09120467 -0.28749368 0.009917136
-0.10129811 0.06894384 -0.097391404 0.061308704 -0.30277646 0.07246832 0.06035579 0.3800217
0.19363758 0.076901205 0.42814884 0.1624176 0.27941668 0.28002045 -0.14096396 0.03556537
0.18124722 0.10514793 -0.124358416 0.32299268 0.16638453 0.2173922 0.026946258 0.60591
0.18657073 -0.013929377 0.059552327 -0.08670819 0.15300092 0.1559257 0.044508126 0.13566077
0.011634494 0.41894245 0.20985048 0.182243 0.26954105 0.4731718 0.37352553 0.2591149
0.19246754 0.15901798 0.27129307 0.51767 0.35280758 0.67200875 0.3874816 -0.03774418
0.2911852 0.055353127 0.24421671 0.21537353 0.34816465 0.10560023 0.2330454 0.37146145
0.23332919 0.2969885 0.14304103 0.32171965 0.049635246 0.1983281 0.48757663 0.26915535
-0.06509135 0.21650493 -0.114403956 0.085126214 0.57227623 -0.01032709 0.39941734 0.32846627
