model/bd_total_loss_batch_size=2048_epoch=300.pt (torch_old, 211198 bytes, 10 tensors)

lstm.weight_ih_l0 f4 [256, 1]
0	0x3e17a914	0.14810592
1	0x3e096992	0.13419178
2	0x3e39f1fd	0.18158717
3	0x3e97e3d1	0.29665998
4	0x3e4788e4	0.19485813
5	0x3e2f8d8f	0.17143844
6	0x3e8f123d	0.27943602
7	0x3e217f8b	0.1577131
8	0x3e53c3b5	0.20680125
9	0x3e244060	0.16040182
10	0x3e107c4b	0.14109914
11	0x3d5239bf	0.051324602
12	0x3dea0341	0.11426402
13	0x3e03c751	0.12869002
14	0x3d47612c	0.048676655
15	0x3ebef7f7	0.37298557
16	0x3d7b765c	0.061392173
17	0x3e8c2f12	0.27379662
18	0xbd0eafb9	-0.03483555
19	0x3d58906c	0.052872106
20	0x3dd2aa25	0.10286359
21	0xbe587376	-0.21137795
22	0x3e39311f	0.18085144
23	0x3eb60c07	0.3555605
24	0x3ebb6447	0.36599943
25	0x3e81c08c	0.25342214
26	0x3da433ca	0.080176905
27	0x3e1939a0	0.14963388
28	0x3e8079f6	0.2509305
29	0x3e32315a	0.17401639
30	0x3dd9052c	0.105966896
31	0x3e03eef1	0.12884118
32	0x3e966541	0.29374126
33	0x3eaebaa2	0.34126765
34	0x3e588d8e	0.21147749
35	0x3dce183a	0.100632146
36	0x3e8e1f68	0.27758336
37	0x3d843a18	0.06456393
38	0x3e8d2ba7	0.27572367
39	0x3e970584	0.29496396
40	0x3e877c33	0.26461944
41	0x3f4ca445	0.79938155
42	0x3ef96b7f	0.48714826
43	0xbdca9955	-0.09892527
44	0xbe0f661d	-0.14003797
45	0x3e793976	0.24338326
46	0x3e6f972b	0.2339751
47	0x3ec2407f	0.37939832
48	0x3c974d01	0.018469336
49	0x3e0e08c7	0.13870536
50	0x3e2b9aa4	0.1675821
51	0x3e810b18	0.25203776
52	0x3dca4f6b	0.09878429
53	0x3ef83e29	0.48484924
54	0x3d2548b7	0.04035255
55	0x3e93d9f1	0.28877214
56	0x3e802718	0.25029826
57	0x3ed0bbd6	0.40768307
58	0xbddf8f30	-0.10915983
59	0xbe11f82c	-0.14254826
60	0x3f377cd7	0.71674865
61	0x3e9411d0	0.2891984
62	0x3ee381e0	0.44435024
63	0x3d98bdf3	0.07458105
64	0xbd492d73	-0.04911561
65	0xbd1b6a41	-0.03794313
66	0xbc1327d9	-0.008981668
67	0xbcde4c53	-0.027136004
68	0xbd3b86f5	-0.045783002
69	0x3d95caa8	0.07314044
70	0x3eb70af8	0.35750556
71	0x3bc59fce	0.006031013
72	0x3eaf0fb5	0.3419167
73	0x3de18e92	0.11013521
74	0xbcf03186	-0.02932049
75	0x3e06ae39	0.13152398
76	0x3d929203	0.07156756
77	0x3ea94752	0.33062226
78	0xbd2e8f0e	-0.042616896
79	0x3d9ff212	0.07809843
80	0x3d84978e	0.06474219
81	0xbd92988d	-0.07158003
82	0x3e05657d	0.13026996
83	0xbc5bcf70	-0.013416156
84	0xbe078977	-0.13236032
85	0xbe19a228	-0.15003264
86	0x3aced741	0.0015780703
87	0x3d8dc955	0.06923167
88	0x3e58d70c	0.21175784
89	0x3e0d4091	0.13794161
90	0x3de07af6	0.10960953
91	0xbe416ef1	-0.18889977
92	0x3e8aad1e	0.27085203
93	0xbbb4b6f9	-0.005514976
94	0x3d1c92ea	0.038226046
95	0x3e2a1f46	0.16613492
96	0x3d2b2620	0.041784406
97	0x3df0f0af	0.11764657
98	0xbd00c3ea	-0.03143684
99	0x3daad2fd	0.08341024
100	0x3e8309fb	0.25593552
101	0xbd027a9d	-0.031855214
102	0x3e6c28bc	0.23062414
103	0x3e38ddfd	0.18053432
104	0xbd92f4ce	-0.07175599
105	0xbe682448	-0.2267009
106	0xbe3e3bb6	-0.18577465
107	0xbe33ca4f	-0.17557643
108	0xbe5e776b	-0.21725242
109	0x3d9ef128	0.07760841
110	0xbbebc49d	-0.007195069
111	0x3c4d5271	0.012531863
112	0xbddb1975	-0.10698215
113	0x3c87a0c8	0.016556159
114	0x3e074e7b	0.13213532
115	0xbc98c6d7	-0.018649502
116	0xbe2648ac	-0.1623866
117	0xbe19a376	-0.15003762
118	0x3e2c2eba	0.168147
119	0xbe2868d4	-0.16446239
120	0xbe22baa6	-0.15891513
121	0x3e3ed996	0.1863769
122	0xbe4d83fa	-0.20069876
123	0xbe010c3e	-0.12602326
124	0xbdb09a9d	-0.0862324
125	0x3e4c0b33	0.19926147
126	0xbcc61f1b	-0.024184754
127	0x3c9ec5ba	0.019381393
128	0x3e36d0af	0.17853044
129	0x3e0f0a89	0.13968863
130	0x3e47390d	0.19455357
131	0x3ec02264	0.37526238
132	0xbe8611dd	-0.26185504
133	0x3e2e04fc	0.16994089
134	0xbea29bf4	-0.31759608
135	0x3d8c946d	0.068642475
136	0x3effdcec	0.49973238
137	0x3dd7bf97	0.1053459
138	0xbe1d08da	-0.15335408
139	0xbe3551f8	-0.1770705
140	0x3d927077	0.07150357
141	0xbd97d30c	-0.07413301
142	0x3f0d60fb	0.55226105
143	0x3e31b9a2	0.1735597
144	0xbdc17639	-0.09446377
145	0x3ed85cfa	0.42258435
146	0xbe656d4d	-0.22404976
147	0xbe0f22d4	-0.1397813
148	0x3e965005	0.29357925
149	0xbe5c9458	-0.21540964
150	0x3e9f4447	0.3110678
151	0xbe534168	-0.20630419
152	0xbe4ec18f	-0.20191024
153	0x3e42280c	0.18960589
154	0x3e758b54	0.2397893
155	0x3df279c6	0.11839633
156	0x3ebf3723	0.37346753
157	0x3db0bbdb	0.086295806
158	0xbe5f874b	-0.21828954
159	0x3d8a9c80	0.06768131
160	0x3ec3c6d5	0.38237634
161	0xbe43c7a2	-0.19119123
162	0xbe989390	-0.2980008
163	0x3e6e401d	0.23266645
164	0x3e9318bb	0.28729805
165	0x3dee808d	0.11645613
166	0x3e8d9818	0.276551
167	0x3e9057ba	0.2819193
168	0xbe19cb48	-0.15018952
169	0xbe88d167	-0.2672226
170	0x3e87e2f8	0.2654035
171	0x3ec665d1	0.38749555
172	0xbe95c9b4	-0.2925545
173	0x3ed4c557	0.41556808
174	0x3ea522de	0.32253164
175	0x3ed316d6	0.4122836
176	0x3e0c9a3b	0.13730709
177	0x3e77a081	0.24182321
178	0xbdb54f95	-0.0885307
179	0x3f062192	0.52394974
180	0xbe687393	-0.22700338
181	0xbf051784	-0.51989007
182	0xbebe607a	-0.3718298
183	0x3e01ecc2	0.12687972
184	0xbea4c633	-0.32182464
185	0xbeb08af0	-0.34481
186	0xbe931cb1	-0.28732827
187	0x3edf3de3	0.43601903
188	0x3ee7c181	0.4526482
189	0x3e4c161a	0.19930306
190	0xbf01b766	-0.5067047
191	0xbf5455a7	-0.82943195
192	0x3e4c9850	0.19979978
193	0x3e1f3f49	0.15551485
194	0x3ddb15e0	0.10697532
195	0xbcb72cce	-0.022360232
196	0x3ed58198	0.41700435
197	0x3e0838dc	0.1330294
198	0xbe3bfe9b	-0.18358843
199	0x3e1f52a6	0.15558872
200	0xbe098a71	-0.13431717
201	0x3e407e80	0.18798256
202	0x3e415e57	0.18883644
203	0x3e243c9f	0.1603875
204	0x3e0f2724	0.13979775
205	0x3e12a7ef	0.14321874
206	0x3ebb6113	0.365975
207	0xbe13c905	-0.14432152
208	0x3dcf1b85	0.10112671
209	0x3ec2729e	0.3797807
210	0x3d83239b	0.064032756
211	0x3e9f0830	0.31060934
212	0x3dbfbedc	0.093625754
213	0xbcd700dc	-0.026245527
214	0xbe048300	-0.12940598
215	0x3d79fe20	0.061033368
216	0x3ed6c22f	0.41945025
217	0x3e2b2d1c	0.16716427
218	0x3d2e8aac	0.042612717
219	0x3e95e1b7	0.2927377
220	0xbdd1d077	-0.1024484
221	0x3edf0fa2	0.43566614
222	0x3d58e45d	0.05295216
223	0x3de211eb	0.11038574
224	0x3daf5892	0.08561815
225	0xbdd707fe	-0.10499571
226	0x3e311f3d	0.17297073
227	0xbdcf8e3e	-0.101345524
228	0x3e41bd49	0.18919863
229	0x3e847e21	0.2587748
230	0xbe1c5de0	-0.15270185
231	0xbdcf31af	-0.10116898
232	0xbdbe0d16	-0.0927984
233	0xbe56369b	-0.20919268
234	0x3ee801bc	0.45313823
235	0x3ed23fbf	0.4106426
236	0x3f0d5dfe	0.55221546
237	0x3dda53b9	0.106605
238	0xbe072f60	-0.13201666
239	0x3f19cb7c	0.6007612
240	0x3ea3acac	0.31967676
241	0x3e0b172b	0.13583057
242	0x3e2670ff	0.16254042
243	0x3d675485	0.05647709
244	0x3dcd3c18	0.100212276
245	0xbe047e59	-0.12938823
246	0x3d74bbcf	0.05974942
247	0x3e88a2b7	0.26686642
248	0xbe2d9388	-0.1695081
249	0x3ea489a8	0.32136273
250	0xbe4adc21	-0.19810535
251	0x3ec198d9	0.37811926
252	0xbd696799	-0.056983564
253	0x3e81d133	0.2535492
254	0x3f0adf55	0.5424703
255	0xbe0aa6a8	-0.13540137

lstm.weight_hh_l0 f4 [256, 64]
0	0x3e019a40	0.12656498
1	0x3c617653	0.013761121
2	0x3e6e0b99	0.23246612
3	0x3e58c062	0.21167138
4	0xbc065504	-0.00819898
5	0xbdb80347	-0.08985
6	0xbbf51166	-0.0074788807
7	0x3deb1aa4	0.11479691
8	0x3e5d0c51	0.2158673
9	0xbc935154	-0.017983116
10	0xbda622fd	-0.08112142
11	0xbe63654e	-0.22206613
12	0xbce8ea50	-0.028432041
13	0xbd8570bd	-0.06515644
14	0x3c63605b	0.013877953
15	0xbd947b2d	-0.072500564
16	0xbea9c352	-0.3315683
17	0x3d22381c	0.03960429
18	0xbd3ecd0e	-0.046582274
19	0xbd432be0	-0.047649264
20	0x3db3916b	0.08767971
21	0x3e0a81e9	0.1352612
22	0x3e89c731	0.26909783
23	0xbbc89164	-0.0061208475
24	0xbdd301d1	-0.10303081
25	0x3e03111f	0.127995
26	0x3e51aaee	0.20475361
27	0x3e0099be	0.12558648
28	0x3ea78404	0.32717907
29	0x3e48aefb	0.19598
30	0xbdc85632	-0.097820655
31	0x3e32d3fc	0.17463678
32	0x3e5c5485	0.21516617
33	0xbd4849dd	-0.048898567
34	0xbe302e59	-0.1720518
35	0x3e43e440	0.19130039
36	0x3e39523d	0.18097778
37	0x3dd5580b	0.104171835
38	0xbd4f1cc7	-0.050564554
39	0xbb3aaaa5	-0.002848306
40	0xbddeca5a	-0.10878439
41	0xbea6299e	-0.32453626
42	0x3d2a334d	0.04155283
43	0x3e82a9cc	0.2552017
44	0xbe86f82d	-0.26361218
45	0x3df36aa7	0.11885577
46	0xbc8ca7aa	-0.017169792
47	0x3cc7dc94	0.024397172
48	0x3db3395b	0.08751174
49	0x3d9cb8c2	0.07652427
50	0xbdf491e7	-0.11941891
51	0x3e77a638	0.24184501
52	0x3e055e73	0.13024311
53	0xbd80790c	-0.06273088
54	0xbd4ecfc4	-0.05049111
55	0x3da7cd82	0.081934944
56	0x3d988424	0.07447079
57	0xbe395a0f	-0.18100761
58	0xbf062b43	-0.5240976
59	0x3c451081	0.012027861
60	0x3d9c7c78	0.07640928
61	0xbc983b84	-0.018583067
62	0xbe13ccc1	-0.14433576
63	0xbe84100f	-0.25793502
64	0x3dbc3e03	0.09191515
65	0x3e1338da	0.14377156
66	0x3b4190b5	0.0029535715
67	0x3db7745b	0.0895774
68	0x3e1008f5	0.14065917
69	0x3d2d1e8a	0.042265452
70	0x3d4d1dc8	0.05007723
71	0xbbcc41dc	-0.006233437
72	0x3e951961	0.29120925
73	0x3cdd242d	0.026994789
74	0xbe07cfd9	-0.13262881
75	0xbc21ebdf	-0.009882896
76	0xbd7a902f	-0.06117266
77	0x3da3b7d0	0.07994044
78	0xb99a8fe6	-0.00029480382
79	0x3e17f92c	0.14841145
80	0xbe351558	-0.17683923
81	0x3de2c938	0.11073536
82	0x3cd777ac	0.026302181
83	0xbd0b9a3b	-0.034082633
84	0xbceb4a1e	-0.028721865
85	0x3e661637	0.22469412
86	0x3d68a53f	0.056798216
87	0xbcc32bce	-0.023824599
88	0xbcedabb6	-0.029012542
89	0x3b277557	0.0025552118
90	0x3e109496	0.14119181
91	0xb8fa1e55	-0.00011926579
92	0x3e8412ca	0.25795585
93	0x3c6283bd	0.013825354
94	0xbc4cd99a	-0.012503052
95	0x3e5656bc	0.20931524
96	0x3aeddab9	0.001814685
97	0x3d0ef1a1	0.034898404
98	0xbd3db7b9	-0.04631779
99	0x3e7f1c29	0.24913086
100	0x3e04a79d	0.12954564
101	0xbd926459	-0.07148046
102	0x3dad2b4e	0.08455525
103	0x3d4f42f2	0.050600953
104	0xbe16dda2	-0.14732984
105	0xbeca4b5c	-0.3951062
106	0xbd086045	-0.033294935
107	0x3c84e830	0.016223997
108	0xbe4a23da	-0.19740239
109	0x3d2783a1	0.040897015
110	0x3e38a023	0.18029837
111	0x3d8c7769	0.06858713
112	0xbc49c705	-0.012315516
113	0x3dafc89d	0.08583186
114	0xbd0b4a4c	-0.034006402
115	0x3d5b1b78	0.053492993
116	0x3e9fe8cb	0.31232294
117	0xbda290df	-0.07937788
118	0xbe5621fd	-0.20911403
119	0x3bf143c6	0.0073628156
120	0x3d15f21b	0.036607843
121	0xbe010e10	-0.1260302
122	0xbeb153ce	-0.3463425
123	0x3e429566	0.19002303
124	0x3daf3256	0.08554523
125	0x3cf140b3	0.029449796
126	0xbd5bfd77	-0.05370852
127	0xbc902c62	-0.017599288
128	0xbde233a1	-0.11045004
129	0xbe3dc726	-0.18533
130	0x3e111aeb	0.14170425
131	0xbd53c9b5	-0.051706035
132	0x3e0e8502	0.13917926
133	0xbe0c1118	-0.13678396
134	0xbdfe1c07	-0.124076895
135	0x3d3051a2	0.0430466
136	0x3e21ee6a	0.15813604
137	0x3d8a1a30	0.06743276
138	0xbd7febe1	-0.06248081
139	0xbe364d55	-0.17802937
140	0x3ab57c32	0.0013846217
141	0xbc5f4905	-0.013628249
142	0x3d9278ca	0.07151945
143	0xbdd188b8	-0.10231155
144	0xbdb9117c	-0.09036538
145	0x3dc05b40	0.093924046
146	0xbe78a97c	-0.24283403
147	0xbdd31672	-0.103070155
148	0xbe0dd0bc	-0.13849157
149	0x3e980e75	0.2969853
150	0xbe10c6d1	-0.14138342
151	0xbd6b03bc	-0.05737661
152	0xbdb66f26	-0.08907919
153	0x3dca6445	0.09882406
154	0x3dae627c	0.08514878
155	0xbd891da2	-0.06695105
156	0x3d5bb490	0.053638995
157	0x3dd29a19	0.10283298
158	0x3d08efa0	0.03343165
159	0x3e34d1de	0.17658183
160	0x3cda0f00	0.02661848
161	0xbdd609a6	-0.10451059
162	0xbe0a74ee	-0.13521168
163	0x3e25e612	0.16201046
164	0x3d665510	0.056233466
165	0xbe33b981	-0.17551233
166	0xbdc42b3c	-0.09578559
167	0x3d8aef44	0.067839175
168	0x3cef764c	0.029231213
169	0xbc03171f	-0.008001118
170	0xbd5c5096	-0.05378779
171	0xbd44740e	-0.04796224
172	0x3c2fbc9c	0.01072612
173	0xbd31c9c4	-0.04340531
174	0x3d9f6278	0.07782453
175	0xbe3b0463	-0.18263392
176	0x3e4d7e03	0.20067601
177	0x3c82f51c	0.015986018
178	0xbe185273	-0.14875202
179	0x3e2ad15b	0.16681425
180	0x3ecb2895	0.396794
181	0x3d0cd76f	0.03438514
182	0xbe4d2996	-0.20035395
183	0xbcb9a0eb	-0.02265974
184	0x3e8860bb	0.266363
185	0xbd9c72a3	-0.07639053
186	0xbe666fb8	-0.22503555
187	0x3e22effc	0.1591186
188	0xbde295ae	-0.110637054
189	0xbcebeb9a	-0.028798867
190	0x3e091908	0.13388455
191	0xbdaef701	-0.08543206
192	0xbc94c3f6	-0.018159848
193	0xbeabf1d3	-0.33582935
194	0x3d882ea6	0.066495225
195	0xbe35e445	-0.17762859
196	0x3e864552	0.26224762
197	0xbe236df1	-0.15959908
198	0xbc324131	-0.010879801
199	0xbd3e45bd	-0.046453226
200	0x3b8aa384	0.0042309184
201	0xbe17da93	-0.14829473
202	0x3d820c48	0.06349999
203	0xbd342cda	-0.043988086
204	0xbed42840	-0.41436958
205	0x3e800b49	0.2500861
206	0xbe961d74	-0.29319346
207	0x3e42bbfd	0.19017024
208	0x3e54c86c	0.2077958
209	0x3cefb29a	0.029259969
210	0xbea479bd	-0.3212413
211	0xbe38e017	-0.18054233
212	0xbe796c97	-0.2435783
213	0x3efffa6d	0.49995747
214	0xbe8805c2	-0.26566893
215	0xbe80d160	-0.2515974
216	0xbdd54119	-0.10412807
217	0x3e2877fa	0.16452017
218	0x3d3aa49c	0.04556714
219	0xbe7314e7	-0.23738442
220	0x3e778334	0.24171144
221	0x3dec26cc	0.115308374
222	0x3dd73dde	0.10509847
223	0x3d899a0b	0.067188345
224	0xbb5df650	-0.0033868738
225	0xbd078701	-0.033087734
226	0x3d294042	0.041321047
227	0xbe0d745d	-0.1381392
228	0xbe854551	-0.26029447
229	0xbe6e1fab	-0.23254268
230	0xbc87f167	-0.016594602
231	0xbe2de2b2	-0.16981009
232	0x3e43261d	0.19057508
233	0x3c27c3b3	0.010239529
234	0x3e2cd639	0.16878594
235	0xbdde9d57	-0.10869854
236	0xbead239e	-0.33816236
237	0x3e3e6146	0.18591794
238	0x3d2f3209	0.042772327
239	0xbec4dc51	-0.38449338
240	0x3cd3898e	0.025822427
241	0xbe865b53	-0.2624155
242	0xbe0b15d0	-0.1358254
243	0xbe07dc06	-0.13267526
244	0x3efe90c5	0.49719825
245	0xbd984e90	-0.074368596
246	0xbe534f28	-0.20635664
247	0x3d9c6f85	0.07638458
248	0x3dcd76ec	0.10032448
249	0xbe2f2303	-0.171032
250	0xbe77cf87	-0.24200259
251	0xbda393d6	-0.07987182
252	0xbe8a2e8c	-0.26988637
253	0xbe24dd3b	-0.16100018
254	0x3e8149dd	0.25251666
255	0xbe025c65	-0.12730558

lstm.bias_ih_l0 f4 [256]
0	0xbdbc669f	-0.09199261
1	0x3e0e6322	0.13905004
2	0x3eeee2f5	0.4665753
3	0x3f186b7f	0.59539026
4	0x3eaba3c2	0.33523375
5	0xbe0f7d70	-0.14012694
6	0x3eae0c2e	0.33993667
7	0x3d50f9b1	0.051019374
8	0x3ebd2ac7	0.369467
9	0xbe559c88	-0.20860493
10	0x3e534bd2	0.20634392
11	0x3ea3086c	0.31842363
12	0xbd8501d5	-0.0649449
13	0xbf26ba3b	-0.65127915
14	0x3f12c9a7	0.5733895
15	0x3f5e37a7	0.8680367
16	0x3e7ed873	0.24887256
17	0x3e70cd87	0.23515902
18	0x3e139942	0.14413932
19	0x3e7086da	0.23488942
20	0xbec9b595	-0.3939635
21	0x3e26b15d	0.16278596
22	0x3ef5e846	0.48028773
23	0x3e997abf	0.2997646
24	0x3f0236dd	0.50864965
25	0x3dc6cf15	0.097074665
26	0x3ed5c10b	0.41748843
27	0x3e2b9678	0.16756618
28	0x3ef656ff	0.48113248
29	0x3eba6fb5	0.3641335
30	0x3eb8b7c5	0.36077705
31	0x3e75321d	0.23944898
32	0x3f107d68	0.56441355
33	0xbdfd9855	-0.12382571
34	0x3e479627	0.19490872
35	0x3f0767d2	0.5289279
36	0x3ee122e5	0.43971935
37	0x3d907af7	0.07054704
38	0xbe7fb234	-0.24970323
39	0x3f00db5f	0.50334734
40	0x3e166a89	0.14689077
41	0x3f4dd0d2	0.8039676
42	0x3f094880	0.5362625
43	0x3e98b1ee	0.2982325
44	0x3f643fd4	0.89159894
45	0x3f050531	0.51961046
46	0x3ebf67d3	0.373839
47	0x3e726c5e	0.23674151
48	0x3e9a66a9	0.30156448
49	0x3e63815b	0.22217314
50	0x3de1d7ec	0.11027512
51	0x3ecd6a22	0.40120035
52	0xbeeaf05c	-0.45886505
53	0x3ed71d0f	0.42014357
54	0x3e0aaa07	0.13541423
55	0xbdb3fa06	-0.087879226
56	0x3f2a8c24	0.6662009
57	0x3e97c4a4	0.29642212
58	0x3ef780b7	0.4834039
59	0x3f196f5d	0.5993555
60	0x3e4ea957	0.20181786
61	0x3d7c3ff4	0.061584428
62	0x3f04c1eb	0.51858395
63	0x3f3c06ba	0.73447764
64	0x3e0e0326	0.13868389
65	0xbd9af55d	-0.075663306
66	0x3dc875a3	0.097880624
67	0xbde2286e	-0.110428676
68	0xbe2abb19	-0.16672935
69	0xbddc686d	-0.10762105
70	0xbe846c1a	-0.25863725
71	0x3c37c191	0.011215583
72	0xbe7ee30e	-0.24891302
73	0x3db0d4bc	0.08634326
74	0xbd7cee37	-0.061750617
75	0xbd8e53c6	-0.06949572
76	0x3ddfc126	0.10925512
77	0xbda5a49a	-0.08088036
78	0xbdcf3fba	-0.10119577
79	0xbe023549	-0.12715639
80	0x3e080b2d	0.13285513
81	0x3d85e709	0.06538207
82	0x3c2cf1f6	0.010555735
83	0x3d494726	0.049140118
84	0xbe675fa2	-0.22595075
85	0x3d0cfe73	0.03442235
86	0xbda74746	-0.08167891
87	0x3dd5c042	0.10437061
88	0xbd9e94ce	-0.07743226
89	0x3dce4b4f	0.10072958
90	0x3e4cccee	0.2000005
91	0xbd4c5cef	-0.049893316
92	0xbc4e32d4	-0.012585361
93	0x3e1dae01	0.15398408
94	0xbd8e2e5e	-0.069424376
95	0x3cf4e62d	0.029894913
96	0x3da7df6b	0.081969105
97	0x3da2379a	0.079207614
98	0xbce3bdd1	-0.027800472
99	0xbdea14de	-0.11429761
100	0xbd71ac10	-0.059001982
101	0xbd764c7e	-0.060131542
102	0xbe1c8f16	-0.15288958
103	0x3d4ec7bd	0.050483454
104	0xbdb2bff9	-0.08728022
105	0x3e91281d	0.28350917
106	0xbe1f291d	-0.15543027
107	0x3e0fcca9	0.14042915
108	0x3df3b58c	0.11899862
109	0xbdcbc5d0	-0.09949839
110	0x3d5808e5	0.052742857
111	0xbe19bcd2	-0.15013435
112	0xbd076713	-0.033057284
113	0xbd6bf40e	-0.057605796
114	0xbd2aab11	-0.041667048
115	0xbd859fa3	-0.06524589
116	0xbd6deca8	-0.05808702
117	0x3e3de724	0.18545204
118	0x3dd07dc2	0.101802364
119	0x3d779ad5	0.060450394
120	0xbc4ea154	-0.012611706
121	0xbda6e77f	-0.08149623
122	0x3dafa266	0.08575897
123	0xbd8870e5	-0.06662158
124	0xbdf1c8d4	-0.11805883
125	0xbdfbfa77	-0.12303632
126	0xb9f36768	-0.00046425615
127	0x3d3a0f16	0.045424543
128	0x3e007fb8	0.12548721
129	0xbdcf8e1a	-0.101345256
130	0x3ed68711	0.41899922
131	0x3ef41333	0.47670898
132	0x3e5797b0	0.21053958
133	0xbd9e998e	-0.07744132
134	0x3e3f21f8	0.18665302
135	0xbdc6f47c	-0.097146004
136	0x3e87c6ab	0.2651876
137	0xbcf4ac27	-0.029867245
138	0xbe58edd5	-0.21184476
139	0xbeebc26a	-0.46046764
140	0x3d2db692	0.04241044
141	0x3c3f95f6	0.011693468
142	0x3eafc64e	0.34330982
143	0xbef907bb	-0.4863871
144	0xbea957ae	-0.33074707
145	0xbf136ad5	-0.5758489
146	0x3e4c7f48	0.19970429
147	0x3e340bc4	0.17582613
148	0xbda2326e	-0.07919775
149	0x3d0e37c9	0.03472117
150	0x3e787410	0.24263024
151	0x3e064907	0.13113795
152	0x3f167eb8	0.5878711
153	0x3d87fb33	0.06639709
154	0x3ed8f1ee	0.42372078
155	0x3e81363b	0.25236687
156	0x3ea66aa9	0.3250325
157	0x3e971d94	0.29514754
158	0x3d755fc7	0.059905794
159	0x3edf29bb	0.43586525
160	0x3ed28ddb	0.41123852
161	0xbd4c757f	-0.04991674
162	0xbe8913e9	-0.26773003
163	0x3efbe845	0.49200645
164	0xbd0d0c82	-0.034435757
165	0xbe828072	-0.2548862
166	0xbe6bfc50	-0.23045468
167	0x3e83eb3f	0.25765416
168	0x3d7779d2	0.06041891
169	0xbf00e393	-0.5034725
170	0xbf89e792	-1.0773795
171	0x3e0bc5d5	0.13649686
172	0x3efb8694	0.49126112
173	0xbf02b0d6	-0.5105108
174	0x3e9e3341	0.3089848
175	0xbebe055e	-0.3711347
176	0x3ebae690	0.3650403
177	0x3ef69860	0.48163128
178	0x3d880587	0.06641679
179	0x3f01828c	0.50589824
180	0x3eebb540	0.4603672
181	0xbe9ee828	-0.31036496
182	0x3c853e1f	0.016264973
183	0xbea1df57	-0.31615707
184	0x3f309450	0.68976307
185	0x3d5b35eb	0.053518217
186	0xbe55a447	-0.20863448
187	0xbe1e8eb0	-0.15484118
188	0xbf271bca	-0.6527678
189	0xbde0c53f	-0.10975122
190	0x3f32e292	0.6987697
191	0x3ebb5ccc	0.36594236
192	0xbe79df23	-0.24401526
193	0x3e779411	0.24177577
194	0x3e7cddc1	0.24693967
195	0x3e8487af	0.25884768
196	0x3db5bee7	0.08874302
197	0xbf71df8e	-0.9448174
198	0x3f22403c	0.63379264
199	0x3e2d5744	0.1692782
200	0x3ea0c6b5	0.314016
201	0xbcea80ab	-0.028625807
202	0x3e2070a5	0.1566797
203	0x3ee9bf6d	0.4565386
204	0xbcfca35f	-0.03083962
205	0xbeed6e0c	-0.46373022
206	0x3f13a10d	0.5766762
207	0x3f7f0353	0.9961445
208	0x3ec1df32	0.37865597
209	0x3e8d47fe	0.27593988
210	0x3d9d9a2c	0.076954216
211	0xbd4a897b	-0.049447518
212	0xbdf0da03	-0.117603324
213	0x3ea6c3b4	0.32571185
214	0x3ea09c69	0.3136933
215	0x3e886bd8	0.26644778
216	0x3ed7ba5f	0.42134377
217	0x3e1a6d82	0.15080836
218	0x3f064b0e	0.52458274
219	0x3e96b17e	0.2943229
220	0x3ecd76cc	0.40129697
221	0x3eef7499	0.46768644
222	0x3ea9c68a	0.33159286
223	0x3e43bbd4	0.1911462
224	0x3dd091c5	0.10184053
225	0x3e4426e5	0.19155462
226	0x3dd5db7f	0.10442256
227	0x3eaed670	0.34147978
228	0x3ef46854	0.47735846
229	0xbc59502d	-0.013263744
230	0x3f10452e	0.5635556
231	0x3eacd0cc	0.3375305
232	0x3e832b56	0.25619
233	0x3f8ab920	1.0837746
234	0x3f13cc31	0.57733446
235	0x3eefa339	0.46804217
236	0x3f06bba3	0.5263006
237	0x3f01bbe7	0.5067734
238	0x3ed6caaf	0.4195151
239	0x3d006bdc	0.031352863
240	0x3e5abf5c	0.2136206
241	0x3ece2a12	0.40266472
242	0x3da668c4	0.08125451
243	0x3eaeeb07	0.34163687
244	0xbd4e212d	-0.050324608
245	0x3f3406bd	0.7032278
246	0x3e90f9b3	0.28315505
247	0x3dc9cb7f	0.09853267
248	0x3f947467	1.1598023
249	0x3e91add8	0.28452945
250	0x3ec19a3c	0.37812984
251	0x3ebc0536	0.36722726
252	0x3f0639aa	0.5243174
253	0x3e8dcca1	0.27695182
254	0x3f23380d	0.637574
255	0x3f122109	0.5708166

lstm.bias_hh_l0 f4 [256]
0	0xbd1b053b	-0.037846785
1	0x3e5350fe	0.20636365
2	0x3ece2ee8	0.40270162
3	0x3ecdb13d	0.40174285
4	0x3ea44072	0.32080418
5	0xbdf84c20	-0.12123895
6	0x3e42af0b	0.19012086
7	0xbcb7d5fa	-0.0224409
8	0x3ec543c0	0.38528252
9	0xbe0d5644	-0.13802439
10	0x3dace49d	0.08442042
11	0x3ed47037	0.41491863
12	0xbe3efbb8	-0.1865071
13	0xbf1ff12f	-0.6247739
14	0x3f192e75	0.5983651
15	0x3f3f1c08	0.7465215
16	0x3eceac28	0.4036572
17	0x3ea83ced	0.32858983
18	0x3e2c7a64	0.16843563
19	0x3df6d6f2	0.12052716
20	0xbeac4f2d	-0.33654156
21	0x3e995beb	0.2995294
22	0x3eb711fe	0.35755914
23	0x3e03a00b	0.1285402
24	0x3ed7fc4f	0.42184684
25	0x3e507744	0.20357996
26	0x3f0f1aad	0.5590008
27	0x3e76dcd9	0.24107684
28	0x3f2b6720	0.6695423
29	0x3eaa1417	0.33218452
30	0x3e83be6a	0.25731212
31	0x3e854bd6	0.2603442
32	0x3ed3bd54	0.41355383
33	0xbb922cdf	-0.0044609155
34	0x3e796812	0.24356106
35	0x3ee7c828	0.45269895
36	0x3e930ffe	0.2872314
37	0xba048949	-0.00050558575
38	0xbe52ef4b	-0.20599096
39	0x3ee1254c	0.43973768
40	0x3e819d31	0.2531524
41	0x3f58ff1a	0.84764254
42	0x3edde55d	0.43339053
43	0x3e639592	0.22225025
44	0x3f6bce98	0.9211211
45	0x3efaf493	0.4901472
46	0x3e45f447	0.19331466
47	0x3ec148fd	0.37750998
48	0x3eb896e0	0.36052608
49	0x3ebc61c2	0.36793333
50	0x3dc8e9f6	0.098102495
51	0x3ee7319e	0.45155042
52	0xbf048d73	-0.51778334
53	0x3ed5f471	0.41788056
54	0x3da9b6e7	0.08286839
55	0x3d44879a	0.047980882
56	0x3f51000c	0.81640697
57	0x3eb9cf9b	0.36291203
58	0x3ef511ea	0.4786523
59	0x3f452692	0.7701198
60	0x3ea0886b	0.3135408
61	0xbc8d29e4	-0.01723189
62	0x3f2a9594	0.6663449
63	0x3f1f16ca	0.6214415
64	0x3db00c3a	0.08596082
65	0x3cfb4a61	0.030675115
66	0x3de0875e	0.10963319
67	0xbde4e1fa	-0.11175914
68	0xbd3bab30	-0.045817554
69	0xbe4bff6e	-0.19921657
70	0xbe6720a8	-0.22571051
71	0x3dbb07fa	0.09132381
72	0xbe775bf1	-0.24156167
73	0xbcde070a	-0.027102966
74	0xbdd1b5d9	-0.10239763
75	0xbd3e6e85	-0.04649212
76	0xbce82b57	-0.028340979
77	0xbe719192	-0.23590687
78	0xbdab4d39	-0.083643384
79	0xbe661bb1	-0.22471501
80	0x3db7dbc9	0.089774676
81	0xbd4c572a	-0.049887814
82	0x3d9304eb	0.071786724
83	0x3d96811c	0.073488444
84	0xbe0343eb	-0.12818877
85	0xbdc9a599	-0.09846038
86	0xbe2bf3d6	-0.16792235
87	0x3e0226ba	0.12710086
88	0xbdd9d257	-0.10635822
89	0x3c0ab142	0.008465113
90	0x3ddfb958	0.109240234
91	0x3c59af82	0.013286473
92	0x3b2ef6e6	0.0026697456
93	0xbc92b5cb	-0.017908951
94	0x3d5c0435	0.05371495
95	0x3e099b2d	0.13438101
96	0xbcca0f7c	-0.024665587
97	0xbdf1d0b8	-0.11807388
98	0x3d81f28c	0.0634509
99	0xbe117af5	-0.1420706
100	0xbe873d84	-0.2641412
101	0x3dca9111	0.098909505
102	0xbda2961a	-0.07938786
103	0xbe164764	-0.14675671
104	0xbb1adf2e	-0.002363156
105	0x3dcb842e	0.09937321
106	0xbcb69f3c	-0.022292726
107	0x3c3fcaaf	0.011706038
108	0x3de7ed6d	0.11324582
109	0xbdbcb3ef	-0.09214007
110	0xbd8e644f	-0.06952726
111	0x3b952a96	0.004552196
112	0x3e18f9e8	0.14939082
113	0xbe1d8415	-0.15382417
114	0x3dd189ef	0.10231387
115	0x3c2b5434	0.010457087
116	0xbde0a431	-0.10968817
117	0x3e20d655	0.15706761
118	0x3e1b58c2	0.15170577
119	0x3b5afe5a	0.0033415766
120	0xbd9f4d8b	-0.07778462
121	0xbcbf4e8a	-0.02335288
122	0x3e036622	0.1283193
123	0x3ce07365	0.027398774
124	0xbd99b620	-0.07505441
125	0xbdc86d09	-0.09786422
126	0x3cca776c	0.024715148
127	0x3deb2da8	0.114833176
128	0xbdc64fb1	-0.09683169
129	0xbc4b557e	-0.01241052
130	0x3ee9e954	0.45685828
131	0x3ef2fc17	0.47457954
132	0x3e2c9d8e	0.16856977
133	0xbe0df699	-0.13863601
134	0x3db4b551	0.08823646
135	0x3dadaad9	0.08479852
136	0x3e1ca7e7	0.15298425
137	0x3dce3bf5	0.1007003
138	0xbe8775fc	-0.26457202
139	0xbed5e3b8	-0.41775298
140	0x3daa1bb5	0.08306066
141	0x3e182825	0.14859064
142	0x3ec30578	0.3809011
143	0xbf102506	-0.56306493
144	0xbeea7335	-0.4579102
145	0xbef7aad8	-0.4837253
146	0x3e16789c	0.14694446
147	0x3eb5f984	0.35541928
148	0xbe47aacc	-0.19498748
149	0x3e26f1d1	0.16303183
150	0x3eb2d40f	0.34927413
151	0x3e65f789	0.22457708
152	0x3f2e16d8	0.68003607
153	0xbcd116b6	-0.025523525
154	0x3ee9949d	0.45621195
155	0x3e46dce0	0.19420195
156	0x3ec7e257	0.3903987
157	0x3e2c04dd	0.1679873
158	0x3e47e6a0	0.1952157
159	0x3ecf530c	0.40493047
160	0x3e86def5	0.26341978
161	0x3da01e53	0.07818284
162	0xbe95fa9f	-0.2929277
163	0x3f06bd8e	0.5263299
164	0x3e27e6c2	0.16396621
165	0xbd9c65c8	-0.07636601
166	0xbee2fef7	-0.44335148
167	0x3eaad466	0.33365172
168	0xbe0f76cd	-0.14010163
169	0xbf104625	-0.5635703
170	0xbf8f243a	-1.118293
171	0x3e505f19	0.20348777
172	0x3ef53863	0.47894582
173	0xbf014d0a	-0.5050818
174	0x3e366f90	0.17815995
175	0xbeefcf39	-0.46837786
176	0x3e91bca7	0.28464243
177	0x3ea3ba82	0.31978232
178	0xbb4f1b2f	-0.0031601896
179	0x3eda1220	0.42591953
180	0x3e9731ca	0.29530174
181	0xbe0750e7	-0.13214456
182	0xbc124c93	-0.0089293895
183	0xbea3f6ec	-0.32024324
184	0x3f12d87c	0.5736158
185	0x3dc88668	0.09791261
186	0xbe1ffa72	-0.15622881
187	0xbd4e8a89	-0.050425086
188	0xbf22e7e8	-0.6363511
189	0xbeae576f	-0.34051082
190	0x3f46367c	0.77426887
191	0x3e80c9ba	0.25153905
192	0xbdf8ee6b	-0.121548496
193	0x3e57191f	0.21005677
194	0x3e2f688b	0.17129724
195	0x3eb3fae6	0.35152358
196	0xbad3417a	-0.0016117536
197	0xbf75e6c8	-0.9605527
198	0x3f22cbca	0.6359221
199	0x3e1004b6	0.14064297
200	0x3ea6ba63	0.32564077
201	0xbd15bf2c	-0.03655927
202	0x3e6b9761	0.23006965
203	0x3ec554b9	0.385412
204	0xbd94a8b6	-0.072587416
205	0xbedf829f	-0.43654343
206	0x3f1d1068	0.6135316
207	0x3f8fc9f2	1.1233504
208	0x3eaf9a8f	0.34297606
209	0x3ed6221e	0.41822904
210	0x3e1db4fd	0.15401073
211	0xbce4297b	-0.02785181
212	0x3dd82624	0.1055415
213	0x3eac6873	0.33673438
214	0x3ecd132d	0.40053692
215	0x3e4aba60	0.19797659
216	0x3ea3cb4e	0.31991047
217	0x3e6ebba8	0.23313773
218	0x3f15d862	0.585333
219	0x3e95ae7d	0.29234686
220	0x3ee9e90c	0.45685613
221	0x3ebdc8d1	0.37067273
222	0x3ec40cdb	0.38291058
223	0x3e4223e9	0.18959011
224	0x3dde586f	0.10856711
225	0x3e4c1d74	0.1993311
226	0x3dbe610b	0.09295853
227	0x3e96cf41	0.29454997
228	0x3eff5a89	0.4987376
229	0x3cb0e64e	0.021594193
230	0x3f016d76	0.5055765
231	0x3ed1bd1e	0.40964597
232	0x3e5d1e05	0.21593483
233	0x3f68abd2	0.90887177
234	0x3f1cd821	0.61267287
235	0x3ec001b8	0.3750131
236	0x3f05788c	0.52137065
237	0x3f17de23	0.5932333
238	0x3f171522	0.5901662
239	0x3e61639d	0.22010656
240	0x3eb2be8c	0.34911
241	0x3eb8d667	0.36101076
242	0x3ddef325	0.1088622
243	0x3e856e91	0.26060918
244	0xbe522cfb	-0.20524971
245	0x3f302773	0.68810195
246	0x3ddc6f42	0.10763408
247	0x3e8057c9	0.25066975
248	0x3f811e7b	1.0087427
249	0x3e7d5e5c	0.24743026
250	0x3ec2a2ae	0.3801474
251	0x3ec67dbf	0.38767812
252	0x3f25902c	0.64673114
253	0x3e66ad8a	0.22527137
254	0x3f2e5495	0.6809781
255	0x3f06eb71	0.52703005

lstm.weight_ih_l1 f4 [256, 64]
0	0x3e120c3f	0.14262484
1	0x3e861c89	0.26193646
2	0x3e2df4e1	0.16987945
3	0x3e08ebb6	0.13371167
4	0xbe6cc4d4	-0.23121959
5	0x3e725de0	0.23668623
6	0xbcc63d4d	-0.024199152
7	0x3e4eb8ab	0.20187633
8	0x3e89cbf5	0.2691342
9	0x3e336bcc	0.1752159
10	0xbe0835fe	-0.13301846
11	0xbe29ceac	-0.16582745
12	0x3e854b22	0.26033884
13	0xbb0cd61a	-0.002148992
14	0x3eacaa7b	0.33723816
15	0xbe3eb18f	-0.1862242
16	0xbefa4506	-0.48880786
17	0x3c57ac7d	0.013163683
18	0xbe166d4d	-0.14690132
19	0xbdf6976a	-0.12040599
20	0x3e512859	0.20425548
21	0xbd867832	-0.06565894
22	0x3ec4374c	0.38323438
23	0xbe355644	-0.17708689
24	0xbd4a5e0a	-0.04940609
25	0x3bb32334	0.005466843
26	0x3e329c7e	0.1744251
27	0x3de95a30	0.11394155
28	0x3ee95a90	0.45576906
29	0x3e308eed	0.17242022
30	0xbcc59778	-0.024120077
31	0x3eb727db	0.35772595
32	0x3df61c49	0.12017114
33	0xbe0db285	-0.13837631
34	0xbdd2a29f	-0.10284924
35	0x3ea6c28c	0.32570302
36	0x3e04576f	0.12923978
37	0x3e2cc726	0.16872844
38	0x3dab3881	0.08360387
39	0x3e3e4fff	0.18585204
40	0xbe814a97	-0.2525222
41	0xbf3a0dfe	-0.726776
42	0xba671d78	-0.0008816342
43	0x3e680199	0.2265686
44	0xbe5b5ac1	-0.21421339
45	0x3e353e0e	0.17699453
46	0x3d9f1aae	0.077687606
47	0x3e9ccb1c	0.3062371
48	0x3e716cac	0.23576611
49	0x3e167e74	0.14696676
50	0x3b5087fd	0.0031819337
51	0x3e2ef09e	0.17083976
52	0xbcff43de	-0.031160291
53	0xbe922d66	-0.2855026
54	0xbe284d09	-0.16435637
55	0x3e66b04d	0.22528191
56	0x3e870cda	0.26376992
57	0xbd3b5b81	-0.04574156
58	0xbf2d1e60	-0.67624474
59	0x3da3c642	0.07996799
60	0x3e7bfbe4	0.24607807
61	0x3aebd200	0.0017991662
62	0xbdfff532	-0.12497939
63	0xbe01c551	-0.12672926
64	0x3e3a826d	0.18213816
65	0x3d41e8a8	0.04734102
66	0x3e9b863b	0.30375847
67	0x3ea1f7c6	0.3163435
68	0xbde35de6	-0.11101894
69	0x3ca714f8	0.02039574
70	0x3c305866	0.010763263
71	0x3e02f6b3	0.12789421
72	0x3ea9c8eb	0.331611
73	0x3e13579b	0.14388888
74	0xbe3bc3f3	-0.18336467
75	0xbe94f67c	-0.29094303
76	0x3d4d3f45	0.050109167
77	0xbe5d01b3	-0.2158268
78	0x3e94c274	0.29054606
79	0xbefc7732	-0.4930969
80	0xbec2deda	-0.38060647
81	0x3d4bcea1	0.049757604
82	0x3d84720a	0.06467064
83	0xbd82f49f	-0.06394314
84	0xbd5c4406	-0.05377581
85	0x3e4ab3b0	0.19795108
86	0x3ea5eeb1	0.3240867
87	0x3a2b3fa8	0.0006532618
88	0x3c3d77d1	0.011564211
89	0x3de93e62	0.11388852
90	0x3ed6370b	0.4183887
91	0x3e7df041	0.24798681
92	0x3e7ee3cb	0.24891584
93	0x3e4c5d87	0.19957553
94	0xbd9777ee	-0.07395922
95	0x3ed7eef5	0.42174497
96	0x3ea6ec06	0.32601947
97	0xbe223a70	-0.15842605
98	0xbe891cd3	-0.26779804
99	0x3ef92816	0.48663396
100	0x3e61d0ea	0.2205235
101	0xbde1cba2	-0.11025168
102	0xbd1a9151	-0.03773624
103	0x3e7262ed	0.2367055
104	0xbe91eb32	-0.28499752
105	0xbec61370	-0.38686705
106	0xbd3259ef	-0.0435428
107	0x3e127687	0.14303027
108	0x3be8a961	0.0071002697
109	0x3bcf9117	0.0063344347
110	0x3ea34342	0.3188725
111	0x3be2e65d	0.006924434
112	0x3ea081d4	0.3134905
113	0x3ec409cc	0.38288724
114	0xbe3b0afc	-0.18265909
115	0x3ec33804	0.38128674
116	0x3e87aec5	0.26500526
117	0xbe8ac2ec	-0.2710184
118	0xbe2e491a	-0.17020074
119	0x3e715d25	0.23570688
120	0x3e504b71	0.20341279
121	0xbbaff806	-0.005370143
122	0xbeab68a8	-0.33478284
123	0x3d870f80	0.06594753
124	0xbe5a3892	-0.21310642
125	0xbdf06809	-0.11738593
126	0x3d5be416	0.053684317
127	0xbdc49da1	-0.09600378
128	0xbe6bd398	-0.23029935
129	0xbebfd2a9	-0.37465408
130	0x3dc22ed1	0.09481586
131	0x3d0072d9	0.031359527
132	0x3e64a791	0.22329547
133	0xbe816878	-0.25275016
134	0x3ea5ecb3	0.3240715
135	0xbdfa7f06	-0.12231259
136	0xbe83681b	-0.25665364
137	0xbe6edcf0	-0.23326468
138	0x3e474269	0.19458927
139	0xba861083	-0.001022831
140	0xbf18365e	-0.5945796
141	0xbdaf1874	-0.08549586
142	0xbe213195	-0.1574157
143	0xbf51c207	-0.8193669
144	0x3d78c507	0.060734775
145	0xbeb8daa6	-0.36104316
146	0x3d538311	0.051638667
147	0x3cfee187	0.0311134
148	0xbe84988f	-0.25897643
149	0xbefdc5a9	-0.49564865
150	0xbef4ae23	-0.47789106
151	0xbd9d1604	-0.07670215
152	0x3cc31bea	0.023817021
153	0xbe034142	-0.12817863
154	0x3c95feac	0.018309914
155	0xbd33b2ec	-0.043871805
156	0x3da2e869	0.07954485
157	0x3d6f9cec	0.05849926
158	0xbe347863	-0.17624049
159	0xbc55f33b	-0.013058479
160	0x3e395ec9	0.18102564
161	0x3f1c259a	0.60994875
162	0xbd584ef2	-0.052809663
163	0x3e2e9da1	0.17052318
164	0xbe655a0d	-0.22397633
165	0x3d6890d1	0.056778733
166	0xbed7b974	-0.42133677
167	0xbe0500be	-0.12988564
168	0x3ef3f53b	0.47648033
169	0xbf0f1612	-0.5589305
170	0xbe63c15e	-0.22241732
171	0xbde28dda	-0.11062212
172	0x3ea8e177	0.32984516
173	0xbe87075e	-0.26372808
174	0xbddd47ea	-0.10804732
175	0xbeb98f5a	-0.3624218
176	0x3da09618	0.07841128
177	0xbe6b2019	-0.22961463
178	0x37b6f535	2.1810274e-05
179	0x3da2b0f9	0.07943911
180	0x3e56d3d1	0.20979239
181	0x3d697794	0.056998804
182	0x3d5752a3	0.052569043
183	0xbe774b4f	-0.24149822
184	0x3f4f129b	0.80887765
185	0x3cc23a31	0.023709388
186	0xbd3d2ff4	-0.04618831
187	0xbe0d69ae	-0.13809845
188	0xbf18a0d4	-0.59620404
189	0xbde7b9c0	-0.11314726
190	0x3f3ff72e	0.7498654
191	0x3d9d3471	0.07676018
192	0x3e3c695a	0.18399563
193	0x3d8e17c5	0.069381274
194	0x3e25fead	0.16210432
195	0xbb80481d	-0.0039148466
196	0xbe4802a6	-0.1953226
197	0x3df8c16f	0.121462695
198	0xbe732e2a	-0.23748079
199	0x3e423329	0.18964829
200	0x3eb27fbe	0.34863085
201	0x3c9d95cb	0.019236466
202	0xbe50f607	-0.20406352
203	0xbe550ead	-0.2080638
204	0x3ea15faf	0.31518313
205	0xbde62623	-0.11237743
206	0x3e3db1fd	0.18524928
207	0x3eb90b85	0.361416
208	0xbe8648af	-0.26227328
209	0x3df975bc	0.12180659
210	0xbe20d615	-0.15706666
211	0xbe85ce0e	-0.2613377
212	0xbcf19c66	-0.029493522
213	0xbe8b9629	-0.27263
214	0x3e7c1cde	0.24620387
215	0xbb906aac	-0.0044072475
216	0xbe3d0111	-0.18457438
217	0x3de9ce99	0.114163585
218	0x3e3e1cca	0.1856567
219	0x3e6fb61c	0.23409313
220	0x3e5bd7fb	0.21469109
221	0x3e95ca28	0.29255795
222	0xbe941c25	-0.28927723
223	0x3e83a47b	0.25711426
224	0x3e788862	0.24270776
225	0xbe52d3f2	-0.20588663
226	0xbe4858c2	-0.19565108
227	0x3e654ab5	0.2239178
228	0x3e32dda6	0.17467365
229	0x3e5c92bb	0.21540348
230	0x3e0f2be8	0.13981593
231	0x3db3cc06	0.08779149
232	0xbe0206d0	-0.12697911
233	0xbc1cd478	-0.009572141
234	0x3e8269f1	0.25471452
235	0x3e7a6041	0.2445078
236	0xbe89895d	-0.26862612
237	0x3e998f30	0.29992056
238	0x3e51b90e	0.20480749
239	0x3f1dc093	0.6162197
240	0x3dbab62b	0.09116777
241	0x3e4ea762	0.20181039
242	0xbd6de332	-0.058078
243	0x3e15f933	0.14645843
244	0xbd2c8053	-0.042114567
245	0xbe85170e	-0.25994152
246	0xbe642683	-0.22280316
247	0x3e47eca6	0.19523868
248	0xbe7c4a52	-0.24637726
249	0xbd1c4aa2	-0.038157113
250	0xbe85c58f	-0.26127288
251	0x3dcaa248	0.09894234
252	0x3ecbb912	0.39789635
253	0x3d80369e	0.062604174
254	0xbef45cdb	-0.47727093
255	0xbdddced8	-0.10830468

lstm.weight_hh_l1 f4 [256, 64]
0	0xbbd052e3	-0.006357537
1	0xbebcbcb0	-0.36862707
2	0xbce194e3	-0.027536815
3	0xbc1f0c9e	-0.009707598
4	0x3d44cdbc	0.048047766
5	0xbd2463a3	-0.040134083
6	0x3d93c365	0.07215003
7	0x3e2d05c1	0.16896726
8	0x3dbaddbf	0.09124326
9	0xbe0d0173	-0.13770084
10	0x3dc4a76a	0.09602244
11	0x3df190b0	0.11795175
12	0x3dfc698f	0.12324821
13	0x3e0a5b9b	0.13511507
14	0xbd1fc7e9	-0.03900901
15	0x3e1968c4	0.14981371
16	0x3d4db05d	0.05021702
17	0x3e14d971	0.14536072
18	0x3e36503d	0.17804046
19	0x3ddba11f	0.10724091
20	0x3d9f0ac6	0.07765727
21	0xbd851bca	-0.06499441
22	0xbd93f674	-0.072247416
23	0xbe0b3913	-0.13595991
24	0x3dae804e	0.08520566
25	0xbe1e1e8a	-0.15441337
26	0xbdd05be1	-0.101737745
27	0xbd5a1987	-0.053247
28	0x3d776b5f	0.06040513
29	0xbc0b467b	-0.008500691
30	0x3c304114	0.010757703
31	0xbd958769	-0.07301218
32	0x3e23eedc	0.16009086
33	0xbd984c0a	-0.07436378
34	0x3d59979a	0.053123094
35	0xbd1b94c0	-0.037983656
36	0x3e312b9d	0.17301793
37	0x3d141b08	0.03615859
38	0x3e52b998	0.20578611
39	0x3d93a444	0.072090656
40	0x3d60c5c4	0.054876104
41	0x3d92870f	0.07154667
42	0xbe8cdfb4	-0.27514422
43	0x3dbc2f68	0.091887295
44	0x3d432c88	0.04764989
45	0xbd72e472	-0.059299894
46	0x3bcef03a	0.0063152583
47	0xbe0a7196	-0.13519892
48	0xbe08b31a	-0.13349572
49	0xbd1be809	-0.038063083
50	0xbd25f07f	-0.040512558
51	0x3cdd88c3	0.027042752
52	0xbe1f06b5	-0.15529902
53	0xbddafa00	-0.10692215
54	0x3dfacd99	0.12246246
55	0x3b8adcbd	0.00423774
56	0x3c3b4ea8	0.011432327
57	0xbd0680a8	-0.03283754
58	0x3cbe9cf3	0.023268199
59	0xbb2d3f9a	-0.0026435615
60	0x3df99442	0.12186481
61	0x3da377be	0.079818234
62	0x3d858e65	0.065213
63	0xbe497133	-0.19672088
64	0xbe7d733d	-0.24750991
65	0xbd167400	-0.03673172
66	0xbe04dd20	-0.12974977
67	0xbd23d964	-0.04000224
68	0xbd201e26	-0.03909125
69	0x3c532b51	0.012888745
70	0x3bf34612	0.0074241245
71	0xbe3c4b82	-0.18388179
72	0xbe08c2a6	-0.13355502
73	0xbe600eef	-0.21880697
74	0xbbc75e33	-0.0060842275
75	0x3e7db208	0.24774945
76	0x3dc51255	0.09622637
77	0x3dba4a0c	0.090961546
78	0x3cbe51bb	0.023232331
79	0x3d0d922f	0.03456324
80	0xbd7b25e5	-0.061315436
81	0xbd80ce3f	-0.06289338
82	0x3e65c819	0.22439612
83	0x3d5b3767	0.053519633
84	0xbe5287f8	-0.2055968
85	0x3e07a34e	0.1324589
86	0xbc2fe51e	-0.010735778
87	0x3ca64593	0.020296847
88	0x3dcc7847	0.099838786
89	0xbdc0c23b	-0.094120465
90	0xbdb6fb24	-0.0893462
91	0xbdd1969e	-0.10233806
92	0x3d3ca913	0.04605968
93	0x3d92125a	0.071324065
94	0x3e2a77e2	0.16647294
95	0xbda9c884	-0.082901984
96	0x3daf5ea8	0.08562976
97	0xbe0933ad	-0.13398619
98	0xbbb7b64a	-0.0056064473
99	0xbe4cd3cd	-0.2000267
100	0x3e1893f4	0.1490019
101	0x3e56b5f8	0.20967853
102	0xbd5a39f3	-0.05327792
103	0xbe3929d8	-0.18082368
104	0xbc8186c8	-0.015811339
105	0x3e411beb	0.18858306
106	0x3dafbf36	0.085813925
107	0x3bae472d	0.0053185434
108	0x3dc68852	0.0969397
109	0xbd3d1aa3	-0.04616798
110	0xbde4036b	-0.111334644
111	0xbd21e3b5	-0.0395238
112	0xbe326740	-0.17422199
113	0xbb9d2eff	-0.004796862
114	0x3ced1255	0.028939405
115	0xbd94ae66	-0.07259826
116	0xbdc44649	-0.09583718
117	0xbe2a70b4	-0.16644555
118	0x3e63ebfd	0.22257991
119	0x3e66d67c	0.22542757
120	0x3e02f121	0.12787296
121	0x3e353e94	0.17699653
122	0xbe16a162	-0.1471
123	0x3e5c3794	0.21505576
124	0x3de176df	0.11009001
125	0xbe000b18	-0.12504232
126	0xbe05c6a3	-0.13064055
127	0xbe1ffe2f	-0.15624307
128	0x3d049019	0.032363985
129	0x3ea2d77f	0.31805035
130	0xbf2a4ea2	-0.66526234
131	0xbd221698	-0.03957233
132	0xbf154f34	-0.5832398
133	0xbd2d2cf5	-0.042279202
134	0x3f03d0a1	0.5149022
135	0xbf12d64a	-0.5735823
136	0xbd046556	-0.032323204
137	0x3e33a470	0.17543197
138	0x3ede72f7	0.43447086
139	0xbdfb2b44	-0.12264112
140	0xbe544226	-0.20728359
141	0x3ea2a1bb	0.31764016
142	0xbc822ab2	-0.0158895
143	0xbdebb04b	-0.115082346
144	0xbd8eba66	-0.069691464
145	0x3ea6ae15	0.3255469
146	0x3db347c4	0.087539226
147	0x3dd83e47	0.105587535
148	0x3d565ebd	0.052336443
149	0x3d5f7fc5	0.05456521
150	0x3dc569e8	0.09639341
151	0xbdbcf31d	-0.09226058
152	0x3d164888	0.036690265
153	0xbd942a4c	-0.0723463
154	0xbd53406a	-0.051575102
155	0x3f6c8561	0.9239102
156	0x3e1cc519	0.15309562
157	0x3d2a9f06	0.041655563
158	0xbcf4c001	-0.02987671
159	0x3df8944d	0.12137661
160	0x3c8d80ba	0.017273296
161	0xbd9396d5	-0.07206503
162	0xbb071d53	-0.0020616844
163	0xbdd1675a	-0.10224791
164	0x3d579cbc	0.052639708
165	0x3c9ce09a	0.019150067
166	0xbef6e290	-0.48219728
167	0x3db9d8a8	0.09074527
168	0xbbd91cd0	-0.006625749
169	0x3da36086	0.07977395
170	0x3e625c1a	0.22105446
171	0x3d1dcea0	0.03852713
172	0x3b6be435	0.0035994176
173	0xbeb840a1	-0.35986808
174	0xbd323b52	-0.043513604
175	0xbdcd1fb1	-0.1001581
176	0xbe05f74f	-0.13082622
177	0xbe86b2c5	-0.26308265
178	0x3d56a06a	0.052399077
179	0xbe22c11d	-0.1589398
180	0xbc51af6f	-0.012798174
181	0x3cfa1ef9	0.030532347
182	0xbec1c0aa	-0.37842304
183	0x3e367cd0	0.1782105
184	0xbd0b5959	-0.034020755
185	0x3ccaa1a1	0.024735274
186	0xbefeca0b	-0.49763522
187	0xbdb67d23	-0.08910587
188	0xbe2288c9	-0.15872492
189	0xbe08f2e1	-0.13373901
190	0xbce5687c	-0.028003924
191	0x3e1f2aae	0.15543625
192	0xbd2773cb	-0.040881913
193	0x3eef2e7c	0.46715152
194	0xbe03d77c	-0.1287517
195	0x3ca4ccc4	0.020117171
196	0x3c680fd9	0.014163935
197	0xbe37d36f	-0.1795175
198	0xbdb95583	-0.09049513
199	0x3d0c830e	0.03430467
200	0x3e704fcb	0.23467939
201	0xbcc9f712	-0.024653945
202	0x3e34928a	0.17634025
203	0x3e9cedbd	0.3065013
204	0xbd7320fe	-0.059357636
205	0xbc91a2a7	-0.017777754
206	0x3d895fba	0.067077115
207	0x3eb11e96	0.34593648
208	0x3de0b4b8	0.10971969
209	0xbd41dfe3	-0.047332656
210	0xbcba360b	-0.022730848
211	0x3d4787ed	0.048713613
212	0xbe340361	-0.17579414
213	0xbe232c5c	-0.1593489
214	0xbe4f365f	-0.20235585
215	0x3c303bc1	0.010756434
216	0x3e36fe22	0.17870381
217	0xbe196317	-0.14979206
218	0xbe10dad9	-0.14145984
219	0x3dc708dc	0.09718487
220	0xbd10cd4c	-0.035352036
221	0xbd017ef1	-0.0316152
222	0x3e12faa2	0.14353421
223	0xbd500100	-0.050782204
224	0x3dc14a17	0.0943796
225	0xbee5a122	-0.44849497
226	0x3d41a61b	0.04727755
227	0x3dcb4afd	0.09926412
228	0xbdfa41c6	-0.122195765
229	0x3cd1fbf4	0.025632836
230	0x3e9b90fb	0.3038405
231	0x3eb1c622	0.34721476
232	0x3dfbc416	0.1229326
233	0x3d52f54c	0.051503465
234	0xbed884f6	-0.4228894
235	0xbd01b991	-0.03167111
236	0x3d553997	0.052056875
237	0xbe8f84fc	-0.28031147
238	0xbe988338	-0.29787612
239	0x3d335c68	0.043789297
240	0xbdccb560	-0.09995532
241	0xbdcbf0f4	-0.099580675
242	0x3d9b8b2f	0.075949065
243	0xbd908d27	-0.07058173
244	0xbe07452f	-0.13209985
245	0xbd9a4d87	-0.075343184
246	0x3d523afb	0.05132578
247	0x3c66914d	0.014072728
248	0xbacb2000	-0.0015497208
249	0x3e01fcd4	0.12694103
250	0x3d1f39f4	0.038873628
251	0x3da5e312	0.08099951
252	0xbd15eef3	-0.036604833
253	0xbe0159bb	-0.12631886
254	0x3d00fc24	0.03149046
255	0x3dcd0c64	0.10012129

lstm.bias_ih_l1 f4 [256]
0	0x3e9f8787	0.31158087
1	0x3e78b9dd	0.24289651
2	0x3e431fdc	0.19055122
3	0xbc6fdff5	-0.014640798
4	0x3bb88ed4	0.005632261
5	0xbd838b53	-0.06423058
6	0x3dde495a	0.108538345
7	0x3dfc904a	0.123322085
8	0x3e3cb654	0.18428928
9	0x3b9951f5	0.0046789595
10	0x3d9357b8	0.071944654
11	0x3eac57a0	0.33660603
12	0x3ce05d85	0.027388344
13	0xbe0a4a84	-0.13504988
14	0x3e4c5f14	0.19958144
15	0x3e5c3b32	0.21506956
16	0x3e5b0d0a	0.21391693
17	0x3e097fc9	0.13427652
18	0x3e744990	0.23856187
19	0x3def1377	0.116736345
20	0x3d33b139	0.043870185
21	0x3e7793ec	0.24177521
22	0x3ea53ebc	0.32274425
23	0x3e222815	0.15835603
24	0x3d77b41b	0.060474496
25	0x3e733557	0.23750816
26	0x3ddf737f	0.10910701
27	0x3e8de830	0.27716208
28	0x3c53875d	0.012910691
29	0x3e6f08df	0.23343228
30	0x3e9011cc	0.28138578
31	0x3dce9e07	0.10088735
32	0x3e8841c2	0.2661267
33	0x3f039730	0.5140257
34	0x3e83348d	0.2562603
35	0x3e9b31cf	0.30311438
36	0x3c43f4ac	0.01196019
37	0x3eb4b39a	0.35293275
38	0x3e0e0318	0.13868368
39	0x3e7a8573	0.2446497
40	0x3e34ffdc	0.17675728
41	0x3e52cd56	0.20586142
42	0x3dac45b3	0.084117316
43	0xbddb343e	-0.10703324
44	0x3e1feeb3	0.156184
45	0x3e809854	0.25116217
46	0x3eaab310	0.3333974
47	0x3e8a30ec	0.2699045
48	0x3d658529	0.056035195
49	0x3e6bdaf6	0.23032746
50	0x3ddbbc94	0.10729328
51	0x3e586950	0.21133924
52	0xbded0575	-0.115733065
53	0x3d8e26f5	0.06941024
54	0x3da7f2de	0.0820062
55	0x3ebf082d	0.37310925
56	0x3e2adb39	0.1668519
57	0x3e23dac0	0.16001415
58	0xbcf71baf	-0.030164568
59	0x3d79fbcd	0.06103115
60	0x3e566710	0.20937753
61	0x3e0b755d	0.1361899
62	0x3e5422e2	0.20716432
63	0x3ec31974	0.38105357
64	0x3dca7494	0.09885517
65	0x3df6fb4d	0.120596506
66	0x3d3692b1	0.04457349
67	0x3d68951e	0.056782834
68	0xbd93f6de	-0.072248206
69	0x3da208c4	0.07911828
70	0x3de0866e	0.109631404
71	0x3dc2ef7a	0.09518333
72	0x3a38f4a3	0.00070554967
73	0x3dbf9aed	0.093557216
74	0x3cec1af1	0.02882144
75	0x3d0c6ddb	0.034284454
76	0x3d867640	0.06565523
77	0x3d852f1d	0.06503127
78	0x3d10d8e5	0.035363097
79	0x3b668acb	0.0035177942
80	0xbdea28ce	-0.11433564
81	0xbd24b182	-0.040208347
82	0xba4856de	-0.0007642339
83	0x3e00b8f3	0.12570553
84	0xbc56f290	-0.013119355
85	0x3d9d99f8	0.07695383
86	0x3e0def3b	0.1386079
87	0x3e0a57d6	0.13510069
88	0x3d99a566	0.075022504
89	0x3e1efb79	0.15525617
90	0x3e2c1bb5	0.16807444
91	0x3d7376ef	0.059439596
92	0xbd225527	-0.03963199
93	0x3b46cf19	0.0030335842
94	0x3dd6a614	0.10480896
95	0xbda0269f	-0.078198664
96	0x3d9ae241	0.07562686
97	0x3e17dcef	0.14830373
98	0x3dad880e	0.08473216
99	0x3e0281f6	0.12744889
100	0xbc932f07	-0.01796676
101	0x3d9b3617	0.07578676
102	0xbcdf789e	-0.027279194
103	0xb8b4455b	-8.595987e-05
104	0xbd6ee1c5	-0.05832078
105	0xbd2d1a00	-0.042261124
106	0x3dd14fb6	0.10220282
107	0x3cc0e3cc	0.023546122
108	0xbd298614	-0.041387632
109	0x3e2a1060	0.16607809
110	0x3e07c13f	0.13257311
111	0x3cfd44a0	0.030916512
112	0x3d2d9904	0.042382255
113	0xbd6697ab	-0.056296986
114	0x3d3aec7a	0.045635678
115	0x3d35ec5e	0.04441487
116	0xbc5d52bc	-0.013508495
117	0x3dd44925	0.10365514
118	0xbd85c683	-0.06532004
119	0x3dcae154	0.09906259
120	0xbd913e3f	-0.070919506
121	0x3dfebdce	0.12438546
122	0x3dad7096	0.0846874
123	0x3cb07ed7	0.021544857
124	0xbdbd3f83	-0.092406295
125	0x3e0cb58c	0.1374113
126	0xbdefa83c	-0.1170201
127	0x3d112755	0.0354379
128	0xbe6a3392	-0.22871235
129	0xbe483536	-0.19551548
130	0xba56cc79	-0.0008193921
131	0xbd3a2823	-0.045448434
132	0x3d8ac848	0.06776482
133	0x3c1be28e	0.009514464
134	0x3c44819c	0.011993792
135	0xbbcb5afa	-0.0062059136
136	0xbde6090f	-0.112321965
137	0xbdd2ac05	-0.10286716
138	0xbce5eeb0	-0.028067917
139	0x3c9bb976	0.019009333
140	0x3e0683dc	0.13136238
141	0x3c8b7159	0.017021822
142	0x3dfd7c2e	0.12377201
143	0x3ddb3722	0.10703875
144	0x3e303ed4	0.17211467
145	0x3cd370e3	0.025810665
146	0x3e38835d	0.18018861
147	0xbe7ad23c	-0.2449426
148	0x3d6d7f1f	0.05798256
149	0x3dfa0d22	0.12209536
150	0x3da21145	0.0791345
151	0xbdba029e	-0.090825304
152	0xbcb1818b	-0.021668216
153	0xbd3cded3	-0.04611094
154	0x3dba41fd	0.090946175
155	0xbe30fd4c	-0.17284125
156	0x3e05163d	0.12996764
157	0x3e7329e2	0.23746446
158	0xbc707269	-0.014675715
159	0xbd057b9c	-0.032588586
160	0x3e075f1e	0.13219878
161	0x3d163dbd	0.036679972
162	0xbe94e7ca	-0.2908309
163	0xbde40bdb	-0.11135074
164	0x3d0e93e1	0.034808997
165	0x3e60875f	0.2192664
166	0x3ca7ec4f	0.020498423
167	0xbdd2f19c	-0.102999896
168	0xbe5fc7c8	-0.21853554
169	0xbda36fd5	-0.07980315
170	0xbdab0ab9	-0.083516546
171	0xbc822b0f	-0.015889673
172	0x3e00eabb	0.12589543
173	0x3e22fdb5	0.15917094
174	0x3e60f30d	0.21967717
175	0xbe661f32	-0.22472838
176	0xbe27cf39	-0.16387643
177	0xbbb12552	-0.0054060603
178	0x3c6d933b	0.0145004345
179	0x3d9a9df2	0.07549657
180	0xbc8de917	-0.01732306
181	0xbe8f0e73	-0.2794071
182	0x3e137db8	0.14403427
183	0x3e0fec49	0.1405498
184	0x3d7cd502	0.061726578
185	0x3cb1e205	0.02171422
186	0x3e11bd9e	0.1423249
187	0x3e00b57d	0.12569232
188	0xbd8ca338	-0.06867069
189	0xbd515efa	-0.051115967
190	0x3d3fc328	0.046816975
191	0xbe62078f	-0.22073196
192	0x3e95bd52	0.29246002
193	0x3edb8b69	0.428798
194	0x3e55192c	0.20810384
195	0xbd2baea7	-0.04191461
196	0x3e9a6cfb	0.3016127
197	0x3dec95fa	0.11552043
198	0x3e719d1a	0.23595086
199	0x3d570060	0.052490592
200	0x3e9c733b	0.30556664
201	0x3d84bb17	0.06480997
202	0x3cf09fb9	0.029373037
203	0x3e9fb08b	0.3118938
204	0xbcfccaab	-0.030858358
205	0xbe00b1d1	-0.12567832
206	0x3e135e51	0.14391448
207	0x3e74c321	0.23902561
208	0x3d78ef9f	0.060775395
209	0x3e8946ea	0.26811916
210	0x3ea4d83d	0.32196227
211	0x3ea1102c	0.3145765
212	0xbcf3a33d	-0.029740924
213	0x3e6d28fa	0.23160163
214	0x3dd4f619	0.10398502
215	0x3cab66cb	0.020923039
216	0x3d2691d8	0.04066643
217	0x3e5653b9	0.20930375
218	0xbd515678	-0.051107854
219	0x3e2ff7d0	0.17184377
220	0xbc95a4b6	-0.018267017
221	0x3e9ce292	0.3064161
222	0x3e35de96	0.17760691
223	0x3e1169c3	0.14200501
224	0x3dc0d3d1	0.09415401
225	0x3ed0cd31	0.4078155
226	0x3e60ec4d	0.21965142
227	0x3e77ee78	0.24212062
228	0x3e242421	0.16029407
229	0x3e56398b	0.20920388
230	0x3d07b6ff	0.033133503
231	0x3d4d0ee3	0.050063025
232	0x3e17c765	0.14822157
233	0x3de80eb9	0.11330933
234	0x3da5f8f9	0.081041284
235	0x3dc59c62	0.09648968
236	0x3df492e8	0.11942083
237	0x3ebcde3d	0.36888304
238	0x3ee53b5b	0.44771847
239	0x3e1bf680	0.15230751
240	0x3d79c3c7	0.060977723
241	0x3e3610cf	0.1777985
242	0x3b567937	0.0032726058
243	0x3e804ff2	0.25060993
244	0x3e3a52f5	0.18195708
245	0x3d3aa858	0.0455707
246	0x3d9e50a3	0.07730224
247	0x3e9661a4	0.2937137
248	0x3da48d4c	0.08034763
249	0x3bc1fd3f	0.005920082
250	0x3da5e29d	0.08099864
251	0x3de95448	0.113930285
252	0x3e46c029	0.19409241
253	0xbbad40d4	-0.005287269
254	0x3cc1fe5a	0.023680855
255	0x3ec441af	0.38331363
