model/bd_total_loss_batch_size=2048_epoch=300.pt (torch_old, 211198 bytes, 10 tensors)

lstm.weight_ih_l0 f4 [256, 1]
0.14897838 0.24044959 0.08926729 0.38979226 0.29784188 0.14456159 0.33228666 0.17623967
0.4458532 0.15513884 0.1831024 0.08939571 0.09803038 0.1627075 0.23190904 0.7685234
0.048350383 1.1887587 0.056813434 0.08395315 0.13024002 -0.22845443 0.36850443 0.45514986
0.7463459 0.2992609 0.15107976 0.27939922 0.48105684 0.2093375 0.041190937 0.093213946
0.38783395 0.41722438 0.22406149 0.33611876 0.27249837 0.04521302 0.3596486 0.466158
0.25612447 1.0289322 0.941766 -0.11532221 -0.16121525 0.4773933 0.36074287 1.0240229
-0.021222655 0.09032149 0.22874065 0.34167838 0.11762715 0.7459673 0.044236407 0.38052368
0.47823724 0.49392796 -0.12541592 -0.15473069 1.373959 0.37770334 1.6390194 0.23713806
-0.061386365 0.006415927 -0.02858815 0.09940353 -0.013449217 0.0768968 0.3776531 0.0012478429
0.5299218 0.096676596 -0.07487323 0.17296194 0.07198456 0.5199625 0.02993544 0.10761067
0.022424756 -0.111477934 0.18948217 0.022503724 -0.042580962 -0.27748138 0.01960293 0.17752486
0.19441205 0.18535134 0.43563873 -0.21518208 0.30452475 -0.082115784 -0.023537716 0.19066608
0.07154662 0.116597824 -0.056526095 0.08058707 0.2992315 -0.16380094 0.22964266 0.19010161
-0.0706561 -0.27493414 -0.18388681 -0.20773877 -0.2718515 -0.0071876524 0.023903351 0.0029213252
-0.08687997 -0.0042237393 0.2147285 -0.09194813 -0.19020206 -0.18264064 0.15604913 -0.21763025
-0.2332944 0.16530241 -0.17442803 -0.1770652 -0.22933492 0.18007067 -0.1978655 0.055964712
0.18602872 0.12634225 0.19870877 0.41848347 -0.27637064 0.20622747 -0.32091475 0.057641543
0.8159006 0.11465952 -0.17210759 -0.18032296 0.061026264 -0.09375615 0.6583333 0.19597393
-0.08161691 0.49372992 -0.24972008 -0.12988377 0.3657464 -0.22851154 0.34634075 -0.23137482
-0.20528711 0.17146575 0.64552283 0.14556453 0.4315248 0.11566225 -0.24756984 0.04593926
0.4445897 -0.22427008 -0.32187095 0.23558559 0.32374406 0.121715106 0.2870239 0.30034596
-0.16722913 -0.35634822 0.30956846 0.6317558 -0.36838746 0.5003397 0.3544893 0.47230795
0.21011291 0.30651808 -0.092227094 0.75119644 -0.24585538 -0.62236226 -0.53319764 0.15589674
-0.35778895 -0.40025666 -0.35239413 0.71431816 0.60161096 0.20439015 -0.6513634 -1.0004808
0.18433817 0.2460205 0.14361642 -0.021662423 0.46742254 0.16420524 -0.16288576 0.1580683
-0.12947063 0.1446615 0.21162355 0.21106963 0.11610479 0.1819166 0.53178734 -0.16091827
0.09488625 1.2500885 0.08666477 0.3212515 0.09982242 0.07464464 -0.11716207 0.08699261
0.5719505 0.1677151 0.08104241 0.3095176 -0.10993374 0.44867444 0.06805148 0.11496236
0.08091581 -0.11480669 0.20853628 -0.118198596 0.21956667 0.22376734 -0.12885274 -0.10837518
-0.10294938 -0.18566717 0.9050671 0.56559026 0.62161314 0.3030558 -0.14301552 1.354851
0.33281273 0.15949902 0.22961967 0.08614038 0.12132659 -0.14071466 0.05361832 0.37962216
-0.17352581 0.37100944 -0.052950714 0.53759557 -0.11547478 0.4304101 1.9538149 -0.14581545
00000000: ca8d 183e 6b38 763e c5d1 b63d da92 c73e
00000010: bb7e 983e f407 143e 7a21 aa3e 2c78 343e
00000020: df46 e43e b7dc 1e3e 327f 3b3e 1915 b73d
00000030: 27c4 c83d cb9c 263e 9079 6d3e f3bd 443f
00000040: 0d0b 463d 3f29 983f 34b5 683d a1ef ab3d
00000050: a45d 053e f5ef 69be 9dac bc3e 6709 e93e
00000060: 8610 3f3f ba38 993e a7b4 1a3e 6a0d 8f3e
00000070: 154d f63e 925c 563e d4b7 283d f4e6 be3d
00000080: 2c92 c63e 6f9e d53e 6070 653e c217 ac3e
00000090: e884 8b3e 4a31 393d dc23 b83e 43ac ee3e
000000a0: bf22 833e 0db4 833f 9417 713f 0d2e ecbd
000000b0: 9c15 25be e56c f43e 4ab3 b83e 2f13 833f
000000c0: 22db adbc 79fa b83d fd3a 6a3e 78f0 ae3e
000000d0: 81e6 f03d b7f7 3e3f 3c31 353d 00d4 c23e
000000e0: 83db f43e 20e4 fc3e 086d 00be b971 1ebe
000000f0: e3dd af3f 5562 c13e 63cb d13f 52d4 723e
00000100: 4570 7bbd b23c d23b b231 eabc 1494 cb3d
00000110: 1b5a 5cbc 127c 9d3d bf5b c13e a98e a33a
00000120: f5a8 073f 61fe c53d 2357 99bd ef1c 313e
00000130: a46c 933d 431c 053f 2b3b f53c fc62 dc3d
00000140: 1fb4 b73c 8b4e e4bd 9d07 423e bb59 b83c
00000150: 6069 2ebd 0a12 8ebe 5396 a03c 14c9 353e
00000160: f413 473e becc 3d3e 0a0c df3e b158 5cbe
00000170: abea 9b3e 522c a8bd 2bd2 c0bc f83d 433e
00000180: 0987 923d d7ca ee3d e887 67bd d50a a53d
00000190: df34 993e 6fbb 27be 7227 6b3e ffa9 423e
000001a0: 25b4 90bd 2bc4 8cbe d34c 3cbe 79b9 54be
000001b0: 1f30 8bbe 6686 ebbb f6d0 c33c b473 3f3b
000001c0: 20ee b1bd 4b67 8abb cae1 5b3e 4d4f bcbd
000001d0: 54c4 42be 2606 3bbe 58cb 1f3e 77da 5ebe
000001e0: bae4 6ebe 0945 293e 439d 32be 9450 35be
000001f0: c6d6 6abe 7264 383e 419d 4abe 413b 653d
00000200: 507e 3e3e dd5f 013e 507a 4b3e 7743 d63e
00000210: 7480 8dbe 4b2d 533e f04e a4be 8a19 6c3d
00000220: ddde 503f 9cd2 ea3d f93c 30be 95a6 38be
00000230: adf6 793d 3903 c0bd 8888 283f 64ad 483e
00000240: c426 a7bd 2bca fc3e 9fb6 7fbe 4000 05be
00000250: 1d43 bb3e eefe 69be 9353 b13e 85ed 6cbe
00000260: c936 52be b894 2f3e fc40 253f de0e 153e
00000270: d2f0 dc3e 54e0 ec3d f382 7dbe ce2a 3c3d
00000280: 43a1 e33e 0ea7 65be 45cc a4be 593d 713e
00000290: c8c1 a53e c545 f93d ccf4 923e f2c6 993e
000002a0: 1d3e 2bbe 4673 b6be c27f 9e3e c0ba 213f
000002b0: 489d bcbe 4316 003f 9f7f b53e 59d2 f13e
000002c0: d727 573e f0ef 9c3e 8fe1 bcbd 694e 403f
000002d0: 83c1 7bbe 2253 1fbf a47f 08bf 65a3 1f3e
000002e0: 1d30 b7be 71ee ccbe 016d b4be 8edd 363f
000002f0: 2d03 1a3f a74b 513e c0bf 26bf c10f 80bf
00000300: 25c3 3c3e ccec 7b3e 2f10 133e 6575 b1bc
00000310: 0252 ef3e 6b25 283e 86cb 26be a8dc 213e
00000320: f393 04be 2522 143e d8b3 583e a322 583e
00000330: 59c8 ed3d 5848 3a3e 3723 083f c2c7 24be
00000340: b953 c23d e602 a03f 4d7d b13d 147b a43e
00000350: b26f cc3d 4adf 983d abf2 efbd 2e29 b23d
00000360: 596b 123f 82bd 2b3e 90f9 a53d 1779 9e3e
00000370: f124 e1bd a8b8 e53e 935e 8b3d 6371 eb3d
00000380: 30b7 a53d c51f ebbd 898a 553e 1b12 f2bd
00000390: 16d6 603e 4423 653e f9f1 03be cef3 ddbd
000003a0: 20d7 d2bd 891f 3ebe 7ab2 673f 86ca 103f
000003b0: 0a22 1f3f 212a 9b3e a972 12be c26b ad3f
000003c0: 6e66 aa3e b653 233e 6b21 6b3e 5e6a b03d
000003d0: 137a f83d 8117 10be e29e 5b3d d65d c23e
000003e0: c0b0 31be f3f4 bd3e d9e2 58bd dd9f 093f
000003f0: 0b7e ecbd b65e dc3e 9b16 fa3f a550 15be

lstm.weight_hh_l0 f4 [256, 64]
0.057996895 -0.4393565 0.02561533 -0.1004371 0.049205106 -0.124988906 -0.108695306 0.10807618
0.6654316 -0.4537368 -0.24389139 0.052435298 0.04044103 -0.124047674 -0.076045744 0.029914405
-0.18314946 -0.0025596917 -0.020176696 0.09008766 0.09688497 -0.06501337 0.083294876 0.023374738
-0.13994977 0.17116319 0.12275372 -0.11816766 0.42398393 0.3366621 -0.24376558 0.069126114
0.36056378 -0.41697297 -0.18312854 -0.100150205 0.22138588 -0.4879896 0.11708883 0.14923649
-0.008092994 -0.2833875 0.29726017 0.36064732 -0.36610815 0.23773678 0.33218724 0.037331797
0.06762194 0.08305259 -0.08264748 0.33908555 0.19516793 -0.0069981306 0.019572888 -0.065895155
-0.16690783 -0.034924548 -0.40264532 0.18351914 0.38593042 -0.43916953 -0.18618022 -0.42953947
0.40311453 -0.067312516 -0.043356314 0.1379869 0.6101525 0.45559153 0.12524924 -0.14117736
0.2708722 -0.05312221 -0.08041701 0.13588716 0.48318836 -0.25074798 0.007788806 0.47890183
-0.05554842 -0.19872719 0.022904405 0.14340727 -0.17412974 0.24079598 -0.013845266 -0.021742579
0.25469762 -0.025149543 0.08960665 -0.128322 0.38826618 -0.12023357 -0.034823377 0.28487685
0.13814177 0.25702786 0.19619957 0.0875259 0.115872666 -0.8318258 0.42862028 -0.11787766
-0.051480126 -0.36006925 0.15175898 0.04978995 0.008645923 -0.2449683 -0.09370262 -0.11044158
0.03372079 0.15514223 -0.06583508 -0.25258347 0.4876396 0.13093892 -0.20395711 -0.042180207
-0.0053510815 -0.36611015 -0.2641353 -0.009569706 0.12408805 -0.4792095 0.1663757 0.12310228
-0.23398332 -0.23131327 0.100609116 -0.20929804 0.25763473 -0.13186654 0.039032593 0.15610832
0.09390842 -0.007396553 0.06298017 -0.16317622 -0.17684332 -0.3374818 -0.04562105 -0.43938613
-0.089267306 -0.028161291 -0.19007428 -0.04274027 -0.22440831 0.51229244 -0.21805637 -0.0028097918
0.15619698 0.00945462 0.045246314 -0.08837724 -0.05239512 -0.023746656 0.16801888 0.11112707
-0.047157362 0.011136378 -0.03897247 0.12694867 -0.11469587 -0.21537703 -0.2436994 0.0152806435
0.094525084 0.037193697 -0.5266027 -0.15998344 0.1107118 -0.15427412 0.044087775 -0.30752125
0.41550794 -0.16562426 -0.08236813 0.082584724 0.79678714 0.08217019 -0.17859891 -0.1714716
0.765163 0.014897743 -0.09098844 0.020711983 -0.34747338 -0.014950184 0.23878692 0.018873597
-0.010847181 -0.32629296 0.12752797 -0.18873501 0.23752883 -0.14773041 0.027033553 0.06794485
0.1505597 -0.1984656 0.027872305 -0.13025163 -0.5194734 0.2687414 -0.23522791 0.07225198
0.08914706 0.06902812 -0.48721227 -0.20821004 -0.22532603 0.4594773 -0.18160796 -0.35973638
0.007333489 0.2500324 0.14616755 -0.106124684 0.27822053 0.1739677 0.07787241 0.1944599
0.07926891 -0.13121013 0.039460547 -0.108081296 -0.33192587 -0.29399833 -0.08351948 -0.16649325
0.10043127 -0.05272308 0.15497471 -0.05771716 -0.2681784 0.27543053 0.026552556 -0.29617712
-0.03884115 -0.25056937 -0.23663376 -0.07070647 0.6907472 -0.11509061 -0.34888646 0.15936391
0.23304924 -0.22983457 -0.5035968 -0.042356726 0.023331266 -0.17920506 0.17755297 -0.13697563
00000000: 278e 6d3d 56f3 e0be 3ed7 d13c f7b1 cdbd
00000010: 4b8b 493d 2ffa ffbd a59b debd 0b57 dd3d
00000020: ba59 2a3f 3150 e8be aabe 79be 65c6 563d
00000030: 7ea5 253d b50c febd dfbd 9bbd 0e0f f53c
00000040: 888b 3bbe 80c0 27bb 9949 a5bc e17f b83d
00000050: a16b c63d bb25 85bd 8196 aa3d 617c bf3c
00000060: fe4e 0fbe 6745 2f3e 4d66 fb3d e301 f2bd
00000070: 6c14 d93e fa5e ac3e af9d 79be fe91 8d3d
00000080: d19b b83e 7b7d d5be 0c86 3bbe 8d1b cdbd
00000090: fbb2 623e c6d9 f9be 45cc ef3d 73d1 183e
000000a0: 7a98 04bc 2b18 91be 7c32 983e c4a6 b83e
000000b0: 8772 bbbe 4571 733e 7214 aa3e 3ae9 183d
000000c0: 5f7d 8a3d 7a17 aa3d 1543 a9bd 9f9c ad3e
000000d0: 1ada 473e 9350 e5bb 5257 a03c 0af4 86bd
000000e0: e3e9 2abe 0b0d 0fbd 8727 cebe 71ec 3b3e
000000f0: ac98 c53e d4da e0be 07a6 3ebe 99ec dbbe
00000100: 0765 ce3e 25db 89bd 6496 31bd 704c 0d3e
00000110: f432 1c3f 4b43 e93e 5641 003e cc90 10be
00000120: c3af 8a3e ad96 59bd acb1 a4bd 0126 0b3e
00000130: 7764 f73e 0a62 80be 3e39 ff3b 9f32 f53e
00000140: bd86 63bd 247f 4bbe 05a2 bb3c 5bd9 123e
00000150: 114f 32be 3993 763e 41d7 62bc 7e1d b2bc
00000160: ba67 823e 6a06 cebc b183 b73d d866 03be
00000170: d3ca c63e 053d f6bd f5a2 0ebd 61db 913e
00000180: 0975 0d3e 2899 833e 8ae8 483e c740 b33d
00000190: a64e ed3d 89f2 54bf 1e74 db3e d869 f1bd
000001a0: d3dc 52bd ff5a b8be b566 1b3e 8cf0 4b3d
000001b0: a1a7 0d3c f8d8 7abe 29e7 bfbd 322f e2bd
000001c0: d01e 0a3d 9bdd 1e3e 8bd4 86bd 9f52 81be
000001d0: e6ab f93e da14 063e 22da 50be 27c5 2cbd
000001e0: 2058 afbb ca72 bbbe be3c 87be 42ca 1cbc
000001f0: e021 fe3d f35a f5be 645e 2a3e 0c1d fc3d
00000200: 5399 6fbe 63dd 6cbe 270c ce3d 3a52 56be
00000210: b3e8 833e 0608 07be a4e0 1f3d dcda 1f3e
00000220: 0f53 c03d c95e f2bb bffb 803d ab17 27be
00000230: 6a16 35be 6aca acbe 23dd 3abd 38f7 e0be
00000240: c7d1 b6bd 82b2 e6bc d5a2 42be 6c10 2fbd
00000250: 4bcb 65be 9925 033f 2b4a 5fbe 7c24 38bb
00000260: 1af2 1f3e 8de7 1a3c 3354 393d 20ff b4bd
00000270: 449c 56bd 5988 c2bc 240d 2c3e 9796 e33d
00000280: 1428 41bd 5b75 363c 99a1 1fbd d5fe 013e
00000290: abe5 eabd cc8b 5cbe 568c 79be aa5b 7a3c
000002a0: 5e96 c13d 6b58 183d 6fcf 06bf b3d2 23be
000002b0: debc e23d 09fa 1dbe 6295 343d 6d73 9dbe
000002c0: 75bd d43e 6899 29be 9fb0 a8bd 2e22 a93d
000002d0: 3efa 4b3f d848 a83d a2e2 36be 4096 2fbe
000002e0: b9e1 433f aa15 743c 2658 babd 2dac a93c
000002f0: 08e8 b1be 9ef1 74bc 8f84 743e cd9c 9a3c
00000300: 60b8 31bc df0f a7be b196 023e c043 41be
00000310: c23a 733e a446 17be 7875 dd3c ab26 8b3d
00000320: 522c 1a3e 913a 4bbe 7654 e43c af60 05be
00000330: 35fc 04bf 7998 893e 96df 70be d9f8 933d
00000340: bc92 b63d 9d5e 8d3d e373 f9be 0335 55be
00000350: debb 66be 9c40 eb3e 70f7 39be 5e2f b8be
00000360: c44d f03b 3f04 803e f2ac 153e e657 d9bd
00000370: ec72 8e3e 9724 323e 927b 9f3d 7f20 473e
00000380: bd57 a23d f35b 06be 62a1 213d ba59 ddbd
00000390: 30f2 a9be f386 96be 430c abbd 357d 2abe
000003a0: e9ae cd3d 28f4 57bd b1b1 1e3e d468 6cbd
000003b0: ae4e 89be 3b05 8d3e bf84 d93c 87a4 97be
000003c0: e617 1fbd a14a 80be 1f50 72be 8ece 90bd
000003d0: cfd4 303f a0b4 ebbd 3fa1 b2be 4b30 233e
000003e0: 76a4 6e3e c159 6bbe b8eb 00bf 3f7e 2dbd
000003f0: 3621 bf3c 8881 37be 72d0 353e 5743 0cbe

lstm.bias_ih_l0 f4 [256]
-0.22170158 0.014587204 0.5132211 0.5990464 0.3438085 -0.16820249 0.31261513 -0.09355365
0.293065 -0.24206203 0.1944895 0.33727977 -0.17889865 -1.4047277 0.6976798 1.4140865
0.27625436 0.60053784 0.17717257 0.25268984 -0.52105105 0.25000152 0.32055303 0.34841737
0.7018275 0.030935902 0.44742414 0.073069945 0.2676533 0.33023095 0.29870316 0.15487303
0.58678806 -0.30379155 0.18957992 0.5099098 0.40853104 -0.057247713 -0.30290687 0.3010175
0.010857907 0.57179475 0.83903384 0.44915274 1.2877175 0.78905815 -0.039979257 0.38737547
0.34967327 0.22092168 0.10501237 0.49608195 -0.82073754 0.2587747 0.122658625 -0.0033690166
1.1729145 0.32104582 0.5574137 0.95466167 0.40213495 0.04264778 0.6656146 1.2306306
0.13518548 -0.046080768 0.0718301 -0.13701166 -0.17109127 -0.1912094 -0.24118923 0.053092718
-0.35701978 0.081160545 -0.061783746 -0.05668308 0.057772722 -0.16700257 -0.09513124 -0.17890897
0.13741526 0.05817784 -0.0052449475 0.0069531356 -0.241133 0.02362534 -0.115521125 0.066185035
-0.067260474 0.16586177 0.2728864 -0.07582579 0.03744855 0.118369564 -0.07680201 0.04356641
0.04108004 0.05589983 -0.047264114 -0.16607073 -0.06780132 -0.05141694 -0.18624039 0.056817662
-0.09358579 0.3045861 -0.17052832 0.11910129 0.12978303 -0.114039704 0.12787345 -0.12833333
-0.057156246 -0.074299574 -0.06929274 -0.052526362 0.029057587 0.21792933 0.13719186 0.027609773
-0.033030543 -0.064242855 0.15840255 -0.11864814 -0.18284316 -0.1423849 -0.020316409 0.058291666
0.10383003 -0.16394953 0.44075373 0.47406903 0.25530356 -0.14068635 0.28929836 -0.21605776
0.21244024 -0.013815864 -0.21954928 -0.46520063 0.03233873 0.114293694 0.32280552 -0.5917089
-0.34170184 -0.8325124 0.23873523 0.25901136 -0.11686007 0.058535967 0.22161789 0.31004912
0.6593262 -0.05301216 0.2345977 0.20777756 0.2038874 0.23920672 0.096103854 0.37588966
0.42710128 -0.020544093 -0.26541665 0.45822582 -0.046019584 -0.30531508 -0.2769232 0.23493059
0.08437633 -0.49053508 -1.2852448 0.060135417 0.6681532 -0.64864075 0.28632116 -0.5202317
0.45299894 0.45714688 0.21215515 0.48501682 0.5193611 -0.2780602 0.016151043 -0.51898676
0.79955226 0.15352023 -0.17131838 -0.38508597 -0.89399153 -0.16363159 0.93869245 0.40358037
-0.42631462 0.18279605 0.3286947 0.3832415 0.062840804 -1.4839418 0.9101283 0.19964224
0.46772623 -0.13286403 0.14398704 0.54579085 -0.20302297 -1.132191 0.4002154 1.4240037
0.36058345 0.7466755 0.074328445 -0.06669512 -0.27030173 0.43238392 0.5516914 0.30791917
0.6417348 0.13969316 0.55260414 0.14365473 0.5232369 0.4670142 0.22815004 0.13713649
0.07994655 0.31737474 0.12283243 0.5248101 0.45368838 -0.058634643 0.8421093 0.48249248
0.39115167 1.3124346 1.0828501 0.3638478 0.68095094 0.8105339 0.7644254 0.1387577
0.18268365 0.36936745 0.059227828 0.41490346 -0.5032939 0.947103 0.2699955 0.1498574
1.5393535 0.30830795 0.6010407 0.5637909 0.8798693 0.39100593 0.8237493 0.78220123
00000000: bd05 63be 2bff 6e3c 7562 033f 1b5b 193f
00000010: ab07 b03e 463d 2cbe 170f a03e 0e99 bfbd
00000020: 9e0c 963e 1cdf 77be 4128 473e efaf ac3e
00000030: 3531 37be 1ece b3bf 259b 323f c900 b53f
00000040: 3671 8d3e d9bc 193f ba6c 353e 9060 813e
00000050: 9a63 05bf 3300 803e 871f a43e c363 b23e
00000060: f8aa 333f 4a6d fd3c c714 e53e b2a5 953d
00000070: da09 893e 0814 a93e 9fef 983e 0997 1e3e
00000080: be37 163f 918a 9bbe 3d21 423e 7389 023f
00000090: fb2a d13e 947c 6abd 9c16 9bbe f71e 9a3e
000000a0: 5de5 313c 2461 123f ecca 563f 59f7 e53e
000000b0: edd3 a43f b7ff 493f 4ac1 23bd 1456 c63e
000000c0: 6008 b33e 4b39 623e ba10 d73d 74fe fd3e
000000d0: db1b 52bf 1e7e 843e 7234 fb3d b8ca 5cbb
000000e0: 1022 963f 1e60 a43e aab2 0e3f b564 743f
000000f0: a2e4 cd3e 70af 2e3d b865 2a3f 4e85 9d3f
00000100: 106e 0a3e 30bf 3cbd a91b 933d c94c 0cbe
00000110: 8d32 2fbe 66cc 43be 4ffa 76be c077 593d
00000120: 4ccb b6be 8037 a63d f410 7dbd 842c 68bd
00000130: 17a3 6c3d b902 2bbe 2bd4 c2bd ea33 37be
00000140: 96b6 0c3e e34b 6e3d cfdd abbb 21d7 e33b
00000150: 92eb 76be ee89 c13c 5796 ecbd 058c 873d
00000160: dcbf 89bd abd7 293e c4b7 8b3e 8d4a 9bbd
00000170: a763 193d be6b f23d 5f4a 9dbd b172 323d
00000180: 8b43 283d 38f7 643d 0498 41bd 720e 2abe
00000190: 6bdb 8abd 929a 52bd cdb5 3ebe a3b9 683d
000001a0: e8a9 bfbd b6f2 9b3e fa9e 2ebe 61eb f33d
000001b0: d8e5 043e a68d e9bd 42f1 023e d069 03be
000001c0: ab1c 6abd 602a 98bd 5ae9 8dbd e225 57bd
000001d0: 2d0a ee3c de28 5f3e 067c 0c3e e42d e23c
000001e0: 094b 07bd c291 83bd 4734 223e ccfd f2bd
000001f0: 3d3b 3bbe 59cd 11be 996e a6bc 3ec3 6e3d
00000200: d7a4 d43d 63e2 27be 79aa e13e 2db9 f23e
00000210: 26b7 823e 1510 10be ea1e 943e 3f3e 5dbe
00000220: ef89 593e ef5b 62bc 87d1 60be c72e eebe
00000230: 9e75 043d d012 ea3d c446 a53e 3c7a 17bf
00000240: 8bf3 aebe 881f 55bf 0277 743e 239d 843e
00000250: 5554 efbd 69c3 6f3d cdef 623e c2be 9e3e
00000260: 9ac9 283f 4723 59bd 613a 703e a4c3 543e
00000270: dcc7 503e 9bf2 743e 19d2 c43d 9c74 c03e
00000280: 05ad da3e 164c a8bc b1e4 87be 939c ea3e
00000290: 087f 3cbd 4252 9cbe e1c8 8dbe a591 703e
000002a0: 7fcd ac3d 6a27 fbbe e782 a4bf 8e50 763d
000002b0: 170c 2b3f 520d 26bf b098 923e e82d 05bf
000002c0: 7aef e73e 280f ea3e 333f 593e 2054 f83e
000002d0: d9f4 043f e85d 8ebe 314f 843c 51dc 04bf
000002e0: 75af 4c3f 6834 1d3e 166e 2fbe fd29 c5be
000002f0: a1dc 64bf 0a8f 27be 264e 703f 16a2 ce3e
00000300: e945 dabe e32e 3b3e ac4a a83e 3b38 c43e
00000310: aeb2 803d cef1 bdbf 2bfe 683f 046f 4c3e
00000320: d079 ef3e 820d 08be 5771 133e f3b8 0b3f
00000330: 41e5 4fbe a2eb 90bf 08e9 cc3e c145 b63f
00000340: 659e b83e 2026 3f3f 8339 983d 7397 88bd
00000350: fd64 8abe 6d61 dd3e a63b 0d3f 95a7 9d3e
00000360: bb48 243f b90b 0f3e 7777 0d3f 3a1a 133e
00000370: daf2 053f 7c1c ef3e 2aa0 693e 826d 0c3e
00000380: 04bb a33d f17e a23e 928f fb3d f459 063f
00000390: d849 e83e e12a 70bd 7a94 573f 4109 f73e
000003a0: 0845 c83e dbfd a73f d59a 8a3f 424a ba3e
000003b0: cd52 2e3f 267f 4f3f 62b1 433f 8016 0e3e
000003c0: 6c11 3b3e bb1d bd3e e198 723d 3a6e d43e
000003d0: ded7 00bf 5875 723f da3c 8a3e 3874 193e
000003e0: 8909 c53f 8ada 9d3e cedd 193f 9a54 103f
000003f0: 1d3f 613f ee31 c83e 3ce1 523f 573e 483f

lstm.bias_hh_l0 f4 [256]
-0.16755618 0.08190074 0.44934753 0.40539837 0.32937893 -0.1493145 0.16279903 -0.16701369
0.30888054 -0.17148149 0.0725663 0.43377477 -0.30046153 -1.3782231 0.7226555 1.2925717
0.431039 0.6939692 0.20146888 0.13832767 -0.46362904 0.38674507 0.1978256 0.17719415
0.6150248 0.13744076 0.58894044 0.1465812 0.4560628 0.29828197 0.19523786 0.17576799
0.43593243 -0.18442748 0.23823167 0.43368256 0.256042 -0.12830013 -0.2591945 0.23740773
0.11711957 0.6154697 0.736162 0.37317044 1.317239 0.7595949 -0.22050358 0.52814656
0.40863487 0.3666833 0.09283975 0.5464334 -0.8796563 0.2565117 0.07011211 0.13249081
1.3231194 0.38753572 0.55266243 1.1254313 0.51385725 -0.036168847 0.81337553 1.1175941
0.082462415 0.060257487 0.08358267 -0.13834213 -0.050179552 -0.28280458 -0.20826238 0.13320106
-0.34966785 -0.03228546 -0.10243067 -0.033679795 -0.07982325 -0.32202756 -0.077578746 -0.27646685
0.09433474 -0.057092153 0.05598583 0.03130166 -0.14337109 -0.10925741 -0.20176554 0.08891496
-0.09618644 0.07359712 0.18212646 -0.01264617 0.05270366 -0.05352357 0.046337128 0.14805251
-0.06555459 -0.14138229 0.043987267 -0.19384365 -0.2729399 0.1076241 -0.11273875 -0.14042218
-0.008668813 0.1204506 -0.037391055 -0.009621737 0.12403023 -0.106681384 0.005602856 0.026353694
0.12529182 -0.17051753 0.074688 0.02317663 -0.022543494 0.1895449 0.18709451 -0.02949907
-0.09820308 -0.0060993102 0.20096256 -0.024627667 -0.13983862 -0.11721292 0.004862926 0.12770022
-0.118488915 -0.07501532 0.47861278 0.4719396 0.21333419 -0.20188065 0.1908806 -0.034113113
0.10023736 0.1167514 -0.27227643 -0.42248598 0.07298919 0.25119054 0.3603968 -0.66838676
-0.46886498 -0.74038863 0.1859754 0.43860403 -0.23264897 0.18684705 0.32826054 0.40348917
0.7514912 -0.14493245 0.26708892 0.14961252 0.26925394 0.11204573 0.2314137 0.34495488
0.27928254 0.107555546 -0.29061434 0.4925498 0.15238187 -0.12679508 -0.48982042 0.31092688
-0.11614425 -0.550632 -1.3261584 0.12712589 0.65583795 -0.6432117 0.15549605 -0.617475
0.37260106 0.29529792 0.14257795 0.40504068 0.35429558 -0.09984025 -0.009043381 -0.5230725
0.683405 0.19791496 -0.11891248 -0.28066823 -0.87757486 -0.394391 1.0141915 0.28917706
-0.30384675 0.15107705 0.253052 0.4759174 -0.027513722 -1.4996772 0.91225773 0.171007
0.47935098 -0.1407975 0.21737699 0.47466227 -0.24477069 -1.1050042 0.4370696 1.5512098
0.32490355 0.8889646 0.15138437 -0.045099564 -0.047156855 0.44340646 0.63853365 0.23944747
0.540301 0.22202252 0.6133544 0.14167856 0.5787953 0.37000048 0.27946767 0.1355804
0.086673126 0.32515123 0.111368194 0.47787866 0.47506773 -0.02377667 0.7841302 0.55461
0.3508967 1.1375333 1.1181889 0.27081874 0.676021 0.89699376 0.9350763 0.32751176
0.3181733 0.3277135 0.08683593 0.33387578 -0.65822023 0.93197715 0.09447436 0.30199382
1.3882939 0.27120873 0.6030585 0.58424175 1.0022836 0.33932534 0.8671535 0.7384147
00000000: d993 2bbe 93bb a73d e110 e63e 6090 cf3e
00000010: 5ba4 a83e e6e5 18be cab4 263e a305 2bbe
00000020: 9725 9e3e d898 2fbe a49d 943d ba17 de3e
00000030: 18d6 99be 9d69 b0bf f3ff 383f fd72 a53f
00000040: 25b1 dc3e f7a7 313f dc4d 4e3e c5a5 0d3e
00000050: c960 edbe 7303 c63e cb92 4a3e 6272 353e
00000060: 4472 1d3f 45bd 0c3e cdc4 163f 6219 163e
00000070: 1081 e93e 6ab8 983e 6fec 473e 86fc 333e
00000080: 8932 df3e 8fda 3cbe 01f3 733e a40b de3e
00000090: f017 833e 1c61 03be 24b5 84be 031b 733e
000000a0: 63dc ef3d 6c8f 1d3f 1d75 3c3f 3210 bf3e
000000b0: 4a9b a83f d074 423f b1cb 61be 9d34 073f
000000c0: 9738 d13e eabd bb3e c422 be3d 0fe3 0b3f
000000d0: 2831 61bf 8055 833e f096 8f3d acab 073e
000000e0: fa5b a93f 156b c63e 497b 0d3f 220e 903f
000000f0: 268c 033f c925 14bd 6139 503f 530d 8f3f
00000100: 0ee2 a83d 8ed0 763d 642d ab3d 8fa9 0dbe
00000110: 1389 4dbd c3cb 90be bc42 55be dc65 083e
00000120: aa07 b3be c23d 04bd 2cc7 d1bd d3f3 09bd
00000130: 5f7a a3bd cce0 a4be 9be1 9ebd 108d 8dbe
00000140: 9232 c13d 76d9 69bd 6651 653d 2b36 003d
00000150: dfcf 12be 59c2 dfbd a09b 4ebe 0c19 b63d
00000160: 65fd c4bd 16ba 963d 5c7f 3a3e e231 4fbc
00000170: cbdf 573d 883b 5bbd 00cc 3d3d 149b 173e
00000180: 7c41 86bd 85c6 10be fe2b 343d f37e 46be
00000190: c7be 8bbe 066a dc3d 93e3 e6bd d5ca 0fbe
000001a0: a307 0ebc ceae f63d 5d27 19bd 7da4 1dbc
000001b0: 9003 fe3d c57b dabd 2a98 b73b b4e3 d73c
000001c0: 804c 003e 269c 2ebe 06f6 983d eadc bd3c
000001d0: 22ad b8bc 0f18 423e b495 3f3e 09a8 f1bc
000001e0: b21e c9bd b9dc c7bb 21c9 4d3e f6bf c9bc
000001f0: db31 0fbe 540d f0bd 2e59 9f3b d9c3 023e
00000200: 51aa f2bd a2a1 99bd bc0c f53e 11a2 f13e
00000210: 4774 5a3e cdb9 4ebe 3476 433e 31ba 0bbd
00000220: 3f49 cd3d 5c1b ef3d d167 8bbe 1550 d8be
00000230: 5b7b 953d 0c9c 803e ee85 b83e 651b 2bbf
00000240: 120f f0be 1c8a 3dbf 5670 3e3e b590 e03e
00000250: 883b 6ebe d554 3f3e c411 a83e 2296 ce3e
00000260: ba61 403f 2c69 14be e1bf 883e 0634 193e
00000270: a7db 893e 3b78 e53d b7f7 6c3e ed9d b03e
00000280: 1ffe 8e3e 1546 dc3d 67cb 94be 7d2f fc3e
00000290: fe09 1c3e 92d6 01be bec9 fabe cf31 9f3e
000002a0: 09dd edbd 38f6 0cbf 8fbf a9bf 4a2d 023e
000002b0: ffe4 273f 86a9 24bf 5b3a 1f3e d712 1ebf
000002c0: 91c5 be3e 4a31 973e f4ff 113e 7e61 cf3e
000002d0: 3b66 b53e 0c79 ccbd b02a 14bc 14e8 05bf
000002e0: a1f3 2e3f 38aa 4a3e 6388 f3bd bfb3 8fbe
000002f0: bfa8 60bf 9eed c9be 07d1 813f 040f 943e
00000300: cd91 9bbe f1b3 1a3e 0890 813e 72ab f33e
00000310: 7564 e1bc 6cf5 bfbf b989 693f 761c 2f3e
00000320: 7e6d f53e 382d 10be 1398 5e3e ef06 f33e
00000330: 2ba5 7abe c770 8dbf 96c7 df3e 0b8e c63f
00000340: c259 a63e 2f93 633f 8104 1b3e 52ba 38bd
00000350: 8c27 41bd 2c06 e33e f176 233f b831 753e
00000360: 2b51 0a3f df59 633e cb04 1d3f 2f14 113e
00000370: ee2b 143f b470 bd3e 6316 8f3e 97d5 0a3e
00000380: ae81 b13d 397a a63e 0215 e43d 83ac f43e
00000390: 143c f33e 4bc7 c2bc c2bc 483f ecfa 0d3f
000003a0: bba8 b33e b19a 913f d020 8f3f c1a8 8a3e
000003b0: b60f 2d3f 62a1 653f 2961 6f3f 9faf a73e
000003c0: 9ce7 a23e 10ca a73e 09d7 b13d c4f1 aa3e
000003d0: 1f81 28bf 0e96 6e3f c67b c13d ef9e 9a3e
000003e0: 9db3 b13f dfdb 8a3e 0b62 1a3f de90 153f
000003f0: d44a 803f 0dbc ad3e c6fd 5d3f bf08 3d3f

lstm.weight_ih_l1 f4 [256, 64]
0.04353213 0.05907229 0.26911917 0.09201408 0.025189843 0.20992376 0.089055374 -0.022917295
0.34341678 0.19253513 -0.17122492 -0.2809522 0.32092443 0.083317995 0.4096642 -0.67703766
-0.41062817 -0.3767365 -0.13173416 -0.035062183 0.03910434 0.24363749 0.4641378 -0.14759256
0.33850166 0.025005382 0.26451427 0.047693536 0.56679016 0.26764926 -0.0038512216 0.48824742
0.15654585 0.07265675 -0.1783803 0.36939707 0.16530825 -0.060166966 -0.27945372 0.36980543
-0.3052882 -0.9273765 -0.4109406 0.1245032 0.27288526 -0.22042787 0.23887904 -0.03076237
0.37870485 0.2956416 0.009913363 0.31074783 0.21292375 -0.2215643 -0.1782487 -0.10335673
0.7462122 -0.04846753 -0.69847137 -0.02617802 -0.25661016 -0.24923386 0.30562824 0.2613788
0.12014755 -0.010048148 0.15530308 0.2211428 -0.17818858 0.22553825 -0.091523804 0.012745867
0.43116426 0.14540072 -0.23345299 -0.27652124 0.13139448 -0.32976088 0.653271 -0.15249887
-0.63327277 0.22410062 0.14192423 -0.035421472 0.021744134 0.073630765 0.57638663 0.07033727
-0.2909905 0.12579043 0.37637585 0.13288285 0.2147421 0.15283044 -0.531876 0.4850904
0.46085915 -0.040041603 -0.11028229 0.09627235 0.5443104 -0.07910024 0.10414075 0.60213387
-0.59421563 -0.33601028 0.015281022 0.2104224 -0.06464634 0.06592559 0.42841896 0.16423798
0.36257717 0.37086564 -0.1137455 0.31415063 0.2906709 -0.095745355 -0.13510692 0.32073575
0.07866502 -0.12160163 -0.17578821 0.15995578 0.057082642 0.13058223 -0.09155127 0.0730227
-0.3527995 -0.5833191 0.08652289 -0.0021824765 0.17212555 -0.22214322 0.5355814 -0.12987332
-0.27493754 -0.32252276 0.33341208 -0.035727262 -0.63680416 -0.14195041 -0.34386736 -1.0442014
0.07856114 -0.48776123 0.061092764 0.018728662 -0.29413778 -0.7258777 -0.5273139 -0.040548444
0.039757572 -0.18639916 -0.0060093617 -0.052965607 0.0416916 0.080130845 -0.38560903 -0.08916912
0.12511465 0.69324875 -0.17660883 0.21043913 -0.2943337 0.56938374 -0.72265816 -0.1811315
0.61646724 -0.5609566 -0.21711314 -0.16709377 0.35500753 -0.32966423 -0.34742242 -0.42481017
0.024157774 -0.28344315 0.019841135 0.05846364 0.21454637 0.038263865 0.061874565 -0.25296202
0.6717639 0.10465231 -0.026406994 -0.17211887 -0.73787516 0.2841846 0.8900932 0.079917334
0.5133392 -0.28828996 0.010481503 -0.14915746 -0.21025959 -0.15944465 -0.142791 -0.03972657
0.30091628 -0.13184878 -0.33796525 -0.058807768 0.5283677 -0.23924926 0.20243023 0.41157484
0.01668702 0.60551476 -0.23835006 -0.42300686 0.0879927 -0.31622913 0.35949373 -0.047313362
-0.044686448 0.111985244 0.24885297 0.16856095 -0.07133546 0.47676796 -0.7508159 0.20059139
-0.0054020016 -0.26347506 -0.31274745 0.0074001267 0.4773113 0.32388723 0.19776823 0.2413087
-0.06804781 -0.012739857 -0.10345462 0.25596458 -0.3542583 0.5083396 0.38147742 0.36199462
0.35567513 0.30830112 -0.11003163 0.559674 0.02708674 -0.4974043 -0.26826936 -0.13330176
-0.24752076 -0.065404005 -0.17266904 0.098488845 0.23223753 0.069955744 -0.643098 0.029468795
00000000: bf4e 323d c9f5 713d fdc9 893e e171 bc3d
00000010: ee5a ce3c 41f6 563e aa62 b63d 0dbd bbbc
00000020: 53d4 af3e ee27 453e 9655 2fbe f7d8 8fbe
00000030: 3550 a43e a0a2 aa3d 82bf d13e 5752 2dbf
00000040: db3d d2be 9be3 c0be 52e5 06be 5d9d 0fbd
00000050: df2b 203d 1b7c 793e 78a3 ed3e 8122 17be
00000060: 1750 ad3e 16d8 cc3c 6a6e 873e 4c5a 433d
00000070: 2919 113f 5309 893e c764 7cbb 91fb f93e
00000080: 8e4d 203e 10cd 943d 53a9 36be 9d21 bd3e
00000090: 9146 293e a371 76bd 8f14 8fbe 2357 bd3e
000000a0: bc4e 9cbe 8c68 6dbf ce66 d2be 89fb fe3d
000000b0: 9eb7 8b3e d8b7 61be b59c 743e 5e01 fcbc
000000c0: 9ae5 c13e 565e 973e a86b 223c 571a 9f3e
000000d0: af08 5a3e c0e1 62be d486 36be b1ac d3bd
000000e0: c307 3f3f e485 46bd 05cf 32bf 4973 d6bc
000000f0: 6862 83be 2937 7fbe 4e7b 9c3e 71d3 853e
00000100: eb0f f63d fda0 24bc c507 1f3e 4273 623e
00000110: 1177 36be 80f3 663e d570 bbbd 0ad4 503c
00000120: 90c1 dc3e ede3 143e 4d0e 6fbe 3194 8dbe
00000130: 468c 063e 6bd6 a8be c53c 273f aa28 1cbe
00000140: 2a1e 22bf a27a 653e 9654 113e 1b16 11bd
00000150: c120 b23c bacb 963d 138e 133f fd0c 903d
00000160: b5fc 94be 35cf 003e 56b4 c03e 7112 083e
00000170: 5ae5 5b3e 957f 1c3e 0729 08bf c55d f83e
00000180: bbf5 eb3e aa02 24bd aedb e1bd 702a c53d
00000190: ed57 0b3f 4eff a1bd bf47 d53d 7225 1a3f
000001a0: 841e 18bf 8a09 acbe 405d 7a3c f878 573e
000001b0: 4d65 84bd ff03 873d bb59 db3e 002e 283e
000001c0: b7a3 b93e 1ae2 bd3e 67f3 e8bd 5ad8 a03e
000001d0: d1d2 943e 2416 c4bd 7859 0abe 7a37 a43e
000001e0: 201b a13d 460a f9bd d301 34be 73cb 233e
000001f0: 7dcf 693d 59b7 053e 3b7f bbbd ed8c 953d
00000200: 23a2 b4be 6754 15bf ea32 b13d e107 0fbb
00000210: ae41 303e 8379 63be dd1b 093f 83fd 04be
00000220: 9dc4 8cbe b421 a5be fdb4 aa3e c056 12bd
00000230: 9905 23bf 735b 11be 620f b0be 64a8 85bf
00000240: aae4 a03d d7bb f9be 683c 7a3d da6c 993c
00000250: 3a99 96be 1fd3 39bf 0bfe 06bf 2016 26bd
00000260: d6d8 223d 6cdf 3ebe 2eea c4bb 77f2 58bd
00000270: d0c4 2a3d a41b a43d 8c6e c5be 4d9e b6bd
00000280: 0e1e 003e c078 313f f2d8 34be 5b7d 573e
00000290: e8b2 96be 22c3 113f 2000 39bf 897a 39be
000002a0: ccd0 1d3f da9a 0fbf e852 5ebe a11a 2bbe
000002b0: 8cc3 b53e c0c9 a8be 5ae1 b1be b880 d9be
000002c0: 86e6 c53c 761f 91be e089 a23c 9277 6f3d
000002d0: 0bb2 5b3e 92ba 1c3d 2f70 7d3d 3d84 81be
000002e0: b8f8 2b3f f353 d63d 7b53 d8bc ee3f 30be
000002f0: 63e5 3cbf a580 913e 26dd 633f b3ab a33d
00000300: 336a 033f be9a 93be 9cba 2b3c bcbc 18be
00000310: 4a4e 57be 7545 23be ce37 12be 54b8 22bd
00000320: b311 9a3e 5e03 07be c809 adbe 6ae0 70bd
00000330: 1b43 073f c2fd 74be df49 4f3e f0b9 d23e
00000340: 38b3 883c 0403 1b3f 0a12 74be 5b94 d8be
00000350: 8435 b43d c9e8 a1be 900f b83e a8cb 41bd
00000360: 2309 37bd 8558 e53d 50d3 7e3e 3e9b 2c3e
00000370: 5318 92bd ee1a f43e 7935 40bf d467 4d3e
00000380: 4603 b1bb 34e6 86be 6f20 a0be c37c f23b
00000390: 2662 f43e 8cd4 a53e c183 4a3e a119 773e
000003a0: a65c 8bbd d5ba 50bc 04e0 d3bd ca0d 833e
000003b0: 5861 b5be 8b22 023f 0251 c33e 5c57 b93e
000003c0: 0d1b b63e a5d9 9d3e 4358 e1bd cc46 0f3f
000003d0: 03e5 dd3c c7ab febe 9a5a 89be 4280 08be
000003e0: 1576 7dbe 89f2 85bd 27d0 30be 85b4 c93d
000003f0: adcf 6d3e f544 8f3d 12a2 24bf 8b68 f13c

lstm.weight_hh_l1 f4 [256, 64]
-0.54843843 -0.16342597 0.06793069 -0.17940302 -0.22062519 -0.11653217 0.3917857 -0.3230128
-0.32401708 -0.40073708 0.27925566 0.414461 0.48607117 -0.19532669 -0.15138774 -0.07831826
0.03653252 -0.2320766 0.11020866 -0.12670478 -0.17331828 0.22934118 -0.24308984 0.021230599
0.34141982 0.09844923 -0.039141107 -0.20299831 0.034211993 0.541711 0.10597667 -0.2659126
-0.0040157693 -0.3237651 -0.324063 -0.526207 0.05425836 0.26473525 -0.08577895 -0.20021091
-0.18143669 9.940589e-05 -0.09541901 0.18265533 0.29726037 0.3704722 -0.1170364 -0.34285986
-0.5900824 0.24303596 0.41627824 0.47815788 0.04997687 -0.5032107 0.2969031 0.38376594
0.35387304 0.2879307 -0.06522986 0.5087304 0.123013146 -0.30133802 -0.2805233 -0.19258857
-0.06581197 0.257988 -0.16468397 -0.11552171 -0.3904149 -0.06239912 0.16396032 -0.119842365
-0.39764014 -0.06091506 0.4894911 0.15436438 -0.17410581 -0.15039594 -0.083496414 -0.41744784
-0.089553 -0.32092735 -0.015358861 0.20478377 -0.09240343 -0.35874146 0.03427347 -0.094439976
-0.022472838 0.18931335 -0.07500733 0.006240202 -0.26633933 -0.06431325 0.22576769 0.15476742
-0.2348009 -0.07038437 0.30992028 -0.023203887 0.2898208 0.095597625 -0.17272002 -0.48911956
0.08809899 0.31186685 0.20479427 0.81493646 -0.052223846 -0.31044376 -0.7400914 0.205997
-0.012705923 0.005330514 -0.15925364 -0.26517594 0.26138052 0.008395171 0.5022763 -0.10609171
-0.0040592398 -0.06290348 -0.48745713 -0.04881331 0.1193174 -0.007845215 -0.0741437 0.15606369
0.03263756 0.56140846 -1.2160422 0.015222705 -0.58549726 0.045087453 0.814562 -0.54817027
0.2897702 0.21877627 0.64231884 -0.15776494 -0.30221644 0.7607342 -0.10257885 -0.12673917
-0.1278447 0.3792239 0.10996407 0.29452062 0.016192157 -0.062986396 0.028832508 -0.14063324
-0.04768073 -0.07577688 -0.36522573 0.9922178 0.20738272 0.08484481 -0.036960237 0.14075555
0.052700955 0.009196268 -0.01101564 -0.105796866 0.09522746 0.1838867 -0.69546 -0.09677751
-0.13006851 0.09532202 0.18660791 0.031203022 0.02558463 -0.37398815 -0.024807502 -0.12949622
-0.11776565 -0.3126436 0.046826668 -0.4260616 -0.070764 0.047212947 -0.4401878 0.20943214
-0.029546399 0.1316779 -0.6588691 0.04689902 -0.2702396 -0.13294283 -0.012870794 0.13038772
-0.14451516 0.3807202 -0.035408556 -0.045332465 0.113297924 -0.40509647 -0.17401506 -0.0470993
0.32320195 0.3369868 0.12700151 0.35731238 -0.3428951 0.1039826 0.25221127 0.65390944
0.20595339 -0.06683192 0.12592779 0.17070134 -0.15020782 -0.19376223 -0.22598179 -0.054840192
0.09864602 -0.031115174 -1.0923378 -0.027453572 0.20081227 0.033657692 0.3567988 -0.5759707
-0.020670138 -0.8155766 -0.32120115 0.008533008 0.20623781 0.50995874 0.32153338 0.3371368
-0.0077433297 -0.020675119 -0.49625495 -0.16933352 0.15518881 0.034098208 -0.28008822 -0.060001083
-0.14340657 0.045318935 0.28874245 -0.07094528 0.011091531 0.23363838 0.080328345 0.23375602
0.05418228 0.48641977 0.7373477 0.12638336 -0.06769826 -0.19031674 -0.10528895 0.070031434
00000000: 7666 0cbf 2359 27be 3f1f 8b3d 6db5 37be
00000010: 92eb 61be 6ba8 eebd 2398 c83e ef61 a5be
00000020: 91e5 a5be 692d cdbe 99fa 8e3e 3b34 d43e
00000030: 52de f83e b803 48be 6305 1bbe 5365 a0bd
00000040: 20a3 153d 7da5 6dbe 14b5 e13d e6be 01be
00000050: 597a 31be 6ad8 6a3e 8bec 78be cbeb ad3c
00000060: 94ce ae3e c09f c93d 6d52 20bd cade 4fbe
00000070: e021 0c3d 92ad 0a3f 4c0a d93d b225 88be
00000080: b796 83bb 8ac4 a5be 96eb a5be 80b5 06bf
00000090: 043e 5e3d 618b 873e e0ac afbd 1704 4dbe
000000a0: 8aca 39be 2178 d038 0b6b c3bd 000a 3b3e
000000b0: 8332 983e 88ae bd3e c8b0 efbd 548b afbe
000000c0: a40f 17bf 6bde 783e 6c22 d53e 1cd1 f43e
000000d0: 8cb4 4c3d 6bd2 00bf af03 983e f87c c43e
000000e0: d92e b53e a76b 933e 3c97 85bd 283c 023f
000000f0: 51ee fb3d fa48 9abe c0a0 8fbe f035 45be
00000100: 6dc8 86bd 0117 843e eaa2 28be a596 ecbd
00000110: 76e4 c7be 3896 7fbd 37e5 273e ea6f f5bd
00000120: 7d97 cbbe 1282 79bd 949e fa3e b211 1e3e
00000130: cb48 32be 6501 1abe 2b00 abbd b9bb d5be
00000140: 9067 b7bd 9750 a4be bba3 7bbc d6b2 513e
00000150: 023e bdbd f6ac b7be 5762 0c3d bf69 c1bd
00000160: f518 b8bc 5cdb 413e 719d 99bd 9c7a cc3b
00000170: a15d 88be aab6 83bd a52f 673e 5a7b 1e3e
00000180: a66f 70be ae25 90bd dfad 9e3e 1416 bebc
00000190: 6463 943e b0c8 c33d 84dd 30be e16d fabe
000001a0: 3e6d b43d 03ad 9f3e 97b5 513e ad9f 503f
000001b0: ace8 55bd 7cf2 9ebe a176 3dbf e1f0 523e
000001c0: 812c 50bc 98ab ae3b 6313 23be 24c5 87be
000001d0: abd3 853e e68b 093c 2e95 003f 9c46 d9bd
000001e0: 5f03 85bb 8ad3 80bd fb93 f9be 77f0 47bd
000001f0: ae5c f43d 3789 00bc a7d8 97bd 29cf 1f3e
00000200: f6ae 053d 77b8 0f3f 45a7 9bbf a768 793c
00000210: 26e3 15bf 9fad 383d 2387 503f e354 0cbf
00000220: c25c 943e e306 603e 026f 243f 228d 21be
00000230: 1dbc 9abe 7abf 423f dc14 d2bd eac7 01be
00000240: b9e9 02be a329 c23e d834 e13d 68cb 963e
00000250: 6aa5 843c 03ff 80bd 2732 ec3c 2902 10be
00000260: de4c 43bd e930 9bbd defe babe fc01 7e3f
00000270: 235c 543e 1ec3 ad3d 9e63 17bd 3922 103e
00000280: f5dc 573d f2ab 163c f17a 34bc 07ac d8bd
00000290: 9d06 c33d cc4c 3c3e ab09 32bf 4a33 c6bd
000002a0: ae30 05be 3138 c33d 2516 3f3e 7b9d ff3c
000002b0: dc96 d13c 607b bfbe 1a39 cbbc a89a 04be
000002c0: 1e2f f1bd d212 a0be 52cd 3f3d bf24 dabe
000002d0: b7ec 90bd 5d62 413d 4c60 e1be 6175 563e
000002e0: 4a0b f2bc 92d6 063e a5ab 28bf 3019 403d
000002f0: d85c 8abe 2a22 08be 06e0 52bc 5c84 053e
00000300: c8fb 13be c2ed c23e 9008 11bd 89ae 39bd
00000310: be08 e83d ce68 cfbe 0131 32be 32eb 40bd
00000320: ba7a a53e 8989 ac3e af0c 023e a6f1 b63e
00000330: f28f afbe d4f4 d43d d621 813e 9c66 273f
00000340: 72e5 523e 2cdf 88bd 37f3 003e 55cc 2e3e
00000350: 14d0 19be 9b69 46be c567 67be 1ca0 60bd
00000360: ed06 ca3d 40e5 febc bad1 8bbf 50e6 e0bc
00000370: bba1 4d3e a6dc 093d 55ae b63e d172 13bf
00000380: 6c54 a9bc a1c9 50bf 7a74 a4be 08ce 0b3c
00000390: 0130 533e a88c 023f 06a0 a43e 329d ac3e
000003a0: c2bb fdbb de5e a9bc 2115 febe c465 2dbe
000003b0: d1e9 1e3e 90aa 0b3d b967 8fbe b2c3 75bd
000003c0: 2cd9 12be 59a0 393d 0dd6 933e c24b 91bd
000003d0: 41b9 353c e63e 6f3e 3083 a43d bd5d 6f3e
000003e0: 3dee 5d3d 030c f93e d2c2 3c3f a46a 013e
000003f0: 63a5 8abd 64e2 42be bca1 d7bd a46c 8f3d

lstm.bias_ih_l1 f4 [256]
0.5107851 0.23465262 0.19019666 0.049135927 -0.008492092 -0.1411185 0.29543832 0.19373177
0.13509023 -0.07874356 0.03623338 0.43469664 0.26801905 -0.14673238 0.28017363 0.1705995
0.18917058 0.10473203 0.26978952 0.13816316 0.36111557 0.4203673 0.3844992 0.15161924
0.13102733 0.24256292 0.033214632 0.026932897 -0.040357888 0.18660638 0.3584625 0.14167263
-0.1631887 0.54934376 0.2605816 0.311111 -0.01083449 0.4378485 0.18022867 0.2908148
0.32472232 0.44441086 0.06342193 -0.2634737 0.39623445 0.17245077 0.4633334 0.47544459
-0.024791338 0.3044041 0.15619959 0.31457525 0.044416767 0.12491257 0.083444454 0.50843793
0.47445676 0.10324003 -0.10542312 0.13404177 -0.0070657195 0.24071918 0.445255 0.51977944
0.1455323 0.18667068 0.09945883 0.041846734 -0.07936283 0.034303952 0.08676325 0.113614574
0.011273238 0.04705709 -0.013960269 0.017734988 0.114902034 0.062157784 0.039297756 0.017813005
-0.07414384 0.008593954 0.009327849 0.14157617 -0.13258456 0.06559017 0.17199716 0.08274903
-0.0152746225 0.12895153 0.17969114 0.06061012 -0.033475254 0.033024754 0.11235034 -0.11185822
0.071906 0.13967405 0.09218152 0.104485765 -0.02532886 -0.018929908 0.0054613464 -0.067780375
-0.06882375 -0.12632887 0.10473238 0.049650308 -0.00014216545 0.1293183 0.124530256 -0.019273235
0.06983531 -0.048137363 -0.017825399 0.06864408 0.0274203 0.07126856 -0.035013415 0.062455043
-0.07580543 0.13135229 0.068355314 -0.1049744 -0.097229786 0.04945553 -0.14205308 -0.022055607
-0.30094698 -0.21531606 -0.010900767 -0.021718506 0.05447457 -0.03508141 0.03868172 -0.080996804
-0.10998416 -0.16877323 -0.0255327 0.08613318 0.10848358 -0.009842513 0.12558411 0.095258854
0.14037542 0.029108765 0.22438066 -0.30961484 0.0467388 0.17819013 0.025188355 0.024717197
0.0025784695 0.032201167 0.12264854 -0.17453459 0.15111789 0.2901796 0.03462576 0.039679807
0.09434743 0.04763989 -0.34442595 -0.25519553 -0.03321822 0.16615866 -0.0021544904 -0.08834782
-0.19395052 -0.084345125 -0.050161246 0.05423878 0.1137092 0.16158186 0.24861015 -0.2631808
-0.19002122 -0.017041 0.07866795 0.099566296 -0.01850736 -0.39416504 0.14534977 0.20350033
0.02966587 0.050262883 0.15167585 0.23954004 -0.122541174 -0.055476416 -0.0020122447 -0.19365485
0.37204042 0.4753483 0.22422278 -0.0601825 0.2410477 0.14435361 0.45197093 -0.023876004
0.23085332 0.16347413 0.06320922 0.77800626 0.060304742 -0.25661188 0.16466935 0.22528766
0.10175524 0.29754254 0.12225065 0.46796915 -0.012740605 0.06378025 0.09469317 0.14896452
0.0678297 0.27355877 -0.17490596 0.2184944 0.004140731 0.42948782 0.30256706 0.25347385
0.06575208 0.44060487 0.26824173 0.28224072 0.21793586 0.092414275 0.09468447 -0.04536524
0.32045153 0.19648015 0.1326698 0.029246463 0.24531458 0.38139933 0.66073626 0.31004548
-0.010033385 0.16010292 0.021584757 0.36474675 0.12714052 0.19947772 -0.005045063 0.42120847
0.23194295 0.077018425 0.049637627 0.15151842 0.26177853 0.03724486 0.14694338 0.49176493
00000000: d0c2 023f c748 703e eac2 423e c142 493d
00000010: 6a22 0bbc 5e81 10be b143 973e 9f61 463e
00000020: 1855 0a3e 4e44 a1bd 7469 143d 8f90 de3e
00000030: cb39 893e 0341 16be eb72 8f3e a3b1 2e3e
00000040: efb5 413e bf7d d63d da21 8a3e a57a 0d3e
00000050: 24e4 b83e 623a d73e 14dd c43e 1342 1b3e
00000060: 072c 063e 6a62 783e 110c 083d 61a2 dc3c
00000070: 504e 25bd be15 3f3e 6688 b73e a112 113e
00000080: f01a 27be cba1 0c3f f46a 853e f149 9f3e
00000090: 2583 31bc ae2d e03e dd8d 383e ade5 943e
000000a0: 0142 a63e d289 e33e 5be3 813d 06e6 86be
000000b0: 3edf ca3e ef96 303e 093a ed3e 796d f33e
000000c0: 3417 cbbc dbda 9b3e c9f2 1f3e 0210 a13e
000000d0: 5bee 353d 29d2 ff3d ede4 aa3d fd28 023f
000000e0: ffeb f23e 826f d33d 14e8 d7bd 3f42 093e
000000f0: 8d87 e7bb 177f 763e 77f8 e33e 4410 053f
00000100: 6b06 153e 9926 3f3e 12b1 cb3d 7b67 2b3d
00000110: fb88 a2bd 4d82 0c3d eeb0 b13d c2ae e83d
00000120: 63b3 383c efbe 403d 9db9 64bc f748 913c
00000130: c251 eb3d 2999 7e3d aff6 203d 94ec 913c
00000140: bad8 97bd a8cd 0c3c d6d3 183c 58f9 103e
00000150: 3fc4 07be 2454 863d 0620 303e 5378 a93d
00000160: 6942 7abc df0b 043e f400 383e 5142 783d
00000170: 591d 09bd f744 073d ef17 e63d ec15 e5bd
00000180: 7443 933d b706 0f3e aac9 bc3d a2fc d53d
00000190: 787e cfbc e512 9bbc 18f5 b23b 70d0 8abd
000001a0: 77f3 8cbd 5b5c 01be ee7d d63d 1f5e 4b3d
000001b0: 3f12 15b9 046c 043e b809 ff3d e7e2 9dbc
000001c0: d105 8f3d af2b 45bd 9206 92bc 4495 8c3d
000001d0: 89a0 e03c 40f5 913d 3a6a 0fbd dcd0 7f3d
000001e0: e13f 9bbd 3781 063e dffd 8b3d d1fc d6bd
000001f0: 6920 c7bd e291 4a3d 5d76 11be f6ad b4bc
00000200: b915 9abe d07b 5cbe 2199 32bc 02eb b1bc
00000210: ba20 5f3d 86b1 0fbd b970 1e3d a7e1 a5bd
00000220: 603f e1bd e4d2 2cbe f429 d1bc 9866 b03d
00000230: a42c de3d 7e42 21bc 1f99 003e 1317 c33d
00000240: 93be 0f3e 8175 ee3c 0bc4 653e d685 9ebe
00000250: 2f71 3f3d 7977 363e cf57 ce3c b87b ca3c
00000260: 8afb 283b 5fe5 033d 282f fb3d 32b9 32be
00000270: a6be 1a3e 6c92 943e bed3 0d3d 4b87 223d
00000280: 3a39 c13d 0c22 433d 9958 b0be fda8 82be
00000290: d40f 08bd 7f25 2a3e 5a32 0dbb b4ef b4bd
000002a0: f79a 46be 23bd acbd e175 4dbd 7c29 5e3d
000002b0: 5ee0 e83d b775 253e a993 7e3e a2bf 86be
000002c0: ec94 42be 9199 8bbc aa1c a13d 6ae9 cb3d
000002d0: bf9c 97bc 00d0 c9be 92d6 143e 6462 503e
000002e0: d705 f33c 74e0 4d3d ea50 1b3e fc49 753e
000002f0: def6 fabd 3d3b 63bd dddf 03bb 754d 46be
00000300: 157c be3e da60 f33e a89a 653e ed81 76bd
00000310: 35d5 763e 6fd1 133e bc68 e73e 9c97 c3bc
00000320: d064 6c3e c365 273e d673 813d 6b2b 473f
00000330: 1b02 773d a262 83be 159f 283e cfb1 663e
00000340: 0d65 d03d 7f57 983e 8c5e fa3d a799 ef3e
00000350: f8bd 50bc 389f 823d 7eee c13d 288a 183e
00000360: 4cea 8a3d e50f 8c3e 8c1a 33be ffbc 5f3e
00000370: f8ae 873b d4e5 db3e 12ea 9a3e 53c7 813e
00000380: 07a9 863d f696 e13e fb56 893e db81 903e
00000390: 942a 5f3e b243 bd3d eee9 c13d e7d0 39bd
000003a0: 3912 a43e 1832 493e 98da 073e 4796 ef3c
000003b0: bf33 7b3e c646 c33e 0326 293f 48be 9e3e
000003c0: 1163 24bc 05f2 233e 84d2 b03c 16c0 ba3e
000003d0: 2031 023e e343 4c3e 0e51 a5bb a3a8 d73e
000003e0: 7482 6d3e d6bb 9d3d d350 4b3d a527 1b3e
000003f0: d607 863e 118e 183d 5378 163e 9dc8 fb3e

lstm.bias_hh_l1 f4 [256]
0.31863698 0.35320926 0.16012172 0.14076664 0.11644994 -0.02783244 0.24521354 0.11561453
0.097399026 0.12685636 0.026017074 0.3286702 0.28475833 -0.13902299 0.3493922 0.10269627
0.10183129 0.22661231 0.34782445 0.2777237 0.5044636 0.5112413 0.3496149 0.02606534
0.10324498 0.14096992 0.16333562 -0.057167523 0.14664245 0.092338175 0.19690847 0.25717077
-0.13963044 0.32999554 0.32959476 0.27080414 -0.04512773 0.40775412 0.16754386 0.26813564
0.4593263 0.27207038 0.13584259 -0.043136783 0.3199441 0.2136328 0.4148334 0.39866593
-0.0013126626 0.21395166 0.15072002 0.28637403 0.06947348 0.17547584 0.12056359 0.433751
0.30279616 0.07626846 -0.014681875 0.22844535 -0.08914674 0.16740717 0.2960175 0.5246349
0.065372676 0.18483284 0.0800145 0.029472815 -0.074203975 0.01391829 -0.09281072 0.043562744
0.054391332 -0.026573502 -0.06751276 -0.02500276 0.06381414 -0.12640843 -0.055642284 0.049175546
-0.14574617 0.17291644 0.032849833 -0.07797057 0.023745595 0.05929296 0.23870149 0.013327387
-0.05388571 0.09813328 0.03754858 0.09007788 -0.042558905 -0.040493507 0.1965227 0.066580564
-0.08138188 -0.010957648 0.075269036 0.1571254 -0.11607645 -0.12864047 -0.041213658 0.076229684
-0.07249074 -0.095824726 0.122845374 -0.048837535 -0.03966128 -0.08042602 0.1693621 -0.11940582
0.091224074 0.15779075 0.09919334 0.03237681 0.068729006 0.078736424 0.18131752 0.06034207
-0.06802064 0.07498905 0.061499357 -0.19409578 0.09360459 -0.07273426 -0.07953668 -0.049964976
-0.24616408 -0.27635896 -0.017899986 -0.12058686 0.111229084 0.100816585 -0.019767424 -0.08518217
-0.08767736 -0.09479029 -0.10476183 0.13745555 0.1011301 0.16275941 0.09630279 0.060365595
0.16229086 0.017019019 0.14311655 -0.3301691 -0.08010482 0.24644555 -0.1621563 0.015211317
0.14090875 -0.0556676 0.19594182 -0.06360025 0.11171911 0.06102943 0.023198562 -0.1833126
0.025970643 0.053574078 -0.18624933 -0.43222618 -0.25127283 0.0133188125 -0.09937792 -0.0005430826
-0.0024463525 0.12074981 -0.020767387 -0.10213663 0.026336156 0.18454047 0.26863658 -0.20724921
-0.22314705 0.06887533 0.19371061 0.19377844 0.006817559 -0.39136648 -0.04028296 0.32282794
0.124089465 0.017353958 -0.008470007 0.3475588 -0.31044036 -0.13056985 -0.23384415 -0.16939464
0.33908775 0.48526466 0.17036018 -0.07337167 0.11210364 0.06490997 0.35388774 0.20357965
0.17255922 0.30619517 0.10502972 0.87786084 0.14816497 -0.23906846 0.2216067 0.17095664
0.18558095 0.100130126 -0.033695973 0.49763224 0.057122175 0.0017872237 0.22950579 0.07054284
0.12911457 0.19074537 -0.16180234 0.27914152 0.1413203 0.2994084 0.4806788 0.23657478
0.13220714 0.33346692 0.3320827 0.34126395 0.2574666 0.005939745 0.14245312 -0.14881025
0.4000341 0.23944475 0.2163339 -0.069030866 0.28467858 0.26905224 0.62570226 0.22604856
0.04081267 0.12862927 0.2570809 0.18577461 -0.10103042 0.170942 -0.050351202 0.5384305
0.3502071 0.1444211 0.1310642 0.2844146 0.25397786 0.020027997 0.08197668 0.3139537
00000000: 6324 a33e d8d7 b43e f3f6 233e 2125 103e
00000010: 4e7d ee3d db00 e4bc 4219 7b3e 50c7 ec3d
00000020: 2479 c73d a2e6 013e c221 d53c 7647 a83e
00000030: d8cb 913e 0b5c 0ebe 89e3 b23e 6c52 d23d
00000040: ec8c d03d 0f0d 683e 0c16 b23e cd31 8e3e
00000050: 8724 013f b6e0 023f b900 b33e fb86 d53c
00000060: 1b72 d33d 6b5a 103e 7441 273e 7e28 6abd
00000070: 7029 163e cc1b bd3d 60a2 493e e3ab 833e
00000080: 48fb 0ebe 2df5 a83e a5c0 a83e d7a6 8a3e
00000090: dbd7 38bd 26c5 d03e 9e90 2b3e 1349 893e
000000a0: d12c eb3e cf4c 8b3e 521a 0b3e 32b0 30bd
000000b0: b7cf a33e 8fc2 5a3e 0b65 d43e f11d cc3e
000000c0: a60d acba 2516 5b3e 5956 1a3e 9e9f 923e
000000d0: 1d48 8e3d f0af 333e 0bea f63d 9c14 de3e
000000e0: 1908 9b3e a332 9c3d 3f8c 70bc 94ed 693e
000000f0: 9192 b6bd c96c 2b3e 9b8f 973e 794e 063f
00000100: 1ce2 853d d244 3d3e a4de a33d f970 f13c
00000110: 41f8 97bd 8a09 643c 8c13 bebd d96e 323d
00000120: 72c9 5e3d acb0 d9bc 2144 8abd 97d2 ccbc
00000130: fdb0 823d 3671 01be 2ae9 63bd 4c6c 493d
00000140: 7c3e 15be 0211 313e 8c8d 063d 09af 9fbd
00000150: 1f86 c23c 2ddd 723d 2a6e 743e 1d5b 5a3c
00000160: 43b7 5cbd 1afa c83d 8acc 193d c07a b83d
00000170: 3f52 2ebd 85dc 25bd 3f3d 493e 645b 883d
00000180: 8bab a6bd b587 33bc a726 9a3d 7be5 203e
00000190: 7db9 edbd 54ba 03be a7cf 28bd 4f1e 9c3d
000001a0: 0676 94bd c13f c4bd 5b96 fb3d de09 48bd
000001b0: de73 22bd 66b6 a4bd 426d 2d3e 0a8b f4bd
000001c0: b0d3 ba3d e693 213e e125 cb3d 8c9d 043d
000001d0: cbc1 8c3d 9040 a13d 4dab 393e 3f29 773d
000001e0: 684e 8bbd dc93 993d c0e6 7b3d 0bc1 46be
000001f0: c3b3 bf3d b3f5 94bd 20e4 a2bd 13a8 4cbd
00000200: 7012 7cbe ec7e 8dbe fea2 92bc 3ef6 f6bd
00000210: 13cc e33d ed78 ce3d 4bef a1bc fd73 aebd
00000220: 3090 b3bd 6921 c2bd 5f8d d6bd 26c1 0c3e
00000230: 4c1d cf3d 67aa 263e 663a c53d ea41 773d
00000240: 932f 263e 786b 8b3c 258d 123e ed0b a9be
00000250: ff0d a4bd 395c 7c3e 4d0c 26be e338 793c
00000260: 624a 103e b603 64bd f9a4 483e d940 82bd
00000270: fdcc e43d fff9 793d e90a be3c 4cb6 3bbe
00000280: 63c0 d43c 7e70 5b3d 25b8 3ebe c04c ddbe
00000290: d5a6 80be 2637 5a3c a786 cbbd a85d 0eba
000002a0: fc52 20bb ad4b f73d 5e20 aabc 022d d1bd
000002b0: ecbe d73c 2df8 3c3e bc8a 893e 2339 54be
000002c0: a980 64be 820e 8d3d 135c 463e db6d 463e
000002d0: d465 df3b 3061 c8be bfff 24bd b449 a53e
000002e0: 9e22 fe3d e329 8e3c c9c5 0abc 3af3 b13e
000002f0: 0af2 9ebe 1ab4 05be d774 6fbe ca75 2dbe
00000300: e99c ad3e 9c74 f83e e672 2e3e e343 96bd
00000310: 9896 e53d 85ef 843d c630 b53e 2f77 503e
00000320: 5db3 303e 9dc5 9c3e d219 d73d 7dbb 603f
00000330: 8fb8 173e 5dce 74be deec 623e 420f 2f3e
00000340: ef08 3e3e 0611 cd3d ca04 0abd a7c9 fe3e
00000350: f1f8 693d 4741 ea3a 9103 6b3e c478 903d
00000360: 9c36 043e c152 433e 83af 25be a3eb 8e3e
00000370: 45b6 103e 0f4c 993e 881b f63e a940 723e
00000380: 4f61 073e 2dbc aa3e be06 aa3e 26ba ae3e
00000390: aad2 833e 31a2 c23b 3bdf 113e b761 18be
000003a0: 45d1 cc3e 0131 753e a286 5d3e 0e60 8dbd
000003b0: 64c1 913e 37c1 893e 062e 203f 4679 673e
000003c0: 302b 273d 64b7 033e 1ca0 833e b33b 3e3e
000003d0: 09e9 cebd 6b0b 2f3e 103d 4ebd 95d6 093f
000003e0: 584e b33e 20e3 133e b235 063e ca9e 913e
000003f0: 6309 823e c111 a43c 64e3 a73d 8abe a03e
