model/bd_test_total_loss_batch_size=2048_epoch=300_window_size=5.pt (torch_old, 552860 bytes, 18 tensors)

lstm.weight_ih_l0 f4 [256, 1]
0	0xbd1102f8	-0.03540322
1	0x3d3b6738	0.045752734
2	0x3e3e00a4	0.18554932
3	0x3e8e7d84	0.27830136
4	0xbe18a34b	-0.14906041
5	0xbe2e6f72	-0.170347
6	0x3e5f2dde	0.2179484
7	0x3dc6cf34	0.097074896
8	0x3e64a7bf	0.22329615
9	0x3e0a9ff4	0.1353758
10	0x3e01fa86	0.12693223
11	0x3dedf9cb	0.1161991
12	0x3ce3436d	0.027742112
13	0xbe0991c8	-0.13434517
14	0x3ca11442	0.01966298
15	0x3e374462	0.1789718
16	0x3d21728d	0.039415885
17	0x3e4855d5	0.19563992
18	0x3e370155	0.17871602
19	0xbd829212	-0.06375517
20	0x3e13744c	0.14399832
21	0x3eaaa6b9	0.33330324
22	0xbcefe7b3	-0.029285287
23	0x3e75c97f	0.24002646
24	0xbcb83ab7	-0.022488935
25	0x3dbf39bb	0.09337183
26	0x3deaaefa	0.114591554
27	0x3daa699d	0.083209254
28	0x3e1132f7	0.14179598
29	0x3d552b23	0.05204309
30	0xbd96a601	-0.073558815
31	0x3e620b54	0.22074634
32	0xbc41da3b	-0.011831815
33	0x3e239f30	0.15978694
34	0xbdda2e9a	-0.1065342
35	0x3d0ccb49	0.034373555
36	0x3db280bf	0.087159626
37	0x3e385b1a	0.18003502
38	0x3dce91a3	0.10086372
39	0x3e3271d7	0.17426239
40	0xbdb99a2a	-0.090626076
41	0xbd93a5df	-0.07209372
42	0x3d034d7b	0.032056313
43	0x3de5e517	0.11225336
44	0xbc890c9c	-0.016729645
45	0x3e0d0ac0	0.13773632
46	0x3d8ce708	0.06880003
47	0x3e1c235b	0.15247862
48	0xbdd5607b	-0.10418793
49	0xbdca0def	-0.09865939
50	0x3df1c7c1	0.11805678
51	0x3d82a3dd	0.06378911
52	0x3e82182e	0.25409073
53	0x3cda0d2c	0.026617609
54	0x3e364d26	0.17802867
55	0x3d883799	0.066512294
56	0xbda7d8b4	-0.0819563
57	0xbdbd7802	-0.09251405
58	0xbe2c088e	-0.16800138
59	0x3e10b5c2	0.14131835
60	0xbe099c91	-0.13438632
61	0x3cde7f6c	0.027160369
62	0xbdf63d7e	-0.120234475
63	0x3da6b10c	0.08139238
64	0x3d8389db	0.06422778
65	0xbd52b3ef	-0.05144113
66	0x3cc6095b	0.024174383
67	0x3e4f0b07	0.2021905
68	0xbe502ce2	-0.20329621
69	0x3e3bec85	0.18351944
70	0xbd78ac90	-0.060711443
71	0x3d839f18	0.06426829
72	0x3ce40387	0.027833713
73	0xbd193d6f	-0.037412103
74	0xbb07b0d4	-0.0020704763
75	0xbc261a0e	-0.010138048
76	0xbe1082b1	-0.14112355
77	0x3e17ce55	0.14824803
78	0x3d6777e6	0.05651083
79	0x3cdd5375	0.027017334
80	0xbd0394ed	-0.03212445
81	0xbd2f13ac	-0.04274337
82	0x3e1efa0e	0.15525076
83	0xbd912367	-0.070868306
84	0xbd9ea956	-0.07747142
85	0x3e09db23	0.134625
86	0x3dcbcff7	0.099517755
87	0xbe0fffeb	-0.14062469
88	0x3df3c550	0.11902869
89	0x3e893eca	0.26805717
90	0x3df9da7e	0.12199877
91	0x3c7cc2e0	0.015427321
92	0x3b5b380d	0.0033450157
93	0xbc7edea4	-0.015556011
94	0xbd1efd15	-0.038815577
95	0xbda6806d	-0.08129964
96	0x3e8f2da5	0.27964512
97	0x3ee86af5	0.45394102
98	0x3d11e609	0.03561977
99	0x3e21c3bf	0.15797327
100	0x3e99203e	0.2990741
101	0x3da988cc	0.08278045
102	0xbc9656b0	-0.018351883
103	0x3ddb5d9e	0.107112154
104	0x3df15cf6	0.11785309
105	0x3de43588	0.11143023
106	0x3e232351	0.15931441
107	0xbd743a9a	-0.0596262
108	0x3e6fc3b8	0.23414505
109	0x3e74ab32	0.23893431
110	0x3e0b0dac	0.13579434
111	0xbcf52843	-0.029926425
112	0xbe105573	-0.14095096
113	0x3e761493	0.24031286
114	0xbdad2431	-0.084541686
115	0x3d6d3dae	0.05792015
116	0x3e3da4ef	0.18519948
117	0x3e0f46f5	0.13991912
118	0x3d596364	0.053073302
119	0x3d76dd4f	0.06026965
120	0xbcd4df6e	-0.025985446
121	0xbdbb514c	-0.091463655
122	0xbdbd0d80	-0.092310905
123	0xbda51f20	-0.08062577
124	0x3bfaee7c	0.007657824
125	0x3b19a0a8	0.0023441706
126	0xbe717106	-0.23578271
127	0x3dd85b71	0.10564316
128	0x3db3a283	0.08771231
129	0xbeafa57a	-0.34305936
130	0xbdf19250	-0.11795485
131	0xbe0b7299	-0.13617934
132	0x3dd99e0f	0.106258504
133	0xbe730102	-0.23730853
134	0xbe9840aa	-0.29736835
135	0x3dbdf43e	0.09275101
136	0x3e217cc1	0.15770246
137	0x3e35a572	0.17738894
138	0xbe347aad	-0.17624922
139	0x3e0b60d7	0.1361116
140	0x3db71b0b	0.08940705
141	0xbe67963a	-0.226159
142	0x3eae3dd3	0.34031543
143	0x3ecac5f6	0.39604157
144	0xbe7e45ee	-0.24831364
145	0xbec5ce48	-0.38633943
146	0x3ddcba24	0.10777691
147	0x3e19d553	0.15022783
148	0x3e7779eb	0.24167602
149	0x3ea6224e	0.32448047
150	0x3e2879ca	0.16452709
151	0xbe9e7b45	-0.30953422
152	0x3d9a7062	0.075409666
153	0x3e94697d	0.2898673
154	0xbe57d865	-0.21078642
155	0x3d4d3bb4	0.050105765
156	0x3e689209	0.22711958
157	0xbee5872b	-0.44829687
158	0xbe6d62f2	-0.23182276
159	0xbe914b2c	-0.28377664
160	0xbe7d0f02	-0.24712756
161	0x3ec03540	0.37540627
162	0x3e666511	0.22499491
163	0x3dcc8dbb	0.099879704
164	0xbde6b92c	-0.112657875
165	0xbe6cf31e	-0.23139617
166	0x3e39a307	0.18128596
167	0x3d1b2be7	0.037883665
168	0xbd2ef0a8	-0.042709976
169	0x3b7b13dd	0.00383114
170	0xbe72cf4d	-0.23711891
171	0xbef9fa7d	-0.4882392
172	0xbd8bd49f	-0.06827664
173	0xbdc75e8e	-0.09734832
174	0x3e165411	0.14680506
175	0x3e4d1d59	0.20030726
176	0xbe4ee2b6	-0.20203671
177	0x3e9f1e2c	0.31077707
178	0xbe08d6a7	-0.13363133
179	0xbd9a8aba	-0.07545991
180	0xbe500dc8	-0.20317757
181	0x3e6d7f37	0.2319306
182	0x3e20ec24	0.1571508
183	0xbe09f857	-0.1347364
184	0xbe8e8f71	-0.27843812
185	0x3e90c1f2	0.2827297
186	0x3e896c06	0.26840228
187	0x3db075c2	0.086162105
188	0x3e9f5f9e	0.31127638
189	0xbe47c6a5	-0.1950937
190	0x3e016c95	0.12639077
191	0xbd14681e	-0.036232106
192	0x3dbb3eb4	0.09142819
193	0x3ddf8720	0.10914445
194	0x3e694e86	0.2278386
195	0x3e8545d9	0.26029852
196	0x3c294ba9	0.01033298
197	0x3d45cb81	0.04828978
198	0xbdc011a4	-0.09378365
199	0x3e0ad14b	0.13556401
200	0x3e2dbbea	0.16966215
201	0xbe77a62b	-0.24184482
202	0x3e5feff2	0.21868876
203	0xbe19283f	-0.14956759
204	0x3d45c4ed	0.048283506
205	0x3e533f24	0.20629555
206	0xbdf1067e	-0.117688164
207	0xbda07dcd	-0.078364946
208	0x3e8860ff	0.26636502
209	0xbcfca27f	-0.030839203
210	0x3cef9593	0.029246127
211	0xbd9dfff2	-0.07714833
212	0x3e8de4d1	0.27713636
213	0x3d88122c	0.06644091
214	0x3dad09b1	0.08449114
215	0xbdf64982	-0.12025739
216	0x3dfbcbb9	0.122947164
217	0xbe047384	-0.1293469
218	0xbe022e57	-0.1271299
219	0x3ce209ee	0.027592625
220	0xbdb5ab13	-0.088705204
221	0xbdd15065	-0.10220412
222	0x3e8fd5fc	0.28092945
223	0xbdc8ec4a	-0.098106936
224	0xbdf6bb1e	-0.120474085
225	0xbdc99892	-0.098435536
226	0x3e0a7818	0.13522375
227	0x3eb79fd3	0.35864124
228	0x3c7ac387	0.015305406
229	0x3d0791e4	0.033098117
230	0x3e13a1a5	0.14417131
231	0x3d80e69c	0.06293985
232	0x3e14aeb6	0.14519772
233	0xbc0af280	-0.008480668
234	0xbd875ad3	-0.0660912
235	0xbe04f1d3	-0.12982874
236	0x3e06eba6	0.1317583
237	0x3df888b6	0.121354505
238	0x3da24793	0.07923808
239	0x3e7634bd	0.24043556
240	0x3d2ab941	0.04168058
241	0xbe008286	-0.1254979
242	0x3e670929	0.22562088
243	0x3e5f4381	0.21803094
244	0xbe111b42	-0.14170554
245	0xbe0e4a0f	-0.13895439
246	0x3e05b2a1	0.13056423
247	0xbe268b98	-0.16264188
248	0x3e435f7f	0.19079398
249	0x3e74c0ea	0.23901716
250	0x3db4ed7e	0.088343605
251	0x3e68dbf1	0.22740151
252	0x3e4c186d	0.19931193
253	0x3d677bef	0.056514677
254	0x3e99c6c8	0.3003447
255	0x3d0c387e	0.034233563

lstm.weight_hh_l0 f4 [256, 64]
0	0x3df65049	0.12027032
1	0xbd5909c4	-0.05298783
2	0xbdab27a5	-0.08357171
3	0x3d3accd1	0.045605484
4	0x3e8a64f7	0.27030155
5	0xbe357142	-0.17718986
6	0xbdffd37e	-0.12491511
7	0x3db0dc8d	0.08635817
8	0x3dd93133	0.10605087
9	0x3e8d62f9	0.27614573
10	0xbdda462b	-0.10657915
11	0x3e58ed0d	0.21184178
12	0x3e2a6603	0.16640477
13	0xbdf41a62	-0.119190946
14	0x3e8d33bb	0.2757853
15	0x3dd19d8a	0.10235126
16	0x3c50dc59	0.0127478475
17	0xbe05a5c7	-0.1305152
18	0x3c93cf10	0.018043071
19	0x3e0baa86	0.13639268
20	0x3e03eba2	0.12882856
21	0x3de9013f	0.11377191
22	0x3e0da0c8	0.13830864
23	0xbdcf393a	-0.10118337
24	0xbc7a4b0d	-0.015276683
25	0x3c744116	0.014908096
26	0xbd6419df	-0.055688735
27	0x3e1f0858	0.15530527
28	0x3db084e9	0.086191006
29	0xbc2dcb74	-0.010607589
30	0xbe1b4b79	-0.1516551
31	0xbd2a30e6	-0.04155054
32	0xbe2f3bdf	-0.17112683
33	0x3c9205e9	0.017825084
34	0xbb9b8e9d	-0.0047472254
35	0xbdca3b8e	-0.098746404
36	0xbdd59295	-0.10428349
37	0xbcf12a83	-0.029439216
38	0x3dad98d6	0.08476417
39	0x3e48a07b	0.19592468
40	0xbe7a2e0c	-0.24431628
41	0x3d2ce086	0.04220631
42	0xbd5f567c	-0.054525837
43	0xbb66c9f8	-0.0035215598
44	0x3d6c684a	0.057716645
45	0xbd2455c8	-0.04012087
46	0x3e2a8131	0.16650845
47	0xbc8ab0d0	-0.016930014
48	0xbe2fa0df	-0.17151211
49	0x3c87b80b	0.01656725
50	0xbd9613d8	-0.07328004
51	0x3db3502d	0.08755527
52	0xbca46b4f	-0.0200707
53	0x3d6c621b	0.05771075
54	0x3dc213c5	0.09476427
55	0xbdc88313	-0.097906254
56	0xba6180be	-0.0008602253
57	0x3a74805b	0.0009326988
58	0x3d9a58c5	0.07536463
59	0x3def3342	0.116796985
60	0xbd0afc69	-0.033932123
61	0x3ccf9cf6	0.0253434
62	0x3e2c1279	0.16803922
63	0xbc811611	-0.015757592
64	0x3e882841	0.2659321
65	0xbde5d154	-0.11221567
66	0xbd257644	-0.04039599
67	0x3b26b905	0.002543987
68	0x3ebfbdd9	0.3744953
69	0xbe6859a4	-0.22690445
70	0x3cf4e151	0.029892595
71	0xbcffd286	-0.031228315
72	0x3d46f004	0.04856874
73	0x3ea87ef2	0.32909352
74	0xbe153bb6	-0.14573559
75	0x3e5c81de	0.21533915
76	0x3dc30cf6	0.095239565
77	0xbe7d233c	-0.24720472
78	0x3e4fe19d	0.20300908
79	0x3e258afe	0.16166303
80	0xbbb9ec1c	-0.0056738984
81	0x3d523c8c	0.051327273
82	0x3e2659ae	0.16245148
83	0x3dc0b29d	0.09409068
84	0x3d9a2b73	0.075278185
85	0x3e07b1ac	0.1325137
86	0x3e0c0f9a	0.13677827
87	0x3a00d02f	0.0004913834
88	0x3e4bd1b3	0.19904213
89	0x3dd5785f	0.104233496
90	0xbe8a5c34	-0.2702347
91	0x3d631a1c	0.05544482
92	0x3e34c434	0.1765297
93	0xbdfdbd5e	-0.123896345
94	0xbdfe6d05	-0.124231376
95	0x3b35d4fa	0.0027745352
96	0xbd50b714	-0.050955847
97	0xbd08b706	-0.03337767
98	0xbd982a6f	-0.074299686
99	0x3d1e351d	0.03862487
100	0xbdcc47ab	-0.09974607
101	0xbdeeb0b7	-0.116547994
102	0x3e383ded	0.17992373
103	0x3e4cfd7a	0.20018569
104	0xbe89bf75	-0.26903883
105	0x3f0005cd	0.5000885
106	0xbda898dc	-0.082322806
107	0xbbfe8f2f	-0.0077685337
108	0xbe4b153d	-0.1983232
109	0x3cadf2d9	0.021233963
110	0xbc75aaf8	-0.014994375
111	0x3e267188	0.16254246
112	0xbddf12dc	-0.10892269
113	0x3e3ac7cb	0.18240277
114	0xbd846067	-0.064637
115	0xbd7cdab7	-0.06173202
116	0xbe49fd7a	-0.197256
117	0x3e7b9de3	0.24571948
118	0xbd7ebcda	-0.06219182
119	0xbe475aac	-0.19468182
120	0x3c4f916f	0.012668951
121	0x3d99ee37	0.07516139
122	0xbe353277	-0.17695032
123	0x3cb33551	0.02187601
124	0x3da01b6e	0.07817732
125	0xbe630f07	-0.22173701
126	0x3e05b7ea	0.13058439
127	0x3c313cb5	0.010817696
128	0x3e213dd6	0.15746245
129	0xbd97acb3	-0.07405987
130	0x3d7e219d	0.062043775
131	0xbd8e1d33	-0.06939163
132	0x3e463f2a	0.19360033
133	0xbd204d68	-0.03913632
134	0x3e137ef2	0.14403895
135	0x3e3d48f1	0.18484856
136	0xbe104b18	-0.14091146
137	0x3e12fc02	0.14353946
138	0x3da03490	0.078225255
139	0x3cfec172	0.031098101
140	0x3e210c58	0.15727365
141	0xbdc5229a	-0.0962574
142	0x3e175633	0.14778976
143	0x3d076a3b	0.033060294
144	0xbd8c9158	-0.068636596
145	0x3d923432	0.07138862
146	0x3e4afd83	0.1982327
147	0x3d0f2e4d	0.034956265
148	0xbd021595	-0.031758863
149	0x3c277e0d	0.010222924
150	0x3e48a27e	0.19593236
151	0x3d2ddad9	0.042445038
152	0x3ddffa93	0.10936465
153	0x3e1c27a1	0.15249492
154	0xbd2eb700	-0.04265499
155	0x3df07370	0.11740768
156	0x3deda510	0.11603749
157	0x3c6df9ee	0.01452492
158	0x3bcb97b8	0.0062131546
159	0xbda09b46	-0.07842116
160	0x3dddcd72	0.10830201
161	0x3e12a397	0.14320217
162	0x3dd3827a	0.10327621
163	0xbc334cce	-0.010943605
164	0xbda35b8e	-0.07976447
165	0x3bdca644	0.0067336876
166	0x3c43b5e7	0.011945224
167	0x3e8d381b	0.27581868
168	0xbe698532	-0.22804716
169	0x3e22eca1	0.1591058
170	0xbbcf0a37	-0.0063183564
171	0xbe44b8b0	-0.19211078
172	0xbe4a7d20	-0.19774294
173	0x3c2227d5	0.009897192
174	0x3c7ad5d7	0.015309772
175	0x3d9d5364	0.07681921
176	0xbe7aa85b	-0.24478285
177	0x3cd91746	0.026500355
178	0x3d03c494	0.032169893
179	0xbdf019f2	-0.11723699
180	0xbbf616f9	-0.007510063
181	0x3d2d7509	0.04234794
182	0xbcbc90b4	-0.023018219
183	0xbe8949dc	-0.26814163
184	0x3d40a92a	0.047036327
185	0x3e207f65	0.15673597
186	0xbe0260ad	-0.12732191
187	0x3e5a2962	0.21304849
188	0x3d281d89	0.041043792
189	0xbdacbf5c	-0.084349364
190	0x3d6a2b61	0.057170276
191	0xbd969b51	-0.07353843
192	0xbc1208b4	-0.008913208
193	0xbdb1fe90	-0.08691132
194	0xbeaf3433	-0.34219512
195	0xbee4740f	-0.44619796
196	0xbcd10db6	-0.025519233
197	0xbd3a5a95	-0.045496542
198	0xbe921e24	-0.2853862
199	0x3e1f0d03	0.15532307
200	0x3e034a77	0.12821375
201	0xbda4cb73	-0.08046617
202	0xbe1afbb5	-0.15135081
203	0xbd76e49e	-0.06027662
204	0x3e4476ff	0.19186018
205	0x3e1a9482	0.15095714
206	0xbdb58d0a	-0.08864792
207	0x3e5e8cf6	0.2173346
208	0xbe04b3dc	-0.12959236
209	0xbde2cb84	-0.11073974
210	0x3dc9a4fa	0.0984592
211	0x3e938f78	0.28820395
212	0x3e7aff53	0.24511461
213	0xbcb6b3c1	-0.02230251
214	0x3e2db631	0.16964032
215	0x3d82f5a0	0.063945055
216	0x3d1401e9	0.036134634
217	0x3ea284be	0.317419
218	0xbd25b3ff	-0.04045486
219	0x3d745e28	0.059660107
220	0x3da55266	0.08072357
221	0xbe52c50e	-0.20582983
222	0xbb9b4c42	-0.0047393152
223	0xbde7c8bb	-0.11317583
224	0xbe18beb5	-0.14916499
225	0x3e1012db	0.14069693
226	0x3e2fe65c	0.17177719
227	0x3e8d0a6d	0.27547017
228	0xbe48922e	-0.19587013
229	0x3d0fdc42	0.035122164
230	0xbc2bb48c	-0.010480057
231	0x3cc8191d	0.024426037
232	0x3d34beac	0.04412715
233	0xbcb2f633	-0.021845913
234	0xbe393466	-0.18086395
235	0xbe9dd139	-0.30823687
236	0xbecf059c	-0.40433967
237	0xbebd3516	-0.36954564
238	0x3df1cc55	0.11806551
239	0x3e948c37	0.29013225
240	0xbeb0d8b4	-0.3454033
241	0x3e3f8ffe	0.18707272
242	0xbdd0ba81	-0.10191823
243	0xbe9f06ca	-0.31059867
244	0x3b665027	0.003514299
245	0xbd92e8a9	-0.07173283
246	0x3e8f98ad	0.2804617
247	0x3d7551bc	0.0598924
248	0xbd6143de	-0.054996364
249	0x3e7f4a92	0.2493079
250	0x3ec5dca1	0.3864489
251	0x3e5356e4	0.20638615
252	0x3e4d3ecc	0.20043486
253	0xbe1a2342	-0.15052512
254	0x39a2dc8d	0.0003106337
255	0xbdea5be2	-0.114433065

lstm.bias_ih_l0 f4 [256]
0	0x3e440f33	0.19146423
1	0x3d94341a	0.072365
2	0x3d76353e	0.06010937
3	0x3e0b858d	0.13625164
4	0x3dd0e99d	0.10200808
5	0x3caf13c2	0.021371726
6	0xbacc60a6	-0.0015592768
7	0x3e439d9a	0.19103089
8	0x3e769476	0.24080071
9	0x3eac4071	0.33642915
10	0x3e57b2fd	0.21064372
11	0x3ea35ff4	0.31909144
12	0xbe4e87be	-0.20168969
13	0x3dc3237a	0.09528251
14	0x3e93d49f	0.28873155
15	0x3dcecf69	0.10098154
16	0x3e3bbce9	0.18333782
17	0x3e458b7b	0.19291489
18	0x3e8cf142	0.27527815
19	0x3dd945da	0.10609026
20	0x3d40b07c	0.04704331
21	0x3e7c737d	0.2465343
22	0xbcc3cd72	-0.023901675
23	0x3e6596e1	0.22420837
24	0x3db1f469	0.08689196
25	0x3d1eeab3	0.038798045
26	0x3e31af26	0.1735197
27	0x3de02c38	0.10945934
28	0x3e8f7925	0.28022113
29	0x3ca6ed54	0.020376839
30	0x3e52ca8f	0.20585082
31	0x3e6148be	0.22000405
32	0x3e2aaa8a	0.16666618
33	0x3d704e73	0.058668565
34	0x3e27915b	0.16364042
35	0x3e352ff9	0.17694081
36	0x3c864996	0.01639251
37	0x3e77d45e	0.24202105
38	0x3e44b7f7	0.19210802
39	0x3ea1e5ab	0.31620535
40	0xbcc642d4	-0.024201788
41	0x3ca44098	0.020050332
42	0x3e2156f4	0.15755826
43	0x3e28c06a	0.1647965
44	0x3e055bdb	0.13023321
45	0x3dafdea7	0.085873894
46	0x3e2f5b43	0.17124657
47	0xbcdb67b4	-0.026782848
48	0x3e00c42e	0.12574837
49	0x3e6de9dd	0.23233743
50	0x3d030c4c	0.03199415
51	0xbcfaed20	-0.030630648
52	0x3e9a5ba5	0.30148044
53	0x3e68c0bf	0.22729777
54	0x3e432b72	0.19059542
55	0x3d993995	0.07481686
56	0x3e3ae044	0.18249613
57	0x3e30bba2	0.17259076
58	0x3db10df6	0.08645241
59	0x3e226896	0.15860209
60	0x3d5a780a	0.053337134
61	0x3c8c636d	0.017137254
62	0x3e973a3e	0.29536623
63	0x3d92cce5	0.07167987
64	0x3d9a5815	0.075363316
65	0x3ccd50c4	0.025062926
66	0xbd825d52	-0.06365456
67	0x3d26cc43	0.040722143
68	0x3db8e60d	0.09028254
69	0xbb8d6fca	-0.004316305
70	0xbd50796a	-0.05089704
71	0x3cc965f9	0.024584757
72	0xbcf99144	-0.030464776
73	0x3e2d34e8	0.16914713
74	0xbe37dfb3	-0.17956428
75	0x3de938d6	0.11387794
76	0x3e33d774	0.17562658
77	0x3d96d917	0.07365625
78	0x3db1a644	0.08674291
79	0xbe02e924	-0.12784249
80	0xbe033f0e	-0.12817022
81	0xbdb7cfbc	-0.08975169
82	0x3db8fc23	0.09032466
83	0x3d5347e1	0.05158222
84	0x3d148c70	0.036266744
85	0x3d868117	0.06567591
86	0x3d9e5ed9	0.077329345
87	0x3e223ca6	0.15843448
88	0xbd3672dc	-0.044543132
89	0xbdb50d9c	-0.088404864
90	0x3e1a05e2	0.15041307
91	0x3dbd1f58	0.09234494
92	0xbd2e5822	-0.04256452
93	0x3c3981a7	0.011322415
94	0xbd84b438	-0.064796865
95	0xbe533e15	-0.20629151
96	0xbe6b673f	-0.22988604
97	0xbd95806c	-0.07299885
98	0x3dc33cce	0.09533082
99	0x3d3fbb28	0.046809345
100	0x3c98f1fd	0.018670077
101	0xbdb8ad0f	-0.09017383
102	0xbd520402	-0.051273353
103	0x3d4e0bca	0.05030421
104	0xbb6b33de	-0.003588907
105	0xbcbbc244	-0.022919782
106	0xbde26c0f	-0.11055767
107	0x3c6a1f11	0.014289633
108	0xbd97bc86	-0.07409005
109	0xbd897bad	-0.067130424
110	0xbd05002d	-0.03247087
111	0xbd8d0f1a	-0.06887646
112	0xbc0e10a5	-0.008670961
113	0xbcbba77c	-0.022907011
114	0xbe924fba	-0.28576452
115	0xbbf54afe	-0.0074857464
116	0x3c3c42de	0.011490552
117	0xbd98108e	-0.074250326
118	0xbdceb3c4	-0.10092881
119	0x3d2fc6fc	0.042914376
120	0xbdc52a57	-0.09627216
121	0xbc863e8a	-0.016387243
122	0xbd99652c	-0.0749
123	0xbd8c1e6f	-0.06841742
124	0xbc12ea0d	-0.008966935
125	0xbb987f2b	-0.0046538315
126	0x3e564c43	0.20927529
127	0xbdc083c6	-0.09400134
128	0x3dab3ee0	0.08361602
129	0xbd494b46	-0.049144052
130	0xbdbd8da5	-0.09255532
131	0x3dfc6c31	0.123253234
132	0x3da03172	0.07821931
133	0xbe85e031	-0.26147607
134	0x3e8cdcf3	0.2751232
135	0x3cefd9d1	0.029278668
136	0x3d8080eb	0.06274589
137	0x3e8a86ae	0.27055877
138	0x3e6267cd	0.2210991
139	0x3e7db410	0.2477572
140	0xbe0d69db	-0.13809912
141	0xbe639e5f	-0.22228383
142	0x3c7e7f7c	0.015533324
143	0xbe10f47b	-0.14155762
144	0x3e04da0b	0.12973802
145	0xbd8dc444	-0.069222
146	0xbcd67bb7	-0.026182039
147	0xbe2ccdab	-0.16875331
148	0xbe894840	-0.26812935
149	0x3e9a2b43	0.3011113
150	0x3dc7549a	0.09732933
151	0xbe84c007	-0.25927755
152	0x3e49abe0	0.19694471
153	0xbdae9ff7	-0.085266046
154	0xbe88ad33	-0.2669464
155	0x3e2766a3	0.16347747
156	0x3e46b8eb	0.19406478
157	0x3cccb10a	0.024986763
158	0xbdd3e3dc	-0.10346195
159	0x3eb00a49	0.34382847
160	0x3e34ad61	0.17644264
161	0xbd8d9114	-0.06912437
162	0xbe094df5	-0.13408644
163	0xb75f501a	-1.3310486e-05
164	0x3dc2a0ad	0.09503303
165	0xbe9461d6	-0.28980893
166	0x3e10515e	0.14093539
167	0x3e624552	0.22096756
168	0xbdc1f4ee	-0.09470545
169	0x3e25abd7	0.16178833
170	0x3df454a7	0.11930209
171	0x3e929f97	0.28637382
172	0x3d5f3c4f	0.054500874
173	0x3debdd6f	0.115168445
174	0xbcdc82da	-0.026917864
175	0x3d495997	0.049157705
176	0x3e7ba84b	0.24575917
177	0xbd8e29f2	-0.06941594
178	0xbc36f14a	-0.011165926
179	0xbb94d839	-0.0045423773
180	0xbdb821d1	-0.08990825
181	0x3e3a3071	0.18182541
182	0xbe3220b7	-0.17395292
183	0xbe6a6792	-0.22891071
184	0x3e21529b	0.15754168
185	0x3c9dace3	0.019247478
186	0xbebb008a	-0.3652385
187	0x3d5e5e23	0.054288995
188	0xbdd252bb	-0.10269686
189	0xbd296903	-0.041359913
190	0x3e83ee0b	0.2576755
191	0x3d9bc5c8	0.07606083
192	0x3e19b0b6	0.15008816
193	0x3d7d6aef	0.061869558
194	0x3cb2271d	0.021747166
195	0x3d942887	0.072342925
196	0x3db9e754	0.090773255
197	0x3cff3e5d	0.031157667
198	0x3e35059e	0.17677924
199	0x3dd28ac2	0.10280372
200	0x3dd1bc5e	0.10241006
201	0x3e666a54	0.22501498
202	0x3c5dc6a0	0.013536125
203	0x3d5cdc1a	0.053920843
204	0xbdc3cd64	-0.095606595
205	0x3e05e9c4	0.13077456
206	0x3e6eb12a	0.2330977
207	0x3e048ecd	0.12945099
208	0x3db615e5	0.08890895
209	0x3b0a70cd	0.0021124363
210	0x3e249095	0.16070779
211	0xbb65eb3c	-0.0035082838
212	0x3e907e63	0.28221425
213	0x3e763072	0.24041918
214	0x3c84671a	0.016162444
215	0x3e7a56da	0.24447194
216	0xbd1ff03f	-0.039047476
217	0x3d6532f3	0.055956792
218	0x3e378092	0.1792014
219	0x3e07eaad	0.13273115
220	0x3e34713e	0.17621323
221	0x3c87f6d1	0.016597183
222	0x3e6149a5	0.2200075
223	0x3dad0a03	0.08449175
224	0x3ce324a0	0.027727425
225	0x3e622ca6	0.22087345
226	0x3e49876c	0.19680566
227	0x3dcd2810	0.10017407
228	0x3cfb5396	0.030679505
229	0xbca627ef	-0.020282714
230	0x3e5bfb76	0.21482643
231	0x3dc01a1f	0.09379982
232	0x3e204911	0.15652873
233	0x3cbb0a2d	0.022832
234	0x3d7730b5	0.060349185
235	0x3ddcd6a1	0.10783125
236	0xbd8c5076	-0.06851284
237	0x3da5241e	0.080635294
238	0x3cd752da	0.026284624
239	0x3e447f0f	0.19189094
240	0x3e96d7b2	0.29461437
241	0x3e306b88	0.1722852
242	0xbd9d1fed	-0.07672105
243	0xbd9e8325	-0.077398576
244	0x3d7f18d8	0.062279552
245	0x3e1c4cd2	0.1526368
246	0x3dee2f44	0.11630109
247	0x3d7a138d	0.0610538
248	0x3ded7910	0.115953565
249	0x3c1e8e13	0.009677428
250	0x3e3710f2	0.17877558
251	0xbcdffcaa	-0.02734216
252	0x3e43b2f7	0.19111238
253	0x3e02efa4	0.12786728
254	0x3e1b4cea	0.15166059
255	0x3a1f4444	0.0006075541

lstm.bias_hh_l0 f4 [256]
0	0x3c90d79f	0.017680941
1	0x3db49489	0.08817393
2	0xbb8c9338	-0.004290011
3	0x3e2b3f58	0.16723382
4	0x3e416258	0.18885171
5	0xbc94c3bd	-0.018159742
6	0x3dafa36b	0.085760914
7	0xbaa1dba8	-0.0012348788
8	0x3e6eaa54	0.23307163
9	0x3ea0c676	0.31401414
10	0x3ce5161a	0.02796464
11	0x3e536a02	0.20645908
12	0xbe2904b0	-0.16505694
13	0x3d3922bb	0.045199137
14	0x3e8ef944	0.2792455
15	0xbcd23e23	-0.025664395
16	0x3cc35877	0.023845894
17	0x3e00bfe6	0.12573203
18	0x3e1c3fcb	0.1525871
19	0x3e08c73b	0.1335725
20	0x3e4b6e00	0.1986618
21	0x3eb6511d	0.3560876
22	0xbd804b69	-0.06264383
23	0x3e7c6bf1	0.24650551
24	0x3d1f43d4	0.038883045
25	0xbc17865e	-0.009248344
26	0x3e98d043	0.2984639
27	0x3dfbe8dd	0.123002745
28	0x3d9c00ed	0.07617364
29	0x3d7f6e81	0.062361244
30	0x3c49da66	0.012320137
31	0x3df6056d	0.12012754
32	0x3e2c26c2	0.1681166
33	0x3e14e2e3	0.14539675
34	0xbcc63453	-0.024194872
35	0xbc8d1cab	-0.017225584
36	0x3e38d7df	0.18051098
37	0x3e8163db	0.25271496
38	0x3c959231	0.018258186
39	0x3e9b7230	0.30360556
40	0xbabe18a5	-0.0014503194
41	0xbcae4599	-0.021273421
42	0x3c3b1cfd	0.011420486
43	0x3c3c0091	0.011474744
44	0x3b83a7e8	0.0040178187
45	0xbc34e27c	-0.011040326
46	0x3e2fd8a9	0.17172493
47	0x3dc3d6b5	0.095624365
48	0x3e049c32	0.12950209
49	0x3e20ceb4	0.15703851
50	0x3d5ff531	0.054677192
51	0x3d523b05	0.051325817
52	0x3eb91d8a	0.3615535
53	0x3db39df6	0.08770363
54	0x3daf258f	0.085520856
55	0x3e18e615	0.1493152
56	0x3e22af12	0.15887097
57	0x3e324d4f	0.17412303
58	0x3e43f82e	0.19137642
59	0x3e445bbf	0.19175623
60	0x3d895a0e	0.0670663
61	0x3defdcac	0.11712012
62	0x3e552d00	0.20817947
63	0xbdc0139c	-0.0937874
64	0xbd011897	-0.03151759
65	0xbe022b82	-0.1271191
66	0xbdf7edcc	-0.12105903
67	0xbdaa6ab6	-0.08321135
68	0x3e8144f0	0.25247908
69	0x3d679a7e	0.05654382
70	0xbe9400bf	-0.2890682
71	0x3dd226d5	0.10261313
72	0xbe147ad6	-0.14499983
73	0xbb4ad490	-0.003094945
74	0xbbdef897	-0.0068045366
75	0xbd15c712	-0.0365668
76	0x3dfea360	0.12433505
77	0x3d8db087	0.069184355
78	0x3d621e4a	0.055204667
79	0xbd15e818	-0.036598295
80	0xbdbd5272	-0.09244241
81	0xbceebe68	-0.029143527
82	0x3e6c3cd3	0.23070078
83	0xbca8b1e0	-0.02059263
84	0xbd3b7a54	-0.045770958
85	0xbc0e8d3d	-0.008700666
86	0xba88d557	-0.0010439557
87	0x3d580e7b	0.052748185
88	0x3e010ce8	0.1260258
89	0xbe262bc8	-0.16227639
90	0x3dbf89a7	0.09352427
91	0x3dee7d87	0.11645036
92	0x3dc06dc8	0.09395939
93	0xbd89c4c2	-0.06726982
94	0xbd8d6d98	-0.06905669
95	0xbdccfc96	-0.100091144
96	0xbe709179	-0.23492993
97	0xbe023ff5	-0.1271971
98	0xbd2bb7f8	-0.041923493
99	0xbe43a3f1	-0.19105507
100	0x3d15d327	0.036578324
101	0x3d446b6f	0.04795402
102	0x3d95cb61	0.07314182
103	0x3d83301e	0.06405662
104	0x3de3329e	0.11093639
105	0x3e32a628	0.17446196
106	0x3dc815be	0.09769772
107	0x3d6c7aa3	0.057734143
108	0xbd8078b9	-0.06273026
109	0xbdbe433a	-0.09290166
110	0x3e1e8c3a	0.1548318
111	0x3d98f89f	0.07469296
112	0x3e2529b1	0.16129185
113	0xbdb8dc2d	-0.0902637
114	0xbe6181bb	-0.22022144
115	0xbd1a4f7c	-0.03767346
116	0x3d9b5970	0.07585418
117	0xbd900156	-0.07031505
118	0xbd825a83	-0.0636492
119	0x3d40e989	0.047097716
120	0xbdcd760d	-0.10032282
121	0xbd8b291e	-0.06794952
122	0x3cbb82d6	0.022889536
123	0x3d5b69c2	0.053567655
124	0xbd48a855	-0.04898866
125	0x3d46365c	0.048391685
126	0x3dc20493	0.09473529
127	0xbd0d5091	-0.034500662
128	0x3cae6af9	0.021291243
129	0x3b2af63c	0.0026086709
130	0x3c90363e	0.01760399
131	0x3d93037d	0.071784
132	0x3e0c6010	0.1370852
133	0xbdf66c56	-0.12032382
134	0x3e553151	0.20819594
135	0x3d4f7206	0.05064585
136	0x3c285ebd	0.010276494
137	0x3ea86fe4	0.32897866
138	0x3e736410	0.2376864
139	0x3e397347	0.18110381
140	0xbe1f475f	-0.1555457
141	0xbe5aaa29	-0.21353973
142	0x3e6751e5	0.22589834
143	0xbe18eb5d	-0.14933534
144	0x3e2a76e3	0.16646914
145	0xbca3d078	-0.019996867
146	0x3a854fc4	0.0010170867
147	0xbe745362	-0.23859933
148	0xbe2f609f	-0.17126702
149	0x3e83d6ab	0.25749716
150	0xbdc7f9b2	-0.097644225
151	0xbe42eb0d	-0.19034977
152	0x3e08514d	0.13312264
153	0xbdb6cc76	-0.089257166
154	0xbe65301c	-0.22381634
155	0x3df54c9e	0.11977504
156	0x3e81cc29	0.25351074
157	0x3d908fe4	0.07058695
158	0xbe767c60	-0.24070883
159	0x3e721ae1	0.23643066
160	0x3d72a271	0.059236947
161	0xbdb3d062	-0.0877998
162	0xbdf51fba	-0.11968942
163	0x3d23efd2	0.040023632
164	0x3dcc011b	0.09961148
165	0xbe8a8974	-0.27057993
166	0x3dedf679	0.116192766
167	0x3e3243a6	0.17408618
168	0xbc8174f0	-0.01580283
169	0x3e13b384	0.14423949
170	0x3dc5cff3	0.09658804
171	0x3e0b3701	0.13595201
172	0xbc37e1b2	-0.011223244
173	0x3dbd3999	0.092395015
174	0x3e215ec6	0.1575881
175	0x3dd81e7e	0.10552691
176	0x3e965162	0.29358965
177	0xbe22670b	-0.1585962
178	0x3e0f42f4	0.13990384
179	0xbdd64b0f	-0.10463535
180	0xbe13c048	-0.14428818
181	0x3e1f34c2	0.1554747
182	0xbd868242	-0.065678135
183	0xbe80ca6d	-0.2515444
184	0x3e1641dc	0.14673561
185	0x3db3db59	0.087820716
186	0xbe7e6ddd	-0.24846597
187	0x3df1480f	0.11781322
188	0xbbd0d114	-0.0063725803
189	0x3ce98947	0.028507842
190	0x3ddf6a0b	0.10908898
191	0xbd62306d	-0.055221964
192	0xbd1ad9a7	-0.037805226
193	0x3e27b79f	0.1637864
194	0x3e3c53ca	0.18391338
195	0x3e25bdcf	0.16185687
196	0x3e5cc662	0.21560052
197	0x3e56a1e2	0.20960191
198	0x3ce0c6a3	0.027438467
199	0x3d7ec3b7	0.062198367
200	0x3e8df2d7	0.27724335
201	0x3ea84085	0.32861724
202	0x3e0eede6	0.13957939
203	0x3e8ca3c1	0.27468684
204	0xbd33708f	-0.043808516
205	0x3b9e5d56	0.004832904
206	0x3d73b648	0.05950001
207	0x3ddbeb6a	0.10738261
208	0x3ce6bab7	0.028165204
209	0x3cc7d03d	0.024391288
210	0x3ceb6ec6	0.028739344
211	0x3d037b51	0.032100026
212	0x3e2bcb09	0.1677667
213	0x3dafff8e	0.08593665
214	0xbd333992	-0.043756075
215	0x3e7e145c	0.24812454
216	0xbd486b2f	-0.048930343
217	0xbc73ab89	-0.01487244
218	0x3e5587e1	0.20852615
219	0xbcb3420d	-0.021882081
220	0x3de6f553	0.11277261
221	0xbc932ab6	-0.017964702
222	0x3e3bbd94	0.18334037
223	0x3e47a2e9	0.19495739
224	0x3df20779	0.118178315
225	0xbc89f282	-0.01683927
226	0xbd224501	-0.03961659
227	0x3d9a22aa	0.07526143
228	0xbd36fa7f	-0.044672485
229	0x3e2db8c1	0.1696501
230	0x3e5ae6ba	0.21377078
231	0x3d894af8	0.06703752
232	0x3d85381d	0.065048434
233	0x3d72dc8f	0.059292372
234	0x3e2be3ad	0.1678607
235	0x3e889e77	0.266834
236	0x3cd3a56f	0.02583572
237	0x3e4613a1	0.19343425
238	0xbce890b9	-0.028389322
239	0x3e0ea470	0.13929915
240	0x3e4db85c	0.20089859
241	0x3e64c9a7	0.2234255
242	0xbd3c32e6	-0.045946978
243	0xbdf58bbc	-0.11989543
244	0x3e70dc75	0.23521598
245	0x3ddfe56d	0.10932431
246	0x3d8fb2cb	0.07016524
247	0x3d2c4a52	0.042063065
248	0x3e50f2f9	0.20405187
249	0x3d01e390	0.03171116
250	0x3e0e4f32	0.13897398
251	0x3e2fd56c	0.17171258
252	0xbbcaa895	-0.0061846473
253	0x3e4da838	0.20083702
254	0x3e9493ff	0.29019162
255	0x3c876365	0.016526887

lstm.weight_ih_l0_reverse f4 [256, 1]
0	0x3e954ba0	0.2915926
1	0x3e214c69	0.15751804
2	0xbe52ebab	-0.20597713
3	0x3dc79482	0.097451225
4	0x3dfd80d8	0.123780906
5	0x3d9f1dc8	0.07769352
6	0x3e2fd34d	0.17170449
7	0xbdeaa9ac	-0.114581436
8	0xbdfaf5b6	-0.12253897
9	0x3d054dfb	0.03254507
10	0x3d85d94d	0.065355875
11	0x3da43a3e	0.08018921
12	0x3dc929f6	0.098224565
13	0x3e354489	0.17701925
14	0x3e2d39fe	0.16916654
15	0x3e083f44	0.13305384
16	0x3dac0b87	0.08400636
17	0xbd9fee54	-0.07809129
18	0x3e832d9d	0.25620738
19	0x3e057a45	0.13034923
20	0xbde6efcd	-0.11276207
21	0x3d98e747	0.07465988
22	0x3db9698e	0.09053336
23	0x3e8d4122	0.27588755
24	0x3e830c2b	0.2559522
25	0xbd80c520	-0.062875986
26	0x3dcf6c16	0.10128038
27	0xbde636a2	-0.11240889
28	0xbde92d56	-0.113856
29	0xbd6760e2	-0.05648888
30	0x3e2497a7	0.16073476
31	0xbd95d2c2	-0.073155895
32	0x3e7dcd1f	0.24785279
33	0x3e1427af	0.14468263
34	0x3caa484e	0.02078643
35	0xbe217620	-0.15767717
36	0x3de869e5	0.11348323
37	0x3d840c5a	0.064476684
38	0x3dbaede9	0.09127409
39	0x3e804e32	0.25059658
40	0xbe16bb4c	-0.14719886
41	0xbc145872	-0.00905429
42	0x3ec2f6e6	0.38078994
43	0x3e4a7925	0.19772775
44	0xbe011d94	-0.1260894
45	0x3dec4be2	0.11537911
46	0x3e944ceb	0.28964934
47	0x3dad38c2	0.08458091
48	0xbe20106d	-0.15631266
49	0xbe25a2a9	-0.16175331
50	0xbde1c3ed	-0.11023698
51	0x3dfc44f6	0.12317841
52	0x3e7398e7	0.23788796
53	0x3db6b46c	0.089211315
54	0x3d880303	0.066411994
55	0x3dc76e2e	0.09737812
56	0xbdba819e	-0.09106754
57	0xbdacc4a4	-0.08435944
58	0x3d9e2c10	0.07723248
59	0x3e37dcf2	0.17955378
60	0xbda20117	-0.07910364
61	0xbd837c70	-0.06420219
62	0xbdc4f987	-0.09617906
63	0x3d82cbca	0.06386526
64	0x3e4cd4c8	0.20003045
65	0x3e0e0f09	0.13872923
66	0xbdc7e917	-0.09761255
67	0x3dd395a5	0.10331277
68	0xbe0340c0	-0.12817669
69	0x3d2b68de	0.041848056
70	0x3c6dfa73	0.014525044
71	0x3d968374	0.073492914
72	0xbe392ff1	-0.18084694
73	0xbd0d88cd	-0.03455429
74	0x3d856efc	0.06515309
75	0x3d85b205	0.06528095
76	0x3c20c524	0.009812627
77	0x3e6d483f	0.23172091
78	0x3d5351fd	0.051591862
79	0x3e1de030	0.15417552
80	0x3dc6f1d1	0.097140916
81	0x3eafa9d8	0.34309268
82	0xbd26a15f	-0.04068124
83	0x3d9795ac	0.074015945
84	0xbe1d8ed2	-0.15386513
85	0x3dd9a3e2	0.10626961
86	0x3e13f4b5	0.14448817
87	0x3da117c6	0.078658625
88	0x3d279eb4	0.040922835
89	0x3dbc6716	0.091993496
90	0xbc894e55	-0.016760984
91	0x3e20b523	0.15694098
92	0xbde08d02	-0.10964395
93	0xbdb3ed39	-0.08785481
94	0x3dbdc692	0.0926639
95	0x3e13c8cc	0.14432067
96	0xbd85f485	-0.06540779
97	0x3d68c685	0.056829948
98	0xbcdb7890	-0.026790887
99	0xbe112c17	-0.14176975
100	0x3cf39b4e	0.029737141
101	0x3c52adc6	0.012858814
102	0xbc49d639	-0.012319141
103	0xbc9c04ac	-0.019045196
104	0x3da3d73c	0.08000037
105	0x3e56c1f7	0.20972429
106	0x3e0a22c6	0.13489828
107	0x3e155fd3	0.14587335
108	0x3d8b3b65	0.06798438
109	0xbca283a6	-0.019838165
110	0x3d82f9e5	0.0639532
111	0x3e0dfa0f	0.13864921
112	0x3e078d30	0.13237453
113	0x3ce9b175	0.028527
114	0xbd8415ff	-0.06449508
115	0xbd3dad90	-0.0463081
116	0x3da8f20f	0.08249294
117	0x3d843823	0.0645602
118	0xbc862fef	-0.016380278
119	0x3d110dab	0.035413425
120	0xbcc58595	-0.024111548
121	0x3de5822e	0.112064704
122	0x3b14e759	0.0022720902
123	0xbda80923	-0.08204868
124	0xbd244f26	-0.040114544
125	0x3e650a4e	0.22367212
126	0xbdfae53c	-0.12250754
127	0xbc36eb24	-0.01116446
128	0xbe1dbe8a	-0.15404716
129	0x3e5d05e7	0.21584283
130	0x3e9ddf07	0.3083422
131	0x3d0c85a9	0.034307156
132	0x3e3df9e1	0.18552352
133	0xbcf95037	-0.030433757
134	0x3daa936d	0.083289005
135	0x3e9db9a3	0.30805692
136	0xbe2f0aed	-0.17094012
137	0x3c9b1ef2	0.018935654
138	0x3d2cbf9a	0.042174913
139	0xbe59059d	-0.21193548
140	0x3de7d926	0.11320715
141	0xbe635b93	-0.22202902
142	0xbe713eef	-0.23559164
143	0x3e4c9be6	0.19981346
144	0xbd008cdf	-0.031384345
145	0xbea7fb73	-0.32809028
146	0x3df7729d	0.120824076
147	0x3e1718b3	0.14755516
148	0x3e60d9c7	0.21958075
149	0x3d7cd605	0.061727542
150	0xbd0d6910	-0.034524024
151	0x3e4fdfee	0.20300266
152	0xbe71c6be	-0.2361097
153	0xbe52875b	-0.20559447
154	0x3d23f8f5	0.040032346
155	0xbe16193a	-0.1465806
156	0xbde12212	-0.109928265
157	0x3edfb22f	0.4369063
158	0x3cf1a8e4	0.029499479
159	0x3d878159	0.06616468
160	0x3eb66c8d	0.35629693
161	0xbd891225	-0.06692914
162	0xbdfb8a39	-0.12282223
163	0x3e99c194	0.300305
164	0xbd55f64b	-0.052236836
165	0x3e557087	0.20843707
166	0xbd39b928	-0.045342594
167	0xbda89ec6	-0.08233409
168	0xbe38486b	-0.17996375
169	0xbe8a39e8	-0.26997304
170	0xbe96a182	-0.29420096
171	0x3c7aa041	0.015296997
172	0x3e28bbf1	0.16477944
173	0x3d5111f5	0.051042516
174	0xbe880cf4	-0.26572382
175	0xbd1f3c7c	-0.03887604
176	0x3e9a8aa1	0.3018389
177	0xbe9b31fc	-0.30311573
178	0xbe367a8b	-0.17820184
179	0x3dd55c24	0.10417965
180	0x3e83bfd0	0.2573228
181	0x3d3e74c6	0.046498083
182	0x3ddd9bda	0.10820742
183	0x3d44fc31	0.04809207
184	0xbe0c303f	-0.1369028
185	0xbe78cd0a	-0.24296966
186	0xbd12a45d	-0.03580128
187	0xbec8165d	-0.39079562
188	0xbea1d598	-0.31608272
189	0xbde1a2e9	-0.11017401
190	0x3e7ee3bb	0.2489156
191	0x3ddf483b	0.10902449
192	0xbddc9a9f	-0.10771679
193	0xbe130fde	-0.14361522
194	0x3e6db468	0.23213351
195	0x3da8cca1	0.08242155
196	0x3df4863e	0.11939667
197	0x3e10db80	0.14146233
198	0xbdf3878c	-0.11891088
199	0x3de2be4b	0.11071452
200	0x3e8f88e8	0.2803414
201	0x3d8b2bca	0.067954615
202	0x3de85034	0.113434225
203	0x3e58408d	0.21118374
204	0xbdbf7d6e	-0.09350096
205	0xbdcbb74e	-0.09947072
206	0xbe20c0e2	-0.15698579
207	0xbdcbfafd	-0.099599816
208	0x3e037773	0.12838535
209	0x3e3f2a64	0.18668514
210	0x3e3bb46a	0.18330541
211	0xbdf13221	-0.117771395
212	0x3e8872b4	0.26650012
213	0x3dcfcb24	0.10146168
214	0x3df6db70	0.12053573
215	0xbe006564	-0.12538677
216	0xbe150385	-0.14552124
217	0x3d6a4c25	0.057201523
218	0x3dfd3647	0.12363868
219	0x3e6469b5	0.22305949
220	0x3e321111	0.17389323
221	0xbd34ee53	-0.044172596
222	0x3d38c105	0.045105953
223	0x3e00058a	0.12502113
224	0x3e8b253b	0.27176842
225	0x3e0d065f	0.13771962
226	0x3e0184ad	0.12648268
227	0x3e986f39	0.29772356
228	0x3ddd3cd6	0.10802619
229	0x3da9ceab	0.08291372
230	0x3da43557	0.08017986
231	0xbd7474d7	-0.05968174
232	0x3d9e87ca	0.077407435
233	0xbe0aa678	-0.13540065
234	0x3db70ca2	0.089379564
235	0x3ded333b	0.11582037
236	0x3e335a70	0.17514968
237	0x3df75937	0.12077563
238	0xbd9295ce	-0.07157479
239	0x3e366e93	0.17815618
240	0x3e9bac2a	0.30404788
241	0x3df6cfeb	0.12051376
242	0x3e7376a9	0.23775734
243	0x3e0e0be5	0.13871725
244	0x3e1797a6	0.14803943
245	0x3e011b1d	0.12607999
246	0x3b9d574e	0.0048016673
247	0x3e22a4a0	0.15883112
248	0x3e517324	0.20454079
249	0x3b9699e0	0.00459598
250	0xbd958f0b	-0.07302674
251	0x3e3a25e4	0.18178517
252	0x3da935a7	0.082621865
253	0x3c6aedee	0.014338953
254	0x3e173f68	0.14770281
255	0x3df42ffa	0.11923213

lstm.weight_hh_l0_reverse f4 [256, 64]
0	0xbd7cddbe	-0.061734907
1	0x3e825938	0.25458694
2	0x3b55132e	0.0032512653
3	0x3da21d73	0.07915773
4	0x3d9f4059	0.07775945
5	0xbe0a3409	-0.13496412
6	0x3ecf5504	0.4049455
7	0x3e00e6dd	0.12588067
8	0xbe919afb	-0.28438553
9	0x3dfb9ec6	0.12286143
10	0x3d8b1a58	0.06792134
11	0xbd8b22ef	-0.067937724
12	0x3e61767d	0.22017856
13	0xbe3ed559	-0.18636073
14	0xbe92a0b7	-0.2863824
15	0x3e24ae11	0.16082026
16	0xbeaaeadc	-0.33382308
17	0xbe9221fc	-0.28541553
18	0x3cac5121	0.021034779
19	0x3ed16ab7	0.4090173
20	0x3e8f8c77	0.28036854
21	0xbd4105de	-0.047124736
22	0x3d30b85a	0.04314456
23	0x3e3eec5f	0.18644856
24	0xbe6bf68b	-0.23043267
25	0xbe44b98e	-0.19211408
26	0x3e1e0776	0.15432534
27	0xbeb87899	-0.3602951
28	0xbe199727	-0.14999066
29	0x3e8f853d	0.2803134
30	0xbdd9d822	-0.10636927
31	0x3ecd3ba9	0.4008458
32	0x3e9d2685	0.3069345
33	0xbe90010d	-0.28125802
34	0xbe29e6cc	-0.16591948
35	0x3d5a9fc7	0.05337503
36	0xbea6f91b	-0.32611927
37	0x3e86a587	0.26298162
38	0xbee3c2be	-0.44484514
39	0xbcc86e37	-0.024466617
40	0xbe58b339	-0.21162118
41	0xbe2809ab	-0.16409938
42	0xbda6ec90	-0.081505895
43	0xbe363cad	-0.17796583
44	0x3ea464ee	0.32108253
45	0x3d28fba1	0.041255597
46	0xbe8b43e2	-0.27200228
47	0xbadd28dd	-0.001687314
48	0x3de7f1b4	0.11325398
49	0xbd1dcc88	-0.038525134
50	0xbea2d9d7	-0.31806824
51	0x3d937333	0.07199707
52	0x3e3f58f6	0.1868628
53	0xbda57121	-0.08078218
54	0x3e02da17	0.12778507
55	0x3e9a51f3	0.30140647
56	0xbe9c9b8d	-0.30587426
57	0xbe27c794	-0.16384727
58	0xbe1afa12	-0.15134457
59	0xbe37a3b8	-0.17933547
60	0xbe274956	-0.16336569
61	0x3d20515d	0.039140094
62	0x3ea19f7e	0.31566995
63	0xbbcba7a6	-0.0062150536
64	0xbcd6fc52	-0.026243363
65	0x3d464eb5	0.048414905
66	0x3df0b7f1	0.11753834
67	0xbceb2891	-0.028705867
68	0xbbfe47c3	-0.0077600195
69	0xbc7eaf22	-0.015544685
70	0xbc0f69ad	-0.008753222
71	0x3de6a9c8	0.11262852
72	0xbd7555b2	-0.05989618
73	0xbe2b5ae0	-0.16733885
74	0xbd3472dd	-0.044054855
75	0xbe125801	-0.14291383
76	0xbce8dd90	-0.028425962
77	0xbe1b61aa	-0.15173975
78	0xbd866969	-0.06563074
79	0x3d47de28	0.04879585
80	0xbdf3bbaa	-0.119010285
81	0xbdcae0d3	-0.09906163
82	0x3dc038e6	0.093858525
83	0x3d8554d1	0.06510318
84	0xbd041278	-0.032244176
85	0xbce28813	-0.027652776
86	0x3c104706	0.008805996
87	0x3dfa38e0	0.12217879
88	0xbe38e884	-0.18057448
89	0xbc3a068e	-0.011354102
90	0x3ca36f97	0.019950671
91	0xbda1345c	-0.07871315
92	0xbe0ea674	-0.13930684
93	0x3dd04e75	0.101712145
94	0x3e18b06d	0.14911051
95	0x3ca02936	0.0195509
96	0xbd578785	-0.052619476
97	0x3d118562	0.035527594
98	0xbd2ba0eb	-0.04190151
99	0x3d2057a2	0.039146073
100	0x3dad15c1	0.08451415
101	0xbda7241f	-0.081611864
102	0xbdb1f499	-0.086892314
103	0xbd274c1a	-0.04084406
104	0xbe0b3065	-0.1359268
105	0xbe26cd3c	-0.16289228
106	0xbdae2656	-0.08503406
107	0xbd499e00	-0.049222946
108	0x3de330e4	0.110933095
109	0x3cc99315	0.024606267
110	0xbe24d21e	-0.16095778
111	0x3ca133bd	0.019677991
112	0xbc20e898	-0.00982108
113	0x3c2ecafe	0.010668514
114	0xbc024086	-0.007949954
115	0xbd3a44dc	-0.045475826
116	0xbd8e3adc	-0.0694482
117	0x3d92a20f	0.071598165
118	0x3d15a999	0.036538694
119	0x3d16c533	0.036809158
120	0xbe317fbb	-0.17333882
121	0x3c87f12b	0.01659449
122	0xbd84f770	-0.064925075
123	0xbbde0433	-0.006775403
124	0xbe27130a	-0.16315857
125	0xbd954f3b	-0.07290503
126	0xbd4cffa9	-0.050048504
127	0x3db83895	0.08995167
128	0xbe42bbc7	-0.19016944
129	0x3d8218cc	0.06352386
130	0x3de766e6	0.11298923
131	0x3c21fc48	0.009886809
132	0x3df7d82c	0.121017784
133	0xbca38259	-0.019959616
134	0x3e40bf20	0.18822908
135	0x3e710eb6	0.23540768
136	0x3c1c8e2d	0.009555382
137	0x3dc576d1	0.09641803
138	0x3e0741d6	0.13208708
139	0xbdf7b22f	-0.12094533
140	0x3d916a5b	0.07100364
141	0xbe511fce	-0.20422289
142	0xbe3be3a3	-0.18348555
143	0x3c6fb92f	0.014631554
144	0xbdbccc21	-0.09218622
145	0xbe3546f7	-0.17702852
146	0x3dcd5dfe	0.10027693
147	0x3df6ba6f	0.12047278
148	0x3db42dd2	0.08797802
149	0x3d98ffe0	0.07470679
150	0xbe0dc070	-0.1384294
151	0x3e34622d	0.17615576
152	0xbc60fda6	-0.0137323495
153	0xbe6d8cc9	-0.23198237
154	0x3d1ea7c0	0.038734198
155	0xbe5a38a3	-0.21310668
156	0xbe023a79	-0.12717618
157	0x3d2231ee	0.039598398
158	0x3e0de1a2	0.13855603
159	0x3d9bf10c	0.076143354
160	0x3e1f9047	0.15582381
161	0xbdcf3fa4	-0.1011956
162	0xbe1b4dc3	-0.15166382
163	0x3dd8cd92	0.105860844
164	0xbe2c9e60	-0.1685729
165	0x3db6c614	0.08924499
166	0xbca15c4d	-0.019697333
167	0xbe16be1d	-0.1472096
168	0xbe0f6cff	-0.14006422
169	0xbdee1878	-0.11625761
170	0xbe0a4807	-0.13504039
171	0xbdbae462	-0.09125592
172	0x3d41adad	0.04728477
173	0x3d9667e2	0.07344033
174	0xbe481649	-0.19539751
175	0xbdb07783	-0.08616545
176	0x3d81fe62	0.06347348
177	0xbe220bbf	-0.15824793
178	0xbc41d2c4	-0.011830036
179	0x3ca82b17	0.02052836
180	0x3dcdf8ac	0.10057196
181	0x3e13d684	0.144373
182	0x3da3f311	0.080053456
183	0x3e3cc6b1	0.1843517
184	0xbc9b781c	-0.018978171
185	0xbe507f71	-0.20361115
186	0xbd1b612f	-0.03793448
187	0xbe693ae9	-0.22776379
188	0xbe40a5fb	-0.18813317
189	0xbd95cab5	-0.07314054
190	0x3e52a9b8	0.20572555
191	0x3e047ff3	0.12939434
192	0xbe2bb8fa	-0.16769782
193	0x3e9b1fa7	0.30297586
194	0x3d2fa106	0.042878173
195	0x3e2ea5f0	0.17055488
196	0x3d856fb3	0.065154456
197	0xbdf477e9	-0.119369335
198	0x3d4ed041	0.050491575
199	0x3e7adbd5	0.24497922
200	0xbe9776d6	-0.29582852
201	0x3e1e3353	0.15449266
202	0xbddb0f42	-0.106962696
203	0xbdfd8462	-0.12378766
204	0x3c4950e3	0.012287351
205	0xbd89acd3	-0.06722417
206	0xbe6a51cb	-0.22882764
207	0x3e2bf2b5	0.16791804
208	0xbe46da5d	-0.19419236
209	0xbe2d138a	-0.16901985
210	0x3cd2f862	0.025753204
211	0x3c457ed9	0.012054169
212	0x3e37aedf	0.17937802
213	0x3d01e598	0.0317131
214	0xbd9cfcda	-0.07665415
215	0x3e36bd9e	0.1784577
216	0xbdecc5af	-0.11561143
217	0xbd82b81c	-0.06382772
218	0x3e429f08	0.19005978
219	0xbe72a522	-0.23695806
220	0xbe5588a9	-0.20852913
221	0x3dfb6e58	0.12276906
222	0x3d7b59cd	0.061364938
223	0x3e072c5c	0.13200516
224	0x3bf79730	0.0075558648
225	0xbd7f5b7a	-0.0623431
226	0xbe00f995	-0.12595208
227	0xbd815200	-0.063144684
228	0xbd6f2229	-0.058382187
229	0x3e550410	0.20802331
230	0xbe1d6553	-0.15370683
231	0x3c2bdf2a	0.010490218
232	0xbe21f362	-0.158155
233	0xbe580f29	-0.21099533
234	0xbe0d08b4	-0.13772851
235	0xbe61180b	-0.21981828
236	0x3d833c41	0.06407977
237	0x3d9ac2c3	0.07556679
238	0xbe0b8afe	-0.1362724
239	0xbe05fb3c	-0.1308412
240	0x3d60cfa9	0.05488554
241	0x3d88c0ce	0.066773996
242	0xbe649660	-0.22322989
243	0x3d3b3f37	0.045714583
244	0x3d6b4a02	0.057443626
245	0xbc3ebd0c	-0.011641752
246	0x3e1b019e	0.15137336
247	0x3dc3ef88	0.09567171
248	0xbe84451a	-0.2583397
249	0xbd8e19be	-0.06938504
250	0xbe4283f6	-0.18995652
251	0x3c4ff762	0.012693258
252	0xbddff81b	-0.10935994
253	0xbde749b1	-0.112933524
254	0x3db4e0eb	0.08831962
255	0xbc87f2cd	-0.016595269

lstm.bias_ih_l0_reverse f4 [256]
0	0x3f0293e4	0.51006913
1	0x3e03ef09	0.12884153
2	0x3d99a81a	0.07502766
3	0xbd5a0644	-0.05322863
4	0xbcdd77ce	-0.027034666
5	0x3ddfc099	0.10925407
6	0xbca6ccb4	-0.020361282
7	0x3ce9dfc1	0.028549077
8	0x3e8d420a	0.27589446
9	0x3dbad9e9	0.09123594
10	0x3d545bce	0.051845364
11	0x3e6b673c	0.229886
12	0xb8b193c3	-8.4675405e-05
13	0x3db0be90	0.08630097
14	0x3e2ba7ce	0.16763231
15	0x3e8ac3fc	0.2710265
16	0xbde5c387	-0.112189345
17	0x3d91d9d0	0.071216226
18	0xbe5eb69d	-0.21749349
19	0x3e13beb7	0.1442822
20	0x3e56df82	0.20983699
21	0xbd06c1a0	-0.0328995
22	0xbd5b2df5	-0.053510625
23	0x3eac1362	0.33608538
24	0x3e886cd8	0.2664554
25	0x3e928c9c	0.286229
26	0xbcb2e4b0	-0.021837562
27	0x3e8b60af	0.272222
28	0x3e29a3f1	0.16566445
29	0x3e185d44	0.14879328
30	0x3e6b42c4	0.22974688
31	0x3dbd7784	0.092513114
32	0x3e450bf9	0.19242848
33	0x3e0cc600	0.13747406
34	0x3d2cc2ce	0.042177968
35	0x3e305783	0.17220883
36	0xbdb00c63	-0.085961126
37	0x3cfc10f9	0.030769812
38	0x3d43ae46	0.047773622
39	0x3e901a1a	0.28144914
40	0x3e53c7a0	0.2068162
41	0x3de9e244	0.1142011
42	0x3e7d744f	0.247514
43	0x3dd4278c	0.103591055
44	0x3d2ef2fa	0.04271219
45	0xbd8bb901	-0.06822396
46	0x3e6ce030	0.23132396
47	0x3d927b22	0.07152392
48	0x3e6805ca	0.22658458
49	0x3d163723	0.036673676
50	0x3e4cd3ef	0.20002721
51	0xbd3e7af7	-0.046503987
52	0x3e3bd7d5	0.18344052
53	0xbde6bc54	-0.112663895
54	0x3dccd550	0.10001624
55	0xbd157f58	-0.036498398
56	0x3dcfeb1a	0.10152264
57	0x3da7225b	0.0816085
58	0x3d19f0ad	0.037583042
59	0x3e2e7b1c	0.1703915
60	0xbc77863e	-0.015107689
61	0x3d5dac45	0.054119367
62	0x3db98c5a	0.09059973
63	0x3dceedbd	0.10103939
64	0x3dfdead9	0.12398309
65	0x3d04a9b3	0.0323884
66	0x3d107926	0.035271786
67	0x3d000405	0.031253833
68	0xbd994f51	-0.074858315
69	0xbddef9be	-0.10887478
70	0x3dc25cb7	0.0949034
71	0xbc9256b0	-0.017863601
72	0x3e95cb6b	0.29256758
73	0xbccdf266	-0.025139999
74	0x3d096679	0.03354499
75	0x3dad8aa3	0.084737085
76	0xbdf2848b	-0.11841687
77	0xbc47fd1a	-0.01220634
78	0x3e1f1942	0.15536979
79	0xbda8de54	-0.08245531
80	0x3c014188	0.007889159
81	0xbd441903	-0.047875416
82	0xbe18811d	-0.14893003
83	0x3da251f0	0.079257846
84	0x3ded82c4	0.11597207
85	0xbd2a9d23	-0.041653764
86	0xbdb49db7	-0.08819144
87	0x3dbe8e69	0.09304506
88	0x3e732cd0	0.23747563
89	0x3e1aab0b	0.1510431
90	0xbd7fd750	-0.062461197
91	0x3c85d049	0.01633467
92	0x3cadd62c	0.02122029
93	0x3df42a9f	0.11922192
94	0x3d9a072c	0.07520899
95	0xbda6bfb3	-0.081420325
96	0xbcc08af9	-0.023503767
97	0xbd97f090	-0.074189305
98	0xbdca69c1	-0.09883452
99	0xbd80f28c	-0.06296262
100	0xbd456bb8	-0.04819843
101	0xbe085d5a	-0.13316861
102	0x3c7ca622	0.0154204685
103	0x3d9d837f	0.076910965
104	0xbcc362da	-0.023850847
105	0xbc1732c2	-0.00922841
106	0xbdc091d2	-0.09402813
107	0x3d1eada1	0.038739804
108	0x3e45f808	0.19332898
109	0x3d8fbd5c	0.07018539
110	0xbd9f5228	-0.07779342
111	0x3db3aa94	0.087727696
112	0x3e0a0e2c	0.13481969
113	0xbe2961fb	-0.16541283
114	0xbcc114e1	-0.023569526
115	0x3c039893	0.008031982
116	0xbc8a646a	-0.016893584
117	0x3d09361e	0.033498876
118	0x3bd9fa28	0.0066521354
119	0xbd31269b	-0.043249708
120	0x3b986e7f	0.004651844
121	0x3db98899	0.09059257
122	0x3d7dc5c9	0.0619562
123	0xbe471244	-0.19440562
124	0xbcd9f5a5	-0.02660639
125	0xbd515030	-0.051101863
126	0x3c3b8b9f	0.0114468625
127	0xbdf9e00b	-0.12200936
128	0x3e5e153e	0.21687791
129	0x3d9f03a0	0.07764363
130	0xbe9b8408	-0.3037417
131	0xbdd756f3	-0.10514631
132	0xbe6fe7b9	-0.23428239
133	0xbd98ce87	-0.07461267
134	0xbd3a8ba1	-0.045543317
135	0xbe837add	-0.25679675
136	0xbc8bf553	-0.017084753
137	0x3d9a3c00	0.07530975
138	0xbe094941	-0.1340685
139	0x3e84bfaf	0.25927493
140	0xbd3494ae	-0.044087104
141	0x3e0f3d15	0.13988145
142	0xbe6a9148	-0.22906983
143	0xbe758171	-0.23975159
144	0xbcbb2de5	-0.022849033
145	0x3d9bdc98	0.07610434
146	0xbdf2adcd	-0.11849556
147	0x3e1bd69d	0.15218587
148	0xbb36612f	-0.0027828922
149	0xbe31f625	-0.17379053
150	0x3e2e689d	0.17032094
151	0xbe8e4e48	-0.277941
152	0xbd6489a3	-0.055795323
153	0xbea3c4e0	-0.3198614
154	0xbb18a0f8	-0.0023289304
155	0xbdcab0a9	-0.098969765
156	0x3e3b9d31	0.18321683
157	0xbe0f1838	-0.13974082
158	0xbe190c23	-0.14946036
159	0x3e32bd09	0.17454924
160	0xbd8b63c5	-0.06806139
161	0xbdb7b18d	-0.08969412
162	0x3e135bff	0.14390562
163	0xbe851be8	-0.25997853
164	0x3dc6f6dd	0.09715054
165	0xbd6282cf	-0.05530053
166	0xbe498453	-0.19679384
167	0x3dc0da68	0.09416658
168	0x3e42831d	0.18995328
169	0x3e84886e	0.25885338
170	0x3e124427	0.1428381
171	0xbd4dd112	-0.050248213
172	0xbea71289	-0.3263133
173	0xbd91a7e4	-0.07112101
174	0xbe480d8c	-0.19536418
175	0x3e42a3e3	0.1900783
176	0xbed0c85f	-0.4077787
177	0x3e6a3d75	0.22875006
178	0x3d79abcc	0.060954854
179	0xbe05917c	-0.13043779
180	0xbd64ad19	-0.05582914
181	0xbe30ed2f	-0.17277978
182	0xbe06817d	-0.13135333
183	0xbdb06b52	-0.0861422
184	0xbd58ab16	-0.052897535
185	0x3e13c828	0.14431822
186	0x3e5850ab	0.21124522
187	0x3e0e7256	0.13910803
188	0x3e1dd23f	0.15412234
189	0x3e66540b	0.22492997
190	0xbd9c9eef	-0.07647502
191	0xbda73ca8	-0.08165866
192	0x3e899859	0.26874045
193	0x3e13ebe6	0.14445457
194	0x3e90fe52	0.2831903
195	0x3d3be92a	0.04587666
196	0x3d926398	0.07147902
197	0x3de54729	0.11195213
198	0x3dd24c50	0.10268462
199	0x3e14d865	0.14535673
200	0x3e8e5d4e	0.2780556
201	0x3d9745ad	0.073863365
202	0x3d5561ab	0.052095097
203	0x3e329d7f	0.17442892
204	0xbce88e31	-0.028388115
205	0x3dd2d13e	0.10293816
206	0x3dda17ca	0.10649069
207	0xbc6b3b81	-0.014357449
208	0x3d9d843a	0.07691236
209	0xbc85c9ae	-0.01633152
210	0x3e27605a	0.16345349
211	0x3e141db2	0.14464453
212	0x3e78d772	0.24300936
213	0x3e683461	0.22676231
214	0x3e006c7d	0.12541385
215	0x3db73c80	0.08947086
216	0x3ea89427	0.3292553
217	0x3e5c956e	0.21541378
218	0xbdd01c77	-0.10161679
219	0x3d1ed326	0.038775586
220	0x3e66b6b7	0.22530638
221	0x3d820e88	0.06350428
222	0x3e2a6426	0.16639766
223	0x3de01f25	0.1094344
224	0x3deaf7a8	0.11473018
225	0x3af4180a	0.0018622887
226	0x3d971df2	0.073787585
227	0x3e1bf154	0.15228778
228	0xbd548ee1	-0.051894072
229	0xbdad1ce5	-0.08452777
230	0xbc7b501c	-0.015338924
231	0x3ce807f1	0.0283241
232	0x3e27eea2	0.16399625
233	0x3e10753e	0.14107224
234	0x3e8a3367	0.26992342
235	0x3dcd668b	0.10029324
236	0x3e84e2ea	0.25954372
237	0xb9344651	-0.00017192333
238	0x3e20d450	0.15705991
239	0x3cd7267b	0.026263466
240	0x3ed9ba24	0.42524827
241	0x3e7b8458	0.24562204
242	0x3d83f872	0.064438716
243	0x3ce17801	0.027523043
244	0x3e3e05ac	0.18556851
245	0x3dd96e22	0.10616709
246	0x3e6d85c4	0.23195559
247	0x3c6b4c90	0.014361516
248	0x3e3805b0	0.1797092
249	0xbc59a12a	-0.013283053
250	0x3c743855	0.014906009
251	0x3e3aedf6	0.18254837
252	0x3e30845e	0.17237994
253	0x3d249b7d	0.040187348
254	0x3e8ed0b7	0.27893612
255	0xbe468a96	-0.19388804
