model/bd_test_total_loss_batch_size=2048_epoch=300.pt (torch_old, 552860 bytes, 18 tensors)

lstm.weight_ih_l0 f4 [256, 1]
0.09419659 0.08194124 0.14998712 0.009439967 0.29321107 0.18958446 0.26477587 0.30601925
-0.14153591 -0.123878404 0.17608808 -0.004425815 -0.184043 0.07856981 -0.13911606 -0.005097522
0.072635345 0.31547257 0.1783306 0.045848794 -0.12287847 0.24240083 0.07581187 -0.1296404
0.06672576 0.14059523 0.025487956 0.004717908 0.05165851 0.30300954 0.14092572 0.15865625
0.10555163 0.22743005 -0.13098602 -0.16319872 0.3250839 0.06552939 0.061958145 0.3123279
0.031334598 0.11804689 -0.119275965 -0.04838089 0.2146211 0.23303585 0.02119168 0.1802319
0.03295466 0.18749239 0.05070866 0.23418614 -0.047503438 0.11366431 0.21573861 0.017068828
0.1722273 0.0572623 0.08858294 -0.12488022 -0.15518934 0.077814944 0.18829584 -0.00404188
-0.07801059 -0.0069266567 -0.03392783 0.16549559 -0.22212215 -0.063893564 -0.11677289 -0.023803556
-0.08573832 -0.08481619 -0.058614906 0.10896345 -0.19917358 0.0314159 -0.071568176 0.043160003
0.048754167 0.00068115536 0.06865014 0.1103792 -0.09641813 0.09026579 -0.09153905 -0.08095569
-0.03175014 0.025700895 0.150949 0.23143372 0.058065914 0.16494958 -0.0035094693 0.13184497
-0.018861586 -0.19904745 -0.034829695 -0.12452457 0.11338393 0.16149056 0.16871208 0.017715689
0.034341104 0.09619889 -0.08348579 0.05750285 0.19099696 -0.036851995 0.042720623 0.071124904
-0.03732748 0.0351544 -0.06653903 0.011177249 0.14905538 0.19034946 0.020784922 -0.0025528278
0.22331211 0.09362433 0.030952254 -0.13284303 0.16411798 0.11888762 -0.023752635 0.06896688
0.15090539 0.06812174 -0.14778832 0.21830958 -0.2540217 -0.5496192 0.16218925 -0.14061703
0.20843068 -0.1299668 -0.2003652 0.06262218 0.331198 -0.05790945 0.25359917 0.03907793
-0.09258885 0.28767827 0.12527113 -0.2932618 -0.18038683 -0.298558 0.1776747 0.07888441
0.116005085 0.12567873 -0.19759578 0.19476414 0.029144693 -0.20121484 0.22903542 0.19920757
0.13617848 -0.14842437 0.17154315 -0.7985258 0.32723337 -0.117801964 -0.07679719 -0.3030289
-0.02616873 0.18694825 0.16795108 -0.07996288 -0.25109306 0.19102778 0.09216122 0.16103578
-0.0208149 -0.080998726 -0.19124861 -0.14197907 0.2332231 -0.28906766 0.09188689 0.17592384
0.21932475 -0.052883357 -0.10349089 -0.22939306 -0.13320811 0.1393021 0.13292122 -0.26555485
0.18419579 0.1141059 0.10457216 -0.14157212 0.15496735 0.23299545 -0.14088367 -0.11917553
0.24123767 0.0156156635 0.16380136 0.18033272 0.0268809 0.11939058 0.23114935 0.004207167
-0.023814203 0.17880331 0.24232706 -0.17300293 0.05561663 -0.09392427 -0.13529639 0.43555433
0.14186555 0.11689804 0.15963283 0.06652961 0.05397504 0.1170526 0.1691357 -0.007545712
0.27931133 0.47871056 0.1928883 0.16648889 -0.15149623 0.10298258 -0.15555161 -0.15800682
0.110961184 0.097206414 -0.061942782 0.11810985 0.23885854 -0.15619862 0.09664839 0.15020171
0.13609987 0.18994379 0.11159407 0.14038737 -0.18903875 -0.17275463 0.15089828 -0.11164596
-0.06387581 0.07717432 0.16265039 -0.05736997 0.19682294 0.18079615 0.1187989 0.09869109
00000000: 24ea c03d cfd0 a73d 3996 193e 17aa 1a3c
00000010: c31f 963e 6e22 423e b490 873e 8eae 9c3e
00000020: caee 10be f6b3 fdbd 6f50 343e 6d06 91bb
00000030: c575 3cbe 35e9 a03d 7174 0ebe 1d09 a7bb
00000040: d7c1 943d 9f85 a13e 4c9c 363e f2cb 3b3d
00000050: b5a7 fbbd ec37 783e 4143 9b3d 74c0 04be
00000060: 84a7 883d 32f8 0f3e 1ecc d03c ae98 9a3b
00000070: e097 533d 1124 9b3e d54e 103e c976 223e
00000080: 742b d83d 6ce3 683e 3321 06be 911d 27be
00000090: 6671 a63e 4634 863d d3c7 7d3d 71e9 9f3e
000000a0: b558 003d 91c2 f13d f546 f4bd 0a2b 46bd
000000b0: a2c5 5b3e f3a0 6e3e 2d9a ad3c b68e 383e
000000c0: 77fb 063d 01fe 3f3e e2b3 4f3d 7ece 6f3e
000000d0: f792 42bd d5c8 e83d 95ea 5c3e edd3 8b3c
000000e0: 5a5c 303e e08b 6a3d f96a b53d 33c1 ffbd
000000f0: f4e9 1ebe 715d 9f3d a0d0 403e bf71 84bb
00000100: 04c4 9fbd 02f9 e2bb e9f7 0abd ad77 293e
00000110: fd73 63be a1da 82bd a026 efbd adff c2bc
00000120: 9397 afbd 1cb4 adbd 2f16 70bd 3b28 df3d
00000130: 29f4 4bbe f5ad 003d 5692 92bd 8bc8 303d
00000140: 73b2 473d 908f 323a 7298 8c3d 7d0e e23d
00000150: de76 c5bd 45dd b83d d378 bbbd 19cc a5bd
00000160: 6f0c 02bd af8a d23c 6092 1a3e f6fc 6c3e
00000170: 86d6 6d3d 8be8 283e 20ff 65bb 5e02 073e
00000180: 9d83 9abc 18d3 4bbe 95a9 0ebd bd06 ffbd
00000190: d535 e83d c85d 253e dcc2 2c3e 7e20 913c
000001a0: 42a9 0c3d ec03 c53d 99fa aabd 1c88 6b3d
000001b0: b594 433e 1ef2 16bd d2fb 2e3d efa9 913d
000001c0: b3e4 18bd 0ffe 0f3d 9d45 88bd c820 373c
000001d0: f9a1 183e f8ea 423e 2445 aa3c 584d 27bb
000001e0: eeab 643e 1dbe bf3d 958f fd3c 0108 08be
000001f0: 8b0e 283e 5a7b f33d e394 c2bc 823e 8d3d
00000200: f186 1a3e 6983 8b3d d255 17be 8c8c 5f3e
00000210: 220f 82be d8b3 0cbf f014 263e e9fd 0fbe
00000220: da6e 553e 0416 05be 892c 4dbe 0f40 803d
00000230: c992 a93e 7632 6dbd c0d7 813e 2e10 203d
00000240: 399f bdbd 914a 933e 1347 003e 6926 96be
00000250: 53b7 38be 98dc 98be 5bf0 353e 268e a13d
00000260: 1394 ed3d edb1 003e 8c56 4abe 4070 473e
00000270: dac0 ee3c 430b 4ebe 4388 6a3e 12fd 4b3e
00000280: 5f72 0b3e 8ffc 17be 02a9 2f3e 306c 4cbf
00000290: 228b a73e 2842 f1bd d847 9dbd 9b26 9bbe
000002a0: ce5f d6bc 5d6f 3f3e 5efb 2b3e 94c3 a3bd
000002b0: 458f 80be c99c 433e 06bf bc3d 90e6 243e
000002c0: 0284 aabc a9e2 a5bd add6 43be f662 11be
000002d0: 09d2 6e3e ad00 94be 322f bc3d 6125 343e
000002e0: ab96 603e 389c 58bd 08f3 d3bd 04e6 6abe
000002f0: b567 08be 36a5 0e3e 801c 083e cef6 87be
00000300: d29d 3c3e 5bb0 e93d ee29 d63d 48f8 10be
00000310: c3af 1e3e 5c96 6e3e cf43 10be 4d12 f4bd
00000320: 0207 773e d7d8 7f3c 8bbb 273e 24a9 383e
00000330: 5535 dc3c 0c83 f43d 6ab2 6c3e 46dc 893b
00000340: 0116 c3bc 3718 373e 9624 783e ae27 31be
00000350: 43ce 633d 5e5b c0bd 238b 0abe fa00 df3e
00000360: 3445 113e 3d68 ef3d ca76 233e ad40 883d
00000370: ee14 5d3d 46b9 ef3d e931 2d3e 0542 f7bb
00000380: e501 8f3e 8d19 f53e 8384 453e 107c 2a3e
00000390: d421 1bbe 88e8 d23d ec48 1fbe 8acc 21be
000003a0: 9e3f e33d 2814 c73d b7b7 7dbd 94e3 f13d
000003b0: 5597 743e 88f2 1fbe 97ef c53d 7ace 193e
000003c0: c45d 0b3e a080 423e 6f8b e43d b5c1 0f3e
000003d0: 6093 41be 97e6 30be 1485 1a3e a3a6 e4bd
000003e0: 52d1 82bd 920d 9e3d d38d 263e c6fc 6abd
000003f0: f48b 493e a022 393e d64c f33d 8e1e ca3d

lstm.weight_hh_l0 f4 [256, 64]
-0.05501192 -0.025066823 -0.03940711 -0.050451886 0.003682297 0.056166135 0.019738145 -0.1114867
0.18482582 -0.16643855 0.008238543 0.030820122 0.11601801 -0.06465102 -0.06994856 0.16748032
-0.06808604 -0.05777142 -0.10681423 0.020384543 0.014481597 0.019178135 0.08362863 0.10410654
-0.16557436 -0.083143786 -0.07587188 0.1526842 0.15452832 -0.014334599 -0.091549866 -0.055374134
0.04889323 -0.026941638 0.077086754 -0.1851414 0.02299661 0.026535144 -0.14955384 -0.013614896
0.0028925946 0.043928232 0.00012189077 0.015270821 0.041474745 0.044466637 -0.029738985 -0.04494243
0.01436193 -0.13968857 -0.012237308 -0.10603069 -0.010400041 -0.14439787 0.01847094 -0.01713714
0.022582563 -0.15389493 -0.1100035 -0.16842319 0.08379164 -0.010995078 0.15799592 0.065403126
-0.030762114 0.0032466273 0.11661053 -0.009710781 0.12558837 0.15094142 0.10334363 -0.14139892
-0.0110468455 0.06603533 -0.096201375 -0.03505105 -0.07310163 0.034732256 0.090058856 -0.040272385
-0.044410087 0.08491996 -0.081073284 -0.025198432 0.0034391459 0.069978334 0.10111632 0.110999405
-0.1204765 0.05520375 0.0326602 -0.07315312 0.017820355 0.12337393 -0.001188379 -0.042297773
-0.13768204 0.12308144 -0.12204373 -0.08741031 0.03610321 0.027619155 -0.06233334 0.1098005
0.01911682 -0.035196062 0.08433133 0.050872322 -0.04159272 0.06371937 -0.018649502 0.0019539306
0.09668768 0.113400385 -0.012858323 -0.0049879975 -0.028426165 0.02372321 0.025737043 0.03847587
-0.15763819 0.016960505 -0.08313224 0.054955997 -0.12251818 -0.015872737 -0.12666297 0.066880226
0.10254499 -0.07901651 -0.02461947 0.16846396 -0.06355912 -0.04248379 0.11353526 -0.20133561
0.15345119 -0.18916155 -0.022638459 -0.049358115 0.19238618 0.047077376 0.13116233 -0.0711548
0.054543395 -0.10313952 0.06970605 -0.071698375 0.013609202 -0.035508398 0.15019616 0.07746233
-0.034688592 0.023785492 0.013960004 -0.081056766 -0.065918006 0.027311414 0.10798968 0.09223198
-0.0035707443 -0.049791437 -0.090321 0.009657153 0.12271589 0.11726352 -0.050937366 -0.00040177026
0.083835594 0.07223825 0.0882402 -0.017238427 0.00020962005 0.02981329 -0.07113752 0.00951524
-0.04382254 0.15198277 -0.08253192 0.100315 0.18966144 -0.19003645 0.06419665 0.019229246
-0.053749975 -0.051772982 -0.093699716 -0.020638224 0.001205816 0.042713642 0.052238777 -0.0069952477
-0.0014976572 0.22434033 -0.007214957 0.25109422 -0.04387566 0.014079578 0.34231982 -0.155669
0.29529697 -0.1791318 -0.113545015 0.20981355 0.1994168 -0.2802903 0.15708284 0.13144879
-0.07243676 0.056894418 -0.056586854 -0.15198493 -0.13650388 -0.26967397 0.38834476 0.08919527
-0.3641194 0.11775229 0.07300591 0.028372802 0.25395155 -0.0331162 0.08690751 -0.0014665889
-0.15184781 0.37403244 0.017225998 -0.27160016 0.34720808 0.032831162 -0.31975305 -0.3913447
-0.07400824 0.22708125 0.25149417 -0.22766608 0.040271856 0.19939977 -0.18002664 0.18893714
-0.24700703 0.22529823 0.11356555 -0.0031998476 0.27630413 -0.3437448 0.1536886 0.26395288
0.23798494 -0.16011944 -0.05155077 -0.31018522 0.012849788 0.19747594 0.1491032 -0.13081181
00000000: 2e54 61bd f058 cdbc 5a69 21bd a3a6 4ebd
00000010: b152 713b 760e 663d e4b1 a13c 2453 e4bd
00000020: fb42 3d3e de6e 2abe f4fa 063c 7b7a fc3c
00000030: da9a ed3d c167 84bd 3141 8fbd f67f 2b3e
00000040: b270 8bbd b9a1 6cbd 6bc1 dabd 7cfd a63c
00000050: 3844 6d3c 771b 9d3c 7d45 ab3d cf35 d53d
00000060: 538c 29be 4a47 aabd b762 9bbd 3f59 1c3e
00000070: ac3c 1e3e aadb 6abc 7f7e bbbd fdcf 62bd
00000080: 4444 483d b6b4 dcbc a9df 9d3d b595 3dbe
00000090: 6363 bc3c 3b60 d93c a424 19be 0311 5fbc
000000a0: af91 3d3b 17ee 333d 9c9f ff38 7732 7a3c
000000b0: 6ce1 293d a622 363d 2c9f f3bc 8e15 38bd
000000c0: 4d4e 6b3c 850a 0fbe fd7e 48bc 9e26 d9bd
000000d0: ef64 2abc 09dd 13be 5e50 973c 3063 8cbc
000000e0: 11ff b83c a296 1dbe 8449 e1bd 2177 2cbe
000000f0: f49a ab3d b324 34bc afc9 213e 13f2 853d
00000100: d400 fcbc 5ec5 543b 80d1 ee3d f819 1fbc
00000110: 3d9a 003e 6390 1a3e d3a5 d33d e1ca 10be
00000120: d4fd 34bc 883d 873d 3a05 c5bd b191 0fbd
00000130: 4fb6 95bd 6943 0e3d c770 b83d a8f4 24bd
00000140: 5ae7 35bd 84ea ad3d c009 a6bd f16c cebc
00000150: 4b63 613b cd50 8f3d 1316 cf3d a853 e33d
00000160: 62bc f6bd 541d 623d b4c6 053d 4ed1 95bd
00000170: fefb 913c 79ab fc3d 62c3 9bba 6e40 2dbd
00000180: 85fc 0cbe 1f12 fc3d 10f2 f9bd 2d04 b3bd
00000190: f6e0 133d 9141 e23c 3f51 7fbd 16df e03d
000001a0: e19a 9c3c bf29 10bd e8b5 ac3d 7f5f 503d
000001b0: 215d 2abd 4d7f 823d d7c6 98bc 840d 003b
000001c0: 3104 c63d 763e e83d b7ab 52bc 5b72 a3bb
000001d0: fddd e8bc 2d57 c23c 7ed6 d23c e098 1d3d
000001e0: e86b 21be c2f0 8a3c 3c41 aabd 8a19 613d
000001f0: d0ea fabd 8b07 82bc f0b3 01be 80f8 883d
00000200: 1c03 d23d 68d3 a1bd c5ae c9bc d181 2c3e
00000210: 492b 82bd 7c03 2ebd 2d85 e83d ec2a 4ebe
00000220: 4f22 1d3e 91b3 41be 4a74 b9bc bc2b 4abd
00000230: e200 453e 35d4 403d 6b4f 063e 9cb9 91bd
00000240: e568 5f3d d03a d3bd 0cc2 8e3d 99d6 92bd
00000250: 21f9 5e3c 4171 11bd 06cd 193e 92a4 9e3d
00000260: a015 0ebd cbd9 c23c 80b8 643c 1701 a6bd
00000270: 0500 87bd 30bc df3c b129 dd3d 1fe4 bc3d
00000280: 2603 6abb 1bf2 4bbd 37fa b8bd 0939 1e3c
00000290: 7852 fb3d db27 f03d b3a3 50bd b1a4 d2b9
000002a0: ffb1 ab3d a6f1 933d 47b7 b43d 9a37 8dbc
000002b0: 74cd 5b39 003b f43c 8cb0 91bd cfe5 1b3c
000002c0: 447f 33bd 5fa1 1b3e 7f06 a9bd f371 cd3d
000002d0: 9c36 423e ea98 42be 8979 833d a786 9d3c
000002e0: ef28 5cbd e80f 54bd a3e5 bfbd 7e11 a9bc
000002f0: 790c 9e3a 80f4 2e3d 54f8 553d 6438 e5bb
00000300: 094d c4ba 79b9 653e 726b ecbb 6c8f 803e
00000310: f7b6 33bd 08ae 663c 8b44 af3e b267 1fbe
00000320: 2a31 973e 546e 37be 4a8a e8bd 5dd9 563e
00000330: eb33 4c3e 3682 8fbe 53da 203e 839a 063e
00000340: b959 94bd 1f0a 693d 9ec7 67bd f0a1 1bbe
00000350: acc7 0bbe b512 8abe 20d5 c63e 02ac b63d
00000360: dc6d babe 1d28 f13d 1f84 953d 146e e83c
00000370: f005 823e daa4 07bd 91fc b13d 8f3a c0ba
00000380: fe7d 1bbe 2e81 bf3e 891d 8d3c 2d0f 8bbe
00000390: 42c5 b13e f879 063d acb6 a3be 555e c8be
000003a0: a291 97bd fd87 683e d8c3 803e 4c21 69be
000003b0: 1af4 243d 742f 4c3e e758 38be bd78 413e
000003c0: 69ef 7cbe 94b4 663e 0e95 e83d 89b4 51bb
000003d0: bc77 8d3e 52ff afbe 8b60 1d3e d524 873e
000003e0: 53b2 733e 5af6 23be e626 53bd 99d0 9ebe
000003f0: eb87 523c 2237 4a3e 82ae 183e 88f3 05be

lstm.bias_ih_l0 f4 [256]
0.14902543 0.043197136 0.05402503 0.026765771 0.34371594 0.14189172 0.32183173 0.23554285
0.08697304 0.156882 0.15119566 0.00064541446 0.15057899 0.04786985 0.08875128 0.1439645
-0.04878125 0.26422712 0.019555036 0.16651186 0.16940871 0.22042853 0.26768598 0.033401366
0.15414418 0.04203957 0.10335948 0.050839573 -0.032175172 0.24939157 0.15427828 0.27453357
-0.031065753 0.34986869 0.2423901 0.2688974 0.25340834 -0.08240426 0.1985844 0.41218904
0.11717058 -0.030062215 0.120724164 0.06915088 0.16259934 0.28348166 -0.083010934 0.14807706
0.11405657 0.06963607 0.19876386 0.2511077 -0.07835955 0.161791 0.18865998 -0.10768798
0.26180848 -0.0006665504 0.19099693 0.15678805 -0.009053576 0.00088094256 0.14893451 0.025221117
0.0904222 -0.08451477 -0.095564485 -0.12688012 -0.25183493 -0.21901615 0.108763255 0.016062364
0.0776362 0.05140097 0.04756624 0.037053566 -0.10822984 0.0040991683 -0.1431028 0.017916536
0.14764658 -0.14320117 -0.045026403 0.05926689 0.07563284 0.13512868 -0.060904 0.14654206
-0.12756279 0.010935182 -0.13861053 -0.075721 -0.052981086 0.043129787 -0.025002537 0.080060124
0.06296191 -0.3435739 -0.034354433 -0.09903711 -0.0472985 -0.14466563 0.13534695 0.17940097
0.037229747 0.056958668 0.16261457 -0.09040588 -0.06168659 0.052883357 -0.05353996 -0.07065008
0.12928322 -0.058865976 0.0048482344 -0.0389071 -0.15387234 0.024859894 -0.06524181 0.053240415
-0.061598666 0.0856718 0.13380474 -0.05761411 0.08966015 -0.07406296 -0.017171502 0.08049053
-0.038538165 -0.107996866 -0.08252906 -0.02451811 0.1916418 0.09046389 0.1337911 -0.14425516
0.056514133 -0.040464826 -0.17194012 0.07425271 -0.22452533 -0.049938437 -0.10530987 0.036140278
-0.03709384 -0.112925515 -0.25444973 -0.058116697 0.22176419 -0.21906579 0.21499133 0.21965249
-0.15545681 0.15689099 0.1574658 -0.14368768 -0.05087355 -0.13712552 0.061064996 0.09521147
-0.028896453 0.030361772 -0.36602682 0.059917606 0.08333406 -0.058885235 -0.15070939 -0.25898325
-0.04148464 0.12747483 0.26731348 -0.052821614 -0.02477717 0.14354825 -0.12757064 0.12149343
-0.003776907 0.09636215 0.23306277 -0.15326814 -0.2749352 -0.1599804 0.053417366 -0.014244587
0.058775764 -0.06399397 -0.21718295 -0.14228742 -0.011617044 -0.0070171067 -0.05039163 0.0006668829
-0.0053220093 0.18465318 0.09120656 -0.025066528 0.34730902 0.35093072 0.18849844 0.18442403
0.25118294 0.20570698 0.08117819 0.13447832 0.08168715 0.07246716 0.17342241 -0.010809189
-0.05782888 0.220502 0.19258507 0.044449624 0.16554312 0.1717508 0.20992124 0.20173082
0.024309866 0.008007284 0.18433562 0.29580194 0.12693469 0.01574761 0.10635008 0.019637942
0.122184575 0.19194077 0.1944389 0.19708125 0.23671126 0.13451536 -0.017538711 0.28530434
-0.03643815 0.057385266 0.18167692 0.15620902 0.16670561 0.13465528 0.14139087 0.12864348
0.06914839 0.13450019 0.12692559 0.032383826 0.24763188 0.11688252 0.061870832 0.084973745
0.056319706 -0.05540842 0.0010483036 0.24985744 -0.034374237 -0.05925369 0.2399961 0.13864315
00000000: 1f9a 183e 7bef 303d 5a49 5d3d e443 db3c
00000010: 89fb af3e 104c 113e 21c7 a43e 2532 713e
00000020: ec1e b23d ada5 203e 09d3 1a3e 0831 293a
00000030: 6131 1a3e 2d13 443d 3bc3 b53d 6e6b 133e
00000040: d9ce 47bd c748 873e e231 a03c 1682 2a3e
00000050: 7a79 2d3e 04b8 613e 230e 893e dfcf 083d
00000060: f9d7 1d3e af31 2c3d 23ae d33d 283d 503d
00000070: 1dca 03bd 8160 7f3e 20fb 1d3e aa8f 8c3e
00000080: 9b7d febc fd21 b33e 1c35 783e ecac 893e
00000090: bdbe 813e 91c3 a8bd b559 4b3e 710a d33e
000000a0: 21f7 ef3d 0945 f6bc 3b3e f73d fa9e 8d3d
000000b0: 7180 263e 8224 913e a301 aabd 83a1 173e
000000c0: 7e96 e93d 5b9d 8e3d c188 4b3e 3091 803e
000000d0: f97a a0bd 8aac 253e 1530 413e 848b dcbd
000000e0: c30b 863e 71bb 2eba b394 433e 0c8d 203e
000000f0: 7355 14bc 0eef 663a 4a82 183e 849c ce3c
00000100: 462f b93d 1416 adbd 50b7 c3bd ddec 01be
00000110: 82f0 80be c545 60be 45bf de3d 3895 833c
00000120: baff 9e3d d389 523d d1d4 423d 7bc5 173d
00000130: 9ba7 ddbd 5152 863b 8a89 12be b3c5 923c
00000140: aa30 173e 54a3 12be 9b6d 38bd d7c1 723d
00000150: 64e5 9a3d 2c5f 0a3e 7976 79bd 1f0f 163e
00000160: d29f 02be 7a29 333c ebef 0dbe 9d13 9bbd
00000170: b202 59bd dca8 303d 1fd2 ccbc 90f6 a33d
00000180: 2df2 803d ebe8 afbe 3cb7 0cbd f8d3 cabd
00000190: 12bc 41bd 3a23 14be 6498 0a3e e3b4 373e
000001a0: 387e 183d 7e4d 693d 6f84 263e b826 b9bd
000001b0: 14ab 7cbd 389c 583d b84c 5bbd fdb0 90bd
000001c0: d262 043e 731d 71bd f0dd 9e3b 0d5d 1fbd
000001d0: b690 1dbe faa6 cb3c 809d 85bd 9f12 5a3d
000001e0: e24e 7cbd b274 af3d 1c04 093e c6fc 6bbd
000001f0: be9f b73d 52ae 97bd 40ab 8cbc 38d8 a43d
00000200: 32da 1dbd 762d ddbd ff04 a9bd 34da c8bc
00000210: bf3d 443e 2245 b93d 8900 093e a0b7 13be
00000220: 5d7b 673d 72be 25bd 1211 30be ce11 983d
00000230: f8e9 65be 3f8c 4cbd b3ac d7bd d407 143d
00000240: b6ef 17bd 7e45 e7bd 3c47 82be c60b 6ebd
00000250: 2716 633e c852 60be b026 5c3e 95ec 603e
00000260: 1230 1fbe 08a8 203e b73e 213e dd22 13be
00000270: c960 50bd a26a 0cbe 4a1f 7a3d 3bfe c23d
00000280: 41b8 ecbc 40b9 f83c de67 bbbe 2a6c 753d
00000290: 0cab aa3d a531 71bd 9053 1abe 7499 84be
000002a0: cceb 29bd c388 023e 50dd 883e 7a5b 58bd
000002b0: 7ef9 cabc 50fe 123e e1a1 02be 8cd1 f83d
000002c0: fc85 77bb 8559 c53d 02a8 6e3e 53f2 1cbe
000002d0: 4ec4 8cbe e7d1 23be 2bcc 5a3d 2162 69bc
000002e0: dbbe 703d 450f 83bd 3565 5ebe cbb3 11be
000002f0: 6a55 3ebc c2ef e5bb 7467 4ebd c1d1 2e3a
00000300: 4064 aebb b915 3d3e 81ca ba3d 5258 cdbc
00000310: 7dd2 b13e 31ad b33e bc05 413e a7d9 3c3e
00000320: 0d9b 803e daa4 523e c040 a63d afb4 093e
00000330: 984b a73d aa69 943d a595 313e 0619 31bc
00000340: fadd 6cbd 47cb 613e 0535 453e cf10 363d
00000350: 2384 293e 71df 2f3e 98f5 563e 8692 4e3e
00000360: 7c25 c73c fc30 033c 7ac2 3c3e 5a73 973e
00000370: 2bfb 013e 2201 813c 12ce d93d c0df a03c
00000380: e83b fa3d 1f8c 443e fe1a 473e abcf 493e
00000390: 7064 723e 65be 093e 58ad 8fbc 6913 923e
000003a0: 2b40 15bd d00c 6b3d 8409 3a3e 42f5 1f3e
000003b0: e0b4 2a3e 13e3 093e c5c8 103e 1ebb 033e
000003c0: ac9d 8d3d 6bba 093e c8f8 013e e7a4 043d
000003d0: 3693 7d3e 1a60 ef3d 456c 7d3d b706 ae3d
000003e0: 7eaf 663d f0f3 62bd 3b67 893a a1da 7f3e
000003f0: 00cc 0cbd ffb3 72bd 8ac1 753e 78f8 0d3e

lstm.bias_hh_l0 f4 [256]
-0.031675007 -0.07060241 0.05453665 -0.067000926 0.33176744 0.23511742 0.17481767 0.15085305
0.16746105 0.15404814 0.24548692 0.16083872 0.21115704 0.061679874 0.09247017 0.14814477
-0.035169262 0.21776742 0.1783044 0.2944307 0.1110413 0.29921648 0.12502143 -0.008669276
0.026631536 0.04687523 0.19979279 0.19196273 0.12224015 0.18188646 0.23552322 0.12033884
0.052489676 0.27469635 0.115061626 0.058855586 0.33181325 -0.041586008 0.050631095 0.32720202
0.011735505 -0.039272808 0.011540341 -0.04061501 0.26372 0.1498686 0.095063746 0.2226118
0.12612799 0.15308045 0.028079657 0.095415205 0.14807302 0.21659783 0.24693301 -0.19145845
0.13930272 -0.06913981 0.092740074 0.19157957 -0.04087657 0.11883824 0.17616327 0.1530144
0.09477589 0.09307736 -0.011562121 -0.24856853 -0.17686301 -0.18766764 0.16941923 0.09820499
0.14162542 0.014836968 -0.06993362 -0.061746772 -0.06962488 0.08855845 -0.14631191 0.13021897
0.14904901 -0.13615635 -0.012733369 0.0214928 -0.092977785 -0.013819568 0.08786765 0.13640314
0.021616127 0.14198658 -0.056576997 -0.0955711 -0.05611358 -0.04884973 0.13938615 0.04157727
-0.004693362 -0.31423795 0.08118507 -0.11946138 -0.08389821 -0.036824886 0.024122227 0.14858708
0.03504506 -0.054154247 0.063644804 0.11560719 -0.01629318 0.027577294 0.0062671327 -0.10923746
0.05641431 -0.038862966 0.013404076 0.017067263 -0.05430953 0.09553513 0.036864325 -0.00096075103
-0.2782498 0.13736267 -0.02516776 0.050277594 0.010544583 0.0067141657 -0.055856545 -0.07736973
0.10747903 0.03840335 -0.06532363 -0.1809782 0.062804215 0.22872539 0.32468992 -0.11550728
0.037510775 0.005412805 -0.12810795 0.03142644 -0.15654373 0.101019576 -0.017140403 0.0053668898
0.15109602 -0.19147636 -0.15941785 -0.017660314 0.21204674 -0.212454 0.29864064 0.047749177
-0.07891206 0.22435461 0.1285639 -0.19468297 -0.08618755 -0.16462196 0.24800713 0.118510865
-0.15223563 0.11576809 -0.121853076 0.19420308 0.09588379 -0.08007252 -0.0532728 -0.17016526
-0.026529616 -0.028495302 0.11168663 -0.012954641 0.20130374 0.14079866 0.06587744 -0.025371406
-0.044736236 0.1320527 0.03139004 -0.2078283 -0.2796104 -0.13747007 0.24424711 -0.00274453
-0.15252198 0.015733967 -0.13161835 0.03326053 -0.11525712 0.007315888 -0.10769319 -0.10810917
0.110223144 0.085671626 -0.0025775416 0.1448405 0.19947699 0.20571253 0.17470834 -0.0061255815
0.046855815 0.0793817 0.2443666 0.10586816 0.009178681 0.1519753 0.09581904 -0.04281689
-0.12974459 0.14079964 -0.005699976 0.11906642 0.17515546 0.07153203 0.12692313 -0.02638317
0.06213836 0.17411718 0.20012558 0.2943381 0.0131229805 0.24234408 0.21570021 0.0963246
-0.09122825 0.15911837 0.27949557 0.23796381 0.09400189 0.08545935 0.07161312 0.26804152
-0.007159999 -0.0028457432 0.21095759 0.113053106 0.2219546 0.21428072 0.046674285 0.13960646
0.058789905 0.037456475 0.0797895 -0.012707684 0.23230661 0.02650876 0.0047784466 0.1648498
0.25300074 0.022745298 0.048818536 0.026199447 -0.16097748 -0.025373984 0.2380801 0.07763094
00000000: a7bd 01bd ff97 90bd d361 5f3d c837 89bd
00000010: 6cdd a93e 9fc2 703e 6703 333e 3979 1a3e
00000020: e97a 2b3e ccbe 1d3e ec60 7b3e e8b2 243e
00000030: 8d39 583e 09a4 7c3d 0061 bd3d 43b3 173e
00000040: a50d 10bd 6cfe 5e3e 6e95 363e 9fbf 963e
00000050: 9f69 e33d e732 993e 9e05 003e 9409 0ebc
00000060: 612a da3c 3e00 403d 7b96 4c3e e191 443e
00000070: 0b59 fa3d 7240 3a3e 002d 713e 3674 f63d
00000080: 6aff 563d 00a5 8c3e 6ea5 eb3d 8e12 713d
00000090: 6de3 a93e 1756 2abd 8d62 4f3d 0687 a73e
000000a0: 4746 403c 86dc 20bd b313 3d3c ed5b 26bd
000000b0: 4f06 873e 2777 193e c8b0 c23d 59f4 633e
000000c0: b227 013e 1fc1 1c3e 4f07 e63c 0c69 c33d
000000d0: 74a0 173e d2cb 5d3e 02dc 7c3e af0d 44be
000000e0: 5fa5 0e3e 2c99 8dbd 82ee bd3d 6f2d 443e
000000f0: 316e 27bd 7761 f33d 2564 343e cfaf 1c3e
00000100: dd19 c23d 589f be3d 0d6f 3dbc c088 7ebe
00000110: 941b 35be f22b 40be 3c7c 2d3e b31f c93d
00000120: 4106 113e c116 733c 5c39 8fbd 2fea 7cbd
00000130: 7d97 8ebd 225e b53d cad2 15be 1f58 053e
00000140: 4ea0 183e 926c 0bbe 9f9f 50bc ab11 b03c
00000150: 236b bebd 786b 62bc f4f3 b33d 44ad 0b3e
00000160: 4e14 b13c ee64 113e 48bd 67bd c8ba c3bd
00000170: 5ad7 65bd a816 48bd 3ebb 0e3e ed4c 2a3d
00000180: c6ca 99bb cce3 a0be 5c44 a63d 2ba8 f4bd
00000190: d3d2 abbd b1d5 16bd fa9b c53c 3627 183e
000001a0: 698b 0f3d d8d0 5dbd 3558 823d 76c3 ec3d
000001b0: 4679 85bc c7e9 e13c 855c cd3b e4b7 dfbd
000001c0: b112 673d c62e 1fbd c59c 5b3c a5d0 8b3c
000001d0: ab73 5ebd eca7 c33d 0cff 163d e9da 7bba
000001e0: c276 8ebe cda8 0c3e 9e2c cebc e1ef 4d3d
000001f0: 30c3 2c3c 8102 dc3b d5c9 64bd 0574 9ebd
00000200: f71d dc3d d54c 1d3d 65c8 85bd 5952 39be
00000210: 7f9f 803d fd36 6a3e c23d a63e 158f ecbd
00000220: e6a4 193d e65d b13b bb2e 03be 03b9 003d
00000230: 004d 20be 5ae3 ce3d 086a 8cbc bcdc af3b
00000240: eab8 1a3e 6112 44be 6f3e 23be 5dac 90bc
00000250: c822 593e 8b8d 59be 6de7 983e a494 433d
00000260: a59c a1bd 37bd 653e 41a6 033e f95a 47be
00000270: 1983 b0bd a992 28be 95f5 7d3e d3b5 f23d
00000280: a8e3 1bbe d217 ed3d 1b8e f9bd 2cdd 463e
00000290: b85e c43d 10fd a3bd 9434 5abd cd3f 2ebe
000002a0: a354 d9bc fb6e e9bc f6bb e43d b43f 54bc
000002b0: 9122 4e3e 862d 103e c0ea 863d b2d7 cfbc
000002c0: 583d 37bd d338 073e d892 003d f1d0 54be
000002d0: 1829 8fbe f4c4 0cbe ea1b 7a3e 93dd 33bb
000002e0: b92e 1cbe 85e4 803c f6c6 06be 323c 083d
000002f0: ed0b ecbd 1eba ef3b 3f8e dcbd 5768 ddbd
00000300: acbc e13d 9b74 af3d f9eb 28bb 1151 143e
00000310: b243 4c3e 4ea6 523e bee6 323e 1ab9 c8bb
00000320: e2eb 3f3d df92 a23d 3d3b 7a3e 68d1 d83d
00000330: 2e62 163c 6a9f 1b3e c63c c43d c360 2fbd
00000340: c4db 04be c82d 103e ddc6 babb 18d9 f33d
00000350: f45b 333e 637f 923d 23f8 013e 8521 d8bc
00000360: cb84 7e3d c64b 323e b8ed 4c3e 7cb3 963e
00000370: c501 573c 0c29 783e 84e0 5c3e d545 c53d
00000380: e0d5 babd edef 223e 0b1a 8f3e c9ac 733e
00000390: 1084 c03d 5005 af3d e6a9 923d bd3c 893e
000003a0: 6d9e eabb a67f 3abb 4405 583e 6388 e73d
000003b0: 1148 633e 686c 5b3e 892d 3f3d fff4 0e3e
000003c0: afcd 703d f66b 193d ad68 a33d e433 50bc
000003d0: c9e1 6d3e e628 d93c 8494 9c3b 63ce 283e
000003e0: 5089 813e 5954 ba3c f2f5 473d 39a0 d63c
000003f0: 48d7 24be 1add cfbc 45cb 733e f8fc 9e3d

lstm.weight_ih_l0_reverse f4 [256, 1]
0.06862094 -0.059325583 0.11630854 0.07221599 0.1302601 0.023418115 0.16934934 0.15750825
-0.011966001 -0.120877765 0.22013652 -0.11465124 0.058668986 0.0753911 0.17432247 0.1710196
0.18162796 -0.12422753 -0.16066907 0.098593086 0.12768295 0.39664835 0.24764076 0.07240416
0.2291216 0.11342631 -0.20136143 -0.11741626 0.055547096 0.055442553 0.087270446 -0.22452068
0.12977788 0.24610038 0.032140873 -0.08110261 0.15936527 -0.25936922 -0.054751776 0.146493
0.11179013 0.080639474 0.047528807 -0.14966767 -0.035641193 0.1591251 0.17244148 0.20687081
-0.02745989 -0.13070102 0.047598116 -0.14769663 -0.07269873 0.09297189 0.27656835 -0.12156533
0.2397738 0.34551886 0.0805594 0.26749653 -0.05441009 0.23579326 0.080671415 -0.10103729
0.027453013 0.11002164 -0.07784785 0.050889783 0.1317678 0.029345294 0.05869281 -0.06540787
0.0058879093 -0.10885807 0.11194533 -0.17520702 -0.04660977 0.015392126 0.11646025 -0.13134062
0.06444934 -0.16401875 0.033782393 0.03495053 0.068508685 0.10108135 0.15793039 0.060858563
0.06227464 0.047546 -0.2447715 0.050841592 0.22041963 -0.069926955 0.14387843 0.101765774
0.15738548 0.10757667 0.045726415 0.2489237 0.03929208 -0.18760397 0.25957102 0.07863932
-0.26202297 0.1811784 0.068649046 -0.09140825 0.09401928 0.03851859 0.003759182 0.15600279
-0.10897659 0.18311562 0.0068882676 0.08632549 0.043039214 0.067208484 0.13270582 -0.15120934
0.15043655 0.04282496 0.16724251 0.19726376 0.11735507 0.11822803 0.091937214 0.11636276
-0.52063334 -0.11877749 0.10887693 0.048344996 0.07322466 -0.11565924 0.23120221 0.19891271
0.15113425 0.1120859 0.14532606 -0.28405195 0.29731113 0.11614992 0.22316217 0.31045207
0.16485776 0.22934903 0.25016627 0.23490098 -0.11558522 0.26525444 0.22861208 -0.07166784
-0.115585804 -0.21416157 -0.16215326 0.17726427 -0.5197541 -0.16654871 -0.04568427 -0.34892672
-0.045725927 -0.24671263 -0.1542279 -0.25986698 0.15163925 0.38877133 -0.16627452 0.5305667
0.11277808 0.08966942 -0.1691134 0.21405458 -0.09475752 0.10379748 0.09126531 0.085567296
-0.28311992 0.12583987 -0.07671702 0.20264842 -0.06563612 0.22369374 -0.21079323 0.21478687
-0.24037272 -0.046614677 0.13291793 -0.26762208 0.051699206 -0.14624631 -0.18389273 0.016026132
-0.14775942 -0.06468199 0.25882816 0.11789563 -0.0713278 0.021682799 0.11139202 -0.18123962
0.06267165 0.005973252 0.07114934 0.026189923 0.028906457 0.10321463 -0.1687167 -0.018231826
-0.1331805 0.1546074 0.098316684 -0.13981359 -0.19724366 -0.12991719 -0.105903774 0.113413624
0.15341832 -0.12981169 0.3056787 0.21944849 -0.09647969 0.01770052 0.0690395 0.0372509
0.1856233 -0.09196348 0.09944145 -0.010019842 0.17076276 0.16884024 0.06752042 -0.12741838
0.20868145 -0.18217397 0.14559665 0.23123574 0.26710904 0.04579845 -0.15102334 -0.1642247
0.09061138 0.14112735 -0.03533263 0.2280467 0.056664027 -0.12030865 -0.16913824 0.18035994
0.112362035 0.12440086 -0.024407385 -0.1307173 0.16136649 -0.13180932 -0.13127643 0.17538227
00000000: 2389 8c3d 62ff 72bd 2c33 ee3d fae5 933d
00000010: e762 053e 59d7 bf3c ea69 2d3e d849 213e
00000020: 0c0d 44bc c38e f7bd 786b 613e 45ce eabd
00000030: e44e 703d a666 9a3d 9781 323e c31f 2f3e
00000040: aefc 393e 016b febd 6f86 24be 2ceb c93d
00000050: 52bf 023e 7e15 cb3e 8a95 7d3e a248 943d
00000060: da9e 6a3e 0e4c e83d b131 4ebe f077 f0bd
00000070: 5a85 633d bb17 633d d9ba b23d c0e8 65be
00000080: 7ee4 043e bd01 7c3e 26a6 033d 2019 a6bd
00000090: a630 233e 0bcc 84be 6643 60bd 4302 163e
000000a0: 39f2 e43d 4f26 a53d 91ad 423d 7b42 19be
000000b0: 80fc 11bd b1f1 223e 8094 303e f1d5 533e
000000c0: 90f3 e0bc 7dd6 05be 3ef6 423d c93d 17be
000000d0: 12e3 94bd 0c68 be3d 5e9a 8d3e 3ef7 f8bd
000000e0: 4387 753e d9e7 b03e 54fc a43d 4ef5 883e
000000f0: 1ddd 5ebd ca73 713e 0e37 a53d a4ec cebd
00000100: 24e5 e03c 0753 e13d b26e 9fbd ce71 503d
00000110: 23ee 063e 8b65 f03c df67 703d 90f4 85bd
00000120: 5def c03b fbf0 debd 9843 e53d 7869 33be
00000130: e3e9 3ebd 412f 7c3c b682 ee3d 287e 06be
00000140: 04fe 833d 88f4 27be 685f 0a3d 4928 0f3d
00000150: 484e 8c3d bd03 cf3d 81b8 213e d446 793d
00000160: b113 7f3d 98bf 423d 61a5 7abe 463f 503d
00000170: afb5 613e dd35 8fbd de54 133e 936a d03d
00000180: a929 213e 2851 dc3d 9f4b 3b3d dbe5 7e3e
00000190: bbf0 203d 411b 40be 7ee6 843e a70d a13d
000001a0: e027 86be d586 393e df97 8c3d 4034 bbbd
000001b0: 2e8d c03d abc5 1d3d 9c5c 763b 32bf 1f3e
000001c0: 1e2f dfbd a982 3b3e fab6 e13b 6bcb b03d
000001d0: e349 303d 9aa4 893d 09e4 073e 9fd6 1abe
000001e0: 0a0c 1a3e 3a69 2f3d 9f41 2b3e 83ff 493e
000001f0: db57 f03d 8a21 f23d 9449 bc3d 994f ee3d
00000200: 3a48 05bf 9d41 f3bd defa de3d 6705 463d
00000210: cff6 953d c0de ecbd 46c0 6c3e c6af 4b3e
00000220: f0c2 1a3e 4b8d e53d 5bd0 143e 426f 91be
00000230: 2a39 983e 02e0 ed3d a084 643e 93f3 9e3e
00000240: 79d0 283e 79da 6a3e cb15 803e e289 703e
00000250: f2b7 ecbd 6ecf 873e 4919 6a3e 97c6 92bd
00000260: 40b8 ecbd 2c4d 5bbe 810b 26be c484 353e
00000270: 9b0e 05bf bf8b 2abe 6e1f 3bbd 86a6 b2be
00000280: 1c4b 3bbd 3ca2 7cbe ebed 1dbe 490d 85be
00000290: 5247 1b3e 090d c73e de43 2abe 38d3 073f
000002a0: 32f8 e63d 9aa4 b73d 102c 2dbe 2031 5b3e
000002b0: 3b10 c2bd c693 d43d 4fe9 ba3d e83d af3d
000002c0: 18f5 90be 2bdc 003e d01d 9dbd 1183 4f3e
000002d0: 3b6c 86bd f90f 653e 2eda 57be 17f1 5b3e
000002e0: 4424 76be 08ef 3ebd a31b 083e c305 89be
000002f0: 8cc2 533d 98c1 15be 604e 3cbe 3c49 833c
00000300: 3f4e 17be fe77 84bd 2085 843e 4473 f13d
00000310: 4f14 92bd 20a0 b13c 8021 e43d e196 39be
00000320: fe59 803d 45bb c33b bfb6 913d 408c d63c
00000330: 3ccd ec3c 3162 d33d 12c4 2cbe e95a 95bc
00000340: 7860 08be 6751 1e3e 425a c93d 4b2b 0fbe
00000350: 3efa 49be 0309 05be 14e4 d8bd 6745 e83d
00000360: b119 1d3e 5bed 04be eb81 9c3e 1bb7 603e
00000370: 2597 c5bd ae00 913c 9564 8d3d 6694 183d
00000380: 0914 3e3e 5957 bcbd f5a7 cb3d 432a 24bc
00000390: 6fdc 2e3e 75e4 2c3e 2548 8a3d f779 02be
000003a0: 97b0 553e d08b 3abe 4a17 153e 10c9 6c3e
000003b0: 84c2 883e 2897 3b3d dda5 1abe 852a 28be
000003c0: 7692 b93d b083 103e f3b8 10bd 1385 693e
000003d0: 8a18 683d 6264 f6bd 9332 2dbe 47b0 383e
000003e0: 111e e63d e1c5 fe3d fff1 c7bc c2da 05be
000003f0: 423d 253e 06f9 06be 546d 06be 6997 333e

lstm.weight_hh_l0_reverse f4 [256, 64]
-0.3030703 0.035043586 0.12161881 0.16470727 0.020529991 -0.12922445 0.18026936 0.103734456
0.24236856 0.19289018 0.19379292 -0.11322209 0.37325573 0.045055196 0.2954439 0.234488
0.12939832 0.14798903 0.20160772 0.116626926 -0.2916913 0.09084339 0.23213254 0.00042142
-0.05491511 -0.27227414 -0.45732567 0.05272334 -0.15878057 -0.19225074 -0.073649116 -0.030319415
-0.11487547 -0.0020123017 -0.023039753 -0.031422365 0.23386717 0.17465533 -0.02852462 0.12803744
0.09089544 0.28461337 -0.22272505 0.227994 -0.17859554 0.10527951 0.23656814 0.39262885
-0.30824396 0.26568615 -0.18001936 0.14138283 -0.27733886 0.2796945 -0.12644386 0.33096027
-0.23129351 -0.17193723 0.24901368 -0.39168373 0.13376644 -0.30150235 -0.29532585 -0.15762822
-0.3618025 -0.36843035 0.059000563 -0.07293874 0.16881344 -0.19451681 -0.025661224 0.25088823
0.22288108 0.080638155 0.2598766 -0.13735726 0.09806335 0.048496213 0.25593188 0.20683
0.38208488 0.16176093 0.27572548 0.06797333 -0.23616987 0.34076604 0.14914647 -0.1321074
-0.12229966 -0.08685436 0.004261149 0.07707234 -0.11694526 -0.05135077 -0.00395912 -0.20584853
0.051378354 -0.32971793 -0.050734445 -0.26904505 0.03956151 0.23281866 -0.06719017 0.2795774
0.17716369 0.16124454 -0.030265337 0.23053628 -0.17180642 0.2527104 0.21089323 -0.031025093
0.022971543 0.25075474 -0.14113197 0.16474594 0.037397303 0.0971817 -0.2632893 0.04610789
-0.23264429 0.022459393 0.030619415 -0.09707564 0.09570115 -0.14298038 -0.15198213 -0.109516636
-0.13366878 0.014400874 -0.015879897 -0.03297563 0.108584486 -0.111141145 -0.0018484936 -0.0987623
0.1225685 -0.00060555787 -0.034777768 -0.12978308 0.056242622 0.04806099 0.15384327 0.15430433
0.12098723 -0.07897254 -0.032936297 0.16130827 -0.1542523 0.06252661 0.11005232 -0.088551894
-0.11236303 -0.12569472 -0.102060065 -0.04283369 0.036512952 -0.1267689 -0.0037527995 -0.17463645
-0.013391722 0.0119906645 0.070397705 0.074664384 0.0057008904 -0.02224006 0.026193574 -0.1334195
0.041228935 0.06732377 0.04973218 -0.04322651 -0.15567057 0.0050921845 -0.01142777 -0.02764394
-0.14974092 0.12463346 -0.07939048 -0.06037148 0.02454902 0.17585677 -0.117249064 -0.027744055
-0.061834242 0.0020746996 0.034071658 0.059687745 0.10562011 -0.12545724 0.08098717 0.05316814
0.013404207 -0.07263891 0.11458716 -0.14155939 -0.07946135 -0.12572876 0.02681523 0.20880355
-0.016328545 -0.08488233 0.15175317 -0.054973032 0.07153387 -0.12411162 0.0862843 -0.09698128
0.07461223 -0.14519243 0.09816491 -0.09736535 0.063585475 0.03422886 -0.019793179 0.050827965
0.036492936 0.003294414 -0.06484174 0.076243244 -0.11896987 -0.11158057 0.08478227 0.0083167525
-0.07173242 -0.09261827 -0.030129755 -0.12224478 0.10625133 0.050045945 -0.08486656 -0.06295926
0.15906869 -0.12333718 -0.027757267 -0.1070564 -0.15288793 0.1571786 0.089902475 0.06098872
0.15560068 0.033778638 0.009645766 -0.09010376 0.011311025 0.08827523 -0.12050526 -0.06733476
-0.07380606 -0.022126012 -0.0302104 0.08582374 0.026193287 0.098960884 0.012258188 0.027974198
00000000: 082c 9bbe dd89 0f3d 4813 f93d 06a9 283e
00000010: 832e a83c 6a53 04be 8898 383e bb72 d43d
00000020: 772f 783e 0185 453e a771 463e fce0 e7bd
00000030: 601b bf3e cc8b 383d 6c44 973e 9f1d 703e
00000040: fe80 043e 708a 173e 4172 4e3e 19da ee3d
00000050: 9058 95be 190c ba3d 27b4 6d3e 09f2 dc39
00000060: abee 60bd 8467 8bbe 9726 eabe 6ef4 573d
00000070: 6097 22be 61dd 44be 59d5 96bd 6c60 f8bc
00000080: d543 ebbd d2e0 03bb ddbd bcbc bdb4 00bd
00000090: e07a 6f3e d9d8 323e 77ac e9bc 3f1c 033e
000000a0: 6327 ba3d d8b8 913e 0912 64be 4277 693e
000000b0: c0e1 36be c99c d73d eb3e 723e a606 c93e
000000c0: 27d2 9dbe 0408 883e ff56 38be a9c6 103e
000000d0: 5cff 8dbe 1e34 8f3e 807a 01be a073 a93e
000000e0: 35d8 6cbe 5010 30be 71fd 7e3e c58a c8be
000000f0: 12fa 083e 845e 9abe f334 97be 4b69 21be
00000100: 2d3e b9be e7a2 bcbe 93aa 713d e860 95bd
00000110: 6edd 2c3e 6a2f 47be 7d37 d2bc 6c74 803e
00000120: f03a 643e 9e25 a53d 8c0e 853e 62a7 0cbe
00000130: 70d5 c83d f7a3 463d 8109 833e 3ecb 533e
00000140: a1a0 c33e a8a4 253e e42b 8d3e 9a35 8b3d
00000150: 84d6 71be e378 ae3e dab9 183e 2a47 07be
00000160: 3f78 fabd b3e0 b1bd 1ca1 8b3b 1ad8 9d3d
00000170: ff80 efbd 2f55 52bd 81bb 81bb f5c9 52be
00000180: 1c72 523d cad0 a8be ecce 4fbd 46c0 89be
00000190: 400b 223d 0468 6e3e 009b 89bd c524 8f3e
000001a0: 666a 353e 4a1d 253e 03ef f7bc b411 6c3e
000001b0: 06ee 2fbe 4263 813e 65f4 573e 5628 febc
000001c0: d12e bc3c ed62 803e e684 10be 29b3 283e
000001d0: ea2d 193d 3307 c73d dbcd 86be a0db 3c3d
000001e0: 4e3a 6ebe c3fc b73c 91d5 fa3c 98cf c6bd
000001f0: f7fe c33d 7369 12be 34a1 1bbe 424a e0bd
00000200: 78e0 08be a5f1 6b3c 8f16 82bc 7411 07bd
00000210: 8b61 de3d f89d e3bd 2749 f2ba e443 cabd
00000220: 3205 fb3d 4dbe 1eba 2273 0ebd dbe5 04be
00000230: aa5e 663d 9adb 443d 1789 1d3e f401 1e3e
00000240: 27c8 f73d 5bbc a1bd 36e8 06bd ff2d 253e
00000250: 51f4 1dbe f40d 803d 1c63 e13d b25a b5bd
00000260: 971e e6bd 1eb6 00be de04 d1bd 6172 2fbd
00000270: 9b8e 153d b5cf 01be 87f1 75bb e6d3 32be
00000280: f468 5bbc 7e74 443c ac2c 903d a4e9 983d
00000290: 89ce ba3b c930 b6bc e893 d63c 1f9f 08be
000002a0: acdf 283d 0be1 893d f8b3 4b3d 480e 31bd
000002b0: 1b68 1fbe 57dc a63b 8b3b 3bbc 8b75 e2bc
000002c0: af55 19be d43f ff3d 7a97 a2bd 1648 77bd
000002d0: 071b c93c cc13 343e 4720 f0bd 8047 e3bc
000002e0: e745 7dbd aff7 073b b98e 0b3d 237b 743d
000002f0: 5b4f d83d dd77 00be 9adc a53d d6c6 593d
00000300: 529d 5b3c b5c3 94bd acac ea3d f2f4 10be
00000310: a2bc a2bd 0abf 00be 9dab db3c 99d0 553e
00000320: 71c3 85bc c9d6 adbd 2f65 1b3e 672b 61bd
00000330: 5a80 923d 3c2e febd d3b5 b03d 1f9e c6bd
00000340: 4cce 983d 53ad 14be af0a c93d 7c67 c7bd
00000350: 1a39 823d 9033 0c3d 4e25 a2bc fc30 503d
00000360: 9e79 153d 18e7 573b bfcb 84bd 6b25 9c3d
00000370: 7aa6 f3bd 5b84 e4bd 54a2 ad3d fd42 083c
00000380: 72e8 92bd a6ae bdbd add2 f6bc 795b fabd
00000390: 4c9a d93d fafc 4c3d 85ce adbd c9f0 80bd
000003a0: e7e2 223e 3498 fcbd 3563 e3bc 6340 dbbd
000003b0: a78e 1cbe 6df3 203e ca1e b83d 4fcf 793d
000003c0: c955 1f3e 785b 0a3d 4609 1e3c 5288 b8bd
000003d0: e151 393c a5c9 b43d 76cb f6bd cfe6 89bd
000003e0: a227 97bd 9c41 b5bc cd7b f7bc 5bc4 af3d
000003f0: 4e93 d63c 01ac ca3d 91d6 483c 252a e53c

lstm.bias_ih_l0_reverse f4 [256]
0.44251943 0.16689467 0.018331664 -0.12597442 0.10769056 0.20349164 0.28781375 0.2370357
0.15565361 0.08094513 0.26339862 0.028823555 0.24823315 0.09558738 0.40664038 0.28695074
0.3476334 0.05548645 -0.026573684 0.2601389 0.30328625 0.5547379 0.32004362 0.018385772
0.010377738 0.10408884 0.20665717 0.036732998 0.5552563 0.24950026 0.008213595 0.14455898
-0.019251978 0.34626317 0.11168369 0.09522339 0.12689687 0.10026033 0.14771879 0.30739632
0.109003425 0.2601471 -0.003908215 0.20241348 0.062194433 0.14915623 0.23488331 0.28452614
0.076723956 0.038453255 0.125081 0.07146736 0.0767907 0.2465027 0.0369371 0.2296004
0.18362713 0.1764323 0.08557421 0.34702608 -0.011179917 0.3803178 0.28717527 -0.023623068
0.032792736 -0.10972652 -0.042837534 -0.0053548673 -0.052078538 0.112160645 0.081614785 -0.10722937
-0.015832432 0.108580016 0.02229454 -0.02211396 0.16637182 -0.06935548 -0.064105324 0.09018054
0.085824825 0.09229046 0.057981122 0.16793795 -0.006160233 -0.046840988 0.011402565 -0.017296657
0.07107027 0.13097455 0.047949504 -0.10321727 -0.0784407 -0.050344948 -0.02798574 -0.20925531
0.021906842 -0.032589946 -0.095558874 -0.08727554 0.009024049 0.12612109 0.025860012 0.037870713
0.08378186 -0.074072294 -0.0030825632 0.08202375 -0.092623115 0.004760821 -0.06450384 0.06779969
0.12808162 -0.066314295 -0.011409755 0.024079809 0.008580229 -0.024310224 -0.08879126 0.06292573
-0.049543563 -0.011611174 -0.021678723 0.087124884 -0.07019048 0.062688366 0.063695 0.0711164
0.5372125 0.24679779 0.016779255 -0.0054477355 0.06624674 0.12689695 0.1685735 -0.32017204
-0.10609235 -0.085317306 -0.21152018 0.16815808 0.1752666 -0.020818258 0.30654213 -0.15886547
-0.25531906 0.026044076 -0.030146396 0.24388397 -0.16881524 -0.28322065 -0.13366786 -0.0594668
0.02260109 -0.20694694 0.146363 -0.2234637 0.5299985 -0.09248909 -0.10199741 0.36459306
0.1253975 0.06654253 0.17669888 0.19746532 0.16489461 -0.1687501 0.19105563 -0.4896984
-0.32878765 0.16542871 0.12596264 -0.16372173 0.118685216 0.030832333 0.094512664 0.27536246
-0.119967684 0.074114256 0.05337799 -0.25113407 -0.1928402 -0.045052342 0.07190688 0.10840717
0.31197244 -0.002692006 0.061447747 -0.23490444 -0.12188667 -0.28425053 0.014710563 -0.11941841
0.061970938 0.028607784 0.10414617 0.054672897 0.15875137 0.09404337 -0.028983602 0.005166398
-0.0036653862 0.107273825 0.095192686 0.26448074 0.18011998 -0.0470283 0.17706542 0.09286976
0.18352321 0.19363675 0.03044378 0.22891375 0.23983665 0.09751925 0.22977585 0.09661029
0.178979 0.030991444 0.2828446 -0.028511513 0.123023234 0.056544695 -0.0096809575 0.18294694
0.044655394 0.057436112 0.07628526 0.08268595 0.25985587 0.21251892 0.1169264 0.07472533
0.2560726 0.29248285 0.16316228 0.29240677 0.12693632 0.06484862 0.04469925 0.13037342
-0.03412318 0.014390177 0.024739493 0.15261379 0.049159575 0.104642384 0.10666527 0.30949163
0.12463419 -0.0043192366 -0.009656704 0.3294638 0.026057508 0.29978704 0.032583766 0.013662338
00000000: e891 e23e 70e6 2a3e 492c 963c 70ff 00be
00000010: de8c dc3d 1d60 503e 535c 933e 7db9 723e
00000020: a963 1f3e 8fc6 a53d 2fdc 863e 601f ec3c
00000030: d530 7e3e 51c3 c33d 2b33 d03e 35eb 923e
00000040: 01fd b13e c345 633d 0eb1 d9bc ed30 853e
00000050: 5648 9b3e 4e03 0e3f c2dc a33e c29d 963c
00000060: 6307 2a3c 882c d53d f09d 533e 5775 163d
00000070: 4725 0e3f ff7c 7f3e 5092 063c 4507 143e
00000080: 53b6 9dbc 6849 b13e 6bba e43d 7b04 c33d
00000090: 41f1 013e 4a55 cd3d 9843 173e 0d63 9d3e
000000a0: 303d df3d 0032 853e 7c10 80bb 7b45 4f3e
000000b0: 97bf 7e3d 69bc 183e 4085 703e 69ad 913e
000000c0: 7321 9d3d 2981 1d3d 3c15 003e 7b5d 923d
000000d0: 7144 9d3d 346b 7c3e 5b4b 173d 5e1c 6b3e
000000e0: c008 3c3e abaa 343e 8841 af3d 67ad b13e
000000f0: f82b 37bc 04b9 c23e a308 933e 2a85 c1bc
00000100: ad51 063d 4cb8 e0bd 6976 2fbd e277 afbb
00000110: 4e50 55bd 7bb4 e53d a725 a73d 129b dbbd
00000120: 04b3 81bc 335f de3d 0aa3 b63c 5628 b5bc
00000130: 605d 2a3e 3f0a 8ebd a749 83bd 93b0 b83d
00000140: edc4 af3d c802 bd3d 9d7d 6d3d edf7 2b3e
00000150: c8db c9bb 56dc 3fbd d3d1 3a3c b8b1 8dbc
00000160: 4a8d 913d 311e 063e b366 443d 9363 d3bd
00000170: 85a5 a0bd 8136 4ebd 5a42 e5bc 0647 56be
00000180: fa75 b33c 097d 05bd 5fb4 c3bd 85bd b2bd
00000190: 9bd9 133c e325 013e 60d8 d33c 521e 1b3d
000001a0: d395 ab3d 37b3 97bd d404 4abb 11fc a73d
000001b0: 30b1 bdbd a900 9c3b 971a 84bd 90da 8a3d
000001c0: d427 033e cacf 87bd fbef 3abc 0543 c53c
000001d0: 1794 0c3c 3c26 c7bc 31d8 b5bd 35df 803d
000001e0: 31ee 4abd cb3c 3ebc 9497 b1bc 886e b23d
000001f0: 07c0 8fbd c262 803d 8672 823d 7aa5 913d
00000200: c286 093f 8fb8 7c3e a674 893c eb82 b2bb
00000210: 5fac 873d 46f1 013e 889e 2c3e 97ed a3be
00000220: f246 d9bd d7ba aebd bf98 58be a231 2c3e
00000230: 1679 333e 0d8b aabc 17f3 9c3e a1ad 22be
00000240: 2eb9 82be 635a d53c 93f5 f6bc b8bc 793e
00000250: e7dd 2cbe 4c02 91be 3ae0 08be 7693 73bd
00000260: ec25 b93c e6e9 53be 2fe0 153e abd3 64be
00000270: fbad 073f ec6a bdbd 05e4 d0bd f1ab ba3e
00000280: 3468 003e 7347 883d 8df0 343e 5934 4a3e
00000290: 22da 283e d4cc 2cbe 16a4 433e c0b9 fabe
000002a0: db56 a8be 2566 293e 5afc 003e aba6 27be
000002b0: 3c11 f33d 1794 fc3c db8f c13d 4ffc 8c3e
000002c0: 9eb1 f5bd 37c9 973d e1a2 5a3d a594 80be
000002d0: e777 45be ce88 38bd ea43 933d 9404 de3d
000002e0: daba 9f3e 5e6c 30bb a2b0 7b3d ca8a 70be
000002f0: b89f f9bd 4989 91be 9304 713c a491 f4bd
00000300: 3dd5 7d3d df5a ea3c 964a d53d b0f0 5f3d
00000310: b88f 223e cf99 c03d 056f edbc e34a a93b
00000320: fa36 70bb 61b2 db3d 62f4 c23d 056a 873e
00000330: 5f71 383e bfa0 40bd a350 353e 8032 be3d
00000340: 82ed 3b3e b648 463e 3c65 f93c 5e68 6a3e
00000350: bd97 753e 2cb8 c73d 5c4a 6b3e 9edb c53d
00000360: 4546 373e c5e1 fd3c 02d1 903e fa90 e9bc
00000370: 9bf3 fb3d 699b 673d e19c 1ebc 7156 3b3e
00000380: 93e8 363d 2142 6b3d 723b 9c3d 4057 a93d
00000390: d40b 853e 8f9e 593e 1c77 ef3d 9809 993d
000003a0: f31b 833e 50c0 953e 0314 273e 57b6 953e
000003b0: 98fb 013e 5acf 843d 9016 373d 9c80 053e
000003c0: bfc4 0bbd c7c4 6b3c 7aaa ca3c ca46 1c3e
000003d0: 8d5b 493d bf4e d63d 5273 da3d b075 9e3e
000003e0: 3640 ff3d 6288 8dbb 2737 1ebc 7baf a83e
000003f0: 8e76 d53c b07d 993e 8e76 053d 00d8 5f3c

lstm.bias_hh_l0_reverse f4 [256]
0.44587302 0.14217457 0.19104704 -0.01151413 0.0075686527 0.2157373 0.1518893 0.33452153
0.06033222 -0.08406101 0.30298668 0.002515425 0.31743097 0.14121066 0.3726103 0.2221128
0.28193828 0.14993183 0.02560013 0.12299546 0.31769162 0.532973 0.1168504 -0.017769845
0.1498097 0.29650053 0.15770712 0.04291972 0.5455256 0.042722885 0.1367188 0.23257907
0.18342316 0.20229556 0.03653249 0.1726258 0.22048473 0.25308535 0.079647094 0.43936336
0.21380833 0.10971063 0.050206043 0.04055307 0.13853611 0.16811854 0.17057104 0.2484806
0.08331283 0.13521606 0.11903421 0.12646171 0.097243585 0.11079287 0.06773291 0.07767347
0.23252195 0.026830772 0.047305096 0.49616656 0.17567089 0.35186896 0.27753946 0.08690074
-0.0381509 -0.12629172 0.124833055 0.11731454 -0.07852035 -0.049969945 -0.057333145 0.03135754
0.0025344437 -0.08540764 0.045782395 0.13924307 -0.033002943 0.02242087 -0.02950368 0.059948873
-0.1057465 0.084452346 -0.11381704 -0.007461495 -0.030579805 -0.050518863 -0.0876745 -0.00408516
-0.1083271 0.059788086 0.15546846 -0.11189494 -0.0054486827 0.0051927143 0.07818095 -0.16676697
0.06158617 -0.07957799 -0.001097272 -0.08078336 0.12366233 0.17253172 -0.027782518 -0.13673079
0.104247 0.060965575 0.028712666 0.051244512 -0.08505899 -0.04501381 0.15041898 0.014595135
0.13440329 0.10224407 0.14830929 0.09313504 0.09200558 0.0028279256 -0.017633375 0.008946445
-0.028701728 -0.15080136 -0.020025566 -0.0027691221 -0.066227764 0.12279275 -0.023920534 0.048715718
0.48052227 0.1250601 0.18534814 -0.069754206 0.10191693 -0.034087792 0.26145533 -0.20264672
-0.018251786 0.030919865 -0.17515883 0.22911651 0.116160534 0.1546209 0.30408874 -0.34435987
-0.22426935 -0.034570586 -0.2514642 0.25543022 -0.1557272 -0.24112876 -0.029393768 0.09166606
0.13359927 -0.056440942 -0.047853075 -0.066549174 0.5037644 -0.071568444 -0.03370932 0.24583653
0.19217996 0.10912969 0.039706405 0.36534777 0.10793955 -0.2209048 0.16139051 -0.37260798
-0.29897052 0.1953015 -0.09127643 -0.10879739 -0.09670586 -0.09587873 0.0015318167 0.19085641
-0.016601086 -0.027395193 -0.068524115 -0.1558228 -0.09063862 0.04175217 0.009448199 0.10110528
0.2668504 0.09482072 -0.14960285 -0.32163075 -0.053665265 -0.2412515 0.043788612 -0.21408758
0.10765352 0.06563322 0.30242214 -0.010225751 0.036295086 0.2087606 -0.07138058 0.15871736
0.04029553 0.11083806 0.22087744 0.20217785 0.25118437 0.013205764 0.3079843 0.039231896
0.054383747 0.2288541 0.1814905 0.09298721 0.29190668 0.2998445 0.08635481 0.02054279
0.13587412 0.10384721 0.20928876 -0.032123573 0.2141755 0.18177909 0.17633109 0.062296454
0.005365667 0.26396304 -0.06720976 0.124125466 0.14505683 0.23597355 0.06293056 0.08231888
0.3185092 0.12967317 0.10366823 0.32600555 0.12818284 0.061732475 0.012261993 0.04708175
-0.01665154 0.07890909 0.21118006 0.20512158 0.08801802 0.30864382 0.24273111 0.2730164
0.16415489 0.19624756 -0.021757385 0.24971457 0.07374615 0.3429584 0.18307738 -0.043912057
00000000: 7849 e43e 3696 113e d6a1 433e c3a5 3cbc
00000010: 7602 f83b 3dea 5c3e de88 1b3e 6846 ab3e
00000020: eb1e 773d 2e28 acbd 1221 9b3e d4d9 243b
00000030: 5086 a23e 8799 103e c7c6 be3e 8a71 633e
00000040: 375a 903e bb87 193e 5db7 d13c 0be5 fb3d
00000050: 7aa8 a23e eb70 083f 434f ef3d 1192 91bc
00000060: b767 193e ebce 973e fa7d 213e 97cc 2f3d
00000070: 91a7 0b3f 31fe 2e3d 0300 0c3e 3529 6e3e
00000080: 48d3 3b3e 9126 4f3e 18a3 153d d1c4 303e
00000090: c0c6 613e 6794 813e 041e a33d 3cf4 e03e
000000a0: 92f0 5a3e f7af e03d daa4 4d3d fa1a 263d
000000b0: 69dc 0d3e 4427 2c3e 2daa 2e3e b371 7e3e
000000c0: eb9f aa3d 1476 0a3e 35c8 f33d 2e7f 013e
000000d0: a527 c73d 5fe7 e23d 8db7 8a3d 4513 9f3d
000000e0: 3c1a 6e3e 35cc db3c fdc2 413d 8b09 fe3e
000000f0: 12e3 333e 2b28 b43e a719 8e3e 04f9 b13d
00000100: 1e44 1cbd 9e52 01be 79a8 ff3d 9b42 f03d
00000110: 47cf a0bd 49ad 4cbd 29d6 6abd c470 003d
00000120: e918 263b 33ea aebd 5286 3b3d bc95 0e3e
00000130: 182e 07bd f9ab b73c b4b1 f1bc f38c 753d
00000140: 9f91 d8bd 5af5 ac3d e918 e9bd 8f7f f4bb
00000150: 8082 fabc deec 4ebd b08e b3bd cedc 85bb
00000160: 99da ddbd 5ae4 743d 2033 1f3e 2d29 e5bd
00000170: dd8a b2bb a527 aa3b 551d a03d f6c4 2abe
00000180: c841 7c3d c9f9 a2bd 57d2 8fba bf71 a5bd
00000190: ad42 fd3d 28ac 303e 2a98 e3bc 2803 0cbe
000001a0: 737f d53d 0ab7 793d d336 eb3c c4e5 513d
000001b0: 6833 aebd 6760 38bd 6f07 1a3e 6f20 6f3c
000001c0: 04a1 093e 5765 d13d 64de 173e 95bd be3d
000001d0: 6c6d bc3d b854 393b de73 90bc 1c94 123c
000001e0: e31f ebbc ac6b 1abe a80c a4bc 297a 35bb
000001f0: 6ca2 87bd c47a fb3d fff4 c3bc 228a 473d
00000200: 0407 f63e c10f 003e e7cb 3d3e 4bdb 8ebd
00000210: d3b9 d03d a49f 0bbd 79dd 853e 9f82 4fbe
00000220: c584 95bc a84b fd3c d65c 33be 859d 6a3e
00000230: 93e5 ed3d f154 1e3e 85b1 9b3e f04f b0be
00000240: dda6 65be e399 0dbd eabf 80be c0c7 823e
00000250: f376 1fbe 75ea 76be 33cb f0bc 6abb bb3d
00000260: 3fce 083e 9e2e 67bd 9601 44bd ef4a 88bd
00000270: b4f6 003f 7a92 92bd c912 0abd 92bc 7b3e
00000280: d3ca 443e 637f df3d 2fa3 223d dd0e bb3e
00000290: 690f dd3d de34 62be 8e43 253e 79c6 bebe
000002a0: aa12 99be 1efd 473e 23ef babd 2ad1 debd
000002b0: b90d c6bd 115c c4bd 3dc7 c83a dd6f 433e
000002c0: 00ff 87bc e26b e0bc 5f56 8cbd 0390 1fbe
000002d0: bea0 b9bd 5304 2b3d 9ecc 1a3c 4910 cf3d
000002e0: 9ea0 883e 5e31 c23d 7d31 19be c9ac a4be
000002f0: 1cd0 5bbd a20a 77be b05b 333d c639 5bbe
00000300: 7379 dc3d b66a 863d 13d7 9a3e e989 27bc
00000310: 28aa 143d 57c5 553e fb2f 92bd ce86 223e
00000320: ed0c 253d 11ff e23d b22d 623e b607 4f3e
00000330: 3d9b 803e fd5c 583c 1eb0 9d3e a0b1 203d
00000340: 7ec1 5e3d bb58 6a3e a5d8 393e 1470 be3d
00000350: cb74 953e 3885 993e cada b03d 5a49 a83c
00000360: 9622 0b3e d9ad d43d cb4f 563e 0294 03bd
00000370: d350 5b3e 4c24 3a3e 2390 343e 912a 7f3d
00000380: 7ad2 af3b 2a26 873e 45a5 89bd 7e35 fe3d
00000390: c789 143e 0da3 713e bde1 803d cd96 a83d
000003a0: a313 a33e 0bc9 043e 0250 d43d 33ea a63e
000003b0: 5d42 033e 31db 7c3d 87e6 483c cbd8 403d
000003c0: cf68 88bc 179b a13d 963f 583e 640b 523e
000003d0: cb42 b43d 9006 9e3e 818e 783e cec8 8b3e
000003e0: 3818 283e 1ff5 483e 8b3c b2bc 2db5 7f3e
000003f0: 3908 973d 3e98 af3e a378 3b3e 21dd 33bd
