model/Bert_Adam_batch_size=400_epoch=300.pt (torch_old, 995858 bytes, 10 tensors)

lstm.weight_ih_l0 f4 [256, 768]
-0.08742925 0.11348811 0.009004336 0.040244415 -0.005744176 0.118908204 -0.08548242 0.09937044
0.062485043 0.026647858 0.037915796 -0.050919227 -0.087594 0.06885323 -0.040846333 -0.020376762
0.12722717 0.027467636 -0.02300146 0.1330129 -0.108361274 0.019211657 -0.061687242 -0.04815959
-0.12410297 0.08833493 -0.05277255 0.024542838 0.024677811 -0.062047414 -0.08521438 -0.12760496
0.09730793 0.025423907 0.09439029 0.11620787 0.10297101 -0.039751966 0.0484999 0.01119405
0.015321845 -0.056867506 -0.12209349 -0.11046918 0.04342726 0.06312863 -0.096491836 0.102301
0.016518725 -0.03342302 0.011852399 0.047332607 0.008531421 -0.0777133 -0.07159687 0.04227012
-0.06904944 -0.0658758 -0.004991544 -0.043147877 -0.03686582 -0.120802075 -0.01241359 -0.080293566
0.08264606 -0.08412335 -0.07307699 -0.04950918 0.07513254 -0.09979813 0.07461054 0.09601216
0.060946543 0.064223155 -0.14402866 0.032275174 0.10642467 0.046944525 0.1213658 0.0021308332
-0.060954742 0.0007656802 0.054025233 -0.013552568 -0.057196617 0.13132161 0.02604049 0.073599264
0.11381116 0.022802202 -0.01984386 0.051572654 -0.1346725 0.08882524 0.08336347 0.1326973
-0.04262732 -0.10248044 0.0913126 -0.06456032 0.04122696 0.017901868 -0.04926689 0.089595735
0.016454656 0.09241569 0.06166956 0.0017384946 -0.11243532 -0.08482169 -0.052347407 -0.05753262
0.08573634 -0.0402493 -0.031123603 -0.063314386 0.12606774 -0.024435338 0.01661905 0.09887838
-0.011972845 0.08188736 0.10483293 0.11693005 0.043512415 0.010920006 0.07111251 -0.052471858
0.0819092 0.11277064 0.09202938 -0.022456504 -0.0765692 0.030410143 -0.029535927 -0.05052952
-0.015842471 -0.10241947 -0.08282255 0.06777246 -0.062179517 0.13462397 -0.1153885 0.12691998
0.037383866 -0.07549209 0.1345034 -0.062645964 0.12735744 0.03256587 0.097786814 0.061297443
0.121233955 0.13203453 -0.110312685 0.012860679 0.0928707 0.1365835 -0.056505412 0.03719679
0.053854626 -0.06478366 -0.06034755 0.1092831 -0.014346074 -0.033582505 0.08521358 -0.10095467
-0.044207927 -0.022462614 -0.09813481 -0.017469555 0.01841048 0.11923765 0.026561119 -0.05132705
0.068633966 -0.0018408011 0.07593337 -0.14362979 0.11844699 0.018050877 0.12715618 0.105046436
0.068387575 0.10185608 0.11338047 0.07007072 0.09955465 0.022090564 0.030113053 0.039478563
-0.04208571 0.1357987 0.02984917 0.060841728 0.0068116435 0.02312132 0.010633418 -0.091298595
0.053231575 0.018025164 -0.061637364 -0.012328638 -0.14729078 -0.10289746 0.009505145 -0.03901525
0.09546907 0.0053619775 0.029055623 0.014660185 0.13206297 0.11651409 -0.045606878 0.033444144
-0.0098262 -0.04469303 0.13036217 0.01219189 0.09833786 0.07295901 -0.035123643 -0.06796462
0.038377553 -0.070377976 0.036499985 0.056351647 -0.053828906 0.11704359 -0.04862996 0.006823621
0.054788806 -0.07873772 0.03457718 0.0712654 -0.063294925 -0.13582072 0.10909644 0.10478433
-0.09131591 0.021885335 -0.0036592325 0.08073068 0.030155672 0.12300986 -0.08982232 0.028160479
-0.0032336335 -0.05796489 0.047681056 0.09248637 0.083629124 0.018995408 0.05779659 -0.12694043
00000000: 1b0e b3bd 746c e83d ec86 133c 54d7 243d
00000010: a439 bcbb 2586 f33d 6811 afbd bb82 cb3d
00000020: 51f0 7f3d 9c4c da3c 984d 1b3d ae90 50bd
00000030: 7c64 b3bd ec02 8d3d 7c4e 27bd 2bed a6bc
00000040: d747 023e cf03 e13c 8f6d bcbc 8934 083e
00000050: 84ec ddbd c461 9d3c c3ab 7cbd fe42 45bd
00000060: b329 febd f2e8 b43d 0828 58bd 100e c93c
00000070: 1f29 ca3c 6e25 7ebd e084 aebd e0aa 02be
00000080: 6149 c73d cc45 d03c b24f c13d 64fe ed3d
00000090: 77e2 d23d f5d2 22bd d5a7 463d 4067 373c
000000a0: 7a08 7b3c e7ed 68bd 270c fabd aa3d e2bd
000000b0: c8e0 313d 9549 813d 839d c5bd 3083 d13d
000000c0: 4752 873c 94e6 08bd 9130 423c d6df 413d
000000d0: 60c7 0b3c 2728 9fbd 61a1 92bd 6f23 2d3d
000000e0: cb69 8dbd e4e9 86bd 1b90 a3bb d4bb 30bd
000000f0: 9d00 17bd 1467 f7bd 5f62 4bbc f470 a4bd
00000100: 5642 a93d dd48 acbd 64a9 95bd 23ca 4abd
00000110: 17df 993d f662 ccbd 69cd 983d 06a2 c43d
00000120: 15a3 793d 6e87 833d 407c 13be f932 043d
00000130: 2df5 d93d e748 403d a28e f83d 73a5 0b3b
00000140: aeab 79bd eeb7 483a 9049 5d3d 970b 5ebc
00000150: 0047 6abd 2c79 063e de52 d53c 36bb 963d
00000160: d315 e93d afcb ba3c 978f a2bc d93d 533d
00000170: 96e7 09be 02ea b53d 78ba aa3d cde1 073e
00000180: fc99 2ebd 44e1 d1bd 1a02 bb3d 3338 84bd
00000190: 9add 283d f0a6 923c 14cc 49bd f87d b73d
000001a0: eacb 863c 7044 bd3d 3899 7c3d 33de e33a
000001b0: 7d44 e6bd ffb6 adbd 3c6a 56bd 53a7 6bbd
000001c0: 8996 af3d 73dc 24bd edf6 febc f9aa 81bd
000001d0: e717 013e 9e2c c8bc ad24 883c c080 ca3d
000001e0: c029 44bc 8fb4 a73d a6b2 d63d 0679 ef3d
000001f0: 133a 323d d3e9 323c 70a3 913d bbec 56bd
00000200: 03c0 a73d 4bf4 e63d e679 bc3d b4f6 b7bc
00000210: 50d0 9cbd b11e f93c 54f5 f1bc 0bf8 4ebd
00000220: 12c8 81bc 4dc1 d1bd de9e a9bd 4acc 8a3d
00000230: f3af 7ebd deda 093e ce50 ecbd 50f7 013e
00000240: d31f 193d 999b 9abd 42bb 093e 874c 80bd
00000250: fd69 023e ca63 053d 7444 c83d 0713 7b3d
00000260: 8249 f83d 0f34 073e 9eeb e1bd 99b5 523c
00000270: fe32 be3d 8cdc 0b3e 3872 67bd a95b 183d
00000280: ab96 5c3d 4cad 84bd fe2e 77bd d1cf df3d
00000290: cc0b 6bbc cf8d 09bd 7584 ae3d 52c1 cebd
000002a0: 5f13 35bd 8403 b8bc e7fa c8bd 501c 8fbc
000002b0: 93d1 963c de32 f43d b496 d93c 503c 52bd
000002c0: f78f 8c3d 0947 f1ba f482 9b3d b013 13be
000002d0: 5694 f23d 6fdf 933c 3b35 023e 9622 d73d
000002e0: c90e 8c3d ec99 d03d 0534 e83d 3d81 8f3d
000002f0: 4fe3 cb3d 45f7 b43c a6af f63c 46b4 213d
00000300: 1162 2cbd d00e 0b3e 3f86 f43c 2d35 793d
00000310: 3534 df3b ec68 bd3c ca37 2e3c c2fa babd
00000320: 5a09 5a3d 82a9 933c 7677 7cbd 0efe 49bc
00000330: 65d3 16be e7bb d2bd 78bb 1b3c 74ce 1fbd
00000340: 4a85 c33d 87b3 af3b 0f06 ee3c 4631 703c
00000350: 843b 073e f09e ee3d 47ce 3abd bafc 083d
00000360: 12fe 20bc 0a10 37bd a97d 053e 7ec0 473c
00000370: 5c65 c93d 896b 953d cfdd 0fbd 0931 8bbd
00000380: c831 1d3d 5422 90bd 0281 153d fcd0 663d
00000390: b37b 5cbd 8db4 ef3d 3530 47bd af98 df3b
000003a0: 3a6a 603d 3e41 a1bd cda0 0d3d 98f3 913d
000003b0: c5a0 81bd 9614 0bbe f46d df3d 2b99 d63d
000003c0: d603 bbbd e048 b33c bccf 6fbb 2056 a53d
000003d0: 0709 f73c 98ec fb3d c4f4 b7bd ceb0 e63c
000003e0: 5eeb 53bb 986c 6dbd 364d 433d 7e69 bd3d
000003f0: bf45 ab3d 429c 9b3c 1ebc 6c3d acfc 01be

lstm.weight_hh_l0 f4 [256, 64]
0.098825015 0.07877438 0.14660254 -0.101685576 -0.052056763 -0.037396092 0.0079090325 0.046401363
-0.13258427 0.1277654 -0.056220654 -0.07469219 0.04838383 -0.072164126 0.029291429 -0.081514314
0.029524727 -4.926159e-06 0.09441328 -0.09220481 0.060334086 -0.10370948 0.07522664 -0.059656188
0.036456235 0.078829296 -0.028917322 0.016647162 -0.09443176 -0.11733324 0.1132222 0.055463724
-0.055181816 -0.0051191114 -0.10469968 -0.02165823 0.044736102 0.047062133 -0.064152725 0.051341724
-0.10765257 0.077989176 -0.13887239 -0.048075907 0.075340375 0.0332624 -0.119784355 0.07873757
-0.009996091 0.008869902 0.05831357 0.025902405 0.07590881 0.094287366 -0.016914368 0.10843507
0.06805728 0.05610806 0.08128477 0.0808857 0.018789766 -0.050794467 -0.0021661078 -0.10171361
-0.050340407 0.10799721 0.1052453 0.029042087 0.07739583 -0.056447543 0.048542872 -0.046158962
-0.028268367 -0.09901125 0.051945485 0.09675474 0.09568221 -0.10355476 -0.0716423 0.13307588
0.11832441 -0.040883113 -0.006780323 -0.027504899 0.13143837 0.015775774 -0.0036686142 -0.04201152
-0.11254432 -0.09434571 -0.019404143 -0.009480433 0.021587327 0.018525934 -0.021925293 0.002503478
-0.0348725 -0.038228646 -0.022190282 0.09866035 -0.100499414 0.05143653 -0.13427505 0.063757084
-0.013204298 -0.017949678 0.13528308 0.10570094 -0.114742704 0.04257095 0.07408415 0.037225273
0.05949432 -0.046911627 0.02660098 -0.036986947 0.010152935 0.11413871 0.08903966 0.034468148
0.11049652 0.09062745 0.021900317 0.029020045 0.06151501 -0.039452426 -0.09002188 -0.025166987
-0.02593701 -0.22234155 -0.007352133 0.16968471 -0.13916169 0.27593014 0.14079258 -0.054153454
-0.09734287 -0.06980409 -0.06866878 0.18218826 0.002747046 0.118630975 0.14074232 0.25498694
-0.047053445 0.12834464 0.030123387 0.32341912 0.22977385 -0.2962839 -0.0030327027 0.2540908
0.1176372 0.033394594 -0.25704697 -0.0917152 -0.045941498 0.18160985 -0.15229152 -0.06570392
0.09431689 0.040263306 -0.09736513 0.008215582 0.1013818 0.042345554 -0.15338778 0.1379102
0.053498626 0.18535376 0.17464504 0.19126403 -0.041449353 -0.09141653 0.15452826 -0.24820885
0.23384802 -0.25317308 0.06490526 0.029945215 0.17780042 0.03599446 0.055240963 -0.026258305
0.09691592 0.017979153 0.035854526 -0.038382705 -0.12374544 0.30598116 0.29589295 -0.033526376
0.067097664 -0.055354383 0.10898486 -0.05680974 -0.10637386 -0.061441526 0.04402869 -0.05142679
0.07356702 -0.10992714 0.1039053 -0.048737276 0.08056235 0.048122104 0.038962323 0.18163678
-0.095246606 -0.017045425 -0.12048455 -0.08545333 -0.07966109 -0.018584322 -0.022221074 0.03123527
-0.008422263 -0.11794682 -0.09114528 0.037656534 -0.096075065 0.07354071 -0.08628121 0.028168697
0.061480135 0.07928822 -0.028335508 0.020594826 0.011092627 -0.05870668 0.093911886 0.10519387
-0.042434637 0.019584946 0.1132075 0.15511805 0.1234633 0.04275254 0.05055894 -0.08325584
-0.040996425 -0.10142051 -0.15815084 0.01217639 0.08529055 0.008259637 0.09061198 -0.0920906
0.032597974 0.013399768 0.04783826 0.0125818215 0.09339481 0.025651494 -0.076476894 0.07503552
00000000: c564 ca3d 7654 a13d fa1e 163e 8740 d0bd
00000010: 7939 55bd a52c 19bd e394 013c 5b0f 3e3d
00000020: 2cc4 07be efd4 023e a147 66bd 38f8 98bd
00000030: 1f2e 463d c9ca 93bd 94f4 ef3c faf0 a6bd
00000040: d7dd f13c 624b a5b6 c05b c13d e0d5 bcbd
00000050: e020 773d a365 d4bd 6d10 9a3d 0c5a 74bd
00000060: 2253 153d 4171 a13d 05e4 ecbc a15f 883c
00000070: 7065 c1bd 694c f0bd 0ae1 e73d ee2d 633d
00000080: 5406 62bd 38be a7bb c96c d6bd 9a6c b1bc
00000090: 343d 373d 39c4 403d 8162 83bd b34b 523d
000000a0: f378 dcbd cab8 9f3d 9034 0ebe 3eeb 44bd
000000b0: 0e4c 9a3d 283e 083d 8051 f5bd 2a41 a13d
000000c0: a5c6 23bc 1153 113c 36da 6e3d 4831 d43c
000000d0: 1476 9b3d bc19 c13d 0090 8abc 3513 de3d
000000e0: 9d61 8b3d 91d1 653d a178 a63d 67a7 a53d
000000f0: ffec 993c dc0d 50bd 42f5 0dbb 3a4f d0bd
00000100: be31 4ebd a42d dd3d d98a d73d ace9 ed3c
00000110: b481 9e3d 8a35 67bd e4d4 463d 2e11 3dbd
00000120: 1093 e7bc 69c6 cabd cac4 543d 5927 c63d
00000130: 09f5 c33d 8514 d4bd 33b9 92bd 0b45 083e
00000140: 1154 f23d 0d75 27bd 792d debb f451 e1bc
00000150: c897 063e 323c 813c 226d 70bb 4614 2cbd
00000160: a37d e6bd 5338 c1bd 70f5 9ebc d153 1bbc
00000170: e8d7 b03c b3c3 973c ac9c b3bc 6411 243b
00000180: 77d6 0ebd a495 1cbd 65c8 b5bc 700e ca3d
00000190: a3d2 cdbd 1caf 523d 667f 09be 1393 823d
000001a0: d756 58bc 340b 93bc a687 0a3e bc79 d83d
000001b0: 39fe eabd e05e 2e3d 6eb9 973d 8779 183d
000001c0: 51b0 733d 6826 40bd 4cea d93c a07f 17bd
000001d0: 7f58 263c 8ec1 e93d 6d5a b63d 792e 0d3d
000001e0: 004c e23d e29a b93d 4b68 b33c 72bb ed3c
000001f0: 2af7 7b3d de98 21bd 645d b8bd ff2a cebc
00000200: da79 d4bc 81ad 63be 29ea f0bb d4c1 2d3e
00000210: 6780 0ebe b746 8d3e ee2b 103e 03d0 5dbd
00000220: b35b c7bd 72f5 8ebd 38a2 8cbd 8f8f 3a3e
00000230: c907 343b ccf4 f23d c11e 103e a68d 823e
00000240: 1dbb 40bd c76c 033e 52c5 f63c 3197 a53e
00000250: d649 6b3e 86b2 97be 4fc0 46bb 3018 823e
00000260: c6eb f03d c5c8 083d a99b 83be 2ed5 bbbd
00000270: 272d 3cbd eff7 393e 4ff2 1bbe c78f 86bd
00000280: 3729 c13d 23eb 243d 5f67 c7bd a69a 063c
00000290: 43a1 cf3d 8872 2d3d b011 1dbe 5538 0d3e
000002a0: 6021 5b3d 60cd 3d3e 26d6 323e b8da 433e
000002b0: ccc6 29bd 9738 bbbd a83c 1e3e 762a 7ebe
000002c0: db75 6f3e e79f 81be 0ded 843d ab4f f53c
000002d0: 5011 363e ed6e 133d 5944 623d a81b d7bc
000002e0: db7b c63d 0449 933c 32dc 123d 2f37 1dbd
000002f0: 406e fdbd 90a9 9c3e 487f 973e f452 09bd
00000300: 806a 893d 47bb 62bd 7433 df3d 54b1 68bd
00000310: 8ada d9bd 1caa 7bbd 6d57 343d e6a4 52bd
00000320: 4eaa 963d 7b21 e1bd 4dcc d43d bda0 47bd
00000330: e0fd a43d af1b 453d f596 1f3d fefe 393e
00000340: a710 c3bd d9a2 8bbc 9bc0 f6bd 2802 afbd
00000350: 5b25 a3bd 263e 98bc f808 b6bc 1ce1 ff3c
00000360: 88fd 09bc 1a8e f1bd 60aa babd bd3d 1a3d
00000370: 01c3 c4bd 839c 963d 34b4 b0bd 0ac2 e63c
00000380: 98d2 7b3d dd61 a23d de1f e8bc 7bb6 a83c
00000390: dabd 353c 6a76 70bd e054 c03d e26f d73d
000003a0: f1cf 2dbd 9c70 a03c 55d9 e73d 44d7 1e3e
000003b0: 54da fc3d 4a1d 2f3d e416 4f3d 0a82 aabd
000003c0: deeb 27bd 8eb5 cfbd 4bf2 21be 7b7f 473c
000003d0: d0ac ae3d 6e53 073c c692 b93d ff99 bcbd
000003e0: 7485 053d b38a 5b3c 0df2 433d fc23 4e3c
000003f0: c745 bf3d 1523 d23c eb9f 9cbd 39ac 993d

lstm.bias_ih_l0 f4 [256]
0.10805459 -0.030750517 0.002794772 -0.019220874 -0.101109505 0.031940155 0.07871456 -0.06651273
-0.087272316 -0.028782671 -0.004277146 0.0106823 0.06514246 0.0816042 -0.07461728 0.13180804
0.01938213 -0.019359939 -0.0060480456 -0.106448814 0.12803772 -0.019812483 -0.04741695 0.07218116
0.053228732 0.10036553 0.013665892 -0.06444618 0.08233325 -0.06529447 -0.03177059 0.026948944
-0.05630305 0.025266604 0.024989946 -0.06012733 0.042737775 -0.09748789 0.03482392 0.054678947
0.072305545 0.16655502 -0.056795087 0.01534074 -0.07054139 -0.007869236 0.03787912 0.024610745
-0.0053164973 0.046224862 -0.029079698 0.03550103 -0.027478132 0.07745648 -0.024078768 -0.0044908095
0.10465393 0.15669312 0.1377652 -0.09104098 -0.011567065 -0.087713875 0.0318201 -0.05754277
-0.06179317 0.06412494 -0.035424113 -0.06686963 -0.046960067 -0.021406079 0.048789445 -0.07651702
0.019528335 0.11452688 -0.03542312 0.021094285 -0.006629497 0.04551206 0.030179007 0.050685246
-0.080484234 -0.06916788 0.015892738 0.033428483 -0.13863324 -0.013218391 0.10551958 -0.041235954
-0.010945327 0.022309817 0.015260382 -0.05496471 -0.09984013 -0.022582743 -0.063954316 -0.06918766
0.13638172 0.05441883 0.05699656 -0.05349662 0.1032813 0.114498645 0.033842776 0.08823734
-0.08662322 -0.008071078 -0.051500913 0.12299049 -0.00604454 -0.06078852 0.11420374 0.04047564
-0.007556056 -0.010994268 0.021339709 -0.064184435 0.17186882 -0.07537219 0.0068081543 0.06985534
-0.012983182 -0.008129398 0.03803871 -0.10658126 0.10474929 -0.058322027 0.05265931 0.0370156
-0.027534785 0.08285168 -0.027209872 0.1044943 -0.017568002 -0.029208492 -0.06436121 0.14373274
-0.13432625 -0.07948652 0.03649124 0.06650017 -0.102874324 0.040006943 -0.0818307 -0.15334858
0.06491078 0.08617875 -0.030141598 -0.031909913 -0.015424893 -0.05861105 0.012945592 0.12362957
0.102938145 -0.03991297 -0.105999604 -0.05459279 -0.0514145 0.0938322 0.028032674 -0.09288292
0.091242336 0.015025737 0.069976 -0.08161172 0.08432954 -0.03336583 -0.0014162885 0.0051704785
0.009172584 0.016249089 -0.06797263 -0.014701671 0.07808123 0.04367635 0.028303744 -0.056381397
-0.04803035 0.009990757 0.06587746 -0.027348105 0.1313638 -0.043172404 -0.032450408 -0.06501198
-0.09315255 0.03087338 -0.10676157 0.01987578 0.042580012 -0.053772055 0.06374223 0.07300724
0.027488459 0.052739456 0.12108408 0.041134235 -0.058691904 -0.015488043 -0.010670835 0.042287346
0.122507356 0.083715625 -0.07414392 0.04018359 0.09338939 0.11717565 0.03878656 0.12792002
0.032955162 -0.032604903 -0.09511459 0.15131354 -0.042531166 -0.09618071 -0.0014254536 0.048708837
0.04152606 0.0039365473 0.022257093 0.08571429 0.04454913 -0.037806902 -0.074434295 0.023538388
0.038124036 0.013841734 -0.08877132 -0.041345432 0.039482635 -0.11363877 0.100527324 0.11871287
-0.10002529 0.006801546 0.012788125 -0.056717582 0.092076845 0.10264764 0.010441287 0.03382842
-0.048124157 0.0089604175 0.11758048 0.075022765 -0.019608632 0.13390617 -0.017115673 -0.05078337
-0.050781988 -0.022429137 0.033091072 -0.026826466 -0.002355955 0.101291314 -0.008744431 -0.057734698
00000000: ba4b dd3d 82e8 fbbc 7e28 373b 1875 9dbc
00000010: 8012 cfbd aed3 023d 1935 a13d d437 88bd
00000020: d4bb b2bd a3c9 ebbc 4d27 8cbb d004 2f3c
00000030: 6969 853d 1a20 a73d f2d0 98bd b0f8 063e
00000040: 46c7 9e3c bc98 9ebc af2e c6bb d601 dabd
00000050: 521c 033e ca4d a2bc 4738 42bd b7d3 933d
00000060: 5f06 5a3d 718c cd3d e8e6 5f3c 5cfc 83bd
00000070: 569e a83d 1bb9 85bd e121 02bd 08c4 dc3c
00000080: 079e 66bd e9fb ce3c b7b7 cc3c 1348 76bd
00000090: ce0d 2f3d bba7 c7bd 87a3 0e3d 08f7 5f3d
000000a0: ee14 943d 668d 2a3e f7a1 68bd ba57 7b3c
000000b0: 0178 90bd f8ed 00bc 2327 1b3d 799c c93c
000000c0: 0336 aebb 4856 3d3d 8c38 eebc 8769 113d
000000d0: d219 e1bc 81a1 9e3d d640 c5bc a427 93bb
000000e0: cd54 d63d 2974 203e 5212 0d3e b173 babd
000000f0: c983 3dbc 55a3 b3bd cb55 023d f8b1 6bbd
00000100: d61a 7dbd f053 833d e018 11bd f2f2 88bd
00000110: 3359 40bd cd5b afbc 71d7 473d f5b4 9cbd
00000120: e3f9 9f3c 128d ea3d d517 11bd eccd ac3c
00000130: 403c d9bb db6a 3a3d f739 f73c 559b 4f3d
00000140: ebd4 a4bd e4a7 8dbd 7d31 823c 4eec 083d
00000150: dff5 0dbe f391 58bc a61a d83d 08e7 28bd
00000160: 0754 33bc 14c3 b63c ae06 7a3c ad22 61bd
00000170: fb78 ccbd 72ff b8bc 7bfa 82bd 43b2 8dbd
00000180: a6a7 0b3e 47e6 5e3d 3a75 693d 461f 5bbd
00000190: 2585 d33d 447e ea3d b99e 0a3d c7b5 b43d
000001a0: 8467 b1bd 8e3c 04bc 9ff2 52bd 70e2 fb3d
000001b0: 4711 c6bb 62fd 78bd a7e3 e93d c9c9 253d
000001c0: cb98 f7bb 4d21 34bc 9dd0 ae3c 2173 83bd
000001d0: 61fe 2f3e bc5c 9abd f016 df3b 5110 8f3d
000001e0: 6ab7 54bc 2b31 05bc 7ace 1b3d 4747 dabd
000001f0: cc86 d63d 14e3 6ebd 4ab1 573d ab9d 173d
00000200: a190 e1bc 24ae a93d 3de7 debc 1c01 d63d
00000210: c5ea 8fbc a646 efbc cfcf 83bd ad2e 133e
00000220: d28c 09be d4c9 a2bd d777 153d 3e31 883d
00000230: c6af d2bd 52de 233d db96 a7bd 6907 1dbe
00000240: f1ef 843d 7c7e b03d 83eb f6bc f8b3 02bd
00000250: b1b8 7cbc 2412 70bd c019 543c 8031 fd3d
00000260: 3cd1 d23d c87b 23bd 5216 d9bd b09c 5fbd
00000270: 0398 52bd 192b c03d c7a4 e53c 6639 bebd
00000280: 43dd ba3d 822e 763c 944f 8f3d 0c24 a7bd
00000290: f7b4 ac3d 9caa 08bd c2a2 b9ba 1e6d a93b
000002a0: 9b48 163c cf1c 853c 3c35 8bbd 47df 70bc
000002b0: 0de9 9f3d f9e5 323d 41dd e73c 2ef0 66bd
000002c0: 79bb 44bd 46b0 233c c3ea 863d 2209 e0bc
000002d0: 3b84 063e 8cd5 30bd b8ea 04bd 0025 85bd
000002e0: c4c6 bebd 2cea fc3c cfa5 dabd 88d2 a23c
000002f0: 6168 2e3d 1640 5cbd 498b 823d d284 953d
00000300: 7a2f e13c 5405 583d eefa f73d 5f7c 283d
00000310: ec66 70bd 90c1 7dbc bad4 2ebc 7f35 2d3d
00000320: 23e5 fa3d 1973 ab3d c4d8 97bd 8c97 243d
00000330: f042 bf3d caf9 ef3d a8de 1e3d 77fd 023e
00000340: fefb 063d b88c 05bd 70cb c2bd f0f1 1a3e
00000350: 2935 2ebd 64fa c4bd 49d6 baba eb82 473d
00000360: 3b17 2a3d 27fe 803b 8254 b63c f98a af3d
00000370: 2679 363d 69db 1abd 0271 98bd 94d3 c03c
00000380: f327 1c3d 71c8 623c bdcd b5bd d459 29bd
00000390: 8bb8 213d 72bb e8bd 45e1 cd3d bc1f f33d
000003a0: 0fda ccbd 81df de3b 4985 513c b250 68bd
000003b0: c992 bc3d ed38 d23d ef11 2b3c ab8f 0a3d
000003c0: d61d 45bd b7ce 123c 09ce f03d 89a5 993d
000003d0: 48a2 a0bc b31e 093e 2b36 8cbc 3902 50bd
000003e0: c600 50bd 4fbd b7bc 818a 073d 2dc3 dbbc
000003f0: 5e66 1abb d271 cf3d cd44 0fbc 387b 6cbd

lstm.bias_hh_l0 f4 [256]
-0.06179847 0.011783933 -0.012234081 -0.1053561 0.019985376 0.037278026 0.07523448 0.10175829
0.048191287 -0.020183142 0.062610514 -0.030706553 -0.061727636 -0.053809017 0.05546071 -0.042758103
-0.11699321 0.0037472935 -0.08457925 -0.018978313 -0.11374885 -0.110082895 0.097238645 0.03199351
0.14174362 0.06133618 0.06427936 -0.11465721 -0.05404943 -0.0014765944 0.15430073 -0.0444945
-0.05622567 0.033757318 -0.02219324 0.09567328 0.11394807 -0.03580477 0.11132462 0.08911696
-0.09631622 0.13270351 0.016251396 0.0685686 -0.1144209 0.13486134 0.08196182 0.08400158
-0.013918481 0.020892747 -0.049683902 0.02526723 -0.054363646 0.06904343 0.11434448 0.0141687505
0.05233512 0.077679574 0.13387008 0.027407113 -0.11713464 -0.042844016 -0.005199566 -0.06840451
0.020099964 0.15590408 0.16540976 0.04120248 0.056606296 0.04811052 0.038159188 -0.051725846
0.00015537319 0.0002088826 0.022366567 -0.021562237 -0.04896463 0.11910287 0.15677844 0.11071227
-0.12076726 0.066181965 0.032732196 0.080369696 -0.020619558 -0.02147431 0.07728346 0.040679783
-0.016490644 0.11252235 -0.051894475 -0.046537254 -0.07655244 0.027435776 -0.03678367 -0.092535816
0.05766504 -0.09746064 -0.05927983 -0.038146242 0.0032480273 0.09882787 0.08186865 0.02193679
0.06589302 0.12893991 0.10967719 0.10678156 0.09598818 0.030598668 0.1436435 0.009629089
0.058436308 -0.0015676152 -0.0397765 0.016639553 0.089840785 0.028482324 0.048417907 0.10247205
-0.0054924404 0.099097714 -0.03396473 -0.08542279 0.10308105 -0.0018906612 0.0030543476 -0.03723654
-0.050579246 0.10337691 -0.031129554 -0.047469582 -0.046055526 -0.02038262 -0.040627465 0.09742663
-0.06502672 0.018845294 -0.024220275 -0.07480826 -0.091047704 0.05297861 0.021288464 0.020122252
0.034203522 0.06983704 0.083090976 -0.02464078 0.0866707 -0.024065219 0.102489084 -0.09471768
0.028259445 0.05937139 -0.11865285 0.07169285 0.07836079 -0.009355349 0.041669562 0.0364344
0.11298413 0.006469917 -0.04976452 0.09392047 -0.074774735 -0.02829006 -0.0009489134 0.047542356
0.06219393 -0.06004035 -0.022200145 -0.048745662 -0.10683299 0.11088451 0.063378215 -0.0970391
-0.09315529 0.03087957 0.07879033 -0.11713561 0.0013741807 -0.09273502 -0.055229202 -0.02394826
0.017905302 -0.07646786 -0.064941116 0.04080145 0.08721922 0.022169232 0.07388864 -0.005947017
-0.09037917 -0.008925988 0.07693317 0.091693856 -0.07380669 -0.030503841 0.07082029 0.05343401
-0.012958004 -0.029024694 -0.039044134 -0.05861757 0.12369075 0.10493932 0.073671766 0.13987005
0.030647615 -0.083510645 0.1070202 -0.046082336 0.108195074 0.14629829 -0.034062516 -0.07108037
0.031299576 -0.05989327 0.11055183 -0.08492134 0.087720014 -0.07248295 -0.08882141 -0.09875184
-0.114430435 0.19718727 0.00854172 -0.06306362 -0.0315828 0.087200165 0.09128437 -0.09685302
-0.046414252 -0.027996466 0.09545114 0.08475717 0.032820024 -0.04892756 0.10740451 0.088607855
-0.0341822 -0.05765081 0.10764528 0.062648565 0.0733009 -0.10826264 -0.08221165 -0.13058576
-0.07159382 -0.09163148 -0.09319731 0.106966935 -0.04279423 0.01177028 0.10003246 0.10923879
00000000: 6420 7dbd 6611 413c 7471 48bc f0c4 d7bd
00000010: 5fb8 a33c d8b0 183d 8914 9a3d a666 d03d
00000020: 3a64 453d 1e57 a5bc f139 803d 4f8c fbbc
00000030: 1ed6 7cbd d866 5cbd c52a 633d 1f23 2fbd
00000040: 239a efbd 2795 753b e337 adbd 6878 9bbc
00000050: 28f5 e8bd 2473 e1bd 0e25 c73d a00b 033d
00000060: 3d25 113e a53b 7b3d e6a4 833d 66d1 eabd
00000070: ef62 5dbd 498a c1ba 0301 1e3e dd3f 36bd
00000080: e34c 66bd 1d45 0a3d 99ce b5bc 5af0 c33d
00000090: 9b5d e93d 06a8 12bd 2afe e33d f482 b63d
000000a0: 7041 c5bd 6ee3 073e a621 853c b26d 8c3d
000000b0: 8155 eabd 1719 0a3e 99db a73d 0509 ac3d
000000c0: 570a 64bc 4427 ab3c 5981 4bbd 39fd ce3c
000000d0: 6aac 5ebd a466 8d3d 702d ea3d 0c24 683c
000000e0: 5a5d 563d 7816 9f3d 3d15 093e e284 e03c
000000f0: 49e4 efbd 357d 2fbd 1f61 aabb aa17 8cbd
00000100: aea8 a43c 52a5 1f3e 2d61 293e efc3 283d
00000110: 01dc 673d 890f 453d cf4c 1c3d 7bde 53bd
00000120: aceb 2239 7f07 5b39 173a b73c 4aa3 b0bc
00000130: 238f 48bd 35ec f33d 878a 203e 1dbd e23d
00000140: d354 f7bd 698a 873d 3212 063d de98 a43d
00000150: 59ea a8bc e4ea afbc ca46 9e3d d89f 263d
00000160: 6317 87bc 1e72 e63d 4d8f 54bd d99d 3ebd
00000170: 87c7 9cbd fec0 e03c 79aa 16bd 6b83 bdbd
00000180: 2d32 6c3d 7299 c7bd 68cf 72bd 3c3f 1cbd
00000190: dbdc 543b 4466 ca3d c0aa a73d c8b4 b33c
000001a0: ebf2 863d d308 043e 6f9e e03d 4ab0 da3d
000001b0: 7395 c43d 0faa fa3c 4817 133e 54c3 1d3c
000001c0: e95a 6f3d 7078 cdba afec 22bd ac4f 883c
000001d0: 72fe b73d c353 e93c db51 463d dedc d13d
000001e0: eef9 b3bb bef3 ca3d 9a1e 0bbd 25f2 aebd
000001f0: 281c d33d 10d0 f7ba 732b 483b 5885 18bd
00000200: 2f2c 4fbd 46b7 d33d 6803 ffbc 776f 42bd
00000210: b8a4 3cbd 74f9 a6bc fc68 26bd 9d87 c73d
00000220: bb2c 85bd 7261 9a3c 9969 c6bc 1335 99bd
00000230: 3877 babd 1900 593d 2565 ae3c 6cd7 a43c
00000240: fe18 0c3d b906 8f3d 9a2b aa3d 76db c9bc
00000250: 6880 b13d 6c24 c5bc cce5 d13d 58fb c1bd
00000260: 5a80 e73c 6a2f 733d 4400 f3bd b3d3 923d
00000270: 9f7b a03d 2d47 19bc b4ad 2a3d 3d3c 153d
00000280: 3964 e73d 9901 d43b e2d5 4bbd 6059 c03d
00000290: 7f23 99bd 8ec0 e7bc 80c0 78ba c6bb 423d
000002a0: 10bf 7e3d dfec 75bd 14dd b5bc 88a9 47bd
000002b0: 41cb dabd 6b17 e33d 70cc 813d 70bc c6bd
000002c0: 33c8 bebd 27f7 fc3c d35c a13d cbe4 efbd
000002d0: da1d b43a dceb bdbd 0438 62bd 242f c4bc
000002e0: 24ae 923c 2e9b 9cbd d9ff 84bd 6c1f 273d
000002f0: fe9f b23d 409c b53c ed52 973d 32df c2bb
00000300: b718 b9bd 4f3e 12bc 238f 9d3d fdc9 bb3d
00000310: f627 97bd 31e3 f9bc 3a0a 913d 9fdd 5a3d
00000320: cf4d 54bc 32c5 edbc beec 1fbd fa18 70bd
00000330: 9351 fd3d 6dea d63d 39e1 963d 183a 0f3e
00000340: b510 fb3c a107 abbd 682d db3d d5c0 3cbd
00000350: 6195 dd3d 38cf 153e 2385 0bbd 9692 91bd
00000360: fc33 003d a552 75bd ff68 e23d 3deb adbd
00000370: 8da6 b33d f171 94bd 00e8 b5bd 683e cabd
00000380: 815a eabd 76eb 493e 92f2 0b3c 8027 81bd
00000390: f75c 01bd 0096 b23d 4df3 ba3d e05a c6bd
000003a0: df1c 3ebd d858 e5bc e37b c33d 2b95 ad3d
000003b0: 4a6e 063d 4468 48bd e5f6 db3d 0978 b53d
000003c0: a202 0cbd 4123 6cbd 2175 dc3d e44d 803d
000003d0: c81e 963d ceb8 ddbd 955e a8bd 46b8 05be
000003e0: c89f 92bd 49a9 bbbd 3bde bebd 7b11 db3d
000003f0: 0149 2fbd 22d8 403c d2dd cc3d 96b8 df3d

lstm.weight_ih_l1 f4 [256, 64]
0.10706328 0.04962207 -0.031169543 -0.008270185 0.32369816 -0.19706602 -0.035282843 0.034198966
0.07779148 -0.007045979 0.17506841 0.1278062 -0.08756925 -0.15102483 0.08718698 0.15269417
-0.017027851 0.041751552 0.105881736 0.021733461 -0.14854804 -0.08534744 0.064699866 -0.22094834
0.060382448 0.09551247 0.15833081 -0.12031218 -0.055992 -0.10006007 -0.056267533 -0.16576941
-0.1761811 0.042020585 -0.1063663 -0.031989638 0.02956859 0.014826896 0.13964865 0.11220997
-0.11341587 0.05808553 0.08205139 -0.0437952 0.3854514 0.0607717 -0.0502891 0.3393399
-0.1238938 0.018704817 -0.033527996 -0.062643744 0.014842228 -0.087556496 0.09601559 -0.03697064
-0.03262523 -0.009500686 0.0873836 0.066632286 -0.11729219 -0.06393693 -0.11789322 -0.0037241098
-0.06745788 -0.07876919 -0.049454793 -0.045286402 0.12002593 0.08704594 0.01921967 0.010887177
-0.08453778 -0.0938938 -0.00809201 -0.14535497 -0.103383854 -0.03728152 0.07552387 -0.33194062
0.13681014 0.03988051 0.09957796 0.14135109 0.09305985 -0.2351404 0.056249402 -0.03948525
-0.07841744 0.056107473 -0.0996045 -0.1276475 -0.14678822 -0.058163013 -0.061509263 0.052472368
0.044337433 -0.040976938 -0.0058042975 -0.09528905 0.0052637216 -0.039900016 0.026182985 0.056193154
-0.09133345 0.036545977 0.1570135 0.08570476 0.058400214 -0.093698606 -0.03416189 0.034634646
-0.06266661 -0.02025076 -0.0633768 0.038299475 0.06609469 0.08396449 0.086064674 0.064566396
-0.08791453 0.022691524 0.039054923 0.029755794 -0.00022062901 0.089059636 0.04815286 -0.05067712
0.04209658 -0.14124922 -0.031555668 0.006357811 -0.037797313 0.20549743 0.18113586 -0.09992284
-0.0026375598 -0.0050865957 -0.09162323 -0.109383605 -0.1509275 -0.026945211 0.077520855 -0.094571374
-0.035930853 0.026815211 0.15412858 0.17437917 0.16381703 0.04335513 -0.02791244 0.16531135
-0.026790792 0.07790093 -0.082107686 -0.105376415 0.10491098 0.026533041 -0.0239465 -0.15947466
-0.009508076 0.1089036 0.07902435 -0.08482984 0.07707219 0.050584972 -0.13529834 -0.041313257
-0.019250024 0.044309903 0.029029412 -0.01645231 -0.30268276 -0.07373647 0.084795505 -0.06850132
-0.0357061 -0.15310574 -0.07832167 0.034909207 0.017846884 -0.120974645 -0.069154195 0.027223831
-0.033111516 0.1539524 0.020916438 -0.01284597 -0.11162844 0.08850205 0.121505596 0.037749313
-0.0011364801 -0.04189844 -0.1050997 0.11578279 0.03201072 0.10371288 0.18396105 -0.014055914
-0.03280631 -0.15955319 -0.0842185 -0.10308718 0.016028048 -0.061421692 0.060265526 -0.017984968
-0.071773775 -0.086133175 0.11745019 0.05636827 0.067696996 -0.004322557 -0.037813608 0.026882797
0.19532643 -0.08045884 -0.046818 -0.12339392 0.02221007 -0.012165417 -0.111838125 0.02087957
0.041547675 0.0678018 0.0079601435 -0.13489005 -0.014983055 -0.14465861 0.07655981 0.094546035
-0.113941595 -0.09129107 -0.00061875326 -0.038029782 -0.051927794 -0.052161667 0.007052562 0.02142537
0.02437357 -0.06466189 -0.03182542 0.043497615 -0.036925737 -0.12735936 0.073319055 0.100400075
-0.09174695 0.03643538 -0.09626144 0.038661003 -0.03533626 0.08273634 0.09331309 -0.016676761
00000000: fe43 db3d 8340 4b3d 4557 ffbc ac7f 07bc
00000010: c4bb a53e adcb 49be be84 10bd 3714 0c3d
00000020: 2451 9f3d f5e1 e6bb 2245 333e a1df 023e
00000030: 8257 b3bd 41a6 1abe 168f b23d dc5b 1c3e
00000040: fe7d 8bbc ad03 2b3d 86d8 d83d 5f0a b23c
00000050: fa1c 18be a3ca aebd 5d81 843d 4840 62be
00000060: 9653 773d 0b9c c33d 7921 223e 3b66 f6bd
00000070: de57 65bd 4bec ccbd c978 66bd 75bf 29be
00000080: d168 34be c71d 2c3d 93d6 d9bd 9107 03bd
00000090: d439 f23c 82ec 723c 0e00 0f3e 57ce e53d
000000a0: 9446 e8bd 18eb 6d3d 8f0a a83d 9862 33bd
000000b0: e359 c53e bfeb 783d f1fb 4dbd f6bd ad3e
000000c0: 08bc fdbd d83a 993c a754 09bd 5d4b 80bd
000000d0: d12c 733c d250 b3bd d2a3 c43d 876e 17bd
000000e0: 08a2 05bd c4a8 1bbc 2cf6 b23d 8276 883d
000000f0: e336 f0bd 5df1 82bd 0072 f1bd 3210 74bb
00000100: 5b27 8abd be51 a1bd 1c91 4abd 3c7e 39bd
00000110: 28d0 f53d 2445 b23d 9272 9d3c 2160 323c
00000120: 2522 adbd 654b c0bd 5a94 04bc efd7 14be
00000130: eaba d3bd 82b4 18bd 42ac 9a3d 1ff4 a9be
00000140: f517 0c3e bf59 233d 88ef cb3d 57be 103e
00000150: 2a96 be3d a5c8 70be c665 663d 49bb 21bd
00000160: 5399 a0bd f3d0 653d 72fd cbbd 07b6 02be
00000170: a74f 16be 573c 6ebd 23f1 7bbd 44ed 563d
00000180: 2b9b 353d 6fd7 27bd fa31 bebb e826 c3bd
00000190: 4c7b ac3b 336e 23bd b37d d63c cb2a 663d
000001a0: 080d bbbd 3cb1 153d 26c8 203e fa85 af3d
000001b0: 1035 6f3d 0ee5 bfbd 57ed 0bbd 0fdd 0d3d
000001c0: 5a57 80bd ece4 a5bc b2cb 81bd e9df 1c3d
000001d0: a75c 873d 93f5 ab3d ad42 b03d 633b 843d
000001e0: 880c b4bd 93e3 b93c 0ef8 1f3d 6cc2 f33c
000001f0: a658 67b9 e664 b63d ef3b 453d d092 4fbd
00000200: 776d 2c3d a3a3 10be 8440 01bd 2f55 d03b
00000210: 5bd1 1abd eb6d 523e ae7b 393e 59a4 ccbd
00000220: e9da 2cbb 75ad a6bb f6a4 bbbd 8304 e0bd
00000230: bd8c 1abe 34bc dcbc 41c3 9e3d a3ae c1bd
00000240: 3b2c 13bd 93ab db3c e2d3 1d3e 7490 323e
00000250: a7bf 273e 2695 313d a1a8 e4bc 6147 293e
00000260: 5d78 dbbc 868a 9f3d 1328 a8bd 97cf d7bd
00000270: 91db d63d d25b d93c 732b c4bc 534d 23be
00000280: c3c7 1bbc da08 df3d 85d7 a13d 44bb adbd
00000290: 06d8 9d3d 3032 4f3d a68b 0abe 1738 29bd
000002a0: 3ab2 9dbc 4d7e 353d 17cf ed3c ffc6 86bc
000002b0: 3cf9 9abe 2503 97bd 44a9 ad3d 6c4a 8cbd
000002c0: 8f40 12bd c0c7 1cbe 1d67 a0bd f5fc 0e3d
000002d0: a133 923c 8ec1 f7bd b7a0 8dbd 8304 df3c
000002e0: f19f 07bd b3a5 1d3e f358 ab3c e777 52bc
000002f0: 749d e4bd 9040 b53d edd7 f83d 069f 1a3d
00000300: f2f5 94ba b39d 2bbd 833e d7bd 871f ed3d
00000310: ac1d 033d 6b67 d43d 4960 3c3e c74a 66bc
00000320: e95f 06bd e961 23be c07a acbd 5f1f d3bd
00000330: 414d 833c 5095 7bbd fcd8 763d 3655 93bc
00000340: 21fe 92bd 9766 b0bd ba89 f03d 6ae2 663d
00000350: b9a4 8a3d 3ca4 8dbb 71e2 1abd 5039 dc3c
00000360: a703 483e 9bc7 a4bd 3bc4 3fbd f4b5 fcbd
00000370: e5f1 b53c 7551 47bc 630b e5bd a20b ab3c
00000380: e52d 2a3d acdb 8a3d 436b 023c 9e20 0abe
00000390: 7d7b 75bc 6321 14be 64cb 9c3d 5aa1 c13d
000003a0: 365a e9bd d0f6 babd d433 22ba 1ec5 1bbd
000003b0: 3db2 54bd 79a7 55bd 2e19 e73b 4284 af3c
000003c0: 15ab c73c 746d 84bd 5f5b 02bd 8e2a 323d
000003d0: 713f 17bd 7e6a 02be 4d28 963d 8e9e cd3d
000003e0: d3e5 bbbd 443d 153d b824 c5bd 005b 1e3d
000003f0: c1bc 10bd ac71 a93d ef1a bf3d b49d 88bc

lstm.weight_hh_l1 f4 [256, 64]
-0.11480041 0.07927847 -0.047383353 -0.013341585 -0.109289326 -0.07121161 -0.031652693 0.07038591
0.07079761 0.12516615 -0.08376377 -0.016953232 -0.039605573 0.0012268425 -0.07370304 -0.20522326
-0.018379891 0.0762094 0.11883645 -0.10745138 0.045126777 0.013737699 -0.045188397 -0.029051155
-0.06405687 0.103225574 0.025515443 -0.1639522 0.08232973 -0.08937467 0.0651768 0.1299837
0.2245531 -0.06836849 0.017563801 -0.034671273 0.08768828 0.074605286 0.16226794 -0.082502045
0.011601922 -0.033944268 0.07251457 0.00521377 0.01994299 0.036981642 0.04907384 0.16024122
-0.0838705 -0.017314669 0.05308479 -0.23274384 0.07005426 0.11427662 0.024558544 0.23016575
-0.073994525 0.1420878 -0.14872439 -0.062055137 0.094254375 -0.059107147 0.18574743 -0.02702411
-0.01058623 0.118323885 -0.12372655 0.07585541 -0.013298003 -0.046469558 0.008700262 0.07834202
-0.11968658 0.13248532 0.08704518 0.0065116896 -0.060094636 0.052001666 0.052602153 -0.016890127
-0.064950734 -0.10265383 -0.111872375 0.039669547 0.10796359 -0.058661055 -0.10368656 -0.041390415
-0.062264282 -0.0062895496 0.035268288 0.10301158 -0.1420601 -0.109860614 0.029228076 -0.05627392
-0.020335201 -0.06302345 0.010138572 0.010523798 0.0003064343 0.017714974 -0.0057798685 -0.08423657
-0.2550873 -0.11751566 -0.061093234 -0.08979253 -0.27315968 0.014356529 -0.047444314 -0.03463413
0.050190806 0.07970562 0.09678264 0.04673071 -0.022970414 0.13045847 0.057424862 0.076538056
0.060490146 -0.2750766 0.1210185 -0.048957344 0.06108084 -0.0996182 0.07812301 0.20166622
-0.09447587 -0.041265283 -0.12174594 0.116356924 0.06308635 0.016821092 -0.14432745 -0.1075116
-0.14934124 0.07010188 -0.08140166 -0.06810447 0.07853635 -0.07924929 0.06355371 -0.18457942
-0.053988364 -0.0060192524 0.10877676 0.062995054 0.080554806 0.048643492 -0.1260347 0.056156192
0.09968201 -0.051744435 -0.17833692 0.06082009 -0.029119251 0.005904523 0.09022942 0.16047934
-0.059752304 0.0053534145 0.0051426305 -0.050255667 0.020707356 0.0117519125 -0.055248328 -0.023948684
0.040293254 0.107032076 0.09207702 -0.025950601 -0.075671524 0.051890325 -0.118208535 0.017929822
0.0005711313 -0.034705415 -0.03182303 -0.12499067 -0.033351276 -0.13051735 0.092177674 -0.020165632
0.10930373 -0.09042312 0.10749228 0.019935202 -0.0253965 -0.18677779 -0.01213359 -0.1287196
0.033761613 0.14159892 -0.008355184 -0.13951613 -0.17877856 -0.015035492 0.009670491 -0.092557184
-0.14159438 0.19600049 0.028780837 -0.041985165 0.024781255 -0.075111374 0.10558855 -0.22254404
-0.18649451 -0.072782375 -0.00893496 -0.10690477 0.009395183 0.06809227 -0.09059732 -0.15325914
0.04435959 0.07096852 -0.18483455 0.059507515 0.04959992 0.06874132 0.14221123 0.0074819652
0.09040017 -0.012538213 -0.12634371 -0.12883691 0.028741313 -0.07829084 -0.017525632 0.05461166
0.0055123707 0.10262291 -0.051392846 -0.062316965 0.03421968 -0.009379684 0.04392654 0.16292794
-0.057482507 0.05811724 -0.04902404 -0.094787225 -0.121332884 -0.10204215 0.085942015 -0.17989236
0.007215103 0.014255197 0.012550039 -0.083291 0.07715174 -0.19721831 0.083133966 0.05513466
00000000: 7a1c ebbd c05c a23d 0c15 42bd aa96 5abc
00000010: 15d3 dfbd 65d7 91bd 41a6 01bd 7d26 903d
00000020: 56fe 903d 8e2b 003e 578c abbd 81e1 8abc
00000030: 7439 22bd 01ce a03a 9ff1 96bd 0c26 52be
00000040: 6d91 96bc ad13 9c3d 8660 f33d 780f dcbd
00000050: dbd6 383d 1614 613c 7817 39bd b0fc edbc
00000060: 4030 83bd ee67 d33d c305 d13c 16e3 27be
00000070: 7d9c a83d 110a b7bd 6a7b 853d 721a 053e
00000080: 3ff1 653e c704 8cbd f6e1 8f3c 7703 0ebd
00000090: ea95 b33d a8ca 983d 9129 263e d5f6 a8bd
000000a0: fd15 3e3c 2509 0bbd 8582 943d 46d8 aa3b
000000b0: 7b5f a33c 107a 173d a701 493d 4616 243e
000000c0: 4cc4 abbd 7ed7 8dbc 706f 593d 6754 6ebe
000000d0: 9c78 8f3d dc09 ea3d 002f c93c 92b0 6b3e
000000e0: 718a 97bd 777f 113e 354b 18be 872d 7ebd
000000f0: 7008 c13d 561a 72bd 9334 3e3e ab61 ddbc
00000100: de71 2dbc cb53 f23d 5864 fdbd 155a 9b3d
00000110: dedf 59bc dd56 3ebd 8b8b 0e3c c871 a03d
00000120: 3d1e f5bd 3baa 073e be44 b23d 0360 d53b
00000130: cb25 76bd b3ff 543d 5b75 573d 2a5d 8abc
00000140: e404 85bd 2c3c d2bd 581d e5bd 897c 223d
00000150: 041c dd3d 9346 70bd 9f59 d4bd ff88 29bd
00000160: d508 7fbd 9118 cebb 7b75 103d bcf7 d23d
00000170: 3478 11be 9afe e0bd b86f ef3c 7b7f 66bd
00000180: 0296 a6bc 7012 81bd 411c 263c 026c 2c3c
00000190: eaa8 a039 fe1e 913c 0d65 bdbb 3984 acbd
000001a0: cd9a 82be 0dac f0bd e63c 7abd 25e5 b7bd
000001b0: 96db 8bbe a637 6b3c f854 42bd 84dc 0dbd
000001c0: e094 4d3d b33c a33d fa35 c63d b368 3f3d
000001d0: 732c bcbc e896 053e 5536 6b3d fcbf 9c3d
000001e0: 84c4 773d d7d6 8cbe 8cd8 f73d 7f87 48bd
000001f0: e72f 7a3d a004 ccbd f5fe 9f3d 9781 4e3e
00000200: 917c c1bd c905 29bd ef55 f9bd 8a4c ee3d
00000210: 6b33 813d 63cc 893c 93ca 13be 0b2f dcbd
00000220: e9ec 18be 9391 8f3d eab5 a6bd 5b7a 8bbd
00000230: aad7 a03d 744d a2bd 7328 823d 6302 3dbe
00000240: e722 5dbd 263d c5bb 5ac6 de3d 8d03 813d
00000250: ebf9 a43d 663e 473d 3e0f 01be 0904 663d
00000260: 1526 cc3d f9f1 53bd f49d 36be 7d1e 793d
00000270: 7f8b eebc bb7a c13b 34ca b83d b254 243e
00000280: d5be 74bd b26b af3b 8383 a83b e3d8 4dbd
00000290: 79a2 a93c 188b 403c 124c 62bd 0830 c4bc
000002a0: 8a0a 253d a233 db3d e092 bc3d 5b96 d4bc
000002b0: acf9 9abd f38a 543d 5117 f2bd 90e1 923c
000002c0: f9b7 153a 4427 0ebd de58 02bd 1cfb ffbd
000002d0: 599b 08bd 57a6 05be a6c7 bc3d 6532 a5bc
000002e0: a2da df3d c22f b9bd ea24 dc3d 264f a33c
000002f0: 520c d0bc ad42 3fbe f7cb 46bc 12cf 03be
00000300: 9e49 0a3d 4fff 103e 2fe4 08bc 51dd 0ebe
00000310: ba11 37be 6d57 76bc fb70 1e3c 9f8e bdbd
00000320: 1efe 10be 5ab4 483e cac5 eb3c a3f8 2bbd
00000330: 0f02 cb3c fed3 99bd cf3e d83d 96e2 63be
00000340: 6bf8 3ebe ed0e 95bd f063 12bc e3f0 dabd
00000350: 41ee 193c f673 8b3d 168b b9bd f7ef 1cbe
00000360: 67b2 353d f257 913d 4545 3dbe 27be 733d
00000370: 4929 4b3d 40c8 8c3d d29f 113e 462b f53b
00000380: b923 b93d 146d 4dbc 3f60 01be d3ed 03be
00000390: e772 eb3c f356 a0bd ea91 8fbc 7ab0 5f3d
000003a0: 1ea1 b43b f62b d23d 4e81 52bd 1340 7fbd
000003b0: ef29 0c3d 3fad 19bc 51ec 333d 95d6 263e
000003c0: c772 6bbd 580c 6e3d 6fcd 48bd ce1f c2bd
000003d0: 607d f8bd 7afb d0bd 5e02 b03d b435 38be
000003e0: ac6c ec3b a18e 693c ae9e 4d3c 7994 aabd
000003f0: bb01 9e3d 99f3 49be 2442 aa3d e2d4 613d

lstm.bias_ih_l1 f4 [256]
0.079452716 -0.037191406 0.066772684 0.0799005 0.15851732 0.11568062 0.018897729 0.0027461667
0.00093004527 0.09023939 -0.042039335 0.0662808 0.09650839 0.024658551 0.14323531 0.1243541
-0.0584789 -0.05980844 -0.013318059 0.13104065 -0.084351495 0.03451946 -0.0013505139 -0.03567163
-0.058600508 -0.032749675 0.10067679 0.0672542 0.12536786 0.050657973 -0.060936972 0.12501292
-0.09179358 -0.0056959675 0.03652498 0.10895999 0.14985006 0.11948475 0.17528477 0.0021410987
0.037278023 0.14594309 0.13418676 0.10491354 -0.15350102 -0.017501784 -0.064669594 0.1443079
0.08926059 0.0372409 0.055567898 -0.0670168 0.14792737 -0.0006877837 -0.02672293 -0.043639388
-0.110454276 -0.016357934 -0.1254983 -0.06926573 -0.047417764 0.00592295 -0.020459423 -0.035232853
-0.07354174 -0.029482208 0.071119964 -0.065003455 0.08146843 -0.023776261 0.067436226 -0.10788019
0.075497545 -0.07272337 -0.033529133 0.0132858055 0.16032544 -0.014579285 -0.049273252 -0.08372154
-0.03201781 0.09862149 0.03645398 -0.07604362 -0.052909505 -0.079169735 -0.025612717 0.12019969
0.0008072949 0.031779874 -0.06991458 0.17197762 0.11220214 -0.056060273 -0.019607551 0.044616118
0.095842995 0.09074382 0.112994455 -0.07835204 0.19541538 0.10604424 -0.01071533 0.10799257
0.13599007 0.13734582 -0.057086255 0.10469335 -0.04843582 0.080126844 0.0667363 0.103499696
-0.030282367 0.11320469 0.05417085 0.06280918 -0.057800174 0.046100438 -0.045217793 0.04521314
-0.07258209 0.1009021 -0.016661225 -0.043639254 -0.042508334 0.004600385 -0.066302225 -0.0003279498
-0.012672704 -0.008309832 0.044182036 -0.092143185 -0.07711469 0.055990975 -0.11709104 0.11577637
-0.11490797 0.110049106 -0.05856774 -0.022977913 -0.045775253 -0.12142708 -0.09131908 0.049976505
-0.06721256 -0.0835125 0.13938414 -0.10268907 0.06303335 -0.015519078 -0.06846828 -0.13833216
-0.1060915 0.02290843 0.0130280815 0.076394945 -0.08807187 0.050775733 0.031794142 0.14294167
0.07848964 -0.15163189 -0.08604528 -0.12784678 -0.10059657 0.090574615 -0.054717436 -0.0024934139
0.06597016 0.12541474 0.124819756 -0.04333747 0.086117424 0.123103075 -0.14994916 0.09529721
0.10936037 -0.11930945 0.06471895 0.12504706 0.020927329 -0.0032708284 0.010801425 -0.064578265
-0.06823599 0.0424847 -0.1371724 -0.058832172 -0.06547291 -0.092294335 0.07854039 -0.032817185
0.0571948 0.045184936 -0.07657126 -0.07604561 0.12799159 0.081743695 0.08151995 0.020137835
0.095187426 0.099306606 0.031224547 0.090253085 0.15967202 0.015965743 0.0023793536 0.21054313
0.052121364 -0.040275004 0.029713111 0.027953574 0.2141196 0.118857324 0.11078698 -0.04736325
-0.011309605 -0.07303336 0.056721114 -0.06259262 -0.024548436 0.15621711 -0.03718868 -0.028949166
-0.022570863 0.14716527 0.17290498 -0.067633785 0.14147773 -0.05216239 -0.003406793 -0.058344264
0.10664184 0.009118551 0.08832297 -0.07175597 0.13407591 0.09933748 -0.068438955 -0.015960341
0.06696597 0.092647426 0.09301854 -0.04374369 0.09105126 0.12991892 0.015660468 0.0071036806
-0.031944826 0.12330564 0.08458942 0.1340641 -0.0008842685 0.010657508 0.1219594 0.12390159
00000000: 1bb8 a23d 0456 18bd 1ec0 883d e0a2 a33d
00000010: 5d52 223e f6e9 ec3d 69cf 9a3c 08f9 333b
00000020: 48ce 733a 6ecf b83d 7031 2cbd 3abe 873d
00000030: 31a6 c53d bb00 ca3c 47ac 123e 5dad fe3d
00000040: 9287 6fbd b2f9 74bd fd33 5abc 852f 063e
00000050: 7ac0 acbd 4764 0d3d ba03 b1ba 6a1c 12bd
00000060: 1607 70bd 8624 06bd a22f ce3d 92bc 893d
00000070: 6f60 003e bc7e 4f3d 0c99 79bd 6303 003e
00000080: 46fe bbbd 3da5 babb 389b 153d 6a26 df3d
00000090: 4b72 193e 6cb4 f43d da7d 333e ad51 0c3b
000000a0: d7b0 183d 1b72 153e 4168 093e e9dc d63d
000000b0: 5f2f 1dbe e75f 8fbc 7e71 84bd 73c5 133e
000000c0: 42ce b63d ea89 183d 2a9b 633d 1b40 89bd
000000d0: 467a 173e 624c 34ba 0cea dabc 37bf 32bd
000000e0: da35 e2bd 1301 86bc a082 00be 31db 8dbd
000000f0: 2139 42bd 4e15 c23b 859a a7bc 5350 10bd
00000100: 0d9d 96bd ac84 f1bc 58a7 913d 8820 85bd
00000110: ecd8 a63d 6fc6 c2bc 011c 8a3d 4af0 dcbd
00000120: 759e 9a3d fdef 94bd d855 09bd b5ac 593c
00000130: 5a2c 243e f4dd 6ebc c0d2 49bd 3376 abbd
00000140: 1b25 03bd 10fa c93d c550 153d c2bc 9bbd
00000150: a3b7 58bd be23 a2bd c3d1 d1bc 412b f63d
00000160: a5a0 533a 9d2b 023d 602f 8fbd e71a 303e
00000170: 3cca e53d 759f 65bd 04a0 a0bc 64bf 363d
00000180: 5549 c43d e5d7 b93d a369 e73d 0977 a0bd
00000190: f81a 483e b92d d93d 5a8f 2fbc 352b dd3d
000001a0: fb40 0b3e 62a4 0c3e 47d3 69bd 7869 d63d
000001b0: a364 46bd 8b19 a43d 0bad 883d a6f7 d33d
000001c0: ba12 f8bc dcd7 e73d 41e2 5d3d 19a2 803d
000001d0: e0bf 6cbd d0d3 3c3d 4b36 39bd 6a31 393d
000001e0: eba5 94bd c3a5 ce3d 1f7d 88bc 13bf 32bd
000001f0: 381d 2ebd d4be 963b 76c9 87bd adf0 abb9
00000200: 2ca1 4fbc f625 08bc 39f8 343d 91b5 bcbd
00000210: 4eee 9dbd cb56 653d 6dcd efbd 291c ed3d
00000220: df54 ebbd 6d61 e13d bae4 6fbd 2d3c bcbc
00000230: d57e 3bbd c3ae f8bd 7f05 bbbd 2ab4 4c3d
00000240: bda6 89bd 9a08 abbd b7ba 0e3e a64e d2bd
00000250: a117 813d bb43 7ebc 1939 8cbd f2a6 0dbe
00000260: 8046 d9bd 76aa bb3c bc73 553c f474 9c3d
00000270: 065f b4bd 37fa 4f3d 933a 023d 4d5f 123e
00000280: 2dbf a03d 6445 1bbe 8238 b0bd 44ea 02be
00000290: 9305 cebd 2f7f b93d 641f 60bd 8b68 23bb
000002a0: 5d1b 873d b96c 003e 80a1 ff3d a282 31bd
000002b0: 555e b03d 771d fc3d 468c 19be 2f2b c33d
000002c0: 54f8 df3d 8358 f4bd 5e8b 843d 560c 003e
000002d0: ca6f ab3c 655b 56bb 76f8 303c 9c41 84bd
000002e0: 50bf 8bbd 7004 2e3d ec76 0cbe 01fa 70bd
000002f0: a916 86bd d004 bdbd c9d9 a03d 506b 06bd
00000300: 1845 6a3d d713 393d 65d1 9cbd cdbd 9bbd
00000310: 3a10 033e 3d69 a73d eef3 a63d 1af8 a43c
00000320: a0f1 c23d 4361 cb3d 9fca ff3c 9cd6 b83d
00000330: 1081 233e 97ca 823c eeee 1b3b 9e98 573e
00000340: 367d 553d 67f7 24bd e968 f33c e5fe e43c
00000350: 2b42 5b3e 786b f33d 49e4 e23d f8ff 41bd
00000360: ec4b 39bc 8492 95bd 6654 683d 8f30 80bd
00000370: cd19 c9bc 61f7 1f3e 2853 18bd cd26 edbc
00000380: 88e6 b8bc 7eb2 163e 010e 313e 9583 8abd
00000390: 8adf 103e 3ba8 55bd 8144 5fbb 65fa 6ebd
000003a0: 0967 da3d fa65 153c ace2 b43d cbf4 92bd
000003b0: 324b 093e 7371 cb3d b929 8cbd 43bf 82bc
000003c0: 7425 893d efbd bd3d 8180 be3d 952c 33bd
000003d0: 1579 ba3d 7709 053e 624a 803c fec5 e83b
000003e0: 94d8 02bd ab87 fc3d 383d ad3d 1948 093e
000003f0: 41ce 67ba d49c 2e3c dac5 f93d 1ec0 fd3d

lstm.bias_hh_l1 f4 [256]
-0.047930475 -0.07079523 -0.027661255 0.1297154 0.15507956 0.059919644 -0.0537316 0.12749992
0.09426149 -0.03726788 0.07808442 -0.036202997 0.057883237 -0.04770507 0.024582874 0.20889662
0.13104708 -0.06310933 0.13813192 -0.06953257 -0.069009446 -0.07286628 -0.06405898 -0.009315914
-0.011436837 -0.00748384 0.025359089 -0.07955435 0.074729875 -0.018646847 0.102474175 0.054504845
-0.0872145 0.023260247 0.09391155 0.067696586 0.1503333 0.10841929 0.16239814 0.15992592
-0.03692918 -0.035521895 0.03878988 0.07098329 -0.012644452 0.15245931 0.10521566 0.077957444
-0.114071146 0.06335532 0.12738554 0.048226044 0.12787685 0.1104456 -0.064238794 -0.014978148
0.1249743 0.087285765 -0.035384923 0.046538804 0.022994678 -0.0832637 0.0783217 -0.045434877
0.09268467 0.025614846 -0.036997754 0.11215128 0.03330403 0.02817889 0.051529203 0.03395349
0.1456931 -0.0600042 -0.008064746 0.040146556 -0.057822295 -0.090828195 -0.05408877 -0.006626489
0.014538517 -0.051090624 0.14379239 -0.074145384 0.13962403 0.06665518 0.19992448 -0.05437053
0.11688781 -0.041711636 0.08283378 0.05120096 -0.02745718 0.036187712 0.10529347 -0.036788087
0.11430527 -0.033221424 0.12515904 0.053650312 -0.005068274 0.12988186 0.07421928 0.1416984
0.079121575 0.032447632 0.14455506 -0.079246596 0.0921505 0.13741927 0.0558124 0.014610768
-0.09419422 0.049791727 0.08882677 0.048181694 0.020536972 0.03727482 0.04440244 0.0017211708
-0.031618714 -0.038416184 -0.012144323 0.10157045 0.15105389 0.109375834 0.09810563 0.1398159
-0.09399866 -0.048447832 -0.1402861 -0.07221823 0.055111907 0.117697254 0.08672859 -0.027756903
-0.017297247 0.004507921 -0.053734962 -0.019508 -0.031139389 0.06355731 -7.2327157e-06 -0.10539698
0.040801425 0.114803314 0.10743442 -0.15592934 0.094884574 0.14443642 -0.08270417 -0.069272004
-0.03327481 -0.09111518 0.030298673 0.044679645 -0.048783954 -0.030016677 0.07662438 -0.08201512
-0.10230433 -0.14464912 0.09687295 0.050707195 -0.09264044 -0.09444134 -0.104931384 0.013743272
0.06394748 0.09666516 0.03437175 -0.003617318 0.07270114 -0.009373767 -0.012909688 0.063167006
0.04189658 -0.11465148 -0.025966788 -0.033967573 -0.10636874 0.06119027 0.085689455 -0.10016372
-0.11010476 -0.13052568 0.036497314 0.029242815 -0.040078413 -0.11779748 0.05691947 -0.12620768
-0.024950976 -0.00062825065 -0.120616026 0.05237963 0.057303373 0.1447951 -0.07395105 0.14779958
-0.0908893 -0.082447246 0.13598663 -0.029758135 -0.030204026 -0.057446115 0.11452827 0.17098714
0.02759112 0.14645915 -0.03351331 0.15170863 0.056005415 0.16160755 -0.008563765 0.037015103
0.038260113 0.07470034 0.16840108 0.010500057 -0.06171932 0.038771737 -0.04962473 0.02542774
-0.049424935 0.053890724 0.016097017 0.015528952 0.1627704 0.15293899 -0.021591756 -0.051813573
0.016639004 0.13524328 -0.011180465 0.14159046 0.18916202 0.1325591 -0.013238899 0.04889875
0.10949759 0.03326701 0.09892964 -0.0634723 0.006340176 0.13285944 0.10265143 -0.09148087
0.040209558 0.10567949 0.07931041 0.108557716 0.082408324 0.12556614 -0.014966345 0.014530119
00000000: bf52 44bd 17fd 90bd db99 e2bc 1dd4 043e
00000010: 2dcd 1e3e 4d6e 753d ab15 5cbd 578f 023e
00000020: 2b0c c13d 34a6 18bd b9ea 9f3d 9849 14bd
00000030: f916 6d3d 6466 43bd 0662 c93c ffe8 553e
00000040: 3531 063e 773f 81bd 7472 0d3e 1867 8ebd
00000050: d354 8dbd eb3a 95bd 5b31 83bd c6a1 18bc
00000060: 9261 3bbc 003b f5bb ddbd cf3c 64ed a2bd
00000070: fa0b 993d 46c1 98bc fbdd d13d 7940 5f3d
00000080: 849d b2bd 468c be3c b354 c03d 82a4 8a3d
00000090: f9f0 193e ef0a de3d b34b 263e 9fc3 233e
000000a0: 0d43 17bd 687f 11bd 23e2 1e3d b05f 913d
000000b0: ad2a 4fbc 4b1e 1c3e 4f7b d73d 27a8 9f3d
000000c0: 229e e9bd 6fc0 813d 5b71 023e ac88 453d
000000d0: 26f2 023e 4d31 e23d a18f 83bd e866 75bc
000000e0: 87f2 ff3d e1c2 b23d c8ef 10bd 799f 3e3d
000000f0: 565f bc3c 2986 aabd 2167 a03d ec19 3abd
00000100: 76d1 bd3d 3ad6 d13c f58a 17bd 92af e53d
00000110: ce69 083d 6ad7 e63c 4910 533d d112 0b3d
00000120: 9230 153e f7c6 75bd ff21 04bc b770 243d
00000130: 12d7 6cbd 2204 babd 308c 5dbd 0523 d9bb
00000140: f632 6e3c 6744 51bd 503e 133e 89d9 97bd
00000150: 9af9 0e3e 8382 883d 01b9 4c3e a2b3 5ebd
00000160: e062 ef3d d2d9 2abd c2a4 a93d 19b8 513d
00000170: e1ed e0bc 9139 143d 1aa4 d73d 1baf 16bd
00000180: e218 ea3d 3013 08bd b129 003e 6ec0 5b3d
00000190: c413 a6bb c0ff 043e 4700 983d 6319 113e
000001a0: 7e0a a23d cfe7 043d 3e06 143e 0a4c a2bd
000001b0: 67b9 bc3d a3b7 0c3e 8b9b 643d 0162 6f3c
000001c0: e6e8 c0bd 69f2 4b3d cfea b53d 2b5a 453d
000001d0: 273d a83c 7bad 183d 55df 353d e998 e13a
000001e0: a082 01bd 4a5a 1dbd fcf8 46bc 2b04 d03d
000001f0: dfad 1a3e 7000 e03d 9beb c83d e62b 0f3e
00000200: 5f82 c0bd 3c71 46bd 29a7 0fbe 27e7 93bd
00000210: 06bd 613d 420b f13d c29e b13d 7262 e3bc
00000220: f5b2 8dbc 2fb7 933b 3119 5cbd 3ecf 9fbc
00000230: 0818 ffbc 562a 823d 8eb0 f2b6 5fda d7bd
00000240: 651f 273d 001e eb3d 9406 dc3d f1ab 1fbe
00000250: d852 c23d 24e7 133e ce60 a9bd 7bde 8dbd
00000260: 2b4b 08bd 989a babd ec34 f83c 0102 373d
00000270: afd1 47bd 89e5 f5bc 3eed 9c3d 8bf7 a7bd
00000280: ef84 d1bd e61e 14be 5365 c63d 59b2 4f3d
00000290: 45ba bdbd 766a c1bd 44e6 d6bd 762b 613c
000002a0: e5f6 823d 62f8 c53d 64c9 0c3d 8710 6dbb
000002b0: 56e4 943d 6e94 19bc 2883 53bc b45d 813d
000002c0: c09b 2b3d 65ce eabd 4db8 d4bc 9521 0bbd
000002d0: dbd7 d9bd a6a2 7a3d f47d af3d a322 cdbd
000002e0: 9b7e e1bd 86a8 05be 357e 153d a18e ef3c
000002f0: 4329 24bd ce3f f1bd 6424 693d 963c 01be
00000300: fd65 ccbc 30b1 24ba 8905 f7bd 068c 563d
00000310: f1b6 6a3d 2b45 143e a673 97bd c658 173e
00000320: 2b24 babd 1ada a8bd 1440 0b3e 55c7 f3bc
00000330: 6f6e f7bc 9e4c 6bbd cc8d ea3d 4117 2f3e
00000340: c606 e23c 63f9 153e 4145 09bd 8259 1b3e
00000350: ef65 653d 737c 253e 094f 0cbc 269d 173d
00000360: a3b6 1c3d 7efc 983d 5571 2c3e 6e08 2c3c
00000370: 66cd 7cbd 1dcf 1e3d 4d43 4bbd d64d d03c
00000380: cd71 4abd 85bc 5c3d e4dd 833c 256d 7e3c
00000390: 49ad 263e 0a9c 1c3e 32e1 b0bc 783a 54bd
000003a0: 854e 883c 377d 0a3e 452e 37bc 17fd 103e
000003b0: b0b3 413e 93bd 073e f8e7 58bc 0e4a 483d
000003c0: 4640 e03d fd42 083d a09b ca3d c4fd 81bd
000003d0: 40c1 cf3b 4e0c 083e ea3a d23d 535a bbbd
000003e0: c7b2 243d 7d6e d83d 7f6d a23d 8253 de3d
000003f0: b2c5 a83d 6994 003e 6735 75bc bc0f 6e3c
