model/bert_total.pt (torch_old, 995858 bytes, 10 tensors)

lstm.weight_ih_l0 f4 [256, 768]
-0.03718636 0.107163556 0.04343683 -0.14158279 0.0074913884 -0.041938618 -0.0036871054 0.10178769
0.10035643 0.10030124 0.056487206 -0.050363902 -0.091287784 0.09475522 -0.06959741 0.06371084
-0.042864345 -0.07409744 0.02172895 -0.10089003 -0.07809572 -0.023343636 0.056449823 0.11275231
0.017232312 -0.08259159 0.029529555 -0.041244775 -0.10637397 -0.015684145 0.119107865 0.060540833
-0.050548013 0.18568459 0.10654401 -0.08259567 0.012431416 0.020308185 0.003203398 -0.06892729
0.057031937 0.063008435 -0.08349024 -0.11071404 -0.10801903 -0.05478771 0.022231385 -0.1026545
0.03019957 0.043102913 -0.08350416 0.09231284 0.004934154 0.04543101 0.06824985 -0.005439519
0.011123866 -0.018997682 0.009381753 0.034392845 -0.0018062857 -0.08915239 -0.045351166 0.05687533
-0.08381142 -0.12613146 -0.058911942 0.00031640072 0.00077933917 -0.08843203 -0.1278372 0.03468146
0.033423934 0.053924505 0.01337788 0.0847593 -0.06515685 0.093194716 0.14570184 0.11696276
-0.115040146 -0.004015442 0.04602177 -0.017468683 -0.097143725 -0.058331266 -0.013162584 -0.11343987
-0.1140681 0.08909046 -0.056263454 0.045262296 -0.14833589 0.11478504 0.14917254 -0.025036396
-0.00088101835 -0.008508829 0.14982769 -0.053946868 0.044132095 0.08658823 -0.062564835 0.106653
0.11202304 -0.056121804 0.012363747 -0.062034234 0.08744532 -0.006189054 -0.021750178 -0.010366222
0.02517842 0.08122571 -0.11061471 0.11610224 -0.022960026 0.12800793 -0.13826424 -0.14994033
0.1376143 0.12846686 0.08788949 -0.024275666 -0.0666392 -0.12023478 0.03780688 0.116438225
-0.07803935 0.1615405 0.10161503 0.001910439 -0.067547224 -0.042808924 -0.079016894 -0.026354665
0.10535891 0.0985033 -0.10967053 0.08922103 0.082394965 0.13205297 0.058015987 0.09786505
-0.1277117 -0.023909535 0.12648605 0.03208997 -0.010634713 0.0812568 0.14360547 -0.035317637
0.14244558 0.13656242 0.06991272 0.016702434 0.12924194 -0.063160025 0.05069768 -0.04496574
-0.045852546 -0.019575497 -0.12607208 -0.11526745 0.08803482 -0.09173413 0.052354895 -0.07785003
-0.002338303 0.10320943 0.06311957 0.026753737 0.097598344 0.1314146 -0.06674395 0.10600491
-0.053455293 0.06690913 0.06837282 -0.13768387 0.04612861 -0.027977884 -0.034720022 0.1445217
0.0917704 0.026724972 0.06905247 -0.11729233 -0.060609166 -0.0724428 -0.08664842 -0.07510687
0.017771393 -0.115081176 -0.13291764 -0.05649988 0.096242264 -0.043016158 0.10644887 0.046715558
-0.034295745 -0.028465226 -0.044352364 -0.095260344 -0.18358563 0.030687666 0.059067816 -0.1118423
-0.059270658 -0.11430409 0.07578788 -0.016822817 0.06825288 -0.01017701 0.012248275 0.083570555
-0.091710486 -0.08033355 0.0002576719 0.067552015 -0.14543124 0.050702147 -0.06949948 -0.039574493
0.032743357 0.09904516 0.0035467404 0.03155084 -0.009571321 -0.054056883 -0.016410438 -0.0034386434
0.03730878 -0.07419558 0.007540025 0.08724324 0.2943325 0.06433107 0.020707618 -0.009752386
-0.08682835 0.032278795 -0.097624764 -0.08744916 -0.0046494775 0.016239973 0.06116377 -0.09447609
-0.026951622 0.04834136 -0.11884515 0.032531656 0.0577565 0.084481664 0.06166123 0.04907119
00000000: ba50 18bd 9178 db3d d1ea 313d 14fb 10be
00000010: 527a f53b d4c7 2bbd 5da3 71bb 1076 d03d
00000020: ac87 cd3d bd6a cd3d 215f 673d 614a 4ebd
00000030: 17f5 babd 060f c23d 1689 8ebd d47a 823d
00000040: 8692 2fbd 66c0 97bd e900 b23c 6f9f cebd
00000050: a6f0 9fbd 273b bfbc ee37 673d afea e63d
00000060: c72a 8d3c c825 a9bd f7e7 f13c 48f0 28bd
00000070: 99da d9bd 097c 80bc d3ee f33d aaf9 773d
00000080: 6f0b 4fbd 1a24 3e3e bf33 da3d eb27 a9bd
00000090: 23ad 4b3c 5a5d a63c 1af0 513b c029 8dbd
000000a0: 529a 693d 910a 813d eefc aabd 0bbe e2bd
000000b0: 1539 ddbd 1469 60bd 981e b63c 863c d2bd
000000c0: 1765 f73c ae8c 303d 3b04 abbd 840e bd3d
000000d0: afae a13b de15 3a3d 94c6 8b3d fe3d b2bb
000000e0: e040 363c 07a1 9bbc edb5 193c 83df 0c3d
000000f0: e4c0 ecba 8795 b6bd 25c2 39bd 1bf6 683d
00000100: 52a5 abbd 9b28 01be a64d 71bd 96e2 a539
00000110: 914c 4c3a da1b b5bd c1e7 02be 260e 0e3d
00000120: 89e7 083d f1df 5c3d e52e 5b3c 4996 ad3d
00000130: f470 85bd dfdc be3d dd32 153e 2c8a ef3d
00000140: 2b9a ebbd f893 83bb 5381 3c3d 7c1a 8fbc
00000150: 4af3 c6bd c4ec 6ebd e1a7 57bc 2a53 e8bd
00000160: 899c e9bd 0f75 b63d 8274 66bd f564 393d
00000170: 5de5 17be 6b14 eb3d b0c0 183e 2119 cdbc
00000180: 24f4 66ba 9e68 0bbc 6e6c 193e 64f7 5cbd
00000190: dbc3 343d 2c55 b13d fe21 80bd e36c da3d
000001a0: 566c e53d fadf 65bd 5091 4a3c 9c17 7ebd
000001b0: 8816 b33d 8ccd cabb 6e2d b2bc 16d7 29bc
000001c0: f942 ce3c aa59 a63d f789 e2bd 03c7 ed3d
000001d0: aa16 bcbc 8314 033e 2495 0dbe f589 19be
000001e0: c3ea 0c3e d18c 033e 68ff b33d c3dd c6bc
000001f0: 227a 88bd a73d f6bd 63db 1a3d 2a77 ee3d
00000200: 18d3 9fbd df6a 253e 8a1b d03d b267 fa3a
00000210: 3356 8abd 6958 2fbd 9cd3 a1bd bde5 d7bc
00000220: 6ac6 d73d 19bc c93d f19a e0bd 84b9 b63d
00000230: b1be a83d e538 073e 2ca2 6d3d 796d c83d
00000240: dbc6 02be eedd c3bc 8f85 013e c670 033d
00000250: 383d 2ebc f769 a63d 500d 133e 3aa9 10bd
00000260: 41dd 113e 05d7 0b3e 662e 8f3d 8bd3 883c
00000270: 0058 043e 0b5a 81bd 5fa8 4f3d ff2d 38bd
00000280: e1cf 3bbd cb5c a0bc 0a19 01be 5711 ecbd
00000290: 9a4b b43d 1bdf bbbd 1672 563d d66f 9fbd
000002a0: 373e 19bb 775f d33d d544 813d a72a db3c
000002b0: a4e1 c73d 8d91 063e 0db1 88bd 1a19 d93d
000002c0: f0f3 5abd a707 893d 0d07 8c3d 00fd 0cbe
000002d0: 5af1 3c3d e031 e5bc 9536 0ebd 7ffd 133e
000002e0: 1ff2 bb3d 54ee da3c 626b 8d3d f636 f0bd
000002f0: 5141 78bd e45c 94bd ba74 b1bd a1d1 99bd
00000300: 5095 913c aeaf ebbd 901b 08be 6b6c 67bd
00000310: aa1a c53d b631 30bd dd01 da3d d058 3f3d
00000320: b279 0cbd e82f e9bc d3aa 35bd db17 c3bd
00000330: dffd 3bbe b364 fb3c 18f1 713d 930d e5bd
00000340: cac5 72bd 4318 eabd ad36 9b3d 01d0 89bc
00000350: 2ac8 8b3d 79bd 26bc fdac 483c 0a27 ab3d
00000360: b5d2 bbbd eb85 a4bd 2318 8739 b658 8a3d
00000370: edeb 14be 0ead 4f3d be55 8ebd dd18 22bd
00000380: e61d 063d 30d8 ca3d 6e70 683b 743b 013d
00000390: 08d1 1cbc c06a 5dbd 2f6f 86bc dd5a 61bb
000003a0: 17d1 183d daf3 97bd 5012 f73b 95ac b23d
000003b0: c0b2 963e 02c0 833d 06a3 a93c 79c8 1fbc
000003c0: 10d3 b1bd c536 043d 7eef c7bd 8c18 b3bd
000003d0: a55a 98bb b109 853c dc86 7a3d ae7c c1bd
000003e0: a6c9 dcbc 9701 463d 1665 f3bd ea3f 053d
000003f0: 1492 6c3d b904 ad3d 7c90 7c3d dffe 483d

lstm.weight_hh_l0 f4 [256, 64]
-0.1139058 0.008103862 0.031523872 0.069882065 -0.11097567 -0.06855802 -0.023420686 0.03715858
-0.09980378 0.011712963 0.039760217 0.025720997 0.0057403874 -0.027434127 -0.11233709 0.16717087
-0.14006364 -0.0745711 -0.08670321 -0.022612538 0.106305085 0.16836454 0.16962521 -0.16754963
-0.062086415 -0.10975574 -0.13688771 -0.029327337 0.098507956 0.10694155 -0.11598768 -0.07277806
-0.0005812045 -0.09817361 0.09654533 0.16160132 0.15923527 -0.12831585 0.03914624 -0.028742483
-0.16350567 0.061773885 -0.082668304 -0.06455752 0.10794675 0.058065888 0.070335254 0.15578343
-0.0649379 -0.1750586 -0.09913478 0.06073838 0.06990843 -0.04689224 -0.05067294 -0.03315082
0.06435899 0.12572432 -0.2698835 -0.04786935 -0.09217304 0.035877082 0.07221127 -0.10094464
-0.10664177 -0.035356056 -0.02216993 -0.002289068 -0.08841452 -0.017947389 0.12384136 0.09138503
0.085053675 -0.03298338 0.043442246 -0.12878698 0.08573767 0.075490914 0.073903635 -0.100022994
-0.113508016 0.13297497 -0.017263915 0.055196818 0.09685866 0.021046257 -0.06652988 -0.077125594
-0.059847843 -0.095101826 -0.0039568185 0.11366256 0.028188694 -0.09143079 0.09472742 0.022166092
-0.11997819 -0.012505446 0.010090655 -0.09688468 -0.13883181 0.009200924 -0.08568464 0.09183039
-0.016222777 0.029012153 0.0716811 0.05473621 0.0567763 0.014159142 -0.05982875 0.0387716
-0.07232508 0.009779835 0.11170846 -0.10177238 -0.058980655 -0.08709034 -0.02185682 -0.022125868
-0.058213443 -0.05007198 -0.062498882 -0.08763255 -0.14177074 -0.08720593 0.06507155 -0.069930956
0.081955366 0.035187665 -0.15034729 -0.021454565 -0.030366465 0.08593751 0.036061265 0.0010081055
-0.03539851 0.10119935 -0.10757547 0.064017355 -0.05175978 -0.102949396 0.010149947 0.004388973
0.060896866 0.09373829 0.16194393 -0.0414916 -0.009916453 -0.06852932 -0.009642785 0.08096295
0.115941755 -0.03859844 0.10444295 0.08700254 -0.032934587 0.0999505 0.054741353 0.13469271
0.072646245 -0.13442124 0.20280783 0.10479562 0.031781163 -0.07130714 0.044818312 -0.0409207
-0.027601596 -0.060507987 -0.0116827665 0.14487582 0.047570664 -0.03355216 -0.009572777 -0.114488445
-0.08388853 0.13742122 0.08707407 -0.0054936307 -0.13681144 0.17434368 -0.27347437 -0.0066305185
0.075385325 -0.05763836 -0.07312378 -0.04568546 -0.078630686 -0.037628606 0.030465303 0.0533752
0.121546306 -0.062004562 -0.041607827 -0.0031992118 0.06017208 -0.008278943 -0.04493956 0.054711528
0.13505305 0.15696815 -0.122847684 0.0010397929 -0.11330103 -0.12276559 0.03851966 0.037764166
-0.0044044633 0.15669024 -0.067695834 -0.3260316 0.027743569 -0.13441925 0.031522654 0.035409424
-0.04062598 0.14827715 -0.046217483 0.10037442 0.049295966 0.09390795 0.16860177 -0.06430261
-0.15906611 0.053453688 0.12798211 -0.011513215 -0.03788336 0.07885526 0.09901287 -0.057711333
0.066521935 -0.012598474 0.16323495 0.16367133 0.059979096 0.028118132 -0.10781952 0.0515302
0.060817763 0.017165033 0.03312327 0.08214748 0.016283497 -0.13811328 0.0026103973 -0.103253566
0.050562732 -0.047608003 -0.14659166 -0.08192049 -0.049057137 -0.010958466 -0.061854597 -0.0073694605
00000000: 7247 e9bd 10c6 043c 2d1f 013d 541e 8f3d
00000010: 3647 e3bd 2668 8cbd bddc bfbc 9833 183d
00000020: ed65 ccbd bae7 3f3c 9cdb 223d d7b4 d23c
00000030: dc19 bc3b 89bd e0bc fd10 e6bd d72e 2b3e
00000040: d86c 0fbe bcb8 98bd 7491 b1bd ee3d b9bc
00000050: 7bb6 d93d c167 2c3e 3bb2 2d3e 2192 2bbe
00000060: 534e 7ebd 9ec7 e0bd 4b2c 0cbe e23f f0bc
00000070: 8abe c93d 2c04 db3d f38a edbd aa0c 95bd
00000080: f95b 18ba 3f0f c9bd 8fb9 c53d d17a 253e
00000090: 920e 233e 3b65 03be cf57 203d 5b75 ebbc
000000a0: 086e 27be 9d06 7d3d 004e a9bd bc36 84bd
000000b0: 3013 dd3d 7fd6 6d3d ee0b 903d b185 1f3e
000000c0: 29fe 84bd 9042 33be 2d07 cbbd cfc8 783d
000000d0: 272c 8f3d 1412 40bd 6e8e 4fbd 27c9 07bd
000000e0: a5ce 833d e0bd 003e 2c2e 8abe a712 44bd
000000f0: 38c5 bcbd d9f3 123d 81e3 933d 10bc cebd
00000100: 0067 dabd 83d1 10bd b79d b5bc 3004 16bb
00000110: ac12 b5bd 6706 93bc 8aa0 fd3d 1328 bb3d
00000120: 9f30 ae3d 9519 07bd 7ff0 313d bce0 03be
00000130: 3b97 af3d fb9a 9a3d ca5a 973d dbd8 ccbd
00000140: e476 e8bd 972a 083e 0e6d 8dbc 0f16 623d
00000150: d55d c63d 3369 ac3c d140 88bd 06f4 9dbd
00000160: 0323 75bd bfc4 c2bd 33a8 81bb ebc7 e83d
00000170: faeb e63c 1140 bbbd 7300 c23d aa95 b53c
00000180: 20b7 f5bd a4e3 4cbc 4653 253c 7a6b c6bd
00000190: ed29 0ebe 79bf 163c 6e7b afbd 9211 bc3d
000001a0: a1e5 84bc e5aa ed3c 8acd 923d 1333 603d
000001b0: 448e 683d bffb 673c fe0e 75bd f8ce 1e3d
000001c0: 2c1f 94bd 9a3b 203c 68c7 e43d 0a6e d0bd
000001d0: b395 71bd 6c5c b2bd 130d b3bc 4f41 b5bc
000001e0: 3871 6ebd 4718 4dbd d4fe 7fbd b278 b3bd
000001f0: 592c 11be 0699 b2bd 3c44 853d f637 8fbd
00000200: 37d8 a73d f120 103d a4f4 19be 7cc1 afbc
00000210: 18c3 f8bc 0100 b03d fab4 133d 6822 843a
00000220: 07fe 10bd 9b41 cf3d 8750 dcbd 881b 833d
00000230: 1002 54bd 22d7 d2bd f74b 263c 60d1 8f3b
00000240: fe6e 793d dcf9 bf3d a1d4 253e 19f3 29bd
00000250: 9e78 22bc 1a59 8cbd c6fc 1dbc e7cf a53d
00000260: df72 ed3d 6619 1ebd 2fe6 d53d 632e b23d
00000270: 6be6 06bd d9b2 cc3d 7838 603d e3ec 093e
00000280: 8ec7 943d b9a5 09be dbac 4f3e 169f d63d
00000290: f72c 023d 7a09 92bd 6893 373d 779c 27bd
000002a0: be1c e2bc 39d7 77bd 1369 3fbc 545a 143e
000002b0: 75d9 423d fd6d 09bd 23d7 1cbc eb78 eabd
000002c0: c0cd abbd 26b8 0c3e e453 b23d ea03 b4bb
000002d0: 4c18 0cbe 2687 323e d504 8cbe d244 d9bb
000002e0: 9f63 9a3d 3316 6cbd ecc1 95bd ad20 3bbd
000002f0: 2009 a1bd 7420 1abd 5f92 f93c f49f 5a3d
00000300: 45ed f83d 7ff8 7dbd f86c 2abd dea9 51bb
00000310: 0077 763d 67a4 07bc 8b12 38bd 3219 603d
00000320: 594b 0a3e 42bc 203e 9197 fbbd a949 883a
00000330: 5f0a e8bd 876c fbbd cac6 1d3d 99ae 1a3d
00000340: 5153 90bb 6873 203e 1da4 8abd 9ded a6be
00000350: 7b46 e33c 33a5 09be e61d 013d 7909 113d
00000360: 6d67 26bd f7d5 173e 8b4e 3dbd 1b91 cd3d
00000370: 91ea 493d d052 c03d f1a5 2c3e 16b1 83bd
00000380: 3ae2 22be 41f2 5a3d be0d 033e eca1 3cbc
00000390: 952b 1bbd de7e a13d 42c7 ca3d b862 6cbd
000003a0: a73c 883d d469 4ebc 1027 273e 7599 273e
000003b0: a4ac 753d ff57 e63c 7bd0 dcbd 5511 533d
000003c0: 0c1c 793d af9d 8c3c 44ac 073d f03c a83d
000003d0: f864 853c 916d 0dbe 3313 2b3b 9b76 d3bd
000003e0: de1a 4f3d 9c00 43bd 201c 16be eec5 a7bd
000003f0: 23f0 48bd 238b 33bc 3f5b 7dbd 847b f1bb

lstm.bias_ih_l0 f4 [256]
0.022724563 0.059464302 0.07154042 -0.011225715 -0.04231787 -0.015687348 -0.111375816 -0.05006804
0.09778506 -0.080069944 0.10933589 -0.14724852 0.025265267 0.052841727 0.048299525 0.07348604
-0.015821185 0.120435394 0.114329055 -0.001698054 0.013396287 -0.0733893 -0.039021082 -0.05840832
0.07433995 0.008768155 0.0116403205 0.038678084 -0.097612485 -0.10105087 0.13742118 0.04043899
-0.054128893 0.003258553 -0.035889447 -0.03169955 0.028686019 -0.024476929 -0.041310303 -0.08965094
0.0632711 -0.101987265 0.057753455 0.064008325 -0.09878052 -0.07914598 0.0036896877 0.11985785
-0.100195706 0.010697656 -0.079893656 0.11655921 0.03220256 0.02565775 0.00759616 -0.052771077
0.07204541 0.14140718 0.11466856 0.029005852 0.10867212 -0.13599949 -0.10318194 0.11601931
0.07386511 -0.05026919 0.11371708 -0.07984762 0.08705454 -0.03311132 -0.0026728485 -0.082199216
0.005352792 -0.10788899 -0.028568156 0.12446995 0.025906902 -0.06081619 -0.10011996 -0.0042731846
-0.102737196 0.121669315 0.06893359 0.048802007 -0.020494677 0.03802762 0.008887044 -0.07235083
0.07687529 -0.016809331 0.091611035 0.013120467 0.004207277 -0.06839614 -0.017064605 0.08685885
0.06150802 0.12561272 -0.02689743 0.013340004 -0.08089513 0.05602051 0.045089625 0.09083553
0.058541376 -0.04740981 -0.018483063 0.09387088 -0.073395595 0.03166694 0.1154895 -0.004105393
0.12259527 0.08216474 0.074799076 0.011547357 -0.07349672 0.056246247 0.07547769 -0.10433377
0.06816657 0.11932495 -0.042751145 -0.07783343 -0.008689498 0.078532 0.07806912 0.02876207
-0.023763595 -0.08469961 -0.0036019697 0.0092951795 -0.09274905 0.092873804 0.033410788 0.06827175
-0.06476675 -0.013069698 -0.13247174 0.04350546 -0.045881018 0.05117245 0.10234707 0.09856893
-0.04881793 0.108221576 -0.11928206 -0.0008286356 -0.061990496 -0.10545227 -0.034159567 0.044439696
-0.066778764 -0.009311793 0.04005291 -0.066672005 0.0022118816 -0.016584003 0.03970498 -0.016991898
-0.11431052 -0.078633316 -0.103499964 -0.11278422 0.06030685 0.01389587 -0.09159587 0.009303364
0.13343789 -0.00035176368 -0.050042097 0.11783284 0.03791161 -0.010842585 0.14716779 -0.12234742
0.07482078 0.10913886 -0.03175754 -0.044462018 -0.0034864359 -0.12185043 -0.12296374 0.06031854
-0.12112721 -0.12773772 0.049761254 -0.10015034 -0.034222983 -0.015999971 0.0052973074 0.060696274
-0.1285073 -0.09198673 0.007842476 0.03367417 -0.13078666 -0.088511415 -0.019132337 -0.050809108
-0.021383435 -0.059601914 -0.0077149277 0.14794911 0.053577814 0.028494922 -0.078700095 0.089860044
0.034517094 0.005483693 -0.09808772 0.11485709 0.035873566 0.1380722 -0.05089979 0.13427351
-0.04271943 -0.14214978 -0.06045371 0.0029961998 -0.06669279 0.115938105 0.04581801 -0.10369464
-0.07655936 -0.04774516 -0.00451215 0.12568103 0.022729598 0.1342302 0.053512827 0.12947962
0.123585075 -0.07921334 0.068352215 0.07291449 0.05111424 -0.048863545 0.04368853 0.14207333
-0.037513647 -0.04293463 0.03837717 0.056758307 0.058257814 0.15332109 0.017089898 0.0356421
0.08162522 -0.036819447 0.027496517 0.07903501 0.013244194 0.0023094001 -0.096231975 0.17665146
00000000: dd28 ba3c d790 733d c983 923d 10ec 37bc
00000010: 8155 2dbd c182 80bc 0119 e4bd 2514 4dbd
00000020: 8943 c83d b6fb a3bd 7feb df3d 51c8 16be
00000030: 1bf9 ce3c 9170 583d b9d5 453d d97f 963d
00000040: 6e9b 81bc d5a6 f63d 5a25 ea3d 3d91 deba
00000050: 1a7c 5b3c 214d 96bd 92d4 1fbd 903d 6fbd
00000060: 8b3f 983d 4fa8 0f3c 0bb7 3e3c e96c 1e3d
00000070: 0ee9 c7bd c2f3 cebd 23b8 0c3e 5ba3 253d
00000080: 42b6 5dbd 738d 553b d000 13bd 63d7 01bd
00000090: f1fe ea3c d783 c8bc fe34 29bd e99a b7bd
000000a0: 4794 813d b3de d0bd e38e 6c3d cc16 833d
000000b0: 714d cabd 4a17 a2bd b0ce 713b 0878 f53d
000000c0: 6833 cdbd 3945 2f3c 499f a3bd 98b6 ee3d
000000d0: d5e6 033d 3430 d23c 35e9 f83b 7c26 58bd
000000e0: 8b8c 933d 0bcd 103e 5ad7 ea3d ae9d ed3c
000000f0: 7d8f de3d 7343 0bbe 0e51 d3bd 889b ed3d
00000100: 9746 973d 11e7 4dbd 80e4 e83d 2687 a3bd
00000110: a749 b23d bc9f 07bd f52a 2fbb 1058 a8bd
00000120: 7966 af3b e7f4 dcbd c407 eabc 1aea fe3d
00000130: b63a d43c 661a 79bd b20b cdbd 1206 8cbb
00000140: e167 d2bd c32d f93d 0e2d 8d3d 9de4 473d
00000150: 74e4 a7bc dac2 1b3d f79a 113c ac2c 94bd
00000160: cb70 9d3d b9b3 89bc 919e bb3d 3af7 563c
00000170: 33dd 893b 4713 8cbd 12cb 8bbc 0ee3 b13d
00000180: d5ef 7b3d 9fa0 003e 0058 dcbc 0890 5a3c
00000190: 59ac a5bd c375 653d e6af 383d fa07 ba3d
000001a0: 15c9 6f3d ca30 42bd cb69 97bc 603f c03d
000001b0: 6e50 96bd 31b5 013d c285 ec3d 8886 86bb
000001c0: 3b13 fb3d fd45 a83d 4230 993d 2031 3d3c
000001d0: 7385 96bd 7762 663d 0c94 9a3d f2ac d5bd
000001e0: ea9a 8b3d a460 f43d d31b 2fbd 2267 9fbd
000001f0: 655e 0ebc 63d5 a03d b4e2 9f3d 6f9e eb3c
00000200: dfab c2bc fd76 adbd 060f 6cbb cf4a 183c
00000210: 37f3 bdbd 9f34 be3d c0d9 083d 0fd2 8b3d
00000220: 6ea4 84bd 4922 56bc aca6 07be c832 323d
00000230: bced 3bbd 349a 513d 579b d13d 82de c93d
00000240: 4ff5 47bd 46a3 dd3d 274a f4bd cb38 59ba
00000250: bfe9 7dbd 5cf7 d7bd e7ea 0bbd 6606 363d
00000260: 4ec3 88bd 7e90 18bc 850e 243d 558b 88bd
00000270: 37f5 103b 2ddb 87bc b0a1 223d 9832 8bbc
00000280: a21b eabd 810a a1bd caf7 d3bd 6afb e6bd
00000290: 5104 773d 81ab 633c 9e96 bbbd 236d 183c
000002a0: f1a3 083e ec6c b8b9 f1f8 4cbd 5852 f13d
000002b0: 3449 1b3d 19a5 31bc 27b3 163e 4991 fabd
000002c0: a33b 993d 3284 df3d 3214 02bd ce1d 36bd
000002d0: b07c 64bb b88c f9bd 6ad4 fbbd 9310 773d
000002e0: 8b11 f8bd adcd 02be 75d2 4b3d 9f1b cdbd
000002f0: 662d 0cbd 5f12 83bc 0995 ad3b a89c 783d
00000300: 6b97 03be 8a63 bcbd ba7d 003c eded 093d
00000310: f0ec 05be 7945 b5bd 6bbb 9cbc 361d 50bd
00000320: 502c afbc 2321 74bd 81cd fcbb f97f 173e
00000330: 6974 5b3d 2f6e e93c 842d a1bd 8b08 b83d
00000340: cc61 0d3d 8db0 b33b 37e2 c8bd 323a eb3d
00000350: 29f0 123d cc62 0d3e 4c7c 50bd ff7e 093e
00000360: 92fa 2ebd b68f 11be 4f9e 77bd e45b 443b
00000370: 3b96 88bd f570 ed3d aaab 3b3d db5d d4bd
00000380: 27cb 9cbd 6e90 43bd a8da 93bb 87b2 003e
00000390: 6c33 ba3c a473 093e 4430 5b3d 4e96 043e
000003a0: 2c1a fd3d 9b3a a2bd 3ffc 8b3d 3154 953d
000003b0: 2a5d 513d 2425 48bd bef2 323d ac7b 113e
000003c0: e9a7 19bd 39dc 2fbd 6131 1d3d 667b 683d
000003d0: bf9f 6e3d 3400 1d3e 1d00 8c3c 73fd 113d
000003e0: 202b a73d fdcf 16bd 6040 e13c 1bdd a13d
000003f0: 2dfe 583c 4e59 173b 4515 c5bd 1fe4 343e

lstm.bias_hh_l0 f4 [256]
-0.08851718 0.13414249 -0.07325411 -0.011181653 -0.013761448 0.15126301 0.09559401 -0.050420348
0.073662244 0.055737082 -0.04535189 -0.058924664 0.09629804 0.12732656 -0.01768929 0.11916076
0.13046846 0.007441079 0.076331265 0.010620602 -0.020988604 0.0064374874 0.095566235 -0.03938665
0.0507663 0.08257707 -0.016979849 0.0402015 0.08052382 0.10329034 0.013423557 0.04631458
-0.055580385 0.11071322 -0.019919397 -0.083991624 -0.035337843 -0.09035948 -0.04702082 0.08777146
-0.06935672 0.13260058 0.088810116 0.051896673 0.08972894 0.0013058381 0.11493724 0.003151841
-0.01386248 0.037381094 0.10242366 -0.03341245 -0.009169618 0.054365627 -0.07850996 0.033127055
-0.08219645 0.005980876 0.0201747 -0.1366925 -0.101505674 -0.004786918 -0.154773 0.029661212
0.06181396 0.0031675687 -0.0971013 -0.054527596 0.073686264 0.035927944 0.07800548 -0.034812596
0.12612692 -0.09040709 0.04184265 -0.011770855 -0.08989812 0.06672044 0.044205435 0.11950486
0.10100346 -0.07521444 0.07873759 -0.10787444 -0.10871222 0.058004558 -0.08819236 -0.053733155
-0.016737424 0.10794189 -0.09016941 -0.039932318 -0.02114263 -0.010838102 0.1315545 0.006655217
0.06894324 0.03255031 -0.018168757 0.04979715 0.0644133 0.13818815 -0.033068083 0.105507635
-0.023542145 -0.030076906 0.031508297 -0.0902877 -0.010062091 -0.055298064 -0.05803347 0.048764095
-0.05287196 0.051181935 0.050135344 -0.02781577 0.026349196 -0.03270394 0.07507939 0.13586871
-0.07820133 -0.06123855 0.1314259 -0.027605077 -0.049185246 0.061755683 0.008393519 -0.1651912
-0.008364736 0.009760469 0.03629413 0.14056787 0.13187376 0.047199264 -0.10447529 -0.080964945
-0.025661489 -0.083930105 -0.026135134 -0.07193815 0.098059855 -0.11177366 -0.030743498 -0.07781613
-0.020757772 0.123089924 -0.09890447 0.064437605 0.014521379 -0.05190965 -0.025583657 0.11432205
-0.05538159 -0.08725099 0.073195815 -0.062572666 -0.050514024 0.078418314 -0.022187522 0.108484425
-0.14309269 0.0006867386 0.0824638 -0.009969132 -0.028850118 0.095718026 -0.1080282 -0.13212743
0.021550719 -0.036811676 0.066006295 -0.05288454 0.07336661 0.10773971 -0.034379818 0.013739146
-0.056769673 -0.062258776 0.12088377 0.13023803 -0.06069379 -0.110193774 0.08321975 0.10571892
-0.120984115 -0.084522694 -0.011430053 0.058544926 -0.10891118 -0.131382 0.10053764 -0.08550649
-0.08543221 -0.1319031 -0.07071179 -0.05952009 0.008403803 0.017466405 -0.115659654 0.053698998
0.1369403 0.06148693 -0.095105305 0.13567773 -0.08619882 -0.07825002 0.10066077 -0.017290395
0.01585081 0.043111123 -0.053695854 -0.05743312 -0.00964862 0.030899731 -0.066975854 -0.00836231
-0.09265024 -0.1080203 -0.029467782 0.108781904 -0.06617182 -0.07492431 -0.12120698 -0.049967475
-0.045145303 -0.09183079 0.06958347 -0.023156129 0.045108464 -0.0805614 -0.048481576 -0.034608874
-0.091898724 0.047532335 -0.013244072 0.07333793 0.043189794 0.08137441 0.008146724 0.082596354
-0.099995404 0.0894627 -0.017120084 -0.036910567 0.038869243 -0.09184831 0.024259904 -0.04794643
0.059685566 0.034550384 0.083598755 0.0306131 -0.026650185 0.053806886 0.017532663 0.0102616595
00000000: 7f48 b5bd a65c 093e 4006 96bd 4033 37bc
00000010: b277 61bc b1e4 1a3e cbc6 c33d 9185 4ebd
00000020: 3bdc 963d 914c 643d e7c2 39bd fd5a 71bd
00000030: e837 c53d e561 023e 21e9 90bc 8e0a f43d
00000040: 8699 053e 4bd4 f33b 9153 9c3d 0902 2e3c
00000050: 4bf0 abbc 8ff1 d23b 3bb8 c33d e553 21bd
00000060: 53f0 4f3d 2b1e a93d 5319 8bbc 54aa 243d
00000070: ace9 a43d e389 d33d 7bee 5b3c 5bb4 3d3d
00000080: 42a8 63bd 9dbd e23d 012e a3bc cd03 acbd
00000090: 6abe 10bd 640e b9bd e798 40bd 86c1 b33d
000000a0: e50a 8ebd 72c8 073e 14e2 b53d 9b91 543d
000000b0: cec3 b73d a828 ab3a 3764 eb3d 1e8f 4e3b
000000c0: 751f 63bc eb1c 193d 7fc3 d13d 7edb 08bd
000000d0: 2a3c 16bc 7eae 5e3d d4c9 a0bd 3cb0 073d
000000e0: 9d56 a8bd 39fb c33b 6a45 a53c 1ef9 0bbe
000000f0: 35e2 cfbd 94db 9cbb d07c 1ebe 12fc f23c
00000100: a330 7d3d fc96 4f3b 0cdd c6bd 5458 5fbd
00000110: d3e8 963d 2e29 133d 56c1 9f3d a797 0ebd
00000120: 6a27 013e 5a27 b9bd 3363 2b3d 8bda 40bc
00000130: 811c b8bd baa4 883d c210 353d f7be f43d
00000140: e7da ce3d 070a 9abd 2c41 a13d 46ed dcbd
00000150: 83a4 debd 3096 6d3d 329e b4bd 4c17 5cbd
00000160: ec1c 89bc a310 dd3d bdaa b8bd 1290 23bd
00000170: 4f33 adbc 4b92 31bc 39b6 063e 0214 da3b
00000180: 1d32 8d3d 7953 053d a5d6 94bc 19f8 4b3d
00000190: 1feb 833d 3281 0d3e 6672 07bd 6314 d83d
000001a0: 75db c0bc d863 f6bc d80e 013d c2e8 b8bd
000001b0: 78db 24bc 3980 62bd 81b4 6dbd dcbc 473d
000001c0: 4590 58bd 26a4 513d b85a 4d3d e6dd e3bc
000001d0: 45da d73c 91f4 05bd 39c3 993d 2b21 0b3e
000001e0: 0528 a0bd 46d5 7abd 8394 063e 0b24 e2bc
000001f0: 7876 49bd 87f3 7c3d f884 093c e227 29be
00000200: 3f0c 09bc 60ea 1f3c 27a9 143d 06f1 0f3e
00000210: ea09 073e 0454 413d 24f7 d5bd f3d0 a5bd
00000220: 0b38 d2bc 8ce3 abbd 5919 d6bc 4f54 93bd
00000230: 9bd3 c83d 97e9 e4bd cad9 fbbc 105e 9fbd
00000240: 340c aabc 9216 fc3d 6d8e cabd ddf7 833d
00000250: 14eb 6d3c 379f 54bd d194 d1bc ae21 ea3d
00000260: ced7 62bd a6b0 b2bd b0e7 953d 1926 80bd
00000270: cbe7 4ebd c899 a03d 9bc2 b5bc 152d de3d
00000280: e486 12be 3f06 343a c8e2 a83d 9255 23bc
00000290: 1557 ecbc d007 c43d e43d ddbd 6a4c 07be
000002a0: 228b b03c d7c7 16bd 4f2e 873d 769d 58bd
000002b0: 3c41 963d a3a6 dc3d dad1 0cbd 281a 613c
000002c0: 5187 68bd 0f03 7fbd e991 f73d 1e5d 053e
000002d0: 0d9a 78bd 46ad e1bd 1e6f aa3d 2983 d83d
000002e0: 85c6 f7bd 3c1a adbd 1e45 3bbc cecc 6f3d
000002f0: d30c dfbd 0189 06be aee6 cd3d 071e afbd
00000300: 15f7 aebd 9b11 07be 58d1 90bd 57cb 73bd
00000310: 1bb0 093c b515 8f3c f8de ecbd 7bf3 5b3d
00000320: 143a 0c3e b8d9 7b3d 92c6 c2bd 1aef 0a3e
00000330: 0289 b0bd 8c41 a0bd 3c27 ce3d 96a4 8dbc
00000340: 8fd9 813c 4a95 303d 2ff0 5bbd fe3e 6bbd
00000350: 3f15 1ebc 6f21 fd3c a32a 89bd 1202 09bc
00000360: 69bf bdbd bf39 ddbd 6b66 f1bc 0cc9 de3d
00000370: 1785 87bd eb71 99bd 5d3b f8bd b2aa 4cbd
00000380: 48ea 38bd c811 bcbd c781 8e3d ecb1 bdbc
00000390: a7c3 383d 60fd a4bd 9e94 46bd 09c2 0dbd
000003a0: 6635 bcbd 44b1 423d aafd 58bc 3232 963d
000003b0: c8e7 303d a0a7 a63d d679 053c 4728 a93d
000003c0: 64ca ccbd 3838 b73d 6b3f 8cbc 892f 17bd
000003d0: 5b35 1f3d f71a bcbd b5bc c63c 7a63 44bd
000003e0: da78 743d b484 0d3d d335 ab3d 53c8 fa3c
000003f0: 7d51 dabc 9c64 5c3d a9a0 8f3c 8520 283c

lstm.weight_ih_l1 f4 [256, 64]
-0.013745778 0.09316609 0.06540043 0.09269134 0.0027097764 -0.0046318076 -0.044974487 -0.03373104
-0.058933716 0.09107424 0.044988427 0.0024769376 -0.06982099 -0.06999097 0.13951541 0.090676896
0.100470886 0.11733196 0.08752119 -0.09125224 0.06337867 -0.056243405 0.09534154 0.15204775
0.04606347 0.15289919 0.020052578 0.008872702 -0.03329818 0.031349834 0.09170844 0.12597781
0.06635363 0.15487535 0.11509024 -0.020807007 -0.000537378 0.028162723 0.04400367 0.030805655
0.023176447 -0.08831847 0.10817961 -0.02753734 -0.14568414 0.07534914 0.12714897 -0.07068583
0.08558716 -0.04450854 0.09501166 0.14720768 0.052962158 0.030847738 0.028017743 -0.12952046
0.11665837 0.022146026 0.04054794 -0.08483044 0.048143942 -0.07555674 -0.023434067 -0.02558115
-0.09858882 -0.043016717 -0.002290954 0.007999147 0.10536751 -0.02048923 -0.052126735 0.074437894
-0.04037858 -0.09146194 0.04929447 -0.007122318 0.024272919 -0.08864981 0.072192796 0.0068493625
-0.04365384 -0.12044753 -0.02640083 0.07095061 -0.064548634 0.0133707635 2.3608294e-05 0.3026416
-0.08560503 0.1423371 0.21979144 -0.02576934 0.012292375 -0.111800775 -0.11085771 0.32924557
0.05392194 -0.11904494 0.24936938 -0.005908696 -0.0394082 0.06440984 -0.050817646 -0.13905993
-0.04688815 -0.05083558 -0.033151183 -0.06804898 -0.10783163 -0.042472344 0.13371164 0.04354057
0.0752999 0.10142294 0.08679211 -0.1731465 -0.08817734 0.103043005 -0.07150822 -0.14590985
0.094429895 -0.13783269 -0.14061579 0.145995 -0.06255499 0.037821725 -0.017718552 0.08309757
0.070585586 -0.09460274 -0.051571324 0.35547066 -0.057364117 -0.07944283 -0.11416454 0.0998964
0.025838245 0.0715118 -0.10037252 0.06550411 0.12827785 -0.014644138 0.044845246 -0.104215786
-0.028560381 -0.104018405 0.0017099016 0.049281772 0.024889108 0.046981633 -0.040565707 0.012884333
0.0020556473 0.12985303 -0.16449578 -0.041430894 0.047296476 0.07626411 0.07703664 -0.09592512
-0.045756407 0.012112278 0.003096373 0.013862406 -0.07321368 0.03744678 -0.03756659 0.04622273
0.008281799 -0.050411377 -0.12814954 -0.119246595 -0.024952492 -0.09174454 0.3602667 0.02766482
0.0022722478 0.11609271 -0.1268955 0.013760655 0.002139831 -0.019388717 -0.02498225 0.079690166
0.09686076 0.0269701 -0.102148384 0.04153359 -0.07011742 0.007962599 0.011018656 -0.07491056
0.07210825 0.022667855 -0.055314828 0.2576825 0.0059337383 -0.07999958 0.09045148 0.020911522
0.091684654 -0.06061273 -0.10913492 -0.04751746 0.104316786 0.06868116 0.0076976256 -0.11374013
0.053683646 0.11331525 -0.09604917 0.03221615 0.01584785 0.12121127 0.048592914 0.006669734
-0.097415455 0.01741476 0.102662824 0.06211275 0.0067138164 0.018889379 0.06391315 -0.038659237
-0.006571059 0.012320139 0.11499245 0.07384543 0.1012802 0.018729586 0.023043264 -0.1467565
0.011364729 -0.03758829 -0.0068664034 -0.047647092 -0.21523096 0.0007545664 0.17522924 -0.019300207
-0.0109203635 -0.10382855 -0.10881605 -0.09264418 -0.10061461 -0.09096128 0.16809936 -0.011222203
0.10228728 -0.070366725 0.06678768 0.015946094 -0.044407953 0.06611968 -0.12736899 -0.050057296
00000000: f935 61bc ddcd be3d a9f0 853d f5d4 bd3d
00000010: 8196 313b 6bc6 97bb 2b37 38bd 8f29 0abd
00000020: 7b64 71bd 2285 ba3d c945 383d 1e54 223b
00000030: 4ffe 8ebd 6d57 8fbd 21dd 0e3e cfb4 b93d
00000040: aec3 cd3d bd4b f03d 4f3e b33d 74e2 babd
00000050: adcc 813d 7c5f 66bd 6d42 c33d 68b2 1b3e
00000060: 0dad 3c3d 9b91 1c3e 4e45 a43c cf5e 113c
00000070: ac63 08bd af68 003d a2d1 bb3d 5400 013e
00000080: 69e4 873d a597 1e3e 6fb4 eb3d 7573 aabc
00000090: d4de 0cba 83b5 e63c 313d 343d 245c fc3c
000000a0: 88dc bd3c 50e0 b4bd 458d dd3d fd95 e1bc
000000b0: 392e 15be a650 9a3d 5733 023e bcc3 90bd
000000c0: 5248 af3d 964e 36bd 7995 c23d 9cbd 163e
000000d0: d9ee 583d 65b4 fc3c 7785 e53c 03a1 04be
000000e0: 95ea ee3d 956b b53c 9915 263d 95bb adbd
000000f0: 9532 453d 7ebd 9abd cdf8 bfbc 8f8f d1bc
00000100: efe8 c9bd 4c32 30bd d523 16bb db0e 033c
00000110: ecca d73d 08d9 a7bc d882 55bd e572 983d
00000120: 0364 25bd 6650 bbbd 00e9 493d 5562 e9bb
00000130: 00d8 c63c 088e b5bd d1d9 933d 9e70 e03b
00000140: 5ece 32bd 32ad f6bd 8e46 d8bc 8e4e 913d
00000150: 1332 84bd 0c11 5b3c 6d0a c637 d7f3 9a3e
00000160: b151 afbd d1c0 113e 0211 613e 391a d3bc
00000170: f565 493c cef7 e4bd 5e09 e3bd e092 a83e
00000180: 41dd 5c3d d5cd f3bd b05a 7f3e bc9d c1bb
00000190: 7e6a 21bd 4ee9 833d 2a26 50bd ba65 0ebe
000001a0: ca0d 40bd f838 50bd 89c9 07bd 435d 8bbd
000001b0: d4d6 dcbd 7bf7 2dbd b4eb 083e 9957 323d
000001c0: d536 9a3d d5b6 cf3d 10c0 b13d 514d 31be
000001d0: 5296 b4bd 3608 d33d e772 92bd 6469 15be
000001e0: 7664 c13d 0324 0dbe 96fd 0fbe b77f 153e
000001f0: d51c 80bd f4ea 1a3d 7f26 91bc 0f2f aa3d
00000200: 2d8f 903d 15bf c1bd 743c 53bd 4000 b63e
00000210: a3f6 6abd ecb2 a2bd 19cf e9bd 7c96 cc3d
00000220: baaa d33c c774 923d 1c90 cdbd 0527 863d
00000230: 455b 033e f7ed 6fbc a6af 373d 166f d5bd
00000240: 76f7 e9bc 9a07 d5bd c71e e03a afdb 493d
00000250: 3ee4 cb3c d06f 403d 3a28 26bd cf18 533c
00000260: 0ab8 063b 31f8 043e 9571 28be 71b3 29bd
00000270: f3b9 413d 5c30 9c3d 63c5 9d3d 6474 c4bd
00000280: 126b 3bbd 9372 463c 85ec 4a3b 251f 633c
00000290: 0ef1 95bd cb61 193d 6ddf 19bd 0c54 3d3d
000002a0: 62b0 073c 297c 4ebd a239 03be 8f37 f4bd
000002b0: 2b69 ccbc 90e4 bbbd e074 b83e 55a1 e23c
000002c0: fee9 143b 04c2 ed3d e5f0 01be 5f74 613c
000002d0: 683c 0c3b 16d5 9ebc 93a7 ccbc 9934 a33d
000002e0: ef5e c63d 66f0 dc3c 2c33 d1bd 201f 2a3d
000002f0: b999 8fbd 9075 023c 9887 343c b56a 99bd
00000300: 7dad 933d f0b1 b93c cd91 62bd f6ee 833e
00000310: ce6f c23b d2d6 a3bd a03e b93d a44e ab3c
00000320: 2ac5 bb3d 0e45 78bd 2182 dfbd aba1 42bd
00000330: 0aa4 d53d b5a8 8c3d 5d3c fc3b 96f0 e8bd
00000340: 62e3 5b3d d311 e83d 6db5 c4bd 15f5 033d
00000350: 5ad3 813c 9d3d f83d 5d09 473d c98d da3b
00000360: c181 c7bd 66a9 8e3c e340 d23d f069 7e3d
00000370: 93ff db3b e6bd 9a3c e6e4 823d 2659 1ebd
00000380: 0a52 d7bb 69da 493c 2981 eb3d 463c 973d
00000390: fe6b cf3d ca6e 993c 3ac5 bc3c 5647 16be
000003a0: 2133 3a3c 2ef6 19bd 91ff e0bb 9929 43bd
000003b0: 8165 5cbe 18ce 453a 4b6f 333e 781b 9ebc
000003c0: 53eb 32bc 10a4 d4bd f3da debd 3bbc bdbd
000003d0: 080f cebd e849 babd 3d22 2c3e 55dd 37bc
000003e0: fe7b d13d 6e1c 90bd fbc7 883d 62a1 823c
000003f0: 1de5 35bd c169 873d 046d 02be e108 4dbd

lstm.weight_hh_l1 f4 [256, 64]
-0.07750799 -0.12861256 0.076406285 -0.10503071 -0.14490472 -0.06331423 -0.036443226 0.005083745
-0.12811695 0.015522543 0.1742917 0.061566155 0.19372289 -0.055571344 0.06086557 0.17053439
0.062481277 0.08170429 0.008185859 -0.09932257 0.025380181 0.0061324337 -0.03275016 -0.09920842
0.056733925 -0.02888204 0.0054818173 -0.104463026 -0.14731112 -0.017396562 0.025421456 -0.11931498
0.0049183355 0.081274 -0.057211366 0.085300535 0.13277099 0.13645478 0.005700465 -0.06508891
-0.10590895 0.15696508 -0.010275814 -0.082492016 -0.0016291571 0.0641463 -0.14093246 0.12724057
-0.093989834 -0.10870743 -0.11324665 -0.055427805 -0.08407152 0.04397746 0.061650153 0.03753641
0.05381879 0.019767493 0.11173642 -0.02015274 -0.0571975 0.006263527 0.010243073 -0.026692785
-0.21022205 0.23273838 0.05815495 -0.13128866 0.0021164964 0.020281829 -0.07379052 0.059806842
0.068355374 0.11646914 -0.04849091 0.1941819 0.0021579538 -0.17232306 -0.027483052 0.1021048
-0.080288015 0.101521984 -0.16721426 0.07325559 0.036808904 -0.13441218 0.16115996 -0.25436166
0.015459203 -0.044321164 -0.029278908 0.06067322 -0.18928856 0.12319215 -0.00050181453 0.030073624
-0.067206964 0.030173838 0.13534145 0.0023889232 0.034312207 -0.24931867 0.09400019 -0.24519618
-0.15085103 0.062618025 -0.086949535 0.08440949 0.1164653 -0.2498688 -0.2009848 0.09684765
-0.084931895 -0.04322998 -0.006974578 -0.050934628 0.038722564 0.01755353 -0.13442267 0.3091385
-0.07971104 0.023341367 0.09193776 -0.04820091 -0.009639826 0.058021247 0.009480606 0.09701189
-0.122835755 0.03782923 0.20790407 -0.036969148 -0.01101377 0.12127516 -0.005606446 0.020052826
-0.23003921 -0.076002195 0.09576823 0.042276643 0.050607625 0.0012260128 -0.15885657 0.034762524
-0.04918889 -0.0070957383 -0.057581976 -0.16040774 0.119324096 -0.037199337 -0.15235688 -0.26497665
0.21318197 0.031047223 0.034332864 0.14122029 -0.08514971 -0.06942461 -0.13538492 -0.19482388
0.04595906 0.13463393 -0.06637762 0.018135862 0.046696734 -0.06626934 0.06522757 0.0009216893
-0.14214371 0.20854758 -0.051930275 0.078644015 -0.21355039 0.03373319 0.116594076 0.24576432
-0.07711293 -0.14183415 -0.05305857 0.11080012 0.04127957 -0.1894928 0.12211399 -0.071233675
0.08669904 -0.04206094 0.079378 0.046942886 0.021084378 0.21390603 0.14568284 0.078790195
-0.18450762 0.064858586 -0.016484914 -0.15983663 0.13109045 0.09505267 -9.435842e-05 -0.010415714
0.121575594 0.018937062 -0.023511 -0.062770285 -0.050338216 -0.17458022 -0.050381843 0.112245746
-0.06018083 0.13190986 0.012602036 -0.06930693 0.16717131 -0.089615785 0.057209034 0.07874828
-0.008379078 -0.00043933623 0.09990829 -0.0067776875 -0.13533564 0.15163653 -0.004124902 -0.0067137154
-0.02716269 0.1057969 -0.089889914 0.12573533 0.117310174 -0.1924407 0.018109271 -0.059925407
0.09848967 0.06557209 0.104127966 0.09156591 0.0003215932 0.011918508 -0.088132806 0.11011788
0.027224327 0.05503155 0.058546573 0.042230606 -0.062869415 0.029081156 -0.022159789 0.20298773
0.08096309 -0.1137574 0.035609957 0.063980676 -0.03179477 0.01934452 0.00393505 0.1269004
00000000: 82bc 9ebd 03b3 03be e67a 9c3d 571a d7bd
00000010: e761 14be e4aa 81bd 7e45 15bd 8b95 a63b
00000020: 1731 03be 4452 7e3c 8679 323e cb2c 7c3d
00000030: 4b5f 463e c79e 63bd 2d4e 793d 91a0 2e3e
00000040: 5eec 7f3d 9454 a73d fb1d 063c a269 cbbd
00000050: 19ea cf3c 95f2 c83b 0825 06bd c92d cbbd
00000060: d561 683d 079a ecbc d1a0 b33b b6f0 d5bd
00000070: bad8 16be 3c83 8ebc a840 d03c 6a5b f4bd
00000080: fd29 a13b fc72 a63d 7756 6abd 0cb2 ae3d
00000090: 1ef5 073e cdba 0b3e f7ca ba3b 564d 85bd
000000a0: cbe6 d8bd 74bb 203e e35b 28bc 93f1 a8bd
000000b0: 7189 d5ba 235f 833d 9950 10be 5a4b 023e
000000c0: be7d c0bd 00a2 debd dced e7bd 4408 63bd
000000d0: b02d acbd b621 343d df84 7c3d c7bf 193d
000000e0: 1771 5c3d 70ef a13c 10d6 e43d 5c17 a5bc
000000f0: ed47 6abd 463e cd3b 90d2 273c d4aa dabc
00000100: 7344 57be f852 6e3e e333 6e3d 8970 06be
00000110: ebb4 0a3b 1426 a63c 7c1f 97bd 05f8 743d
00000120: e7fd 8b3d 5f87 ee3d 689e 46bd 9fd7 463e
00000130: 756c 0d3b 7575 30be 2324 e1bc 521c d13d
00000140: 0b6e a4bd c2ea cf3d 373a 2bbe 0707 963d
00000150: efc4 163d 59a3 09be 1e07 253e b13b 82be
00000160: 9948 7d3c 1c8a 35bd 52da efbc 7b84 783d
00000170: dcd4 41be 2a4c fc3d 348c 03ba f65c f63c
00000180: cea3 89bd 202f f73c f396 0a3e 7b8f 1c3b
00000190: f58a 0c3d 654d 7fbe 2c83 c03d b514 7bbe
000001a0: b178 1abe e13d 803d 9912 b2bd e2de ac3d
000001b0: 5c85 ee3d 9bdd 7fbe f6ce 4dbe 1058 c63d
000001c0: c6f0 adbd eb11 31bd 008b e4bb d4a0 50bd
000001d0: 8d9b 1e3d 6ccc 8f3c 19a6 09be 6747 9e3e
000001e0: 8b3f a3bd 6536 bf3c dd49 bc3d 516e 45bd
000001f0: 5cf0 1dbc b0a7 6d3d 8b54 1b3c 2bae c63d
00000200: 5091 fbbd d3f2 1a3d cee4 543e f66c 17bd
00000210: 1973 34bc 1c5f f83d 47b6 b7bb d345 a43c
00000220: 668f 6bbe 0aa7 9bbd 2222 c43d 462a 2d3d
00000230: f149 4f3d 2ab2 a03a 4cab 22be 2663 0e3d
00000240: 4a7a 49bd 5e83 e8bb 14db 6bbd ed41 24be
00000250: 3160 f43d 555e 18bd 7103 1cbe 05ab 87be
00000260: 604c 5a3e bf56 fe3c 9ea0 0c3d 0d9c 103e
00000270: f962 aebd 7d2e 8ebd 58a2 0abe e97f 47be
00000280: 913f 3c3d 7add 093e fdf0 87bd a991 943c
00000290: 1345 3f3d 38b8 87bd 0896 853d 869d 713a
000002a0: 1f8e 11be 7f8d 553e d7b4 54bd 1d10 a13d
000002b0: f4ac 5abe d02b 0a3d e0c8 ee3d a4a9 7b3e
000002c0: 62ed 9dbd f93c 11be f153 59bd 2ceb e23d
000002d0: c414 293d 670a 42be e616 fa3d f6e2 91bd
000002e0: 448f b13d 1848 2cbd ef90 a23d 2f47 403d
000002f0: 25b9 ac3c 2f0a 5b3e e22d 153e c15c a13d
00000300: 91ef 3cbe 94d4 843d 5f0b 87bc 37ac 23be
00000310: 933c 063e f9aa c23d 4ae2 c5b8 aca6 2abc
00000320: a0fc f83d e621 9b3c 249a c0bc b58d 80bd
00000330: 722f 4ebd 28c5 32be 315d 4ebd 19e1 e53d
00000340: 2d80 76bd 6113 073e c578 4e3c cbf0 8dbd
00000350: f52e 2b3e 7b88 b7bd 0554 6a3d c746 a13d
00000360: 6648 09bc b656 e6b9 b89c cc3d 5d17 debb
00000370: 6d95 0abe 9b46 1b3e 302a 87bb bafe dbbb
00000380: 4a84 debc 0cac d83d 3418 b8bd c3c0 003e
00000390: 5140 f03d 2d0f 45be e559 943c 5874 75bd
000003a0: f4b4 c93d a94a 863d 0b41 d53d e886 bb3d
000003b0: 829b a839 d945 433c f97e b4bd 7c85 e13d
000003c0: 8d05 df3c c368 613d 88ce 6f3d 00fa 2c3d
000003d0: aec1 80bd 9b3b ee3c 7288 b5bc 04dc 4f3e
000003e0: facf a53d a4f9 e8bd bfdb 113d 4d08 833d
000003f0: 3c3b 02bd 6678 9e3c 98f1 803b 2ef2 013e

lstm.bias_ih_l1 f4 [256]
0.046695147 0.117354505 0.008292785 -0.013544404 0.02143321 0.0748105 0.117055565 -0.1209407
0.16774458 -0.054767292 -0.0096247075 0.07265657 -0.08188148 0.0012693107 -0.079332456 0.1063192
0.11768134 0.005615591 0.117930785 -0.009611706 0.09462646 0.020001512 -0.05269835 0.07437615
-0.050320093 0.024042083 -0.08120598 0.13115014 -0.07855425 0.15457945 0.0034905819 -0.033814408
0.10306987 0.10119638 -0.018901525 -0.076035865 0.15032704 -0.05237548 0.07182232 -0.07550252
0.020251038 0.033532538 0.14222248 -0.07582178 0.018704578 -0.10054353 0.1288887 0.059393104
0.012938834 0.035586257 -0.06771035 -0.1621195 0.08989284 0.007199521 -0.06432143 0.042261023
0.04918615 0.09847772 0.0049329936 0.008381134 0.0012336017 0.15954934 0.09396944 -0.077965446
-0.05401541 -0.032848403 0.045640554 0.069719575 -0.0038626976 -0.06886731 0.043365095 0.14623006
0.12662552 0.14539446 0.16704987 -0.07853698 0.13918498 0.04827001 -0.068269804 0.09510356
0.14845997 0.10286321 0.061525732 0.10768934 -0.0754686 0.1570498 -0.020897701 0.06671605
-0.035216928 -0.043398183 -0.045114275 0.106170066 0.111007966 0.025923992 -0.0009005121 0.12577921
-0.009556414 0.109620795 0.1357696 0.0959553 0.00670273 0.15258664 -0.11038301 -0.003287955
-0.07314963 -0.024112161 -0.07407075 -0.029054891 0.119556576 0.028428959 0.03244535 -0.07449452
0.051537413 -0.0243782 0.07546192 -0.101664245 0.10937721 0.17139141 0.024067754 0.1305834
0.011066177 0.052007716 -0.049912576 0.14333709 -0.043594588 0.04082424 -0.0761499 0.019939903
-0.11347929 -0.17176469 0.09870894 -0.115274705 -0.03765558 -0.08951169 -0.058134187 -0.056246765
-0.049965817 -0.11268871 -0.044230547 0.05567093 0.010894852 -0.09799937 -0.122409254 0.097047076
-0.054735046 -0.1078495 0.07529744 -0.11164607 -0.07407614 0.041881736 -0.15605083 0.11858089
0.10054903 -0.08799795 0.024699742 -0.024831828 0.08541928 0.068853214 0.079688855 0.09253388
-0.07361322 0.0047628577 -0.016997693 0.051220383 0.15966977 0.09787371 -0.007826711 -0.088067465
-0.07050388 0.10946234 -0.0066154925 -0.07702604 0.02227746 -0.06682556 -0.124104 -0.0771956
0.011001796 -0.16235 -0.106565244 0.04338945 0.071448356 -0.10573599 -0.020683516 0.09196888
0.06499208 -0.0020372386 0.049094953 0.077169396 -0.10820617 0.08933097 -0.078118846 -0.095614076
0.0008379498 0.0005262202 0.0800831 0.0045811995 0.1143929 0.103652716 -0.105259225 0.129953
0.13492177 0.09444875 -0.04497839 0.0399413 -0.089783855 0.06374308 -0.047705792 -0.0630705
-0.09533001 -0.08591183 -0.110608324 -0.0011911828 0.17671798 0.10770501 -0.0065293224 0.0679831
-0.08164946 0.09427744 0.035509586 0.09929087 -0.12312333 0.0022338415 -0.053182837 0.019552847
0.09186448 0.1093119 0.091448314 0.031865053 -0.09608044 0.04091238 0.054408364 0.1543009
0.14230305 -0.08349741 0.02743834 -0.06860944 0.12696569 0.032154776 0.09377414 -0.09406611
-0.08203945 -0.0146456575 -0.042918373 0.042155545 -0.08667275 0.0011767377 -0.058195338 0.00020790825
-0.06845175 0.12716213 -0.008811826 0.12107493 0.09107217 0.023212785 0.08096836 -0.027130786
00000000: 6943 3f3d 8f57 f03d 76de 073c 59e9 5dbc
00000010: b394 af3c 3f36 993d d4ba ef3d c2af f7bd
00000020: 3cc5 2b3e ab53 60bd f3b0 1dbc f8cc 943d
00000030: 7ab1 a7bd 005f a63a 0e79 a2bd e1bd d93d
00000040: ea02 f13d fe02 b83b b285 f13d 6b7a 1dbc
00000050: 84cb c13d 36da a33c 3ada 57bd 8652 983d
00000060: 711c 4ebd e7f3 c43c 524f a6bd 394c 063e
00000070: 0de1 a0bd 134a 1e3e 3fc2 643b fa80 0abd
00000080: 4c16 d33d 0c40 cf3d 5fd7 9abc b1b8 9bbd
00000090: 55ef 193e ac87 56bd 9517 933d 11a1 9abd
000000a0: 81e5 a53c 6a59 093d c5a2 113e 7348 9bbd
000000b0: 583a 993c c4e9 cdbd 66fb 033e 2f46 733d
000000c0: 67fd 533c e5c2 113d b9ab 8abd a702 26be
000000d0: bd19 b83d f6e9 eb3b f4ba 83bd e519 2d3d
000000e0: 6b77 493d b0ae c93d f3a4 a13b 0651 093c
000000f0: ceb0 a13a e760 233e 0d73 c03d 59ac 9fbd
00000100: 433f 5dbd 0c8c 06bd 97f1 3a3d 23c9 8e3d
00000110: 5025 7dbb 4e0a 8dbd 999f 313d 55bd 153e
00000120: 1faa 013e 49e2 143e 1f0f 2b3e ffd7 a0bd
00000130: 8286 0e3e c6b6 453d 0ad1 8bbd a8c5 c23d
00000140: e405 183e f2a9 d23d 6802 7c3d 3b8c dc3d
00000150: 488f 9abd aad1 203e a831 abbc 6da2 883d
00000160: a03f 10bd 4bc2 31bd bfc9 38bd b16f d93d
00000170: 2558 e33d 8d5e d43c 5810 6cba 44cc 003e
00000180: 8192 1cbc de80 e03d 3007 0b3e 3684 c43d
00000190: 93a2 db3b ac3f 1c3e 7d10 e2bd bb7a 57bb
000001a0: 79cf 95bd de86 c5bc 68b2 97bd 8604 eebc
000001b0: 14da f43d d9e3 e83c 6ae5 043d 9590 98bd
000001c0: e518 533d cab4 c7bc c78b 9a3d 5835 d0bd
000001d0: 2901 e03d 3b81 2f3e bd29 c53c a8b7 053e
000001e0: e94e 353c 0b06 553d 2171 4cbd f5c6 123e
000001f0: 3d90 32bd 5137 273d 7bf4 9bbd 0259 a33c
00000200: d467 e8bd 15e3 2fbe ea27 ca3d 2515 ecbd
00000210: bd3c 1abd e851 b7bd 1d1e 6ebd 0263 66bd
00000220: f5a8 4cbd 57c9 e6bd 172b 35bd 3307 643d
00000230: 5280 323c e5b3 c8bd b4b1 fabd 9ec0 c63d
00000240: db31 60bd 33e0 dcbd 8b35 9a3d b2a6 e4bd
00000250: 3bb5 97bd 2f8c 2b3d cacb 1fbe 8ada f23d
00000260: a6ec cd3d 4538 b4bd 1d57 ca3c 1e6c cbbc
00000270: 4ef0 ae3d ea02 8d3d e933 a33d 6782 bd3d
00000280: 87c2 96bd bf11 9c3b bf3e 8bbc 77cc 513d
00000290: 7980 233e 0372 c83d 9b3b 00bc b75c b4bd
000002a0: 5764 90bd cb2d e03d c6c6 d8bb d4bf 9dbd
000002b0: 387f b63c d7db 88bd 3d2a febd ba18 9ebd
000002c0: e140 343c 143f 26be e13e dabd 23b9 313d
000002d0: 8453 923d 1c8c d8bd 7a70 a9bc 2e5a bc3d
000002e0: 911a 853d 3183 05bb ca17 493d fd0a 9e3d
000002f0: 329b ddbd 28f3 b63d c6fc 9fbd 50d1 c3bd
00000300: dca9 5b3a 0af2 093a 9c02 a43d e31d 963b
00000310: d346 ea3d e047 d43d 2692 d7bd 6612 053e
00000320: ef28 0a3e 596e c13d 433b 38bd 7d99 233d
00000330: 99e0 b7bd bb8b 823d 2667 43bd 1b2b 81bd
00000340: 613c c3bd 8bf2 afbd 9e86 e2bd 7621 9cba
00000350: 8ff5 343e 7294 dc3d edf3 d5bb b93a 8b3d
00000360: d537 a7bd 8814 c13d 8072 113d 0359 cb3d
00000370: 1628 fcbd a465 123b 3fd6 59bd 4b2d a03c
00000380: 7223 bc3d ebde df3d 4149 bb3d ee84 023d
00000390: d2c5 c4bd bd93 273d 4edb 5e3d 0e01 1e3e
000003a0: e4b7 113e b100 abbd 5fc6 e03c 1b83 8cbd
000003b0: 4b03 023e bab4 033d a80c c03d bca5 c0bd
000003c0: 4d04 a8bd 57f4 6fbc 2dcb 2fbd 4bab 2c3d
000003d0: 7c81 b1bd c43c 9a3a 3c5e 6ebd f201 5a39
000003e0: 6e30 8cbd ca36 023e 7a5f 10bc 22f6 f73d
000003f0: 0c84 ba3d bd28 be3c bdd2 a53d 6241 debc
