model/Bert_Adam_batch_size=400_epoch=50.pt (torch_old, 995858 bytes, 10 tensors)

lstm.weight_ih_l0 f4 [256, 768]
000000 c0 fc e0 bc 82 70 92 3d 4c c9 7f bb ad 7b d0 3d
       -0.02746427 0.071503654 -0.0039029894 0.10179839
000010 8a b3 ba bd 1e 77 5f bd 1f 97 24 3d 7d c4 ad ba
       -0.091162756 -0.05455696 0.040183183 -0.0013257411
000020 40 0b 6c 3d 24 9b 6d bd 9f 94 3b 3d fd f8 40 3d
       0.057627916 -0.05800928 0.045796033 0.047112454
000030 49 c1 26 3e cf 5d 05 3e 35 b4 e3 3d d9 da 20 3c
       0.1628467 0.13024066 0.11118356 0.009817802
000040 de 33 bc 3d 5f 58 f9 bd 13 3a 04 3e 12 69 02 bd
       0.091895804 -0.121750586 0.12912779 -0.031838484
000050 1f 6f aa bd 8c f2 89 bd bf 55 e7 3d e4 ce cd 3d
       -0.08321976 -0.06735715 0.11295652 0.10049227
000060 ca 47 24 3e ae 31 78 bd 72 66 54 3d 4b 0a c5 3d
       0.1604301 -0.060594253 0.051855512 0.09621104
000070 b4 dd c9 3b d5 a0 3a 3e cb bb 7f 3c d3 67 eb bc
       0.0061604623 0.18225415 0.015608738 -0.02873603
000080 77 a3 67 be 1f 6b bb bd fc e2 e4 3c 62 a0 0e be
       -0.2262095 -0.09151291 0.027940266 -0.13928369
000090 2f 87 b0 3d a7 f7 6a 3b 90 8a 35 3d 11 6a 85 bd
       0.08619534 0.0035853179 0.044321597 -0.06514371
0000a0 47 b3 d5 bd 5b d5 55 3a 5f 22 cd 3c 6d 20 6d 3d
       -0.10434585 0.00081570976 0.025040803 0.05789225
0000b0 2f d8 88 3d b6 c4 2e be be 74 81 3d 04 77 05 3d
       0.06681859 -0.17067227 0.06321095 0.032584205
0000c0 1d 78 8a bd 26 aa 6a 3d 63 a0 13 bd aa 88 dd bd
       -0.06761191 0.057291172 -0.03604163 -0.10817082
0000d0 10 ce b3 bc 7b 5a bd bd 92 2a d3 3d e1 92 43 3d
       -0.021948844 -0.092457734 0.10310854 0.047747497
0000e0 c2 19 bd 3d e9 87 89 bd ff 68 4b 3d f0 06 b9 bc
       0.092334285 -0.06715376 0.04966068 -0.022586316
0000f0 8a 1e d1 3c dd 74 a3 bd e1 06 9a 3d 48 a6 55 3c
       0.025527257 -0.07981274 0.07520843 0.013040133
000100 38 2f 6f bd e5 4b e4 3d b3 63 6a 3d 4a 86 a4 3d
       -0.05839464 0.11147288 0.057223987 0.08033426
000110 88 86 20 3d 34 a3 03 3e 82 f4 d9 3d fd ce c3 ba
       0.0391908 0.12855226 0.10642339 -0.0014939007
000120 26 8f 39 bd e0 d5 50 be 5c bf 6f 3d 90 b6 d1 3d
       -0.045302533 -0.20394087 0.058532104 0.10239899
000130 f7 23 37 bc 56 d0 a4 3c 0a 51 43 3c cd 7c 36 be
       -0.011178008 0.020118874 0.011921177 -0.17821045
000140 81 20 91 bc fe 57 fa 3d d0 61 a6 3d a7 71 c3 3d
       -0.017715694 0.122238144 0.08124125 0.09543162
000150 32 81 aa 3b f2 bd ba 3d 2e 7e 68 3d da a3 99 bd
       0.0052033896 0.091182604 0.05676096 -0.07501955
000160 a1 a9 be be 34 19 3b 3d f4 a2 30 3d d7 c2 41 3b
       -0.37238792 0.045678332 0.043124154 0.0029565596
000170 78 db ec 3d f9 de d7 bc 06 bc 06 bc 8d ad 25 bc
       0.11565298 -0.026351439 -0.008223539 -0.0101121785
000180 c6 e9 b9 3d b1 e3 10 bd d8 ca cb bd e8 28 1a be
       0.09077792 -0.035373393 -0.09950799 -0.15054667
000190 ed 01 d6 bc d2 c7 a9 bc 65 f1 fc bd e4 64 8d bd
       -0.026123965 -0.020725165 -0.1235073 -0.06904009
0001a0 4a 6b 85 ba 9f 43 7a 3d c4 5e 3b bd 20 ab fc 3d
       -0.0010179069 0.061099645 -0.045744672 0.12337327
0001b0 3a 28 38 3d c1 e8 6e 3d b2 a7 ce bd e0 f4 60 3d
       0.044960238 0.05832744 -0.10090579 0.05492103
0001c0 85 7c 13 3e 60 3e 36 be bb c5 20 3d 00 d5 13 be
       0.14402969 -0.17797232 0.03925107 -0.14436722
0001d0 19 ce 52 be 73 45 c5 3d 2d 2e b7 be 5d 51 16 bd
       -0.20586433 0.09632387 -0.35777417 -0.036698688
0001e0 e5 19 0c be 0f b2 ad bd 21 75 cd 3d f5 53 93 bd
       -0.13681753 -0.084812276 0.10032106 -0.07193748
0001f0 0f 49 43 bd c1 a7 2a 3c 41 85 02 3d af cf 0c be
       -0.047677096 0.010415972 0.031865362 -0.137511
000200 2b 51 99 3d 4d 22 2e 3d 00 28 b6 3c a2 68 a8 3d
       0.07486185 0.04251318 0.02223587 0.08223082
000210 53 80 48 be 57 38 7e be 29 b3 0b 3d 71 8e 05 3e
       -0.19580202 -0.2482618 0.034106407 0.13042618
000220 58 a0 4c 3d 27 ca a8 3d ab ab 26 3b 65 9a 82 3e
       0.049957603 0.082416825 0.0025431912 0.2550842
000230 06 ec 81 3d 3b 53 a5 bb 4a 15 b7 3d bc 7f c2 3c
       0.06343846 -0.0050453222 0.089396074 0.02374255
000240 73 a3 a3 3d 7b 5d 96 bd d7 54 f6 bd 1f 36 0f 3e
       0.0799016 -0.07342049 -0.12027901 0.1398549
000250 a4 c1 e0 bd 41 18 9c 3d dd fb 2a bd 3f 20 10 bd
       -0.10974434 0.076218136 -0.0417441 -0.035187002
000260 a4 79 dd bd 01 07 cf bd e3 47 f3 bd 11 3e ec 3d
       -0.10814217 -0.10108758 -0.11878946 0.11535276
000270 9c 26 af 3d 39 d0 15 bd 2f 02 fe 3d 6d ba e4 3b
       0.08552286 -0.03657553 0.1240276 0.0069802315
000280 06 15 bb 3d c9 97 1d 3d cd 26 0d 3e 02 06 38 bd
       0.09134869 0.03847483 0.13784333 -0.044927604
000290 b3 92 c4 3c fe 36 aa bc c2 45 e8 bd 8a f7 e1 3d
       0.023995733 -0.020778175 -0.1134143 0.110335425
0002a0 9e 3b 15 be bb 14 93 3d 37 73 96 bd f2 40 13 be
       -0.14573523 0.071816884 -0.07346194 -0.14380243
0002b0 a0 b7 d2 3c ba 0a 5f be d8 36 74 3c f3 d9 f7 3b
       0.025722325 -0.21781436 0.014905654 0.0075638234
0002c0 17 0f 87 3e 9b 4c 9a bd 73 55 1b 3e ad 84 15 bc
       0.263787 -0.075341426 0.15169315 -0.009125871
0002d0 a0 51 88 bd 34 bc d2 3d cf 91 12 be d3 12 bd 3e
       -0.06656194 0.10289803 -0.14313434 0.36928424
0002e0 7f 0f 98 3d 20 9a 40 3d ce 15 95 bd 46 f1 b3 3d
       0.07424831 0.047021985 -0.072795495 0.08786254
0002f0 58 f1 0c be 53 f3 b4 3d 92 2e f9 3c c9 c6 c5 bd
       -0.1376394 0.08835473 0.030417714 -0.09657056
000300 a2 a6 4f 3d a6 eb a7 3d 9e 54 d5 bd c8 a1 b1 bd
       0.050696023 0.08199243 -0.1041653 -0.086734354
000310 e4 4c 25 bc 57 36 b2 3d df 73 48 3d f7 30 46 bd
       -0.010089133 0.08701771 0.04893863 -0.04838654
000320 01 92 97 bd ba 9a 13 3e 49 97 08 3d 0b f4 9b bd
       -0.07400895 0.14414492 0.0333474 -0.07614907
000330 5e 46 c6 bd db 04 e0 3d 94 76 00 3b 27 7f eb bc
       -0.0968139 0.10938426 0.0019601928 -0.028747154
000340 21 19 86 3b 37 32 08 bc 47 a0 4c 3d 9d c6 76 3e
       0.004092351 -0.008312753 0.04995754 0.24099202
000350 4f c8 74 bd 8c e1 3d ba 64 03 04 be c6 88 6f be
       -0.05976134 -0.0007243387 -0.12891918 -0.23392019
000360 c2 0c 90 bb 43 8b 0d be c8 5d 27 bc 36 57 81 3d
       -0.004396052 -0.13822655 -0.01021523 0.06315462
000370 80 b8 f5 3c 44 4a 76 bc 7d 9f ee bd e7 94 96 3d
       0.029995203 -0.015032355 -0.11651514 0.073526196
000380 09 57 01 be d9 43 04 bd 80 db af 3d c7 26 7b 3d
       -0.12630858 -0.032291267 0.08586788 0.061316278
000390 1d 15 05 3d 49 01 dd bd a8 ed 06 3e 2f 53 3c bc
       0.03249084 -0.10791261 0.13176596 -0.011494442
0003a0 b9 23 1d 3d 58 30 3f bd d2 3e 35 3e 4c b4 bf 3d
       0.038364146 -0.046676964 0.17699745 0.09360561
0003b0 2d ab 76 be 15 4a 90 bc 96 6c f0 bd 15 db a8 3c
       -0.24088736 -0.01761345 -0.11739461 0.020612279
0003c0 f3 26 51 bd 50 d9 02 bd aa 16 aa 3c ef 5a df 3d
       -0.051062535 -0.031945527 0.02076276 0.10906016
0003d0 fe 13 85 3d 6d c9 c5 bc 71 c5 18 bd 2f 56 29 3d
       0.06497954 -0.024143899 -0.03729767 0.041341957
0003e0 13 2e 79 bd 9b 43 fb bd 6d 66 88 3a 9b 63 a0 bd
       -0.060834955 -0.12268754 0.0010406502 -0.07831498
0003f0 a4 38 0c 3e e5 2f e4 bd 00 d4 e2 3c 98 d2 72 bd
       0.13693482 -0.11141948 0.02768898 -0.05928287

lstm.weight_hh_l0 f4 [256, 64]
000000 12 b9 86 be 86 da d5 bb e0 8c fe bd f8 61 c5 3d
       -0.26313072 -0.006526294 -0.124292135 0.09637827
000010 f0 86 96 bd 3e 67 c1 3d f3 7e c9 3d 68 a6 81 bd
       -0.07349956 0.0944352 0.09838667 -0.063305676
000020 3f 8c 00 bd eb 6e 65 ba a2 a5 7f bd b5 c3 5c 3d
       -0.03138375 -0.0008752185 -0.06241382 0.05389758
000030 ef af 8c bd 86 1b 35 bd f0 c1 01 bd a0 d5 88 bd
       -0.06869494 -0.0442157 -0.031679094 -0.06681371
000040 fd 88 18 3e ab c5 f9 3d 62 d1 d4 bd a3 b8 10 3d
       0.14896007 0.12195905 -0.10391499 0.035332333
000050 b7 22 46 bd a5 2f 32 bb 7e 33 3e 3e aa 8c 87 bd
       -0.04837295 -0.0027189043 0.1857433 -0.066186264
000060 db 8b e6 bd ba 59 34 bd 61 58 2f be c1 46 d6 bd
       -0.11257144 -0.044030882 -0.17123558 -0.10462714
000070 50 39 03 be 2d b6 08 3d 29 a0 81 3d ed ec cc 3d
       -0.12814832 0.03337686 0.06329376 0.100061275
000080 ba a9 e9 bd 2c 05 7d 3d 62 e7 91 3c e0 61 d7 ba
       -0.11409326 0.06177251 0.017810527 -0.0016432367
000090 d7 b1 92 bc 37 18 da 3d 91 dd ba bc 44 7e b1 3c
       -0.017907066 0.1064915 -0.02281073 0.021666653
0000a0 81 1f 02 3d 81 70 3c 3e 87 e0 a7 bc e1 b9 20 3d
       0.031768326 0.18402292 -0.020492805 0.039239768
0000b0 5b f6 c1 bc f3 83 92 bd cf 48 dc 3c 87 8a f5 3d
       -0.023677042 -0.071540736 0.026890187 0.119893126
0000c0 5b 6c b4 bd d3 ba 03 be 19 79 4d be 0f e3 80 3c
       -0.0880973 -0.12864237 -0.20065726 0.01573327
0000d0 3d ff 31 bc 2a 63 52 be a2 ac 4b bd 9d 58 88 3d
       -0.010864076 -0.2054564 -0.049725182 0.06657527
0000e0 de 23 1e 3b ac 9a 8e 3d 56 00 04 3d 25 e1 3c bd
       0.0024130265 0.06963095 0.032226883 -0.046113152
0000f0 8d e9 3b bd de 89 0c bd 6f 22 6e 3d 1e 78 7b bd
       -0.04587703 -0.034311168 0.058138307 -0.06139385
000100 d1 7f c4 bc 04 22 97 3b 0b 25 30 3e 7d 66 ae 3c
       -0.023986729 0.0046122093 0.17201631 0.021289105
000110 36 05 ad bd 44 9c 59 3c e4 b8 94 bd 79 45 86 bc
       -0.084482595 0.013281886 -0.072618276 -0.016390549
000120 62 b8 b0 be 0b 74 ed 3d 97 d8 03 3e 9b c1 27 be
       -0.34515673 0.11594399 0.12875591 -0.16382448
000130 44 ed 83 3e 92 64 fc 3d cf 0f 8b 3c 10 1f 07 3d
       0.25766957 0.1232387 0.016975312 0.032988608
000140 cc 0f af bd d0 24 9f 3e cb 29 8f be 26 29 60 3e
       -0.08547935 0.31082773 -0.27961573 0.21890697
000150 fb ed bb 3e f3 ca 8b 3c 3a 15 ac bd a9 d3 8c bd
       0.36705002 0.017064547 -0.08402486 -0.068763085
000160 13 1f 47 bb 7e b3 e6 bd f1 98 1c 3e 7c 4f 59 bb
       -0.0030383512 -0.11264704 0.15292718 -0.0033158949
000170 91 b2 86 3d 57 da 2a be 4c 4f 66 be 48 2d e3 3e
       0.065770276 -0.16684853 -0.22491187 0.44370484
000180 c4 9a 9a be 7b 20 77 bc da f5 37 bd 3e 3c 18 be
       -0.30196202 -0.015083428 -0.044912197 -0.1486673
000190 10 42 9b be 9a 33 57 be 45 44 9b bd 86 85 df bc
       -0.3032384 -0.21015778 -0.07581381 -0.027285349
0001a0 3d c2 9f 3d e3 02 bb bd d9 e8 48 bd 3f 10 8b be
       0.0780072 -0.0913141 -0.049050186 -0.27160832
0001b0 e1 19 2f bc 24 70 8d bd 4a f2 06 bd 17 b6 ac bd
       -0.010687322 -0.06906155 -0.03294591 -0.084331684
0001c0 cd 7f a0 be 45 9d 8e bc 82 f3 a1 3d bd 62 c1 be
       -0.31347504 -0.017408976 0.079077736 -0.37770644
0001d0 91 91 98 bb ee 15 5e 3c 87 70 fd 3d fe 23 15 3d
       -0.0046560247 0.013555033 0.123749785 0.036411278
0001e0 c4 ec d3 3d 58 5b 4c be f8 c3 aa 3b 91 4a ed bd
       0.10347894 -0.1995672 0.0052113496 -0.11586488
0001f0 4c 0a b7 3c a2 4f b9 bd 71 27 d3 bc ba 12 14 3e
       0.022343777 -0.09048392 -0.025775643 0.14460269
000200 f1 6d 06 bd ce c5 87 3d 1b be 8a bb 68 f0 2d bd
       -0.032819692 0.06629525 -0.004234088 -0.042465597
000210 27 9c 4e bd 5a aa 41 3e ff 56 36 3e 9b 92 09 be
       -0.050441887 0.1891264 0.17806624 -0.13434832
000220 d9 a1 01 be 09 96 5e be a3 06 79 bd 03 73 28 3d
       -0.12659396 -0.21736921 -0.060797345 0.04112531
000230 b7 22 84 3d da 74 28 3e 97 04 45 3d f1 f2 cb bc
       0.06451934 0.16450825 0.04810008 -0.024896117
000240 91 79 b0 3d 0b 37 1f 3d 74 51 37 be 9c e7 ed 3d
       0.08616937 0.038870852 -0.17902166 0.116164416
000250 8f 15 29 bb 13 f8 1c 3e a0 06 08 3d ce cf ab 3d
       -0.0025800203 0.15329008 0.033209443 0.08389245
000260 c6 04 ed bc 42 4a ad 3d 9d ae 22 3d 15 9b 07 3e
       -0.02893294 0.08461429 0.039717305 0.13242753
000270 04 ad e3 3d b5 b9 ac bc 48 36 3f be 99 42 7a 3e
       0.111169845 -0.021084646 -0.1867305 0.24439467
000280 4d 9f 22 be 9c dc 56 be 94 89 a8 bc ac 91 33 bd
       -0.15881081 -0.20982593 -0.020573415 -0.043840095
000290 dc 74 22 be bd af d7 bc 9c 29 40 3d 0b 5d da bd
       -0.15864891 -0.026328916 0.04691468 -0.10662278
0002a0 39 28 08 3e a8 17 a3 bc 1d 65 f9 3c 6a 45 e2 3c
       0.13296594 -0.019908741 0.030443722 0.02762099
0002b0 98 e9 b3 3d a2 28 c9 bc e8 65 23 3e 11 e7 ed bc
       0.08784789 -0.024555508 0.15956843 -0.029040845
0002c0 4e 51 af bd af 58 65 be 3a d7 d2 3d 58 2b fa bd
       -0.085604295 -0.22397111 0.102949575 -0.122152984
0002d0 c4 b3 ef bd 3e 25 4c 3b 60 5e 66 3d 29 f6 83 3d
       -0.117042094 0.0031150128 0.056242347 0.06443436
0002e0 69 31 70 3d 9e 31 29 bc 92 f0 1e 3e db 76 89 3d
       0.05864087 -0.010326771 0.15521458 0.06712123
0002f0 72 66 b8 bc 5f df 1d be f4 c7 db ba 12 10 71 3d
       -0.022509787 -0.1541724 -0.0016767965 0.058853216
000300 ef 85 59 bd 8d 85 79 3d dd f0 cd 3c 57 51 53 be
       -0.053106245 0.06091838 0.025139267 -0.20636497
000310 ec a9 62 3d 16 90 df 3d 90 79 8b 3d 6f d9 93 3d
       0.05533783 0.10916154 0.068102956 0.072192065
000320 8c fd 8e bd 51 03 38 3e 1e 59 32 3d 08 7f 00 bd
       -0.06981954 0.17970015 0.04354202 -0.031371146
000330 a3 2f 32 bd 4a 41 06 be 31 f3 a8 3d 9e 0a cc bc
       -0.04350246 -0.13110843 0.0824951 -0.024907406
000340 c6 6e f1 3d e0 ad 87 3d 7e 4e ab bd b6 56 c0 bc
       0.117887065 0.06624961 -0.083645806 -0.023478847
000350 86 1d d6 bd 78 80 25 bc 02 fb f4 3d 2a b0 bd 3d
       -0.1045485 -0.01010143 0.119619384 0.09262116
000360 38 d4 b1 bd 25 34 a3 3d bf 55 84 bd b9 7d 02 be
       -0.08683056 0.0796893 -0.06461667 -0.12743272
000370 b0 8f e1 3c a3 19 8e bb c1 b5 e0 bc ed 1a 45 3d
       0.027534336 -0.004336552 -0.027430417 0.04812138
000380 c7 16 1b bd ae b7 c6 bd a2 08 8c 3b 27 f7 9d bb
       -0.03786352 -0.09703003 0.00427349 -0.0048207226
000390 16 d6 18 3d 87 a9 6b 3e 4d 84 c3 3c df dd aa bc
       0.037313543 0.23013888 0.023866797 -0.02085775
0003a0 a1 d5 a4 bc eb d9 1a bd fb d3 0c be 57 ad c6 bd
       -0.020121397 -0.03780548 -0.13752739 -0.09701031
0003b0 a0 55 77 3d e8 bf d3 3d fc 9a d3 bc dc 01 04 3e
       0.060384393 0.103393376 -0.025830738 0.12891334
0003c0 ac 31 54 bd 03 99 a8 bc 5b fc 3b bd 48 42 8b bd
       -0.051805183 -0.020580774 -0.04589496 -0.067997515
0003d0 15 4c a8 3d 0c 25 62 be 38 f7 88 be 0a e7 3a 3d
       0.082176365 -0.22084445 -0.26751113 0.045630492
0003e0 cb 90 21 be 1a 16 39 3d 6b b9 b4 bd 97 f7 74 3c
       -0.1577789 0.045187093 -0.08824428 0.014951608
0003f0 9f 55 ec 3c e6 f2 a6 bd d7 e9 26 bd e7 c0 72 bd
       0.028849421 -0.08151798 -0.04075035 -0.059265997

lstm.bias_ih_l0 f4 [256]
000000 00 d6 c9 bd 10 64 84 bc ed fa a3 bd 33 71 ff 3b
       -0.098552704 -0.016160995 -0.08006845 0.007795477
000010 80 bc 88 3d a9 d2 f3 3d bc ad 27 3d 1b 9c b7 bd
       0.066765785 0.119054146 0.04093717 -0.08965322
000020 9d 8c 3b bd ba b8 3a bc 52 64 88 bd 9c 17 7b 3d
       -0.045788396 -0.011396581 -0.066597596 0.061301813
000030 87 d2 55 bd f6 8a ce 3d 96 22 ce 3d 81 31 bd bd
       -0.052202728 0.100850984 0.100651905 -0.09237958
000040 2d 00 6f bd 57 17 ee bd 21 ea 0a 3d 03 fd de 3d
       -0.058349777 -0.116255455 0.03391469 0.10888102
000050 46 b1 e6 3d df af 65 bd ab 2c a8 bd 14 0b 95 3d
       0.11264281 -0.056075927 -0.08211645 0.072775036
000060 6b ac 09 3e ba ac bd bd 35 c8 aa 3c 9b c0 4f bd
       0.13444678 -0.092614606 0.02084742 -0.050720792
000070 e5 a9 a6 3d 6c aa 67 bd c1 d0 1e 3d 58 fc d5 3d
       0.081378736 -0.05655901 0.038773302 0.104485214
000080 09 d8 38 bd f8 7e c5 3d 06 e3 b8 3d e8 b4 c8 3d
       -0.045127902 0.09643358 0.09027676 0.0980013
000090 1a 81 73 3d 32 b6 fa 3b bf 5d ff bc 15 d2 21 3d
       0.059449293 0.007651114 -0.031172631 0.03950699
0000a0 e1 6d 87 3d 1a af 8f bd be 00 e6 3d 18 91 25 3d
       0.066127546 -0.0701582 0.1123061 0.040421575
0000b0 0a 84 8b bd f0 9e fe 3c d4 4e 98 3d 0c 55 ea bd
       -0.06812294 0.031081647 0.0743691 -0.11442003
0000c0 88 01 7d bd 18 4b 0a bd b5 33 cb 3d ce dd b3 bd
       -0.06176904 -0.03376302 0.09921972 -0.0878254
0000d0 07 89 8f 3d fa 6f a7 3d 1e 62 de bc 46 0a db bd
       0.07008558 0.08175655 -0.027146395 -0.10695319
0000e0 f9 ff e2 3d 14 4b 52 bd 84 09 eb 3c d8 80 2e bd
       0.11083979 -0.05134113 0.02869106 -0.042603344
0000f0 a0 65 08 3d d1 0c ce 3c 8a f1 97 bd 82 4e 71 3d
       0.033300042 0.025152596 -0.07419117 0.05891276
000100 96 4b 14 bd 1d 1d 95 bd 71 fc aa 3d 1f e8 13 bd
       -0.036204897 -0.072809435 0.083489306 -0.03611004
000110 82 75 ad 3d 68 c9 6c 3d 96 0f 83 3d 2b f2 62 3c
       0.084696785 0.057809263 0.06399457 0.013851683
000120 30 a4 9e bd bd 77 75 3d 72 16 1d 3d 4f 74 86 3d
       -0.0774616 0.059928644 0.038351484 0.06565153
000130 25 b7 40 3b 60 55 c1 bd 82 c2 02 bd e4 3c 58 bd
       0.0029406038 -0.09440112 -0.03192378 -0.052792445
000140 1f 4c 95 bd 19 0b 9b bb 87 a9 88 bc c5 71 93 3c
       -0.072899096 -0.0047315476 -0.0166824 0.017998585
000150 90 43 ff bd 3b 32 ca 3d 99 76 06 bd 33 3d f6 3d
       -0.124640584 0.09872862 -0.032827947 0.120233916
000160 ad d4 49 bd 66 9c 84 bd 8f b1 6a 3c fe 9b 29 3d
       -0.04927509 -0.06475143 0.01432456 0.04140853
000170 df 43 f1 3d 4f 6f b3 3d 48 0a a9 3c 19 8a 10 3e
       0.117805235 0.08761465 0.020634785 0.1411518
000180 fe 4c 1e bd e8 8c 0b 3d 6a d8 a2 3c 4c c4 41 bd
       -0.038647644 0.034069926 0.019878585 -0.047306344
000190 38 15 87 3d f3 59 25 3c 76 aa 80 3b d3 a4 e1 3c
       0.06595844 0.010092246 0.0039265705 0.027544415
0001a0 52 fe 43 bd 4b f6 f4 bc da 50 ec 3d c4 f5 6e 3c
       -0.04784996 -0.029902598 0.11538859 0.014584962
0001b0 9e 58 f3 3d 8e b2 65 bd 65 87 a1 3d 5f dd b8 bd
       0.11882137 -0.056078486 0.078871526 -0.09026598
0001c0 5b 62 cd bc b2 fc 28 3e 13 da 87 bc af c4 9f bd
       -0.025071314 0.16502646 -0.016583478 -0.07801186
0001d0 b3 7a 66 bb fb fa c8 bc 1d ba a5 3c 98 93 84 3c
       -0.003516835 -0.02453374 0.020230347 0.01618366
0001e0 95 32 a1 3d e5 6e 34 bd df 11 44 bd 8d 89 20 3d
       0.07870976 -0.04405107 -0.047868606 0.03919368
0001f0 8b a8 b5 3c f9 1e ba bd b5 97 af bd c0 36 bf 3d
       0.022175094 -0.09087939 -0.08573858 0.093366146
000200 a2 f0 a6 3d b5 f8 95 bd 24 4d 82 bd f9 2d 54 bd
       0.08151366 -0.07322828 -0.0636237 -0.051801655
000210 c3 04 e5 bd e1 ac 85 3d d4 2a 74 bd a2 e4 69 3d
       -0.11182549 0.06527115 -0.059611157 0.057102807
000220 47 66 b8 3d f9 e9 21 bd 02 f2 5d bd d6 77 99 3d
       0.09003883 -0.039529774 -0.054185875 0.0749356
000230 08 ee b0 bd 88 4a b3 bc 35 cd af bd c1 6c 1e 3c
       -0.08639151 -0.021886125 -0.08584062 0.009669484
000240 e3 cd ec 3d 97 71 63 3d 97 e0 93 3d c3 94 82 3c
       0.11562707 0.05552825 0.072205715 0.015940076
000250 09 13 c9 3c 29 07 b8 bd 50 76 c5 bb db 8e d2 bd
       0.02454521 -0.08985741 -0.006026067 -0.10281154
000260 73 73 ec bd 78 9f ba bd 17 3c 08 3d 6b 97 11 3e
       -0.11545458 -0.091124475 0.03326043 0.14217918
000270 ca 99 0c bd 5b 7e 90 bd e8 68 f1 3c 82 80 89 3c
       -0.034326352 -0.070553504 0.029468969 0.01678491
000280 59 2a da bd 55 36 d4 3d 68 e3 f8 bd 8b 48 10 3d
       -0.106526084 0.103619255 -0.12152749 0.035225432
000290 21 2d a7 bc ec 16 cf bd de 2b 95 3d 35 3a d9 bd
       -0.020407261 -0.10111794 0.072837576 -0.10606805
0002a0 4f 11 13 bd 72 a0 84 bd c5 d9 f5 bc 29 c3 82 3d
       -0.03590518 -0.06475915 -0.030011067 0.0638488
0002b0 dd 96 f3 3d 84 db 8c 3d d2 74 21 bd 40 fe dc 3d
       0.11894009 0.06877807 -0.03941805 0.10790682
0002c0 03 7a c4 3d b0 44 c9 bc b8 5d c7 bd ee f0 03 3d
       0.095935844 -0.024568886 -0.09734672 0.03221219
0002d0 0b 43 54 bd 92 d2 90 bc 73 0f bb 3d 16 b4 8b bc
       -0.05182175 -0.017678533 0.09133806 -0.017053645
0002e0 fb 90 83 bc 16 35 f8 bc 45 af 91 3d 2e ab bd bd
       -0.016060343 -0.03029875 0.07113508 -0.092611656
0002f0 08 ec ed 3d 3d ba 99 bd d5 8f 7d 3c 7c 94 f2 bd
       0.11617285 -0.07506225 0.015476187 -0.118447274
000300 1e 89 82 3c 00 b2 14 3d 4e dd 0b 3d 0d 86 c7 bd
       0.015934523 0.036302567 0.0341466 -0.09742365
000310 4c 0f 14 3e 11 b1 45 3d 20 4b c6 bd c3 f5 fd 3d
       0.1445896 0.048264567 -0.09682298 0.12400391
000320 ff 0d e7 3d 4e c0 bb 3c e9 5c 59 3d d1 a8 75 3d
       0.112819664 0.022918846 0.05306712 0.05997545
000330 c0 72 c6 bc 89 67 a4 bc d2 df cf 3d bd 0b 8c 3d
       -0.024224639 -0.0200689 0.10150112 0.068381764
000340 ff 54 db 3c e0 72 1e 3d 94 1b 93 bd 62 0a f9 bb
       0.026773928 0.038683772 -0.071829945 -0.0076001147
000350 cb 61 b1 bc 15 dd d0 bd 20 1c 5b bd 05 50 8b bd
       -0.021653077 -0.10198418 -0.05349362 -0.06802372
000360 ba 5c 05 bd 10 54 76 bd 54 4f b0 3b 5d 9a f2 3c
       -0.032559134 -0.060138762 0.0053805504 0.029614622
000370 b3 c8 bc bd 71 96 83 bd b2 03 21 3d 73 f2 9d bc
       -0.09217968 -0.06425179 0.039310165 -0.019280648
000380 96 86 3c bd 53 1f 48 bd c1 6f 44 bc 82 ec ca 3c
       -0.04602679 -0.048857998 -0.011989535 0.024770979
000390 9b 13 a6 3d 93 e4 5c 3d de 64 df bc 31 d2 9a 3d
       0.08109208 0.053928923 -0.027269777 0.07559622
0003a0 59 9c f8 3d 1c 90 cb 3d df ec 8e 3b 83 e1 d7 3d
       0.12139196 0.09939596 0.0043617333 0.1054106
0003b0 ba a8 bc bd 1f a1 85 3d eb 45 6e 3d b3 ae e3 bd
       -0.092118695 0.06524872 0.058172148 -0.111173056
0003c0 e9 7d fb 3d 25 e5 64 bb aa b6 94 3d 1c 25 b1 3c
       0.12279875 -0.003492662 0.07261403 0.02162414
0003d0 5e cd a8 3d 20 57 20 3e 79 11 a7 3d f1 b4 e1 3d
       0.08242296 0.15658236 0.081576295 0.1102084
0003e0 b0 92 03 3e 5e 0c a2 3d 75 3f 63 3d 5c 59 84 bc
       0.12848926 0.07912515 0.05548044 -0.016155891
0003f0 a0 bd 36 bd 6a 15 34 b9 9a 2f af bd da 29 67 3d
       -0.044614434 -0.00017174115 -0.08554001 0.056436397

lstm.bias_hh_l0 f4 [256]
000000 5f 19 df bc cc fe e3 bb d4 0e 19 bd 63 c3 a2 bd
       -0.027233778 -0.0069578644 -0.037367657 -0.07947423
000010 c0 fb 87 bd 3e d1 79 bd 7f f5 88 bd 47 55 a8 3c
       -0.066398144 -0.060990565 -0.0668745 0.020548476
000020 2f 2e ab 3d b8 3d 8c 3d fb 59 5b bd af 13 d7 bc
       0.08358418 0.068477094 -0.05355261 -0.026254503
000030 0f cd 33 3c 24 b7 4b bc 73 0f 89 bd ed 07 e0 3d
       0.010974183 -0.012433801 -0.066924 0.10939012
000040 3f f8 1f bd ef d4 b4 bd d8 20 1c bd 71 35 6f 3d
       -0.039055105 -0.08829676 -0.03811726 0.058400575
000050 9c 8d ef 3d e8 83 fc bd 85 40 03 bd 92 2d 15 3d
       0.11696932 -0.123298466 -0.032043952 0.036420412
000060 5b a3 94 3d d8 1a bb 3c 35 01 1b 3d 90 1f 8f bd
       0.0725772 0.022839949 0.037842948 -0.06988442
000070 73 ea ba 3d b2 e6 4a bd 92 2f c9 3c 48 0a 13 3d
       0.09126749 -0.049536414 0.024558816 0.035898477
000080 13 d5 94 bd 0b 87 77 bd 6b 32 d4 3c 45 f0 85 bc
       -0.07267203 -0.06043152 0.025902947 -0.016349921
000090 f2 23 73 bd d3 4c ec 3d 57 e2 11 3e 1f 33 07 3d
       -0.059360452 0.115380906 0.14246498 0.033007737
0000a0 7b d9 a1 bc b1 ad 90 3d d8 fb 7c bd d2 c7 8f bc
       -0.019757023 0.07064379 -0.061763614 -0.017551336
0000b0 11 33 47 3d d1 66 16 3d 7e c2 ab bc b5 36 1c bd
       0.048632685 0.036719147 -0.020966765 -0.03813811
0000c0 e2 eb 33 bb c6 5e d1 3d 45 e2 b6 3d 9a 0c 38 bd
       -0.002745383 0.10223155 0.08929876 -0.044933893
0000d0 e6 7e 46 3c 26 6e e3 bd 52 76 bf 3d f2 9d 7f bd
       0.012115216 -0.111049935 0.0934874 -0.062406488
0000e0 f1 bd 5c bd 20 64 ae bc 18 29 f4 3d 24 37 21 3d
       -0.05389208 -0.021287978 0.119219005 0.039359227
0000f0 5f bf 15 bc 90 4d 76 3d 3a 1b 0e bc bc 93 f6 3d
       -0.009139865 0.060132563 -0.0086734835 0.12039897
000100 08 ee 70 bd 58 44 1a bd af 40 b5 3d e7 b4 f9 bd
       -0.058820754 -0.037662834 0.08850228 -0.121927075
000110 0c 5d 61 3d 23 22 fc 3d 7d f2 46 3d 28 52 95 bd
       0.055020377 0.123111986 0.0485711 -0.07291061
000120 9c 95 38 3d 0f 80 21 3e 3c b2 a4 3d 70 4c f4 3d
       0.045064554 0.15771507 0.08041808 0.11928642
000130 56 fd 83 bd fe 32 14 3c 9a 91 38 bd 44 1f c9 3d
       -0.06444804 0.009045361 -0.04506073 0.098204166
000140 1e 4a a4 3d 2e 6a ac bd 74 8d 80 bd 6b 3f 83 bc
       0.08021949 -0.0841869 -0.0627698 -0.016021451
000150 88 6f be bd f3 04 8d bd 80 82 b1 3d a6 2c b4 3d
       -0.09298617 -0.068857096 0.08667469 0.087975785
000160 bd 09 c6 bd e7 01 02 bb d9 25 07 3d 9a 02 6e bd
       -0.09669826 -0.001983756 0.03299508 -0.05810795
000170 ef 41 21 3d 91 16 bd 3c dd 23 43 3d 61 46 64 3d
       0.03936952 0.02308205 0.047641624 0.05573118
000180 74 5c e1 3d 8a 6a 95 bd e7 4d b3 3d 54 cb 66 bc
       0.11003962 -0.07295711 0.08755093 -0.014086563
000190 30 1f b1 3d d5 93 8f bc 09 80 e9 3d 1e e6 95 3d
       0.08648527 -0.017526546 0.11401374 0.07319282
0001a0 cd 22 a7 bc 3c a2 a4 bd 9b 46 d7 3d 3f ad 60 3d
       -0.020402336 -0.08038756 0.10511514 0.05485272
0001b0 b0 38 fe 3d 50 19 03 3d 3e 55 8b 3d 25 09 a6 bc
       0.12413156 0.03200656 0.06803368 -0.020268032
0001c0 36 44 ac bc e1 8b c3 3d c3 d8 6e 3d 7d 39 ed bc
       -0.02102862 0.09548164 0.05831219 -0.028958077
0001d0 23 53 f3 bb 0e 81 95 bc 97 b8 01 bc dd bf be 3d
       -0.007425682 -0.018250015 -0.007917545 0.09313939
0001e0 8c 27 05 3d 40 c0 07 bd da 32 93 3d 0f 1f 79 3d
       0.032508418 -0.03314233 0.071874335 0.060820635
0001f0 9f e2 6b bc 06 44 80 bd 97 3f cc bd 7b 6e bc 3c
       -0.014397292 -0.062629744 -0.09973066 0.0230019
000200 84 dc 28 3d 5e 80 62 3c a1 4b f8 3d 3f 73 06 bd
       0.041225925 0.01382455 0.121238 -0.03282475
000210 8d dd b6 bd 89 c0 a7 bd b3 7a 07 bd e6 f7 04 be
       -0.08928976 -0.0819102 -0.033076 -0.12985191
000220 03 17 3c bd 5d a1 31 bd fc ba 80 bd 1e e6 c8 3d
       -0.045920383 -0.04336678 -0.062856644 0.09809516
000230 94 47 88 3d ed cb ee bc 33 14 a1 bd 82 8d b8 3d
       0.066542774 -0.029149974 -0.07865181 0.090113655
000240 6f 5c ed 3d 49 49 f0 bc 23 7c c3 bd 99 08 02 be
       0.11589896 -0.02933182 -0.095451616 -0.12698592
000250 61 cc 2d 3d 53 d7 b5 bd b7 3a 6f 3d 42 da 32 3d
       0.04243124 -0.088789605 0.058405604 0.043665178
000260 80 dc 43 bd 9e 1d 03 3e bd 3a f8 3c 1d 56 0c 3e
       -0.047817707 0.12804267 0.030301446 0.13704725
000270 c2 10 1f bd 94 ae 3c 3d 12 3a 81 bd 49 29 4b 3c
       -0.03883434 0.04606493 -0.06309904 0.01239998
000280 fd 2b eb bd ef b9 a3 3d ff 9c 98 3c c2 7f 0d bd
       -0.114829995 0.079944484 0.01862955 -0.034545667
000290 da 68 bf 3d 10 8f a5 bd 1a ea 05 be 23 fb eb bd
       0.09346171 -0.08083928 -0.13077584 -0.1152251
0002a0 8c 6d a4 bd e7 e8 68 bd bc b5 94 bc a3 65 91 3d
       -0.08028707 -0.056862738 -0.018153064 0.07099464
0002b0 7b 0c b9 bd e6 0b 85 bd 67 4c 69 bd 40 03 c4 bd
       -0.090355836 -0.0649641 -0.05695763 -0.095709324
0002c0 46 2d 00 be bb 4f 9e bd 66 38 c7 bd dd c2 7c bb
       -0.1251727 -0.07730051 -0.09727554 -0.0038568296
0002d0 c8 29 05 3c ce f9 cc bd fb 5c fb bd 0d df d1 3c
       0.008127637 -0.10008584 -0.12273594 0.025619054
0002e0 79 ea f6 bd e9 09 62 3d e5 d6 75 3d f0 32 c0 bd
       -0.12056441 0.055185232 0.060019393 -0.093847156
0002f0 14 5b a6 bd fd 6e a5 3d 39 91 b9 bd d4 3b d2 3d
       -0.081228405 0.0807781 -0.09060902 0.102653176
000300 fd 79 94 3b 1f f0 44 3c 13 bf 27 3e 73 6c a6 bd
       0.0045311437 0.01202014 0.16381483 -0.08126154
000310 b7 42 b9 3d bb 92 be 3d a8 95 df 3d fb 0d 84 bc
       0.09045928 0.0930533 0.109172165 -0.016119948
000320 9f 7b 30 bd dc cd 04 3e a1 57 44 bc 23 0d 18 3d
       -0.043086644 0.12969154 -0.011983783 0.037121903
000330 38 e0 0b 3d e9 31 c5 3d 68 b9 8f bd 19 07 1b 3e
       0.03414938 0.0962866 -0.07017785 0.15139426
000340 07 1f 14 3e 79 05 75 bc 80 5c a7 3d 7e 3e 27 bd
       0.14464961 -0.014954918 0.0817194 -0.04083108
000350 97 d5 f4 3c 49 41 0a 3e 07 ee f6 bd 3b d8 c5 bb
       0.029887004 0.13501467 -0.12057119 -0.0060377396
000360 16 82 92 bd 21 3d 02 3c 4d 23 50 3d 54 1d cb 3d
       -0.07153718 0.007949145 0.050814915 0.09917703
000370 9c 36 16 3c 9e 00 51 3d 07 8c c4 bc c3 2b b5 bc
       0.009168293 0.05102598 -0.023992551 -0.022115594
000380 d2 dc e8 3d dc ac c0 bd 26 da 59 bd c5 3e a8 3d
       0.11370243 -0.0940797 -0.05318656 0.08215097
000390 d7 63 d1 bd 4a f5 c3 3d f4 a3 b5 3d dd 1b c0 3d
       -0.10224121 0.095682696 0.08869162 0.093803145
0003a0 f5 8f dc 3c 01 22 34 3e fa 72 dc bd bb 13 89 3d
       0.026924113 0.17591096 -0.107641175 0.066932164
0003b0 0e de 49 bd f1 71 16 3d 23 bd 08 3e 59 1b a4 bd
       -0.049284033 0.036729757 0.133534 -0.08013029
0003c0 7d f0 e9 3d 27 3d 14 3e f8 81 c1 3c 61 9c 94 3d
       0.114228226 0.14476453 0.023621544 0.072563894
0003d0 2f d8 01 3e d5 64 c4 3d 97 5a f1 3d 7f 4e 09 bd
       0.12680124 0.09589545 0.11784857 -0.033522125
0003e0 b4 ee 9a 3c fa ca 1f 3e 5e 8b 80 3d 57 38 65 3d
       0.01891265 0.15604773 0.06276582 0.055961933
0003f0 ab c6 82 bd b1 d6 f7 3b 10 a3 1e 3d 1a 7c 74 bd
       -0.06385549 0.007563435 0.038729727 -0.059688665

lstm.weight_ih_l1 f4 [256, 64]
000000 d0 08 68 3d 29 a4 03 be db 4e d2 3d ad 66 0a be
       0.05664903 -0.12855591 0.10268947 -0.1351573
000010 f8 c4 8a bd 10 41 e6 3b 91 39 ab 3d b6 f7 90 3d
       -0.0677585 0.007026799 0.08360589 0.07078497
000020 bf 2e 64 bd 06 cf 9e bd a4 c0 d9 3d b7 91 1c 3d
       -0.055708643 -0.0775433 0.106324464 0.038224902
000030 f3 02 3a 3d 8b 45 cb 3d f8 67 d7 3d 53 3d 03 3c
       0.04541297 0.09925374 0.10517877 0.008010226
000040 22 84 ec bd 6d 7d 6c 3d 4e c2 a1 bd 76 a0 1e bd
       -0.1154864 0.057736803 -0.07898389 -0.038727246
000050 b2 7d 10 3d f9 4d f5 3b 29 1e 23 bd b8 c5 b1 3d
       0.035276122 0.0074861017 -0.039823685 0.0868029
000060 d8 fe 9c 3d 88 39 58 3b 8f eb 6d bc 74 bb 0c 3e
       0.07665795 0.0032993276 -0.014521494 0.13743383
000070 89 31 1c 3e d6 34 bc bd 27 08 e8 bd 36 da 02 3e
       0.15253271 -0.09189765 -0.1132968 0.12778553
000080 6f 1b 9d bd 17 fd b8 3b 62 4c af 3d 78 e4 7e 3d
       -0.07671248 0.005645405 0.08559491 0.062229604
000090 bd 70 0f be f6 a4 cf bd 6f ff 60 3d 38 0a 28 be
       -0.1400785 -0.10138886 0.0549311 -0.16410148
0000a0 10 67 79 3d 50 17 85 3d a1 64 73 3d aa 75 8e bd
       0.060889304 0.06498587 0.05942214 -0.069560364
0000b0 1e 34 ce 3d 25 20 b8 bd ea 1a 2a 3e e0 a2 61 3d
       0.10068534 -0.08990506 0.1661183 0.05508697
0000c0 06 85 87 bc 52 ca c2 bc 33 13 5b bd 20 8b 8c 3d
       -0.016542923 -0.023778114 -0.053485107 0.068624735
0000d0 84 47 51 bd ab 72 cb ba 43 84 a4 3c 0e 90 9d bc
       -0.051093593 -0.0015521845 0.020082599 -0.01923373
0000e0 52 81 92 bc 79 de cd 3c a8 61 0a 3e 01 84 15 3e
       -0.01788393 0.025130497 0.13513815 0.14601137
0000f0 f2 1c 18 3e 65 fd a1 bd 32 51 80 3d c1 4e 38 3c
       0.14854792 -0.07909659 0.06265487 0.011249245
000100 ac 35 83 3d 4f 51 8f bd a5 c3 fa 3a cb af 60 bc
       0.064067215 -0.0699793 0.0019131793 -0.013713787
000110 95 69 31 3d 33 c1 48 3d 46 d4 9e 3d c7 59 84 3d
       0.04331358 0.049012374 0.07755332 0.06462436
000120 69 d9 95 3d ad 33 b4 3c 72 93 81 3d ba 25 bb bc
       0.07316858 0.021997297 0.06326951 -0.022845138
000130 e6 72 cd 3d d9 b5 be 3d 6f 93 e5 3b c9 c3 54 3d
       0.10031681 0.093120284 0.007006101 0.051944528
000140 36 96 e6 3c 7a ab 5d 3d 53 30 c9 bc f3 bc df 3d
       0.028147798 0.05411861 -0.024559176 0.10924711
000150 b4 f8 07 3d 07 4a 61 bd 20 cd 39 bd 44 37 bc bd
       0.033196166 -0.05500224 -0.045361638 -0.091902286
000160 e0 f2 9f bd 1b 12 da 3d 04 eb 89 3d b4 5d 02 3e
       -0.078099966 0.106479846 0.06734279 0.12731057
000170 13 d0 da 3d a9 34 1e be 10 ab 5a bd 0a 6b c2 3d
       0.10684218 -0.15449776 -0.053385794 0.09493072
000180 4a 10 82 3d d6 0e a8 3d e7 32 26 3c 9f 48 94 bd
       0.06350763 0.08205955 0.010143972 -0.07240414
000190 15 8d bc 3d 63 c1 05 be 7d 48 23 3d bb 0b ac bd
       0.09206597 -0.13062052 0.039864052 -0.08400675
0001a0 3c 20 08 3e 9a b7 8b 3b 80 1b bd 3d 91 80 6c 3c
       0.13293546 0.0042638304 0.09233761 0.0144349495
0001b0 e7 f2 d1 3c 10 c5 0c be b0 3b 04 3e 29 66 4c 3b
       0.02562852 -0.13747048 0.12913394 0.0031188822
0001c0 6f 24 0a 3d 2a db c5 3b 28 50 14 3b 13 3a 05 be
       0.033726152 0.0060380893 0.0022630785 -0.13010435
0001d0 34 e9 5a 3d d5 2a fa 3d c4 18 bb 3d ea 03 c3 bd
       0.053445056 0.12215201 0.09135583 -0.09522231
0001e0 9d 2b d1 bc 72 89 05 be d3 b1 16 bc 27 72 e1 3d
       -0.025533492 -0.13040712 -0.00919767 0.11008101
0001f0 e1 5a 69 3d 82 c8 0b be 1c 5f 04 be ae 38 8c bd
       0.056971435 -0.13650706 -0.12926906 -0.06846748
000200 ff 38 f2 bd 97 41 d5 3c da 9d 06 3d 44 ce c1 3c
       -0.118272774 0.026032252 0.032865383 0.023657925
000210 0f 1b 12 be c8 a4 c8 3d 53 d3 8f bb fa f4 a3 3d
       -0.14268135 0.097970545 -0.0043892055 0.0800571
000220 fe 21 29 be 26 be 3b bd 01 be 1e bd 2e 17 2e 3d
       -0.16516873 -0.045835637 -0.03875542 0.042502575
000230 e8 b2 73 3d dd e1 8f 3c cc c1 ed 3d 58 87 41 3d
       0.05949679 0.017563755 0.116092294 0.047248214
000240 a8 92 48 3e af f2 c5 bc 66 0d 98 bd 54 9f 6f bd
       0.19587195 -0.024163572 -0.074244305 -0.058501557
000250 8f 3f ea 3d f4 5e af 3d 36 32 aa bd ce 6a 7d 3d
       0.11437904 0.08563033 -0.08310358 0.061869435
000260 9a 06 fc bb 23 d4 9f bd b9 50 87 3c b0 f7 cb 3d
       -0.0076912167 -0.07804134 0.016517984 0.09959352
000270 a8 76 0e 3e 80 9d aa bc 92 4e 1d be 9a 60 07 bd
       0.13912451 -0.020827055 -0.15362003 -0.03305111
000280 e0 7c 63 3b da 3e 0f be 51 34 a0 3d db ad 04 3e
       0.0034711882 -0.1398882 0.078224786 0.12956946
000290 4e 12 e6 bd 4b b2 a2 3d 01 6e 6c bd 22 ce 65 3d
       -0.1123396 0.07944163 -0.057722095 0.056104787
0002a0 00 3e 07 3d eb 64 7a bd b1 95 87 3d 4d 22 3e 3b
       0.033018112 -0.0611314 0.06620348 0.0029012144
0002b0 52 ec 8a 3d 09 4c 08 be ef ba 8a bd 3f 7a 8b 3d
       0.06783356 -0.13310255 -0.06773936 0.06810426
0002c0 d5 6a 01 be 0f 4c 11 be 52 55 ba bd fe ed 5f 3d
       -0.1263841 -0.1418917 -0.09098305 0.054670326
0002d0 0f 4f 30 bd 1c 0f e1 3d 9c 4a f0 3b 3a 66 09 bd
       -0.043044146 0.1098921 0.007333113 -0.033544756
0002e0 5d fb d4 bd 33 24 0f be 62 6f 01 bd 8f 31 ff 3c
       -0.10399506 -0.13978653 -0.031600364 0.031151561
0002f0 5c b9 02 3e 97 e6 a2 3d fe ce 34 3c 1f 9f 93 bb
       0.12766021 0.07954138 0.011035679 -0.0045050527
000300 7e 6e 97 bd e5 07 71 3b 46 38 12 bd 0a 53 2b bc
       -0.073941216 0.0036778387 -0.035698198 -0.01045681
000310 43 d5 b0 bd 5f d9 ff 3d db 27 c6 3d 79 1b 11 be
       -0.086344264 0.12492632 0.096755706 -0.14170636
000320 1a 23 cd 3d c9 eb 1b 3e 51 d0 81 bd ae cf 50 3d
       0.10016461 0.15226664 -0.06338561 0.05097931
000330 01 35 b3 3d 12 5f 6a bc b8 0a ad bd bc d8 12 3b
       0.08750344 -0.014304893 -0.0844931 0.0022407016
000340 6a 5f e7 bd c1 f6 43 bd 76 7b df 3d 04 23 e4 bd
       -0.11297496 -0.047842745 0.1091222 -0.11139491
000350 95 2a 95 bd e2 ad a3 3d 61 53 46 3b 50 ee a8 3c
       -0.072835125 0.0799215 0.00302621 0.020621449
000360 c0 5f 29 be 45 31 78 3d 35 a5 91 3d 90 b2 88 3d
       -0.16540432 0.060593862 0.07111589 0.06674683
000370 24 31 37 bc 29 7f bf bb e5 2c 94 bc fc 4c 8d bd
       -0.01118115 -0.005844016 -0.018087814 -0.06899449
000380 c1 3c d5 3d dc ba 53 3d 46 39 ed bd 68 44 c8 3c
       0.104119785 0.051691875 -0.1158319 0.024446681
000390 f8 66 0c 3e b9 d5 53 be e1 fb 6c bc a6 c2 db bc
       0.13711154 -0.20686997 -0.0144643495 -0.026826214
0003a0 d0 30 9c 3d 6a ba cd bd b5 36 07 3d 8e b1 2b bd
       0.07626498 -0.10045321 0.033011157 -0.041917376
0003b0 d5 fe 85 3d 89 b4 83 3d a7 f9 70 bd 26 1d 14 3e
       0.06542746 0.06430919 -0.058831837 0.14464244
0003c0 cf ee d4 3c 2b 6b 28 3d 40 32 05 3e aa b7 9a bc
       0.025992779 0.04111783 0.1300745 -0.018886406
0003d0 2e 87 f6 bd 31 c8 43 3e b3 07 64 3e b8 59 d2 3d
       -0.12037502 0.19119336 0.22268562 0.10271019
0003e0 e8 74 06 be 48 c7 d0 3c d8 c9 b1 bc a4 e0 16 bc
       -0.13130534 0.02548565 -0.021702692 -0.009208832
0003f0 72 22 93 3b ce d5 bb bd 45 2e 91 3d b7 8c 5c bd
       0.00449019 -0.091716394 0.07088903 -0.053845134

lstm.weight_hh_l1 f4 [256, 64]
000000 d1 38 88 3d e6 10 66 bd 9c e3 54 3c 04 77 4f 3d
       0.06651462 -0.05616846 0.012993719 0.05065061
000010 9d 54 1a 3e 9a 9e fd bc 14 00 aa 3d f7 75 0a 3e
       0.1507134 -0.030959416 0.08300796 0.13521563
000020 49 74 dc bd 4c 82 dc bd b1 bd a2 bd 8e a5 7a bd
       -0.10764367 -0.1076704 -0.07946337 -0.06119304
000030 ce 6e 53 bc 82 36 12 3e 56 0f b5 3c a6 92 69 bd
       -0.012904836 0.14278606 0.02210204 -0.05702462
000040 ba 53 07 3e 06 dc e6 3d ac 55 04 3e 23 1b 98 3d
       0.13215533 0.11272435 0.12923306 0.07427051
000050 88 da b3 3d bc 22 ef 3b 1f d3 b5 3d fc 23 3d 3d
       0.08781916 0.007297842 0.08878159 0.046176895
000060 55 f0 0c 3e 22 de 65 3d 0a e7 e7 bd c5 56 9c bd
       0.13763554 0.056120045 -0.11323364 -0.076337375
000070 79 00 03 be a2 cf 61 bd 87 43 27 bd 88 aa f7 bc
       -0.12793149 -0.055129655 -0.040835883 -0.030232683
000080 93 79 21 3d 82 5d 83 3b 7f 09 25 bd eb 81 69 bd
       0.039422583 0.0040089497 -0.04029226 -0.057008665
000090 27 31 9c bd e7 9c 15 3e bd b9 0b 3b 4b 55 d5 3c
       -0.076265626 0.14610635 0.0021320425 0.026041647
0000a0 1d ba 71 3d 9b 67 da 3c e2 66 b9 bd 15 56 87 3d
       0.059015382 0.026660731 -0.090528265 0.06608216
0000b0 c6 fb f1 3d 49 06 16 3e 07 0a c3 3d 5f 08 92 3d
       0.118156 0.14650835 0.09523397 0.07130503
0000c0 08 e3 75 3d d1 bb a5 3d 2b 50 0b 3e fe 8b 07 bd
       0.060030967 0.08092464 0.136048 -0.03309249
0000d0 58 71 08 3e c1 56 cd bd 3a b2 d1 3d 65 6c cd 3c
       0.13324487 -0.100263126 0.10239072 0.0250761
0000e0 09 ac b6 bd 50 ae d0 3c ee 3b 7d bd 3d 9b 5c bd
       -0.08919532 0.025473744 -0.06182473 -0.053858984
0000f0 e4 56 05 be 0e 1f 03 3d cb ca ff bc cf 4a 61 bd
       -0.13021427 0.032012038 -0.031224629 -0.055002984
000100 a1 1f 27 bd 7a 7b 2d bd b3 b5 72 bd 09 04 9f 3d
       -0.040801648 -0.042354085 -0.059255313 0.077644415
000110 f2 2b 9d 3c 9c 29 da 3d e5 42 ad bd 24 9e 8b bd
       0.019185994 0.106524676 -0.08460025 -0.06817272
000120 41 d9 91 3d 53 ce 70 bd 40 d0 4b 3d 0f cb 6b 3d
       0.07121516 -0.058790516 0.04975915 0.0575667
000130 65 31 fe bd c2 11 28 3d 7a 9f 16 be e8 bc 80 bd
       -0.12411765 0.04103256 -0.14709273 -0.06286031
000140 5c 70 a5 3d 7e 45 55 3d 5a b9 87 bc e6 af ee 3d
       0.080780715 0.052068226 -0.016567875 0.11654644
000150 07 de 8c bc 95 7d 01 3d c5 ce 3c bc 64 82 ae 3a
       -0.017195715 0.031613905 -0.011523907 0.0013314006
000160 43 e9 fa bb 1c 23 07 be f7 42 00 be 85 1c f7 3d
       -0.0076572015 -0.13196987 -0.12525545 0.120659865
000170 a5 57 ac 3d a6 ad 50 3b 41 27 8a bd aa f0 d1 3d
       0.08415154 0.0031841784 -0.06745768 0.10250981
000180 ce 7e d9 3c 66 d9 57 3d e8 e2 81 bd f8 a9 51 bd
       0.026549723 0.05269756 -0.06342107 -0.051187485
000190 21 11 ce 3d ec 8a 8f bc 49 e5 5f 3d fa 2e 80 3d
       0.10061861 -0.017522298 0.054662023 0.0625896
0001a0 36 6c 8c bd 17 6c 43 bc bc d3 0c be 20 cc 7a bd
       -0.06856577 -0.011927626 -0.13752645 -0.061229825
0001b0 8b c6 96 bd 6b cf f3 3d 2b ef 08 3e 63 fe 13 be
       -0.07362088 0.11904796 0.13372485 -0.1445251
0001c0 38 4c 56 3d 92 37 50 bd 04 d3 81 bb 6c 21 ca bd
       0.05231878 -0.050834246 -0.0039619226 -0.09869656
0001d0 43 c3 bb bd 9f b7 10 3d ec e6 6a bd 7e 8f 28 3c
       -0.091681026 0.035331365 -0.05734913 0.010288117
0001e0 49 17 af bc ea ba 29 3d 2c 35 a5 bd 94 64 31 3d
       -0.021373408 0.04143802 -0.08066782 0.04330881
0001f0 72 e9 01 be 69 39 fb bc 98 1c 14 bd 78 10 1b 3e
       -0.12686709 -0.030667024 -0.03616008 0.15143001
000200 13 43 a5 3c 67 a6 19 3e 87 c6 78 bd 62 23 61 3d
       0.020173585 0.15004884 -0.060736205 0.054965384
000210 58 0f 2f 3d f5 0c 08 bd b0 9b ee 3b 4f 03 9c 3d
       0.042739242 -0.03321548 0.007281743 0.076178186
000220 3f 2e 52 be 8f 1a a4 bd 0c 8b 96 3d 5e dc 59 be
       -0.20525454 -0.08012878 0.0735074 -0.2127547
000230 15 4a c0 bd 8f 06 f2 3d 95 6b 52 be bd a0 84 3c
       -0.0938913 0.11817657 -0.20548852 0.016189927
000240 5b 43 07 bd e5 75 32 3d 66 8c 38 3e 98 6c 0b 3e
       -0.03302322 0.043569464 0.18022308 0.13615644
000250 6b ac 40 3e 6e a0 03 3c 70 08 3b bd cb 82 2d be
       0.18815772 0.008033855 -0.045662344 -0.16944425
000260 a9 c1 95 3d d6 1c 55 bc 24 ab 33 be 0a 09 81 bd
       0.07312328 -0.013007363 -0.17545754 -0.06300552
000270 65 e6 2f be c1 77 fc 3d 2d 83 5d be f3 f9 dd 3c
       -0.17177732 0.12327529 -0.21632071 0.027096724
000280 31 1c cd bd 60 4a 4c be 40 f7 de 3d de 1f 54 bd
       -0.10015143 -0.19950247 0.10887003 -0.051788203
000290 91 e0 28 3c 3c 7d 2e bc 63 69 07 3e e0 84 ce 3d
       0.010307447 -0.010649975 0.13223796 0.10083938
0002a0 b6 4a ca bb 86 2a 00 be 11 40 15 be 86 62 29 3e
       -0.006173457 -0.12516221 -0.1457522 0.1654149
0002b0 45 be 09 ba 4e bb f5 3d e8 31 99 bd f4 ca de bd
       -0.00052544876 0.11998616 -0.07480222 -0.10878554
0002c0 c7 e9 92 bc 48 34 b1 bd 3c 67 b5 bd 7b fa 24 be
       -0.01793374 -0.0865255 -0.08857581 -0.16111176
0002d0 ac 87 de 3b ad e4 ea bd ce f7 85 bd 92 ec 2c bd
       0.0067910757 -0.11469398 -0.065414056 -0.0422178
0002e0 8c c4 4e bd 3c bb f9 3d 9f 8b 2d 3e a8 b7 c3 bd
       -0.05048041 0.12193915 0.16947792 -0.09556514
0002f0 0b b9 cf bd f9 90 d5 3c 42 db 13 be 5e 66 c6 3d
       -0.10142716 0.026070105 -0.14439109 0.09687494
000300 00 a6 25 be 2a ec 0a be 93 c3 88 be ea 82 11 3d
       -0.16176605 -0.13566652 -0.2671171 0.03552524
000310 3d f3 59 3e dd ae dc bc 5d 29 dc bc 53 44 44 3d
       0.21284194 -0.02693885 -0.026875192 0.04791672
000320 f6 68 12 be 1d 51 a4 bd ee cf a2 bc 6d d5 8d 3d
       -0.14297852 -0.08023284 -0.01987454 0.06925473
000330 12 42 ee bd bb 4c 83 3d ef 10 a2 3d 6a 17 71 3d
       -0.11633696 0.064111196 0.07913386 0.05886022
000340 61 f9 d9 3d 8c c7 e2 bc 6c 8d de bd 4c 3b 02 be
       0.106432684 -0.027683042 -0.10866818 -0.12717932
000350 e3 fa a7 3e 78 b9 fe bc 3f d3 7b bd 94 6d 70 3d
       0.328086 -0.031094298 -0.061480757 0.05869825
000360 3e 9c 8b bc 39 33 3c bd b0 89 f6 bc aa 63 e2 3d
       -0.017042276 -0.045947287 -0.030094951 0.11054166
000370 e2 f6 b4 3d 9f 0c ff bd ca e7 4c be 25 d9 3b 3e
       0.08836152 -0.12453579 -0.20010296 0.18344553
000380 41 a9 cb bd 6c 4b 30 3d 6b e0 01 3d 82 92 47 3d
       -0.09944392 0.043040678 0.031708162 0.048723705
000390 c1 62 bc 3d 99 79 21 3e 3d c6 f8 3e 2a e2 af 3e
       0.09198523 0.15769042 0.48588744 0.34352237
0003a0 2c 74 f9 bd ca ff 9e 3c 29 5f ac bd b8 0d ca bd
       -0.12180361 0.01940908 -0.08416588 -0.09865898
0003b0 77 f2 b6 3d 0d da f8 3d 56 02 8f 3d 96 78 cb bd
       0.08932965 0.12150965 0.069828674 -0.09935109
0003c0 70 d0 13 bb 6e 02 d4 bd 61 7c 0c 3c 97 6b b4 be
       -0.0022554658 -0.10352026 0.008574576 -0.35238335
0003d0 e5 fd cb 3d 70 12 2b 3e ad ce 8e 3d b0 bf 27 be
       0.09960536 0.16706252 0.06973014 -0.16381717
0003e0 c8 47 95 3d 2d 7f c7 3d 68 1d 17 3e 22 30 8d 3d
       0.07289082 0.09741054 0.14757311 0.06893946
0003f0 e2 a6 6b bc bb 34 b0 3d 0e 8e 04 be 6e 64 cd 3d
       -0.01438305 0.086038075 -0.12944815 0.10028921

lstm.bias_ih_l1 f4 [256]
000000 c2 28 e5 3d 19 ea 6e 3d 8a 12 a6 3d e0 d0 9f 3d
       0.111894146 0.05832872 0.08109005 0.078035116
000010 f9 d8 0a bd ba 77 80 bd 31 79 c3 3d c2 34 dc 3d
       -0.033898327 -0.06272836 0.095446 0.1075225
000020 85 85 ef bb f9 e1 53 bd c2 ab 25 3e 29 9c 6f bd
       -0.007309618 -0.051729176 0.16178802 -0.058498535
000030 7e cb ef 3d 66 4a ab 3d 31 1b b2 3d e8 4e 09 bd
       0.11708735 0.083638 0.086965926 -0.033522516
000040 13 91 be bd 4c 58 ce bc 79 13 16 bd d1 0c a1 bc
       -0.093050145 -0.025188588 -0.036639664 -0.019659432
000050 a0 72 8e 3d bf 08 0f 3e 5b b6 ee 3b b7 65 03 3e
       0.06955457 0.1396818 0.007284922 0.1283177
000060 23 b8 78 bd b2 3a 31 3c 49 72 c2 bc a5 fb 8e 3c
       -0.06072248 0.010817217 -0.023736136 0.017453978
000070 95 b0 b8 3d cb 76 3d 3d 43 75 3f 3c 2e b9 c7 bd
       0.09018055 0.046255868 0.011685672 -0.09752117
000080 b4 d4 36 3d 5a a1 e0 3b e3 1f 21 3e 45 b2 c3 bd
       0.044636443 0.006855172 0.1573482 -0.095554866
000090 58 16 a4 3c a7 74 ee 3d 73 9c 3c bd 51 8e 47 3e
       0.020030186 0.116433434 -0.04604764 0.19487883
0000a0 49 fe 07 3e fe 3c fd bd 2b b6 1c 3e be 6c e0 bd
       0.13280596 -0.12365149 0.15303867 -0.10958241
0000b0 e7 ca 90 3d c9 15 8e bd 10 7c df 3d cc 0c e0 bd
       0.070699506 -0.06937749 0.10912335 -0.10939941
0000c0 42 bd 5d 3d e9 c5 e2 ba f7 80 80 3d 58 b0 db bb
       0.05413557 -0.0017301413 0.06274598 -0.0067043714
0000d0 7b 7d 52 bd 65 d7 1a 3e 4d bb 19 3e 6b 29 6d bc
       -0.0513892 0.15121229 0.15012856 -0.014475207
0000e0 d1 7c a5 3d b2 0d 06 3e ea 35 cf bd fe b4 89 3d
       0.080804475 0.13091162 -0.10117705 0.06723975
0000f0 12 81 c7 ba e0 9f e3 3d f9 1a b4 bd f2 a2 39 3c
       -0.0015220961 0.11114478 -0.08794207 0.011330353
000100 87 87 b0 bd f0 c5 8f 3d bf f3 1b 3e 44 e0 28 bd
       -0.086196 0.070201755 0.152297 -0.0412295
000110 21 1e a7 3d 7d 2f bf 3d 69 bb 05 bd c5 c2 85 bd
       0.081600435 0.093352295 -0.03264943 -0.0653129
000120 26 54 96 3d e0 01 06 bb 3c 9c 5b bd b0 10 aa bc
       0.07340269 -0.0020447895 -0.053615794 -0.02075991
000130 48 2b 1d bc f0 cd 15 3d 80 66 17 3e c0 2a 26 bc
       -0.009592839 0.03657335 0.14785194 -0.010142028
000140 88 a7 d7 3d 68 d1 d5 bc c6 65 0c 3e ec 06 62 bc
       0.10530001 -0.02610083 0.13710698 -0.013795596
000150 9f f0 20 bc 2d cb 85 bc e5 1c e7 bd fb 88 80 bd
       -0.009822994 -0.016332233 -0.11284808 -0.06276127
000160 72 fc d4 3d f8 79 be 3c a6 29 e6 3d f9 f1 2d be
       0.103997126 0.023251519 0.112384126 -0.16986836
000170 ae d6 8d bd 50 70 16 bd 5a 05 0f 3c 0b f6 13 3d
       -0.069257125 -0.036728203 0.008729303 0.036123317
000180 cd 47 9a bd 07 0c a2 bc c8 05 47 3d 8b 37 cf 3d
       -0.07533226 -0.019781126 0.048589498 0.10118016
000190 76 e8 a4 bd 95 fb a2 3d 31 03 0e 3e 41 c0 95 bd
       -0.08052151 0.07958142 0.13868405 -0.0731206
0001a0 62 4e 08 bd ef 7c f0 3c 38 ad 01 3e 48 ae 46 bd
       -0.033277877 0.029356448 0.12663734 -0.04850605
0001b0 5c ca 0f bc bc 57 6a bd ac 83 d1 bc 88 80 62 bd
       -0.008776274 -0.057212576 -0.025575481 -0.05529836
0001c0 02 2c 59 3d e2 3d 12 3e 42 9a c4 3d cf 95 20 bd
       0.053020485 0.14281419 0.09599735 -0.03920537
0001d0 56 6b 83 bc 0c 9c ed bd 9b 12 2b 3d 48 9b cf 3d
       -0.016042393 -0.11602029 0.04176579 0.101370394
0001e0 af f8 32 bd ca 9a db 3d b0 1c 44 bc 76 46 97 bd
       -0.043694194 0.10722883 -0.01196973 -0.07386486
0001f0 66 5b 0c bd b8 9b 34 3d af 29 18 3e 07 a9 82 bd
       -0.03426685 0.044093817 0.14859651 -0.06379896
000200 20 97 12 3d b4 2a 90 3d fc bd 9d bd 97 16 b7 bd
       0.035788655 0.07039395 -0.07702252 -0.089398555
000210 74 0f c1 3d a2 64 bc 3d 1c 21 26 3d 9a 90 5b 3d
       0.094267756 0.09198882 0.04055892 0.0536047
000220 5c 1c 04 be 48 d4 80 3d 3b e3 70 3c da 21 9a bb
       -0.12901443 0.062904894 0.014702613 -0.0047037425
000230 c3 fe 82 bc 1f 27 df 3d 70 54 04 be e2 7b df 3d
       -0.01599062 0.10896134 -0.12922835 0.10912301
000240 1c 24 2d bd 30 0e 99 3d d1 dc 18 3e 7a 8b 83 bd
       -0.042270765 0.07473409 0.14927985 -0.064230874
000250 e5 03 83 3b f5 c6 8d 3d 61 96 37 3d cf 8f bf bc
       0.003998267 0.06922714 0.044821147 -0.023384003
000260 b3 9e f9 3c c9 60 60 bd 60 b0 88 bc 1b 22 92 3d
       0.030471181 -0.0547798 -0.016685665 0.07135411
000270 5f e7 3f bd 10 88 62 3d ca fd fb 3c 6e e6 17 3e
       -0.046851512 0.05530554 0.030760664 0.14833996
000280 95 db 02 be d7 5e cc bb da c2 87 bd b5 e0 a9 3d
       -0.12779076 -0.0062368917 -0.06628962 0.082948126
000290 a8 01 9c bd 77 9b a7 bc 1e 36 a3 3c 53 62 98 3d
       -0.076175034 -0.020459874 0.019923266 0.07440629
0002a0 e4 a7 4f bd e6 3b b0 3d d3 6c b5 3c 4c 77 a1 3d
       -0.050697222 0.08605175 0.022146618 0.07884082
0002b0 6e 9f a4 3d ff f8 f1 bc c5 4c b9 bd 51 bf 50 bc
       0.08038221 -0.029537676 -0.09047846 -0.012740926
0002c0 59 35 57 bc 0c c9 ca 3c dd 1a 1b be 04 7e 15 bd
       -0.013135278 0.02475407 -0.15146966 -0.03649713
0002d0 76 19 88 3d 90 e5 9e 3d ac a2 ac bd 21 d3 d9 3c
       0.06645481 0.07758629 -0.08429465 0.026589932
0002e0 ba b9 21 3d 27 9a fa bd 4c 55 82 3d ff 89 fd bd
       0.039483763 -0.122364335 0.06363925 -0.12379836
0002f0 40 e8 bf bd 3f d0 39 bd a8 0a c9 bd 75 09 f4 bd
       -0.0937047 -0.045364615 -0.09816486 -0.11915866
000300 29 c5 c7 bd de 78 37 3c 71 e2 c0 3d 2e f5 0a 3e
       -0.09754402 0.011198251 0.0941819 0.13570091
000310 1c 1c 57 bc fb db ea 3d 00 39 f2 3d 0f da 05 3e
       -0.01312926 0.11467739 0.11827278 0.13071464
000320 7f 70 9a 3d 6a 28 89 3d 76 6d 22 3d ae bb 1c 3e
       0.07540988 0.066971615 0.03965517 0.15305969
000330 4c 8e e7 3d 96 65 ff 3d 29 18 85 3d cf 9b 86 bc
       0.11306438 0.12470548 0.06498749 -0.016431717
000340 70 6b 79 bc 4b 76 1c 3d f9 8a b6 bc 93 dd c6 3d
       -0.015223369 0.03819875 -0.022283064 0.09710231
000350 22 8f 2b bd cb 37 e8 3c aa 9d 9d bd b4 06 31 bd
       -0.04188455 0.028346917 -0.07696088 -0.043219283
000360 77 d1 57 bd 7c 18 c0 3d 56 bd ed 3d 24 c3 f0 3c
       -0.052689996 0.0937967 0.116083786 0.029389925
000370 b6 b9 01 3e 40 e9 34 3e 8e 5f c2 3d c2 73 bb bd
       0.126685 0.17667103 0.09490882 -0.091529384
000380 25 aa 9a 3c e4 c0 86 3c de 5b c2 3d 42 14 04 bd
       0.01887996 0.0164494 0.094901785 -0.03224588
000390 0f 88 6e 3d 60 68 98 3c 6f 8d 3b bd 3d 14 7a 3d
       0.058235224 0.018604457 -0.04578918 0.061054457
0003a0 07 bd 9e 3d a0 68 e6 bd 2c 84 99 3d b7 b3 9f bd
       0.07750898 -0.112504244 0.07495913 -0.0779795
0003b0 f9 5e 36 bc 04 b9 a0 3d 28 37 60 bc 56 bd c5 3d
       -0.011131042 0.07847789 -0.013685025 0.096552536
0003c0 df 0c 85 3d 04 5c 5a 3d 1d 97 c6 3c d1 85 63 3b
       0.064965956 0.05331041 0.024241978 0.0034717212
0003d0 66 4a 1f 3e 87 fc bf 3d cd 3e 5e 3d 1f 8a 80 bd
       0.15555725 0.09374338 0.05425911 -0.062763445
0003e0 75 31 3f bd fe 23 eb bb 41 7c e2 3c 28 a9 e3 bc
       -0.046678025 -0.0071759215 0.02764714 -0.02779062
0003f0 c8 d3 dd 3d 99 7a ff 3d a0 54 4f bd ac 5c 04 3e
       0.1083141 0.124745555 -0.050617814 0.12925977
