model/Lstm_Cell_Adam_batch_size=1024_epoch=300.pt (torch_old, 210622 bytes, 10 tensors)

cell_0.weight_ih f4 [256, 1]
0.12604614 0.13494389 0.07831298 0.07319352 0.13314354 0.13358408 0.013811696 -0.111455224
0.002569163 0.12675712 0.21924621 0.09710542 0.17122886 0.26278424 0.15551028 0.1805478
0.31784752 0.2182704 -0.17807509 0.19190912 0.17828958 -0.09065528 0.053585112 0.17067856
0.049743466 -0.27106166 0.117588624 0.1035038 0.10830076 0.23547734 -0.21526869 -0.12010993
-0.16262646 0.22557814 0.2630359 0.09067874 0.2605201 0.087500505 0.077517286 0.04509316
-0.10378738 0.24993554 0.078102574 0.01868375 -0.22112636 -0.08404347 -0.13772036 0.22332352
-0.09838339 0.061718058 0.021658584 -0.111881115 0.34560287 0.048650563 -0.09179297 -0.074231744
0.10370227 -0.13478564 -0.008038495 -0.14855747 -0.08291804 0.13862742 0.060323793 0.11338658
-0.019207777 0.052226994 0.13067785 0.07534671 -0.037451502 0.12940498 0.14450772 0.19182274
0.018020973 0.11327329 -0.34359547 0.14870997 0.27487624 0.032284364 -0.04168106 -0.026804397
0.051769145 0.044412483 -0.2711385 0.055881627 0.093076974 0.15954182 0.11971548 -0.14060414
-0.005957939 -0.16893461 -0.086000085 0.079433724 0.035592154 0.04054884 -0.0075703072 -0.08158734
0.62395185 -0.5286983 0.28662243 0.1782951 0.19228704 -0.073763095 -0.0073515666 0.020099886
-0.100846246 0.038844917 0.22740072 0.09279181 -0.17543545 -0.0274847 -0.060465183 0.15093122
-0.026673002 0.16618694 0.0572227 -0.09541693 -0.0015689465 0.0230454 0.188812 0.12365794
0.21718499 0.18336031 0.08918009 -0.104808964 0.20509455 -0.03446343 0.19772634 0.17525147
-0.021567969 -0.0817286 -0.23594832 0.05619295 -0.21553957 -0.07478941 -0.14793104 0.14662874
-0.3070842 0.3670772 -0.2228412 -0.12523799 0.59310186 -0.20777594 0.06320618 -0.25525644
0.15404192 0.29676607 0.09132312 0.31761202 -0.2195788 0.024020744 0.2051818 0.17407146
-0.11491665 1.3534243 -0.26069728 -0.06161484 0.18929031 -0.3122882 0.28607124 0.21889187
-0.31837606 0.38873866 -0.13069658 -0.04517483 -0.24390322 -0.15941527 -0.008938021 -0.24716163
-0.38456696 -0.052498054 -0.038876273 -0.14028032 0.18387283 0.048253994 -0.52096593 0.14475708
-0.13896428 0.09963154 0.19577608 0.09599665 0.096153595 -0.13802017 -0.19955625 -0.0864309
-0.044633016 -0.036851678 -0.24079616 0.35151425 0.30237493 0.15751359 0.04203687 0.2685329
-0.19165048 0.07486569 0.093325436 -0.13293812 -0.0011958941 0.07560026 0.027268216 0.1627036
0.09771302 -0.13811456 0.2549084 -0.17560878 -0.1131297 -0.20151138 -0.09255123 -0.35534903
0.013702009 0.030397732 -0.2536245 -0.20270099 0.12530918 0.11642355 0.1314201 0.17634118
0.12032218 0.15038854 -0.078288734 0.16711038 0.13638885 -0.17979151 0.16715464 0.2630775
-0.11909146 0.038734715 0.12653178 0.09309124 0.17620824 0.19847584 -0.16241266 0.030073412
0.36965406 0.09358319 0.120617606 0.1620941 0.28185645 -0.036258217 0.009339459 -0.20793033
0.008564528 0.10317733 0.04041007 0.03227866 0.29681808 0.04659109 0.14844489 0.27083102
0.0889611 0.16222024 -0.06341339 0.26996097 0.16298617 -0.1550892 -0.272339 0.052963007
00000000: 3d12 013e bb2e 0a3e 8e62 a03d 7ce6 953d
00000010: c856 083e 44ca 083e 744a 623c a342 e4bd
00000020: 675f 283b 9ecc 013e 1482 603e 35df c63d
00000030: 9e56 2f3e a88b 863e 163e 1f3e 86e1 383e
00000040: e9bc a23e 4782 5f3e 5159 36be d383 443e
00000050: 8b91 363e 7aa9 b9bd 107c 5b3d 5cc6 2e3e
00000060: cebf 4b3d 98c8 8abe 4ed2 f03d cdf9 d33d
00000070: cacc dd3d f920 713e 656f 5cbe 32fc f5bd
00000080: 8d87 26be f5fd 663e a4ac 863e c6b5 b93d
00000090: e462 853e 7733 b33d 62c1 9e3d 9bb3 383d
000000a0: 7a8e d4bd 1aef 7f3e 3ef4 9f3d aa0e 993c
000000b0: f36e 62be fc1e acbd 9106 0dbe ecae 643e
000000c0: 3b7d c9bd 13cc 7c3d 586d b13c ed21 e5bd
000000d0: dcf2 b03e d045 473d f4fd bbbd d006 98bd
000000e0: db61 d43d 3f05 0abe e4b3 03bc 731f 18be
000000f0: efd0 a9bd 59f4 0d3e 1516 773d 3937 e83d
00000100: a159 9dbc f9eb 553d 6ad0 053e 604f 9a3d
00000110: bf66 19bd bd82 043e d5f9 133e 2e6d 443e
00000120: b8a0 933c d4fb e73d bfeb afbe 6d47 183e
00000130: 94bc 8c3e 9c3c 043d c2b9 2abd e594 dbbc
00000140: e20b 543d dde9 353d aad2 8abe 22e4 643d
00000150: 249f be3d ee5e 233e 642d f53d 88fa 0fbe
00000160: d13a c3bb 32fd 2cbe d020 b0bd 26ae a23d
00000170: 14c9 113d 8a16 263d 5710 f8bb 4317 a7bd
00000180: 4fbb 1f3f c658 07bf 2dc0 923e fe92 363e
00000190: e5e6 443e 1b11 97bd 69e5 f0bb 84a8 a43c
000001a0: 7a88 cebd d91b 1f3d bcdb 683e a209 be3d
000001b0: 5aa5 33be 9827 e1bc 57aa 77bd b78d 1a3e
000001c0: 5781 dabc e92c 2a3e 5a62 6a3d f469 c3bd
000001d0: 1ca5 cdba b5c9 bc3c ef57 413e 6040 fd3d
000001e0: be65 5e3e cec2 3b3e 0da4 b63d 15a6 d6bd
000001f0: 4e04 523e 8729 0dbd c678 4a3e 1f75 333e
00000200: 4faf b0bc 5361 a7bd 709c 71be 942a 663d
00000210: 68b6 5cbe 312b 99bd 3c7b 17be d825 163e
00000220: 243a 9dbe 8bf1 bb3e 7c30 64be 633e 00be
00000230: 86d5 173f 37c3 54be 3e72 813d f9b0 82be
00000240: 2abd 1d3e b9f1 973e 9e07 bb3d 0b9e a23e
00000250: 44d9 60be 27c7 c43c 2e1b 523e ca3f 323e
00000260: 6c59 ebbd 023d ad3f 1d7a 85be d85f 7cbd
00000270: 52d5 413e 3de4 9fbe ee77 923e 3125 603e
00000280: 3002 a3be c108 c73e 53d5 05be 3e09 39bd
00000290: c4c1 79be c23d 23be c770 12bc f017 7dbe
000002a0: f6e5 c4be 3308 57bd ba3c 1fbd a5a5 0fbe
000002b0: 2949 3c3e fba5 453d 065e 05bf 333b 143e
000002c0: a74c 0ebe 9f0b cc3d 8679 483e e499 c43d
000002d0: 2dec c43d 2955 0dbe 7958 4cbe af02 b1bd
000002e0: 1cd1 36bd c9f1 16bd 4593 76be adf9 b33e
000002f0: e3d0 9a3e 3e4b 213e da2e 2c3d 257d 893e
00000300: 0640 44be 2f53 993d 6821 bf3d ee20 08be
00000310: 8cbf 9cba 4fd4 9a3d 9861 df3c c69b 263e
00000320: c41d c83d e76d 0dbe 5b83 823e cad2 33be
00000330: 8bb0 e7bd 0059 4ebe 808b bdbd 4ff0 b5be
00000340: 647e 603c aa04 f93c 12db 81be d990 4fbe
00000350: 0d51 003e 786f ee3d fe92 063e c892 343e
00000360: 7a6b f63d 74ff 193e d855 a0bd fc1e 2b3e
00000370: 85a9 0b3e 441b 38be 962a 2b3e 18b2 863e
00000380: 39e6 f3bd 4ba8 1e3d 8c91 013e 9fa6 be3d
00000390: ef6f 343e 403d 4b3e 814f 26be 845c f63c
000003a0: 4c43 bd3e 8ba8 bf3d 5d06 f73d fffb 253e
000003b0: 7d4f 903e 7f83 14bd 8804 193c b0eb 54be
000003c0: 3c52 0c3c a34e d33d 0885 253d a136 043d
000003d0: 8af8 973e 4cd6 3e3d f001 183e 5daa 8a3e
000003e0: 3d31 b63d 101d 263e e1de 81bd 5338 8a3e
000003f0: d9e5 263e b4cf 1ebe 0470 8bbe bdef 583d

cell_0.weight_hh f4 [256, 64]
-0.06772442 0.06033228 -0.15144624 0.16486157 -0.10258611 -0.06711069 0.03383742 0.045129202
-0.02124967 0.06540906 0.054608945 -0.0436135 -0.08291618 0.118239 0.05238992 0.0110106375
-0.07896899 0.13612857 0.009539428 -0.038208634 -0.040525295 0.20381325 0.08269257 -0.08401742
-0.040090296 0.052736588 0.035180055 -0.053459287 0.091757715 -0.0059413775 -0.017816827 0.14055346
0.02773894 0.0061757825 -0.0980576 -0.049980555 -0.14138196 -0.14726746 -0.055366535 -0.04257368
-0.11548865 -0.009199042 -0.22223568 -0.043557774 -0.039372742 -0.036472514 -0.16366598 0.046279144
0.0023460374 0.120289855 -0.041777685 -0.011830474 0.06472365 -0.016987415 -0.012630039 -0.11319044
0.0011878808 0.068143345 0.012353383 0.119021945 -0.024535155 0.0868004 -0.0103462 0.059531465
-0.0462046 0.074136704 0.21852079 -0.024934968 -0.2810891 -0.07564537 -0.20330776 -0.002413107
-0.021526424 0.05403481 0.0023118013 -0.17176056 0.2957745 -0.07798802 -0.030426718 0.07081026
0.06551484 -0.047236897 0.012990957 -0.35846367 -0.15328828 -0.01921495 0.31918463 -0.07340325
-0.08792036 -0.14088877 -0.05150921 -0.099866666 0.041039284 -0.16303732 0.12524305 0.029252416
-0.31243616 0.047650933 0.13362461 -0.2565089 -0.16398801 -0.2966446 -0.08019713 -0.09979936
-0.07175958 -0.107440986 -0.10681819 -0.045073796 0.01960138 -0.2995734 -0.04540671 0.25087336
-0.17806779 0.055221107 0.008230255 -0.066175364 0.1133953 -0.05707735 -0.11566663 0.08422079
-0.00476347 -0.0985244 -0.18495548 0.03091419 0.11124187 0.108720675 0.025424989 -0.06998461
-0.49992883 0.082025886 -0.06475598 0.45788136 -0.061469283 -0.26132217 -0.05611767 0.24763426
-0.22879814 0.14212503 0.29815567 -0.4206577 -0.09073781 0.099354625 0.22870462 -0.23186786
0.0042137075 0.104649134 0.23208357 0.08539203 -0.10368307 0.38821554 0.09791096 -0.08006627
-0.07066449 0.1996219 -0.1585783 -0.37082708 -0.009340556 -0.26567638 0.17839912 0.13269798
-0.093376815 0.10915888 -0.24331683 -0.35612974 0.01184267 -0.12373778 -0.33767086 0.07906679
-0.14442518 0.06955219 -0.22128758 -0.30900446 -0.30549505 -0.19026972 -0.20327847 0.3416226
-0.35102016 -0.1113639 0.30247504 0.33057866 -0.06214276 -0.1497148 -0.39784935 -0.32345918
-0.15094039 0.19960114 -0.35740027 0.07290958 0.30495626 0.3132497 0.3686539 0.1729882
-0.018792113 0.05596881 -0.1159542 0.07515541 0.12350944 0.0025127411 -0.072788246 0.11137514
0.03521842 0.12185202 0.19995075 0.10777643 0.1695316 0.15877867 0.069651216 -0.18108645
-0.027918205 -0.08099277 0.20900717 -0.12537722 0.080812275 0.023187319 0.07585779 -0.10800769
-0.066817395 0.063175306 0.06255585 -0.092561334 0.053166322 -0.07265471 0.19546416 0.1262369
-0.079715334 -0.08471355 -0.062695146 0.08008017 0.060488626 -0.10312588 -0.14280246 -0.0076461947
-0.18245083 0.031880204 -0.091483586 -0.11486736 0.051765546 -0.07352739 -0.116507515 -0.0025065164
-0.10269284 -0.01814511 0.08986143 0.022153407 0.035050865 -0.04078572 -0.060732983 -0.059616894
-0.14750019 0.055660967 -0.17119326 0.10264792 0.05350421 0.13869537 0.017155383 0.09963425
00000000: 1ab3 8abd fb1e 773d b914 1bbe 79d1 283e
00000010: ab18 d2bd 5471 89bd 1b99 0a3d 66d9 383d
00000020: ca13 aebc 2ff5 853d a1ad 5f3d 12a4 32bd
00000030: f5cf a9bd 4a27 f23d d096 563d f665 343c
00000040: 7eba a1bd 4a65 0b3e 434b 1c3c a880 1cbd
00000050: dafd 25bd 6cb4 503e b95a a93d 5311 acbd
00000060: b935 24bd 5202 583d f618 103d 20f8 5abd
00000070: 78eb bb3d e3af c2bb 98f4 91bc 3fed 0f3e
00000080: c63c e33c 385e ca3b 6cd2 c8bd 69b8 4cbd
00000090: 6fc6 10be 48cd 16be 05c8 62bd bd61 2ebd
000000a0: 5085 ecbd 94b7 16bc c091 63be a369 32bd
000000b0: 5045 21bd 3464 15bd 0e98 27be 338f 3d3d
000000c0: fabf 193b 875a f63d 141f 2bbd 9bd4 41bc
000000d0: d58d 843d 3129 8bbc 39ee 4ebc 64d0 e7bd
000000e0: aab2 9b3a bd8e 8b3d d865 4a3c c7c1 f33d
000000f0: f3fd c8bc 68c4 b13d 1c83 29bc 44d7 733d
00000100: 0941 3dbd fcd4 973d eac3 5f3e 6b44 ccbc
00000110: e9ea 8fbe f6eb 9abd e92f 50be 3825 1ebb
00000120: 2f58 b0bc 9b53 5d3d 9781 173b 00e2 2fbe
00000130: c16f 973e 2fb8 9fbd 7441 f9bc f804 913d
00000140: a52c 863d 7a7b 41bd 06d8 543c 8d88 b7be
00000150: 9af7 1cbe ac68 9dbc 2b6c a33e 7154 96bd
00000160: 970f b4bd 2545 10be 52fb 52bd e586 ccbd
00000170: cf18 283d 41f3 26be b73f 003e c3a2 ef3c
00000180: a2f7 9fbe a02d 433d e4d4 083e 2255 83be
00000190: 79ec 27be cde1 97be 653e a4bd 9b63 ccbd
000001a0: b0f6 92bd 050a dcbd 7fc3 dabd 4d9f 38bd
000001b0: 1393 a03c af61 99be 63fc 39bd 7972 803e
000001c0: 6757 36be 872f 623d 31d8 063c f386 87bd
000001d0: cc3b e83d f0c9 69bd a0e2 ecbd f37b ac3d
000001e0: e216 9cbb 29c7 c9bd f864 3dbe c13f fd3c
000001f0: c7d2 e33d f2a8 de3d 1148 d03c 1754 8fbd
00000200: acf6 ffbe 30fd a73d c99e 84bd 6d6f ea3e
00000210: 37c7 7bbd 05cc 85be a4db 65bd d693 7d3e
00000220: 0f4a 6abe 3989 113e dca7 983e 7260 d7be
00000230: bfd4 b9bd 707a cb3d 8b31 6a3e c56e 6dbe
00000240: 2413 8a3b 4952 d63d 51a7 6d3e 04e2 ae3d
00000250: ca57 d4bd 30c4 c63e 8b85 c83d c9f9 a3bd
00000260: 8bb8 90bd af69 4c3e 5a62 22be 0cdd bdbe
00000270: 2209 19bc bc06 88be 42ae 363e fbe1 073e
00000280: 583c bfbd b18e df3d 0c28 79be a356 b6be
00000290: c207 423c 3c6a fdbd 32e3 acbe c5ed a13d
000002a0: 32e4 13be 6171 8e3d 3699 62be d535 9ebe
000002b0: d969 9cbe 11d6 42be 3b28 50be 28e9 ae3e
000002c0: eab8 b3be c212 e4bd 02de 9a3e 9b41 a93e
000002d0: 6889 7ebd d64e 19be e9b2 cbbe 719c a5be
000002e0: 1e90 1abe 3e64 4c3e 2bfd b6be 9e51 953d
000002f0: 3a23 9c3e 4462 a03e 34c0 bc3e d223 313e
00000300: ebf1 99bc 8d3f 653d 6579 edbd 14eb 993d
00000310: 84f2 fc3d cdac 243b 0112 95bd a618 e43d
00000320: 3141 103d 8d8d f93d e4bf 4c3e e4b9 dc3d
00000330: b199 2d3e e096 223e 4ca5 8e3d ba6e 39be
00000340: b8b4 e4bc 8adf a5bd fa05 563e e362 00be
00000350: e880 a53d 55f3 bd3c 545b 9b3d 2333 ddbd
00000360: 8fd7 88bd 0e62 813d 481d 803d cc90 bdbd
00000370: eec4 593d fecb 94bd c227 483e 3f44 013e
00000380: cb41 a3bd 4c7e adbd 5066 80bd 1201 a43d
00000390: ecc2 773d a933 d3bd cf3a 12be ee8c fabb
000003a0: 64d4 3abe d194 023d bf5b bbbd 943f ebbd
000003b0: 1c08 543d 8795 96bd 7e9b eebd 5e44 24bb
000003c0: a050 d2bd 0ea5 94bc 4509 b83d 107b b53c
000003d0: 7f91 0f3d ed0e 27bd 26c3 78bd d830 74bd
000003e0: 4a0a 17be c1fc 633d 494d 2fbe 1339 d23d
000003f0: 3b27 5b3d 2906 0e3e 7289 8c3c 0b0d cc3d

cell_0.bias_ih f4 [256]
0.044094138 0.00044759412 -0.10645106 0.07074772 0.020440258 -0.080555595 0.025205573 0.19456896
0.03376102 0.21227106 0.111758694 -0.047721144 0.14794752 0.018186847 0.14030677 0.49847373
0.16270563 0.17357618 0.08541809 0.0072833933 0.0055530723 0.085775904 0.07234542 -0.37109998
-0.17777912 0.3353545 0.027670039 -0.063154064 -0.11733136 0.07455627 0.16638088 0.036704816
0.0574085 0.24740703 -0.36493784 0.016647303 0.35057423 -0.08862822 -0.058090623 0.13403295
0.274332 -0.11727107 -0.00015637136 0.16264647 0.32495913 -0.0008261976 0.032523736 0.1472833
0.1206426 -0.35272357 -0.061434083 -0.02612011 0.11473014 0.0068878154 0.06197592 0.12275736
-0.010955285 0.2335168 0.2399638 0.12902033 -0.06277224 0.015818797 0.1331191 0.123333886
-0.0052020513 0.010971667 0.007063605 0.024558147 0.025838654 0.07009743 -0.0453275 0.030743916
0.022580586 0.22278619 -0.16352575 -0.025815448 -0.106653765 -0.17510301 0.18431863 0.07855304
-0.07327923 0.13599262 -0.02155899 -0.09550367 0.042992644 0.095509596 -0.08084522 -0.08712858
-0.008734285 -0.059811328 0.04810187 0.058100313 -0.2644025 -0.1333531 0.08448212 0.11298239
-0.11301067 -0.05103623 -0.27242973 0.15804076 0.12845956 0.14568742 0.13323656 0.01827092
0.15776275 0.10479611 0.04307448 0.06406602 0.04566402 -0.11965648 -0.0066119167 -0.08369314
0.15477104 0.11300775 0.009317976 0.0043438766 0.009706784 -0.0707696 -0.050039247 0.050544586
-0.057977345 0.21747757 0.037275944 0.039907217 -0.05496913 0.038717162 -0.008838712 0.18316041
-0.15662153 -0.10732274 0.008406099 0.13647002 0.15962788 0.15005833 0.03321699 0.26737452
-0.2010189 0.2968169 0.19573928 0.16138324 0.020681668 0.17417641 0.17988431 -0.40172583
-0.13244143 0.09863204 0.2427627 -0.09277382 -0.048360802 0.14150505 0.0007327251 -0.18247752
0.08041058 -0.10080328 -0.14988737 0.0076244134 -0.04391933 0.09607871 -0.16304147 -0.10569234
0.11370329 -0.08729695 0.13867404 0.09386287 -0.1532267 2.744066e-05 -0.14186949 0.14233175
-0.17496124 0.014834632 0.13714536 -0.30228147 0.01379584 0.03807629 -0.16512224 -0.07103671
-0.038001474 -0.040392663 -0.015309402 0.2177955 0.0047506867 -0.08122965 -0.16861773 -0.19078502
0.11284432 -0.18968536 -0.33665416 -0.12542833 0.18825412 0.19869155 0.03030841 -0.0149232065
0.146644 0.018895602 0.09818571 -0.02708535 0.028121574 0.14847368 0.2118826 0.13526098
0.06445996 0.19969983 -0.023244573 0.21472605 0.034415286 0.22918966 -0.0058252807 0.07804364
0.047930453 0.045015156 0.19248033 0.33962977 0.13240238 -0.044459075 -0.021344736 -0.30442554
0.044163126 0.41808718 0.10910988 0.07877215 0.04438033 0.09494387 0.1585272 0.03469343
0.2043879 0.22052851 0.21742971 0.008506256 0.07510424 0.012190271 0.13298476 0.03390358
0.094703004 0.007087626 -0.044327963 0.09860221 0.28084916 0.034243807 0.14285429 0.061341435
0.0127427075 0.02222598 0.060535528 0.12843396 0.028928183 0.11014202 0.009131113 -0.077739656
0.12979154 0.18715696 0.044611137 -0.034457017 0.08760497 0.11566601 -0.028025264 -0.09729358
00000000: 0e9c 343d 11ab ea39 0303 dabd 2ee4 903d
00000010: 5472 a73c 55fa a4bd eb7b ce3c 163d 473e
00000020: ff48 0a3d 965d 593e bee1 e43d 3f77 43bd
00000030: 8e7f 173e 95fc 943c 94ac 0f3e f337 ff3e
00000040: 4e9c 263e f4bd 313e aeef ae3d 88a9 ee3b
00000050: 8cf6 b53b 47ab af3d d629 943d d100 bebe
00000060: bb0b 36be 96b3 ab3e 47ac e23c eb56 81bd
00000070: 6d4b f0bd f5b0 983d c05f 2a3e ca57 163d
00000080: 2d25 6b3d 4558 7d3e 22d9 babe ed5f 883c
00000090: 777e b33e b682 b5bd 6ff0 6dbd ef3f 093e
000000a0: 3e75 8c3e d12b f0bd 9ef7 23b9 cc8c 263e
000000b0: 0b61 a63e 2f95 58ba 9c37 053d 6fd1 163e
000000c0: 7813 f73d 2f98 b4be 4ea2 7bbd d7f9 d5bc
000000d0: a3f7 ea3d 2fb3 e13b 76da 7d3d 3668 fb3d
000000e0: cc7d 33bc 071f 6f3e 12b9 753e e81d 043e
000000f0: bb8e 80bd 6c96 813c 6050 083e 7a96 fc3d
00000100: f875 aabb 82c2 333c d075 e73b 2b2e c93c
00000110: 96ab d33c 3e8f 8f3d 54a9 39bd aada fb3c
00000120: ecfa b83c 1022 643e 4b73 27be eb7a d3bc
00000130: 4a6d dabd 344e 33be 06be 3c3e 6be0 a03d
00000140: 6c13 96bd a641 0b3e 7b9c b0bc 6e97 c3bd
00000150: 0e19 303d 899a c33d 2e92 a5bd 7870 b2bd
00000160: 3f1a 0fbc b9fc 74bd 7706 453d 98fa 6d3d
00000170: c45f 87be b78d 08be f604 ad3d 5063 e73d
00000180: 2372 e7bd 5e0b 51bd e97b 8bbe 70d5 213e
00000190: e78a 033e 152f 153e 2a6f 083e e5ac 953c
000001a0: 8f8c 213e 589f d63d de6e 303d 0c35 833d
000001b0: 320a 3b3d 750e f5bd c7a8 d8bb 4f67 abbd
000001c0: 4d7c 1e3e 9b70 e73d 6daa 183c 1457 8e3b
000001d0: 3409 1f3c a7ef 90bd f4f5 4cbd d707 4f3d
000001e0: a779 6dbd 71b2 5e3e a9ae 183d c075 233d
000001f0: 4f27 61bd e395 1e3d 3fd0 10bc 678e 3b3e
00000200: 6561 20be 06cc dbbd bcb9 093c ccbe 0b3e
00000210: 7e75 233e e4a8 193e 8a0e 083d 50e5 883e
00000220: e6d7 4dbe 62f8 973e e16f 483e a641 253e
00000230: 9a6c a93c 4d5b 323e 9833 383e 02af cdbe
00000240: ba9e 07be 98ff c93d c996 783e 3300 bebd
00000250: fa15 46bd b3e6 103e 5914 403a 63db 3abe
00000260: 4dae a43d f371 cebd 137c 19be 37d6 f93b
00000270: c1e4 33bd eac4 c43d 58f4 26be 3a75 d8bd
00000280: 45dd e83d bec8 b2bd 9100 0e3e 2d3b c03d
00000290: 76e7 1cbe 5e30 e637 3c46 11be 6abf 113e
000002a0: 0a29 33be f50c 733c d56f 0c3e a3c4 9abe
000002b0: f207 623c e2f5 1b3d ce15 29be b27b 91bd
000002c0: 6fa7 1bbd c772 25bd 49d4 7abc c905 5f3e
000002d0: a6ab 9b3b bb5b a6bd 20aa 2cbe 265d 43be
000002e0: ec1a e73d e13c 42be ef5d acbe 4970 00be
000002f0: b0c5 403e cc75 4b3e 5849 f83c 7780 74bc
00000300: d829 163e f3ca 9a3c 9715 c93d 19e2 ddbc
00000310: 375f e63c 7c09 183e c1f7 583e db81 0a3e
00000320: 9503 843d 1d7e 4c3e 676b bebc 25e1 5b3e
00000330: 0bf7 0c3d b2b0 6a3e ffe1 bebb 58d5 9f3d
00000340: b952 443d d061 383d 9019 453e f4e3 ad3e
00000350: 7d94 073e b81a 36bd 28db aebc aadd 9bbe
00000360: 65e4 343d 860f d63e 0075 df3d 4b53 a13d
00000370: 26c8 353d ef71 c23d f454 223e b31a 0e3d
00000380: 104b 513e 3ad2 613e e5a5 5e3e d35d 0b3c
00000390: 40d0 993d b4b9 473c 282d 083e 7bde 0a3d
000003a0: a6f3 c13d 513f e83b 3d91 35bd f5ef c93d
000003b0: 76cb 8f3e 3c43 0c3d 6548 123e 2841 7b3d
000003c0: cac6 503c 4213 b63c 1af4 773d 3184 033e
000003d0: ccfa ec3c 2492 e13d aa9a 153c f835 9fbd
000003e0: 13e8 043e 13a6 3f3e 2bba 363d cd22 0dbd
000003f0: 3c6a b33d 4de2 ec3d 3d95 e5bc db41 c7bd

cell_0.bias_hh f4 [256]
-0.03237088 0.013123077 -0.12552978 0.03292597 0.18047872 -0.06827344 -0.0044298284 0.18434155
0.15896024 0.20959443 0.2516286 -0.045617733 0.35003385 0.16490358 0.04126083 0.29742962
0.2009549 0.27228284 0.067223504 0.053174794 0.038681965 0.1363088 0.015535901 -0.33200872
-0.1667261 0.40532076 0.04489542 0.15059061 -0.1671199 0.018076329 0.09827225 0.16969982
-0.0003575208 0.112837955 -0.3211685 0.09647258 0.3252596 -0.01006981 -0.0654332 0.18188964
0.06267482 -0.11313553 -0.076837726 0.22881526 0.093913704 0.12202228 0.031157825 0.042163238
0.09844848 -0.28490752 -0.08574307 -0.062973164 0.036212415 -0.06985743 0.07964202 0.1442318
-0.05929677 0.0074398955 0.059055835 0.19898222 0.079200275 0.044975407 0.059054736 0.07755406
0.037197858 -0.06354077 -0.15416105 -0.014958718 0.10828563 0.17464015 0.02074693 0.03043102
-0.04369273 0.033019308 -0.012238221 -0.037491865 0.0046387566 -0.0102062225 0.040962555 0.17517306
-0.12373525 0.14789742 -0.006082964 -0.13472095 -0.09807801 -0.012497379 -0.11157687 -0.07842002
0.011491414 -0.21273887 0.051700704 0.12806335 -0.085444644 0.051215824 -0.12275869 -0.021534657
-0.025746742 -0.1188197 -0.17903143 0.038664952 0.12073339 -0.000711257 0.10444707 0.019220946
0.09450955 -0.11530293 0.11493998 0.019069076 0.18108091 -0.11640679 -0.04086875 0.06992881
0.051543124 0.12416443 -0.014029453 -0.000112798574 0.08109058 -0.07660027 -0.06338117 0.060810238
0.0754745 0.18707658 0.09493249 0.08164535 -0.06426115 0.16122073 0.15088354 0.08054612
-0.08216203 -0.08878257 0.08538117 -0.01077951 0.100714505 -0.017888479 0.082667634 0.2198139
-0.1988973 0.32483217 0.24410656 0.11058164 0.13115384 0.25009108 0.13628057 -0.21538213
0.036876753 0.07111311 0.33953252 -0.15061007 -0.053750847 0.14852868 -0.0029612877 -0.13148929
-0.046794347 0.058517963 0.025211757 -0.2109178 -0.065141365 -0.11146149 -0.09770945 -0.10832934
0.011057549 -0.05144624 0.06914189 0.07810183 -0.1918409 0.05652938 0.054548915 0.2086373
-0.38886437 0.08057631 0.14489192 -0.08267296 0.046730142 -0.12293577 0.044878688 -0.14605103
0.0955125 -0.09267589 -0.06945382 0.19040547 0.058473743 -0.18872584 -0.17852221 -0.17985994
0.033839628 -0.12683457 -0.35517833 -0.1336838 0.09820667 0.08426714 0.0199 -0.12527688
0.17018335 -0.012583312 -0.024173168 -0.051628858 0.18814018 -0.005551307 0.10659166 -0.0074954876
0.15711656 0.21504179 0.17297171 0.1284178 0.12811814 0.32758817 0.16793656 0.20690109
0.16818707 -0.057997152 0.2228569 0.2185006 0.074181564 0.07389758 0.058315434 -0.23480688
-0.096546456 0.33306235 0.053930223 -0.09958104 -0.047626484 0.059603166 0.14091016 0.098814204
0.03737137 0.1818103 0.07400682 0.14566198 0.18881927 0.07296749 0.14487992 0.13319105
0.033449546 -0.14931847 0.14155537 -0.08075051 0.31115827 0.09886098 0.19323806 0.13652068
0.23257539 -0.081582844 0.058889743 0.18581297 0.060891453 0.0298788 -0.027440349 -0.13911319
-0.039362743 0.057748742 -0.013688465 0.07755989 -0.0047764196 0.082586914 0.11910113 0.08534157
00000000: 5497 04bd 2d02 573c e18a 00be 62dd 063d
00000010: 6acf 383e f2d2 8bbd 1828 91bb 08c4 3c3e
00000020: 79c6 223e ec9f 563e 77d5 803e a9d9 3abd
00000030: a337 b33e 7cdc 283e 1e01 293d b248 983e
00000040: 1fc7 4d3e a868 8b3e 7aac 893d d0cd 593d
00000050: fb70 1e3d 8994 0b3e 4b8a 7e3c 0cfd a9be
00000060: 3fba 2abe 3486 cf3e 43e4 373d 6d34 1a3e
00000070: 7b21 2bbe cf14 943c f642 c93d cac5 2d3e
00000080: a171 bbb9 9617 e73d 3370 a4be 6b93 c53d
00000090: 6d88 a63e d8fb 24bc d701 86bd 4741 3a3e
000000a0: a85b 803d 9ab3 e7bd 195d 9dbd 8c4e 6a3e
000000b0: d455 c03d d1e6 f93d b23e ff3c 5cb3 2c3d
000000c0: 5b9f c93d 66df 91be 109a afbd 13f8 80bd
000000d0: 7853 143d 6a11 8fbd 5b1b a33d 80b1 133e
000000e0: 2be1 72bd 5eca f33b 88e4 713d ffc1 4b3e
000000f0: c133 a23d 2238 383d 61e3 713d aad4 9e3d
00000100: c85c 183d aa21 82bd 65dc 1dbe 6915 75bc
00000110: dbc4 dd3d ded4 323e 77f5 a93c 794a f93c
00000120: 26f7 32bd 413f 073d d282 48bc 1291 19bd
00000130: b600 983b 0038 27bc 5ac8 273d 9160 333e
00000140: e868 fdbd 6c72 173e 9a53 c7bb 4af4 09be
00000150: 20dd c8bd cfc1 4cbc 6a82 e4bd ad9a a0bd
00000160: 7c46 3c3c 38d8 59be 1ec4 533d 0a23 033e
00000170: 9afd aebd afc7 513d e868 fbbd 7369 b0bc
00000180: d5ea d2bc be57 f3bd 0454 37be 245f 1e3d
00000190: 1143 f73d a673 3aba 58e8 d53d 3f75 9d3c
000001a0: 398e c13d f123 ecbd a765 eb3d c036 9c3c
000001b0: 466d 393e af66 eebd fe65 27bd d636 8f3d
000001c0: e21e 533d ec49 fe3d cadb 65bc 468e ecb8
000001d0: d112 a63d 9ae0 9cbd fdcd 81bd 2814 793d
000001e0: 6092 9a3d 0191 3f3e f76b c23d ad35 a73d
000001f0: 5a9b 83bd 0c17 253e 3781 1a3e 5df5 a43d
00000200: 9144 a8bd a3d3 b5bd 53dc ae3d 8b9c 30bc
00000210: 6843 ce3d dc8a 92bc a64d a93d e516 613e
00000220: bcab 4bbe 6750 a63e 12f7 793e a078 e23d
00000230: 314d 063e f00b 803e 228d 0b3e 228d 5cbe
00000240: 140c 173d c0a3 913d 35d7 ad3e 8739 1abe
00000250: d929 5cbd e717 183e 2a12 42bb 21a5 06be
00000260: 6eab 3fbd 88b0 6f3d e388 ce3c d6fa 57be
00000270: d668 85bd ec45 e4bd e41b c8bd c6db ddbd
00000280: b92a 353c 4bb9 52bd 439a 8d3d daf3 9f3d
00000290: f171 44be 5a8b 673d af6e 5f3d 04a5 553e
000002a0: 3b19 c7be 3105 a53d 8c5e 143e 7150 a9bd
000002b0: 1b68 3f3d c0c5 fbbd b7d2 373d 678e 15be
000002c0: 0f9c c33d dbcc bdbd ce3d 8ebd a7f9 423e
000002d0: 2a82 6f3d 5941 41be 87ce 36be 342d 38be
000002e0: 6c9b 0a3d ece0 01be efd9 b5be 68e4 08be
000002f0: 9420 c93d 4094 ac3d 5305 a33c 9548 00be
00000300: 8b44 2e3e 3c2a 4ebc cf06 c6bc c878 53bd
00000310: d2a7 403e bde7 b5bb ba4c da3d b59c f5bb
00000320: 2ae3 203e ea33 5c3e 7f1f 313e f57f 033e
00000330: 6731 033e a3b9 a73e 90f7 2b3e e1dd 533e
00000340: 3b39 2c3e 6c8e 6dbd 9934 643e 9fbe 5f3e
00000350: 81ec 973d 9d57 973d 2adc 6e3d 3771 70be
00000360: 26ba c5bd 2687 aa3e f0e5 5c3d 25f1 cbbd
00000370: fd13 43bd 7322 743d c14a 103e 1a5f ca3d
00000380: b912 193d 7b2c 3a3e e390 973d 6a28 153e
00000390: d759 413e fb6f 953d 675b 143e 3c63 083e
000003a0: 6402 093d f1e6 18be e4f3 103e 8660 a5bd
000003b0: 2350 9f3e a077 ca3d 33e0 453e 14cc 0b3e
000003c0: 3e28 6e3e e814 a7bd 5f36 713d c145 3e3e
000003d0: 5169 793d 63c4 f43c 95ca e0bc b073 0ebe
000003e0: d43a 21bd f289 6c3d 9545 60bc b8d7 9e3d
000003f0: 8383 9cbb 5423 a93d 4beb f33d 90c7 ae3d

cell_1.weight_ih f4 [256, 64]
-0.112730995 0.055160396 -0.117396764 0.11489472 -0.08994246 -0.095446356 -0.015771618 0.05532966
-0.13711739 -0.012170088 0.19224931 0.11504685 0.17843372 0.0005484917 0.013493555 -0.031308115
0.1572218 0.17071487 0.07266755 -0.0003238841 -0.032825634 0.1407 0.0013521031 0.06941819
0.023672754 -0.0086202985 0.050984923 -0.11691665 -0.014150959 -0.10195054 0.15952842 0.028361017
-0.07598722 0.10350312 -0.043035507 -0.018095229 -0.09693243 0.05094873 -0.047881857 -0.12848738
-0.15123305 0.09880576 -0.053571492 -0.14606011 0.10843589 0.10873191 -0.082418695 0.012880254
-0.0630909 0.046373572 -0.06195284 0.01050635 -0.068217404 -0.03826868 -0.014106979 -0.080508344
-0.12384312 -0.03309106 -0.16297835 0.09747673 0.15566902 0.16882011 0.059403338 -0.025542773
-0.044137854 0.063307434 -0.08869101 0.20598449 -0.087776646 -0.080669776 -0.17281471 0.011094521
-0.04322784 -0.09915524 -0.05514533 0.035679054 -0.0130107235 0.14019595 -0.024012303 0.1971775
0.06276177 0.13049556 -0.08960033 0.05585173 -0.14374144 0.18596062 0.0007969151 -0.025098175
-0.13138294 0.024218094 -0.18268123 0.07519546 0.10117423 -0.11791496 0.07990565 0.1448651
-0.1613497 0.11920535 -0.03907527 -0.055637736 -0.14214693 -0.100964285 -0.13800745 0.0025598905
-0.008489718 0.036566455 0.0529477 0.07619982 0.00063286023 -0.09874116 -0.12891947 0.08530368
-0.0067405044 0.02963915 0.03052812 0.13416655 0.07292778 -0.15670007 -0.05308777 -0.17052236
-0.12868871 -0.00841875 -0.1100004 -0.01248591 0.09097626 0.13111761 0.11009671 0.07088697
-0.14738435 0.28459552 0.14462836 0.09531783 0.1057635 -0.017499488 -0.051899042 0.008140281
0.05770508 0.12502392 0.3475832 0.38653606 -0.19168611 0.23873278 -0.012697085 -0.19763207
-0.08302433 0.0046579414 -0.060680155 -0.30308792 -0.08630019 -0.041869555 -0.07110586 -0.28956193
-0.023674993 0.11148095 -0.03042061 0.0968198 -0.034527194 0.10776857 -0.20430374 -0.12271928
0.07338495 -0.31139302 0.29497576 0.018972663 0.14055151 0.08166423 -0.079968125 0.33538693
-0.095107004 0.13777816 0.24535523 0.10939901 0.11097009 0.09779743 0.07609374 0.047988553
-0.023784427 0.0014092072 0.065913185 -0.06943377 0.09737403 0.08339241 0.03261956 0.13306315
0.050778463 0.2964501 0.044633895 -0.036779325 -0.010635278 -0.015643163 0.1870059 -0.13862202
-0.19795565 -0.03924521 -0.048304845 0.15751168 -0.16261405 -0.22515507 -0.09314439 0.06667377
-0.18853523 0.16561429 0.029059779 -0.0077203293 0.1305307 -0.055720642 -0.015027897 -0.11346888
0.15561435 0.14109798 0.32961643 0.0938105 -0.15847705 0.19292091 0.14445823 -0.0649602
-0.15432277 0.20961934 -0.013547273 -0.016351366 0.13098188 -0.2108887 0.06427414 0.15919387
-0.0065946104 0.088580616 -0.05547145 -0.26063475 -0.17968678 -0.15161581 -0.17378646 -0.13615996
-0.100343265 -0.2334247 -0.13564558 -0.14248675 -0.110569954 -0.105585754 0.01598046 0.22297904
-0.02497898 0.13812149 0.007276104 0.05034192 0.11286367 -0.02176564 -0.16807696 -0.03318736
0.01162548 -0.009240773 -0.13746884 0.052882105 0.13425316 0.07344952 0.30309793 0.18938994
00000000: 82df e6bd deef 613d b76d f0bd ec4d eb3d
00000010: c133 b8bd 6179 c3bd 7b33 81bc 5ba1 623d
00000020: 8068 0cbe 0c65 47bc 01dd 443e af9d eb3d
00000030: 54b7 363e a8c8 0f3a 1214 5d3c f03c 00bd
00000040: c0fe 203e e1cf 2e3e b9d2 943d fdce a9b9
00000050: 2c74 06bd a913 103e 0d39 b13a 202b 8e3d
00000060: 5ded c13c 273c 0dbc 91d5 503d ff71 efbd
00000070: 6dd9 67bc 72cb d0bd 6b5b 233e 5d55 e83c
00000080: 309f 9bbd 72f9 d33d 0046 30bd 723c 94bc
00000090: 8384 c6bd 9eaf 503d c41f 44bd 3292 03be
000000a0: d6dc 1abe ad5a ca3d c86d 5bbd c890 15be
000000b0: a313 de3d d6ae de3d 22cb a8bd b307 533c
000000c0: cd35 81bd 37f2 3d3d 43c2 7dbd d322 2c3c
000000d0: 91b5 8bbd 9fbf 1cbd f520 67bc 8fe1 a4bd
000000e0: 76a1 fdbd 7e8a 07bd cce3 26be e1a1 c73d
000000f0: b367 1f3e 2edf 2c3e ea50 733d 143f d1bc
00000100: e5c9 34bd 54a7 813d a2a3 b5bd 99ed 523e
00000110: 3ec4 b3bd 3236 a5bd 57f6 30be cbc5 353c
00000120: ad0f 31bd e711 cbbd 12e0 61bd 3324 123d
00000130: ee2a 55bc 878f 0f3e 73b5 c4bc e6e8 493e
00000140: 3e89 803d a1a0 053e 6180 b7bd c9c4 643d
00000150: f530 13be 766c 3e3e 11e8 503a b09a cdbc
00000160: 4089 06be 0665 c63c ca10 3bbe 1400 9a3d
00000170: 6f34 cf3d 667d f1bd 93a5 a33d 8457 143e
00000180: db38 25be ef21 f43d 640d 20bd 65e4 63bd
00000190: f78e 11be 5dc6 cebd d351 0dbe d6c3 273b
000001a0: 7518 0bbc b5c6 153d b0df 583d a70e 9c3d
000001b0: 88e6 253a ce38 cabd 7703 04be b2b3 ae3d
000001c0: 73df dcbb cdcd f23c 1c16 fa3c f562 093e
000001d0: 295b 953d fc75 20be 9072 59bd 6a9d 2ebe
000001e0: f9c6 03be ccee 09bc e447 e1bd b491 4cbc
000001f0: c351 ba3d b243 063e 627a e13d 302d 913d
00000200: eceb 16be 81b6 913e 7519 143e ff35 c33d
00000210: 899a d83d 165b 8fbc 1794 54bd d05e 053c
00000220: 295c 6c3d 4506 003e 6df6 b13e 0ee8 c53e
00000230: 5d49 44be 5e76 743e 6f07 50bc 1060 4abe
00000240: a908 aabd a5a1 983b c18b 78bd 572e 9bbe
00000250: 27be b0bd 697f 2bbd f39f 91bd 7641 94be
00000260: 0ff2 c1bc 2050 e43d a534 f9bc 7649 c63d
00000270: 636c 0dbd c5b5 dc3d 0035 51be 3f54 fbbd
00000280: d94a 963d e86e 9fbe 1007 973e 8f6c 9b3c
00000290: bcec 0f3e 933f a73d 54c6 a3bd d6b7 ab3e
000002a0: 76c7 c2bd b815 0d3e 673e 7b3e 970c e03d
000002b0: 4944 e33d 054a c83d 09d7 9b3d a58f 443d
000002c0: 8fd7 c2bc 26b5 b83a 7efd 863d 4b33 8ebd
000002d0: 096c c73d a4c9 aa3d 169c 053d b541 083e
000002e0: 14fd 4f3d 4fc8 973e 08d2 363d eba5 16bd
000002f0: 973f 2ebc 1726 80bc 7a7e 3f3e eef2 0dbe
00000300: e3b4 4abe 96bf 20bd 4ddb 45bd be4a 213e
00000310: 4c84 26be 0d8f 66be 7cc2 bebd 428c 883d
00000320: 610f 41be cb96 293e c60e ee3c d1fa fcbb
00000330: d7a9 053e 543b 64bd 9237 76bc 5f62 e8bd
00000340: 5e59 1f3e fd7b 103e 7cc3 a83e b81f c03d
00000350: cf47 22be 0f8d 453e dcec 133e da09 85bd
00000360: ca06 1ebe 74a6 563e 62f5 5dbc 4df3 85bc
00000370: 1d20 063e 35f3 57be 29a2 833d b803 233e
00000380: 9a17 d8bb c169 b53d 0836 63bd eb71 85be
00000390: d0ff 37be 2d41 1bbe 14f5 31be 846d 0bbe
000003a0: c580 cdbd e206 6fbe ade6 0abe 0ce8 11be
000003b0: 8072 e2bd 583d d8bd 74e9 823c 9e54 643e
000003c0: b8a0 ccbc b86f 0d3e 626c ee3b 5433 4e3d
000003d0: 1125 e73d db4d b2bc 5e1c 2cbe 78ef 07bd
000003e0: cc78 3e3c 9c66 17bc a2c4 0cbe e89a 583d
000003f0: a979 093e b46c 963d a72f 9b3e 70ef 413e

cell_1.weight_hh f4 [256, 64]
0.0031023503 0.11432323 0.015548224 -0.025603963 -0.026188644 -0.07220248 -0.107773386 0.1625853
0.07402052 0.112504035 -0.012712187 0.101871334 0.2306672 0.06611776 -0.20865314 0.122855484
-0.071824655 -0.22460979 0.12083685 -0.04348059 0.101777636 0.20002715 -0.08776206 -0.15775082
-0.10636184 0.07008481 -0.029540084 -0.1511575 0.003898837 -0.024451409 0.103843994 -0.16190815
-0.18543755 0.1269024 0.198337 -0.11820022 -0.017180378 -0.086418636 0.02397715 -0.21108629
-0.06957927 0.19802849 0.024275322 0.03348369 -0.19500305 0.079302564 -0.01986258 0.18251523
-0.052749854 -0.012928105 -0.11436037 -0.10280974 -0.21710163 -0.107518755 0.046116326 -0.22657298
-0.18847094 -0.15266772 0.014358461 -0.13109502 -0.07597056 -0.19921495 -0.24087054 -0.100164495
0.022158755 0.023873247 -0.23476683 -0.037029542 -0.08620172 0.031213237 -0.16011606 0.14964986
-0.14197424 0.051312886 0.042407192 -0.04820956 0.12306335 0.03167722 -0.06593705 0.24181424
-0.12135223 -0.21391186 0.115303986 -0.16683118 0.04728054 -0.10735694 0.14072834 -0.037921987
0.031785548 0.08071365 0.06700858 -0.09307227 -0.10663732 -0.17755666 0.20274095 0.18175216
-0.15810499 0.17425433 0.1782864 0.053534634 0.08709396 -0.17045216 1.7709812e-05 0.0051879
0.06678088 0.10731054 -0.16005589 0.0198314 0.02043236 0.17879987 0.15398715 0.28077874
0.0549805 -0.048976436 -0.009372716 -0.0632385 -0.08995947 -0.21764435 0.043825775 -0.22637959
-0.1044911 -0.15645444 -0.027038654 -0.024004908 -0.011769471 -0.11774366 -0.03389547 -0.013080754
0.027985878 -0.24167141 -0.29646733 -0.03760217 0.035777528 0.06987463 -0.114247605 0.09126459
-0.3863994 -0.25962093 -0.048940673 -0.102626994 -0.12522484 -0.061810363 0.008445779 0.1027804
0.07503845 -0.18934278 -0.33172 0.048136115 -0.16625004 -0.014027468 -0.1463649 0.12810487
-0.15887143 0.024318809 -0.1210984 -0.2823942 0.11188274 -0.12616572 0.2850275 0.06368638
-0.043534443 -0.05225608 0.009704077 0.102236815 -0.17642622 -0.059808657 0.03613443 -0.09680253
-0.1245564 0.052119207 0.07095248 0.33373433 -0.04542929 0.44335306 0.113566674 0.34405333
0.13692191 -0.04719835 0.059457734 0.09278415 0.07040826 -0.06809432 0.07824436 -0.09004522
0.037934653 0.08818834 -0.02564711 0.053055238 -0.045814414 0.011260038 0.11417171 -0.08559472
-0.06973069 0.05248205 -0.085687876 -0.045691796 -0.16911656 0.004512842 0.07148117 0.21958958
-0.09943582 0.34526762 0.000117056006 0.009472327 0.08237298 -0.05974787 0.0032375387 0.096624374
-0.27964735 0.105410986 0.2096277 -0.092118196 0.16409647 -0.097642936 0.0186461 -0.07625054
-0.15151352 0.08800538 0.14719301 -0.052102197 0.008330436 -0.094487436 -0.29571334 0.013854894
-0.081654176 0.017450977 -0.052193608 -0.20603572 0.13644274 -0.07258378 0.14600332 -0.023814756
0.18173231 0.24619713 -0.10232646 0.0338576 0.10806882 0.16313057 0.016358014 -0.007354944
0.042398673 0.24145426 -0.1410763 -0.27600023 0.0074897455 -0.09465052 -0.21769619 -0.34815413
-0.13991077 -0.14630255 -0.12642975 -0.08066075 -0.13206358 -0.10985539 -0.028147662 0.017662287
00000000: cd50 4b3b 4c22 ea3d fabd 7e3c 67bf d1bc
00000010: 9189 d6bc e5de 93bd 4bb8 dcbd c37c 263e
00000020: 1298 973d 8468 e63d c746 50bc eba1 d03d
00000030: 0634 6c3e c068 873d 2ba9 55be a89b fb3d
00000040: ce18 93bd 1c00 66be 4f79 f73d b418 32bd
00000050: cb70 d03d ebd3 4c3e 98bc b3bd 6e89 21be
00000060: 3dd4 d9bd a088 8f3d 0cfe f1bc 08c9 1abe
00000070: a183 7f3b 524e c8bc 29ac d43d 40cb 25be
00000080: 57e3 3dbe b4f2 013e db18 4b3e f512 f2bd
00000090: ddbd 8cbc 41fc b0bd ba6b c43c 0127 58be
000000a0: 947f 8ebd fbc7 4a3e 0add c63c 3226 093d
000000b0: e1ae 47be 6269 a23d d9b6 a2bc 46e5 3a3e
000000c0: 3b10 58bd 67d0 53bc c535 eabd ea8d d2bd
000000d0: e44f 5ebe cb32 dcbd 79e4 3c3d bf02 68be
000000e0: 87fe 40be ed54 1cbe c03f 6b3c c63d 06be
000000f0: 7496 9bbd 01ff 4bbe c4a6 76be 0b23 cdbd
00000100: 4786 b53c d491 c33c b766 70be 4aac 17bd
00000110: 878a b0bd e7b2 ff3c 77f5 23be d03d 193e
00000120: b261 11be 762d 523d 2ab3 2d3d 6377 45bd
00000130: a308 fc3d f9bf 013d 010a 87bd 279e 773e
00000140: 8587 f8bd b60b 5bbe 7f24 ec3d cbd5 2abe
00000150: 3da9 413d f5dd dbbd 171b 103e 1654 1bbd
00000160: 9031 023d 334d a53d cb3b 893d ad9c bebd
00000170: ab64 dabd 6ad1 35be 539b 4f3e 3d1d 3a3e
00000180: 46e6 21be ba6f 323e b690 363e 2247 5b3d
00000190: 515e b23d 038b 2ebe 888f 9437 42ff a93b
000001a0: 6ac4 883d a1c5 db3d b1e5 23be 7675 a23c
000001b0: c461 a73c 5017 373e cfae 1d3e 3bc2 8f3e
000001c0: 3c33 613d 849b 48bd 0590 19bc 3083 81bd
000001d0: ac3c b8bd 29de 5ebe a882 333d 0dd0 67be
000001e0: 6eff d5bd 9835 20be 2b80 ddbc f1a5 c4bc
000001f0: bdd4 40bc 9723 f1bd fad5 0abd a950 56bc
00000200: a442 e53c b678 77be 91ca 97be bc04 1abd
00000210: 758b 123d 6e1a 8f3d a6fa e9bd eee8 ba3d
00000220: 24d6 c5be 09ed 84be 0476 48bd 1a2e d2bd
00000230: f13a 00be dd2c 7dbd 2a60 0a3c 887e d23d
00000240: c2ad 993d 13e3 41be 34d7 a9be 602a 453d
00000250: 733d 2abe 77d3 65bc aee0 15be ec2d 033e
00000260: 31af 22be 3d38 c73c 7002 f8bd f995 90be
00000270: c722 e53d 9631 01be 20ef 913e 016e 823d
00000280: 2c51 32bd 790a 56bd d9fd 1e3c 8961 d13d
00000290: 13a9 34be ecf9 74bd b201 143d 6840 c6bd
000002a0: 6d17 ffbd f37a 553d 894f 913d 3adf aa3e
000002b0: 1014 3abd 2cff e23e a595 e83d c227 b03e
000002c0: 4235 0c3e 0f53 41bd f489 733d 9e05 be3d
000002d0: 3532 903d 0975 8bbd 943e a03d a169 b8bd
000002e0: 5e61 1b3d 179c b43d e319 d2bc 7350 593d
000002f0: e5a7 3bbd 067c 383c dcd2 e93d 494c afbd
00000300: f7ce 8ebd 6bf7 563d 207d afbd 5227 3bbd
00000310: e42c 2dbe 76e0 933b b864 923d 17dc 603e
00000320: 02a5 cbbd ebc6 b03e f77b f538 d231 1b3c
00000330: 2ab3 a83d 2fba 74bd e32c 543b 00e3 c53d
00000340: f02d 8fbe b7e1 d73d a5a8 563e 77a8 bcbd
00000350: e808 283e 05f9 c7bd b5bf 983c 3e29 9cbd
00000360: 5c26 1bbe 2a3c b43d c4b9 163e 1d69 55bd
00000370: 627c 083c a182 c1bd bd67 97be a3ff 623c
00000380: 4e3a a7bd 5af5 8e3c f7c8 55bd 07fb 52be
00000390: a5b7 0b3e cea6 94bd e581 153e 2a17 c3bc
000003a0: 0918 3a3e 1a1b 7c3e 8990 d1bd 44ae 0a3d
000003b0: 2f53 dd3d b30b 273e 3e01 863c be01 f1bb
000003c0: 3baa 2d3d c93f 773e 4e76 10be e74f 8dbe
000003d0: 8a6c f53b 22d8 c1bd c0eb 5ebe 4241 b2be
000003e0: c544 0fbe 56d0 15be cd76 01be 7731 a5bd
000003f0: ad3b 07be ddfb e0bd ed95 e6bc 80b0 903c

cell_1.bias_ih f4 [256]
0.053969808 0.065105274 0.030917086 0.20544271 0.12716547 0.10438103 -0.08145524 0.13042308
0.049936373 -0.023075901 0.011698056 0.072583444 0.18278652 0.085681856 0.11844966 -0.05167378
0.033788275 -0.099646874 -0.14707461 0.027642343 0.10366435 0.04666384 0.09947623 0.09887389
0.08558866 0.014314814 -0.069445714 0.04963067 0.190265 0.11513986 -0.14325167 0.1245106
0.012540012 0.119066164 -0.03829742 -0.041824013 0.021527212 0.19290805 0.13893998 0.22188358
0.11440643 0.15433481 0.04805206 0.007208343 0.09367356 -0.07590117 0.2484558 -0.032001015
-0.06938284 -0.007854217 0.08148159 0.07178202 0.052248247 0.01723499 -0.041050524 0.12987211
-0.050253827 0.15257415 0.00014576672 -0.0030326692 0.0018237248 0.00334226 -0.034343936 0.18642291
0.13936119 -0.07269453 -0.018633699 -0.043632597 0.09633422 0.026030134 -0.04694713 -0.06370692
-0.03228828 -0.09397395 -0.007835159 0.14108866 0.081012584 -0.03434662 0.01035824 -0.06779006
0.022763133 -0.11304872 0.029165054 -0.020413302 0.0302572 -0.09280456 0.13001317 -0.037017494
0.08021293 0.07996022 0.18711412 0.017322421 -0.030969923 -0.068620786 0.03215914 -0.049405742
0.034062076 0.10351035 -0.0353022 0.0016556534 0.027056357 0.16136052 -0.021704396 0.055547826
0.14470313 -0.0004331126 -0.068551436 0.08089631 -0.06489169 -0.05496174 0.050723985 -0.06739048
0.15427111 0.10997532 -0.0163467 0.14566351 0.13027436 0.049353838 0.111597456 0.11551764
-0.050425615 -0.06290328 0.164291 0.059422437 -0.05267858 0.07649527 0.12659173 0.08475335
-0.1379412 -0.10593942 -0.1056971 0.021254119 -0.030283771 0.0459877 0.0468961 -0.008904062
0.033881526 -0.034894142 0.014311812 -0.03654073 0.02607689 0.031244896 -0.053246047 0.054501463
-0.024784364 0.034508023 0.13012847 -0.006410046 0.13386975 0.033824634 0.09943226 -0.11788785
-0.09362172 0.13993962 0.104029566 -0.010360829 -0.13561192 -0.13495141 0.06538007 -0.042150386
-0.10950574 0.102096215 0.014956468 -0.106620595 -0.010006093 0.009455567 0.08295457 0.0723062
-0.046385683 0.14930998 0.012132528 -0.114718586 -0.0840421 0.040484644 0.07885019 -0.07780788
0.10300277 0.0034253532 -0.029226717 -0.10141429 -0.07887328 -0.06256989 0.03408491 -0.047684032
-0.15390413 -0.16287722 -0.10875149 0.08586927 -0.13017105 0.0176547 0.08975523 -0.0012704819
0.007750417 -0.060265478 -0.054649767 -0.032622144 0.05949219 -0.007333181 0.008367469 0.04356391
0.18375458 0.14731573 0.009924144 0.09980253 -0.092542395 -0.044960342 0.13629083 -0.002555116
0.0063267336 0.06385883 0.021863012 0.17525113 -0.017773611 0.12785985 0.086609356 0.022832802
0.12062211 0.10080628 -0.085033394 0.046295226 -0.11894703 0.13601546 0.08729034 0.23132458
-0.01831575 0.14068627 0.027463093 -0.024125457 0.057932723 0.023235762 0.015905406 0.021848822
-1.3059876e-05 0.13164005 0.11979869 0.045754954 0.10149798 0.063816346 0.25336194 0.2709376
0.11595238 0.03367629 0.005700287 0.09986603 0.10545749 0.18975124 0.086194016 0.009182713
0.049048375 0.014400562 0.014227574 0.0027519902 0.059809998 0.14486599 -0.036629997 0.03139344
00000000: 720f 5d3d ea55 853d d445 fd3c 935f 523e
00000010: aa37 023e b9c5 d53d 01d2 a6bd a18d 053e
00000020: 158a 4c3d ac09 bdbc 34a9 3f3c a1a6 943d
00000030: 642c 3b3e f879 af3d bc95 f23d e3a7 53bd
00000040: 9365 0a3d a913 ccbd ba9a 16be 3272 e23c
00000050: fa4d d43d 9522 3f3d 32ba cb3d 657e ca3d
00000060: 1b49 af3d ae88 6a3c 8e39 8ebd 8849 4b3d
00000070: d4d4 423e 72ce eb3d 91b0 12be 6aff fe3d
00000080: 9f74 4d3c f6d8 f33d c1dd 1cbd a84f 2bbd
00000090: d659 b03c b089 453e 4846 0e3e 7335 633e
000000a0: eb4d ea3d f209 1e3e 3dd2 443d f733 ec3b
000000b0: ecd7 bf3d 1372 9bbd 326b 7e3e 7f13 03bd
000000c0: 9718 8ebd f9ae 00bc d2df a63d 7402 933d
000000d0: 4202 563d 6530 8d3c 9824 28bd 32fd 043e
000000e0: f5d6 4dbd 663c 1c3e f5d8 1839 bfbf 46bb
000000f0: 0d0a ef3a d109 5b3b 3aac 0cbd a6e5 3e3e
00000100: b3b4 0e3e dfe0 94bd b3a5 98bc 18b8 32bd
00000110: e04a c53d 263d d53c a24b 40bd c678 82bd
00000120: b740 04bd 6a75 c0bd 0a5f 00bc 8c79 103e
00000130: ede9 a53d 0baf 0cbd 9cb5 293c 84d5 8abd
00000140: c079 ba3c 1686 e7bd 8deb ee3c cc39 a7bc
00000150: f3dd f73c 5110 bebd 2c22 053e a89f 17bd
00000160: ad46 a43d 2fc2 a33d d89a 3f3e c0e7 8d3c
00000170: a3b4 fdbc 0e89 8cbd 4db9 033d ad5d 4abd
00000180: ad84 0b3d 3cfd d33d 0a99 10bd 8202 d93a
00000190: 4ba5 dd3c b13b 253e 6bcd b1bc 1e86 633d
000001a0: 0f2d 143e 6413 e3b9 b264 8cbd f7ac a53d
000001b0: efe5 84bd 901f 61bd f4c3 4f3d 0504 8abd
000001c0: 3ff9 1d3e be3a e13d 84e9 85bc d128 153e
000001d0: a466 053e 4027 4a3d 358d e43d 8394 ec3d
000001e0: 178b 4ebd 6fd3 80bd e63b 283e f164 733d
000001f0: 7fc5 57bd 8da9 9c3d 43a1 013e 2a93 ad3d
00000200: 7540 0dbe c4f6 d8bd b977 d8bd 1e1d ae3c
00000210: ac15 f8bc 995d 3c3d 2016 403d 58e2 11bc
00000220: 5bc7 0a3d 29ed 0ebd 177c 6a3c bcab 15bd
00000230: 349f d53c 4cf5 ff3c 8718 5abd ed3c 5f3d
00000240: 9408 cbbc 4958 0d3d 6640 053e 5d0b d2bb
00000250: 2715 093e b38b 0a3d 24a3 cb3d 2f6f f1bd
00000260: bfbc bfbd 554c 0f3e 740d d53d 77c0 29bc
00000270: dadd 0abe b430 0abe fce5 853d e2a5 2cbd
00000280: 8c44 e0bd d217 d13d f90b 753c e65b dabd
00000290: 99f0 23bc 86eb 1a3c 16e4 a93d 4615 943d
000002a0: eafe 3dbd b7e4 183e 83c7 463c 94f1 eabd
000002b0: 441e acbd 3ad3 253d 357c a13d bd59 9fbd
000002c0: 1ef3 d23d e47b 603b de6c efbc 4cb2 cfbd
000002d0: 5088 a1bd a424 80bd 9e9c 0b3d 5550 43bd
000002e0: 0b99 1dbe 49c9 26be 1ab9 debd 3adc af3d
000002f0: 8f4b 05be 97a0 903c 97d1 b73d 4c86 a6ba
00000300: 36f7 fd3b efd8 76bd 6fd8 5fbd cc9e 05bd
00000310: 15ae 733d 2e4b f0bb b517 093c 1270 323d
00000320: 292a 3c3e efd9 163e e098 223c 4565 cc3d
00000330: de86 bdbd 5628 38bd d38f 0b3e bc73 27bb
00000340: 7d50 cf3b 6bc8 823d 0f1a b33c 0875 333e
00000350: f799 91bc b1ed 023e 3f60 b13d db0b bb3c
00000360: ba08 f73d 8673 ce3d fd25 aebd 10a0 3d3d
00000370: 809a f3bd a347 0b3e 47c5 b23d 5ae0 6c3e
00000380: e90a 96bc 1010 103e 48fa e03c c0a2 c5bc
00000390: dd4a 6d3d ed58 be3c 0e4c 823c 4dfc b23c
000003a0: be1b 5bb7 a6cc 063e 0459 f53d 8c69 3b3d
000003b0: 2cde cf3d 25b2 823d a8b8 813e 55b8 8a3e
000003c0: 7178 ed3d 26f0 093d 79c9 ba3b 9086 cc3d
000003d0: 19fa d73d 264e 423e 7d86 b03d 1773 163c
000003e0: f3e6 483d 56f0 6b3c c51a 693c bc5a 343b
000003f0: 54fb 743d c057 143e 5609 16bd 6896 003d

cell_1.bias_hh f4 [256]
0.034900226 -0.06746395 0.050376415 0.15462334 -0.036074143 0.06470247 -0.136973 0.15071732
0.025791755 0.08373035 0.042315252 -0.00052048214 0.10882183 0.039961036 0.1256454 -0.021025756
0.033707198 -0.010738712 -0.16963598 -0.030032538 0.07378569 0.15786076 -0.03666779 -0.05331017
0.08260093 0.038066108 0.030960865 -0.15334694 0.040322155 -0.0721605 -0.05017064 0.17801012
0.1786191 0.034653105 -0.016150573 -0.013274226 0.0968303 0.04235951 0.12973934 0.09795827
0.04227198 0.110021204 0.15280464 0.0739187 -0.0055150604 -0.06825393 0.2542727 0.054673806
0.049912293 -0.046714816 0.05179137 0.061765622 0.024634812 -0.055404823 -0.015212302 0.108957395
0.10847133 0.102889486 -0.09171431 0.0353627 -0.030436609 0.12958366 0.042761803 -0.025374606
0.09957855 0.040610187 0.04169582 -0.058494106 -0.022296969 0.087205835 -0.016692875 -0.007365012
0.105267346 0.104765244 0.014060242 0.08305952 -0.030073099 -0.09687495 -0.05647801 -0.09855406
0.124580085 -0.0501384 0.10317428 0.014315148 -0.06648258 0.13141663 0.11790107 0.08313122
0.19076581 -0.019260352 -0.041368075 -0.10377306 0.02502159 0.053685058 -0.0061859563 -0.082162485
0.08303304 -0.05467916 0.056205295 -0.014815006 -0.11175995 0.14874694 -0.050753582 0.10032761
0.15756641 -0.06583205 -0.038195383 0.02258724 0.086520605 0.006548602 0.10149038 0.10814058
0.11449825 -0.05842304 0.03851647 0.012095025 -0.061155777 0.19362988 0.08258525 -0.0023125382
0.011824393 -0.04416074 0.026342541 -0.06212198 0.08709649 0.03301188 0.13845953 0.04747139
-0.14809379 -0.04599079 -0.11210869 0.005016571 -0.11453211 -0.095290445 -0.037560094 0.08276796
-0.014466533 0.1415577 0.0014674539 0.08036331 0.024100348 0.08836195 -0.10839391 0.008577453
-0.114700586 -0.0050261677 0.012209116 0.07916558 0.04050283 0.060725376 -0.022573257 -0.12175022
-0.082401015 0.07664251 0.059996594 0.090994105 -0.11938044 -0.16961768 -0.0079247 0.052970946
-0.12501884 -0.010090832 0.07117077 0.049235955 0.026456278 -0.073136844 0.08046469 0.03871032
-0.12132753 0.07583019 -0.16741778 0.117314845 -0.038305413 -0.0070143635 0.15186928 -0.04888127
0.09680164 0.014960901 -0.11512175 0.007138101 0.0070905793 0.08001859 0.08312993 -0.03259523
-0.18314601 -0.0402247 -0.12116533 -0.11207808 -0.15064003 -0.09513899 -0.048005313 0.060518723
-0.029812997 0.056277283 0.044151153 -0.03007977 0.07937993 -0.047535032 0.14176539 0.10426247
-0.058999263 0.1221164 0.013454583 0.093897134 -0.025041636 -0.013448876 0.13933915 -0.04540992
-0.0880946 -0.1104355 0.09794115 0.11299263 0.14769743 0.121894024 -0.015194783 -0.09196418
0.20578039 -0.054207746 -0.026853133 -0.063568965 0.0260883 0.017098418 0.049072318 0.20181838
-0.04583427 0.110152565 -0.08228424 -0.0485848 0.0641429 0.17070727 -0.009289587 -0.051061574
-0.044731613 0.12909654 -0.050287694 0.040967647 0.16308732 0.27906048 0.22994812 0.22569269
0.055632513 -0.052744128 -0.051544383 -0.017920513 0.13496102 0.14037953 0.052663617 0.08513732
0.071932845 -0.022883436 0.043531645 -0.0112451045 0.11906451 0.1474048 0.06971167 0.10859533
00000000: 8af3 0e3d 8a2a 8abd 8057 4e3d 9555 1e3e
00000010: 7bc2 13bd bb82 843d a642 0cbe a455 1a3e
00000020: 3b49 d33c d17a ab3d c252 2d3d f770 08ba
00000030: fbdd de3d 2fae 233d 30a9 003e 353e acbc
00000040: 8f10 0a3d 6cf1 2fbc 0eb5 2dbe cc06 f6bc
00000050: f41c 973d 40a6 213e f730 16bd c45b 5abd
00000060: ad2a a93d 35eb 1b3d a4a1 fd3c fb06 1dbe
00000070: d828 253d e2c8 93bd bb7f 4dbd 4948 363e
00000080: ede7 363e 6af0 0d3d 354e 84bc 247c 59bc
00000090: f74e c63d 2a81 2d3d 64da 043e 589e c83d
000000a0: 6225 2d3d cc52 e13d d278 1c3e b062 973d
000000b0: aeb7 b4bb b7c8 8bbd 0830 823e a4f1 5f3d
000000c0: d570 4c3d 0958 3fbd 3023 543d f3fd 7c3d
000000d0: f2ce c93c 2bf0 62bd 053d 79bc 0e25 df3d
000000e0: 3726 de3d b9b7 d23d b6d4 bbbd 7ad8 103d
000000f0: 3256 f9bc 94b1 043e 0027 2f3d 68de cfbc
00000100: d7ef cb3d de56 263d 3cc9 2a3d 8497 6fbd
00000110: 22a8 b6bc f998 b23d 7fbf 88bc 3356 f1bb
00000120: 6896 d73d 298f d63d ee5c 663c 1c1b aa3d
00000130: dc5b f6bc 6066 c6bd 7c55 67bd b6d6 c9bd
00000140: d823 ff3d ec5d 4dbd 094d d33d 158a 6a3c
00000150: 0528 88bd 1592 063e 1e76 f13d b340 aa3d
00000160: 1d58 433e e3c7 9dbc 9271 29bd f886 d4bd
00000170: 14fa cc3c dde4 5b3d 90b3 cabb ce44 a8bd
00000180: 3a0d aa3d 41f7 5fbd 8637 663d a4ba 72bc
00000190: 67e2 e4bd 1e51 183e fde2 4fbd 9078 cd3d
000001a0: 1759 213e f4d2 86bd c372 1cbd e008 b93c
000001b0: b731 b13d a895 d63b 30da cf3d cf78 dd3d
000001c0: 0f7e ea3d ff4c 6fbd 72c3 1d3d 362a 463c
000001d0: 7b7e 7abd e946 463e 7522 a93d f48d 17bb
000001e0: 19bb 413c e4e1 34bd 50cc d73c 9e73 7ebd
000001f0: a55f b23d 7737 073d 56c8 0d3e 5c71 423d
00000200: e6a5 17be d760 3cbd 3e99 e5bd 0c62 a43b
00000210: d08f eabd a327 c3bd 9dd8 19bd 4082 a93d
00000220: 0a05 6dbc 80f4 103e 9557 c03a 8595 a43d
00000230: 186e c53c 1cf7 b43d a0fd ddbd 7288 0c3c
00000240: 24e8 eabd 8db2 a4bb be08 483c 9021 a23d
00000250: 4ce6 253d 2cbb 783d 8deb b8bc 2e58 f9bd
00000260: ddc1 a8bd c0f6 9c3d fdbe 753d 1e5b ba3d
00000270: bb7d f4bd 42b0 2dbe 9ad6 01bc 10f8 583d
00000280: f004 00be 0454 25bc fbc1 913d a4ab 493d
00000290: d6ba d83c c5c8 95bd acca a43d b68e 1e3d
000002a0: 917a f8bd dc4c 9b3d 916f 2bbe c442 f03d
000002b0: 23e6 1cbd bfd8 e5bb 9f83 1b3e ba37 48bd
000002c0: f03f c63d 911e 753c f4c4 ebbd bbe6 e93b
000002d0: 1758 e83b c9e0 a33d 0640 aa3d 9382 05bd
000002e0: a18a 3bbe a8c2 24bd 8725 f8bd 3189 e5bd
000002f0: 6141 1abe 3bd8 c2bd 38a1 44bd 7be2 773d
00000300: 633a f4bc 0283 663d d7d7 343d da69 f6bc
00000310: f291 a23d 18b4 42bd f22a 113e 9087 d53d
00000320: 36a9 71bd 2a18 fa3d 9c70 5c3c 244d c03d
00000330: 1e24 cdbc ad58 5cbc ecae 0e3e c1ff 39bd
00000340: f16a b4bd 022c e2bd 5f95 c83d ae68 e73d
00000350: ff3d 173e 93a3 f93d 8af3 78bc b757 bcbd
00000360: 18b8 523e f108 5ebd 1afb dbbc 7230 82bd
00000370: 21b7 d53c fb11 8c3c 0e00 493d 7aa9 4e3e
00000380: b7bc 3bbd ab97 e13d a484 a8bd db00 47bd
00000390: 5a5d 833d e3cd 2e3e 5a33 18bc f125 51bd
000003a0: 7f38 37bd e231 043e 78fa 4dbd b1cd 273d
000003b0: 5d00 273e 04e1 8e3e 8577 6b3e fc1b 673e
000003c0: ebde 633d 3a0a 58bd 3420 53bd 0ace 92bc
000003d0: 3933 0a3e a7bf 0f3e ceb5 573d 7a5c ae3d
000003e0: 8751 933d 0b76 bbbc 3d4e 323d 633d 38bc
000003f0: 18d8 f33d 49f1 163e fec4 8e3d 3a67 de3d
