model/Small_Adam_batch_size=200_epoch=300.pt (torch_old, 210418 bytes, 10 tensors)

lstm.weight_ih_l0 f4 [256, 1]
000000 99 09 92 3c 9a 52 6f 3d 74 65 07 3e bc 5c 40 bd
       0.017826842 0.058428384 0.13222295 -0.04696344
000010 e4 3f e3 3d b2 7d 16 3e 08 a3 9f 3d 98 40 19 3e
       0.110961705 0.14696386 0.077947676 0.14966047
000020 99 c2 a8 3d 07 00 09 be 9f a6 e8 bd 85 80 b6 bd
       0.082402416 -0.13378917 -0.113599055 -0.08911232
000030 3a 0c 10 bc 87 63 19 3d e1 25 ef 3d 50 66 46 3e
       -0.008791978 0.037448432 0.11677147 0.19374967
000040 3f 90 b9 bd 16 cf af 3d f1 d6 65 3d 32 6b bf 3d
       -0.09060716 0.085844204 0.056113187 0.09346618
000050 b0 be 0a bd 18 0f 21 3e ae d9 c7 3d 42 cc 6f be
       -0.03387326 0.15728414 0.09758316 -0.23417762
000060 f4 3b 98 bd 4c 26 13 3c 94 b4 0a 3e 8c d2 0d be
       -0.0743331 0.008981299 0.13545448 -0.13849849
000070 eb dd 13 bd 78 2e 85 bc 7a eb e3 3d 34 04 34 be
       -0.03610031 -0.01625751 0.11128898 -0.17579728
000080 32 8b eb 3d bd 6b 60 3e dd b2 b0 3d 5c c3 b9 bd
       0.11501159 0.21916099 0.086278655 -0.09070465
000090 24 04 86 3c cf 82 01 3e 93 63 64 be 30 ff 2e 3e
       0.016359396 0.12647556 -0.2230361 0.17089534
0000a0 ac 29 c4 3d e5 ed 4a 3d 83 c1 20 bd 3b 4a 0a 3e
       0.09578261 0.04954328 -0.039247047 0.13504879
0000b0 49 48 93 bd 45 a5 0b 3e 07 dc de 3d a1 db 12 be
       -0.07191522 0.13637264 0.10881811 -0.14341594
0000c0 85 1c 6f be ad a2 8f 3d 35 3d a1 bd fb 09 c5 bd
       -0.23350723 0.0701345 -0.078730024 -0.09621044
0000d0 6d d3 cc bd 61 d6 50 3e c6 c7 17 3e 46 62 01 3e
       -0.10001264 0.20394279 0.14822301 0.12635145
0000e0 91 52 cb 3d 61 01 33 be 68 8c 07 3e fa f3 f8 3d
       0.09927858 -0.17480995 0.13237154 0.1215591
0000f0 5a 25 9c 3c f4 37 68 3e 86 a7 24 3d 9f e9 04 3d
       0.01906078 0.22677594 0.040198825 0.03244936
000100 2d a1 ba bd f5 4d 99 bb 6e 75 55 3d 35 e8 99 3d
       -0.09112773 -0.0046784827 0.052113943 0.07514993
000110 4c 96 ce bc b3 22 19 be bc a7 c3 bd 2a 31 ac 3a
       -0.025218152 -0.14954643 -0.09553477 0.0013137211
000120 3e 7d 6b 3d 95 4d e2 bd 95 6a bf bd 4b bf dd bd
       0.057492487 -0.11049954 -0.09346501 -0.10827502
000130 df e2 57 3b 1e aa dc 3c 3b 14 a1 bc 6e 38 6a 3e
       0.0032941622 0.026936587 -0.019662967 0.22873089
000140 0f ab 87 3d 33 1e 64 bd 4a 80 02 3b a2 56 b4 3d
       0.06624424 -0.055692863 0.0019912892 0.088055864
000150 77 7c 41 bd 6d 1e ee 3d 0e eb 07 be 82 e7 cf bd
       -0.04723784 0.11626897 -0.1327326 -0.101515785
000160 da 4d 30 bd 1c 55 cf bd b6 21 c8 3c 80 70 2a be
       -0.043042995 -0.10123655 0.024430137 -0.16644478
000170 d2 51 92 bd ac 7f 28 be 41 02 ad 3d de 72 8b bd
       -0.07144512 -0.16454953 0.084476955 -0.068090186
000180 2c c5 47 3c 08 bc 03 3d 95 49 a4 3d de 02 39 be
       0.0121930055 0.032161742 0.08021847 -0.180675
000190 af ff ae bd e0 ff 55 3d 8d c5 40 be de 4f 4d 3c
       -0.085448615 0.052245975 -0.1882536 0.012531249
0001a0 b5 34 96 3d 82 34 a8 3d df ed bd 3d 35 97 9a bd
       0.07334272 0.0821314 0.09273886 -0.07548372
0001b0 9c 7a 4e bd 8b a3 03 3e ab 72 07 3e e2 0e 72 3e
       -0.0504099 0.12855355 0.13227336 0.2363849
0001c0 18 6a c3 bd 1c 0f c8 3d 0e 52 c6 3d 26 3a f6 3c
       -0.0954172 0.09768507 0.096836194 0.030057024
0001d0 b6 84 a6 bd 95 37 4b 3e ef 8e 0b be da 3c 0b 3e
       -0.08130781 0.19845422 -0.13628744 0.13597432
0001e0 d4 29 8c 3d d9 f2 81 bd 3b 17 d4 3d da d5 c2 3d
       0.068439156 -0.06345148 0.10355993 0.09513445
0001f0 ab bf 71 3e 7b 63 39 3e 50 20 f6 3d 38 a4 04 3e
       0.23608272 0.18104355 0.12017882 0.1295327
000200 a3 7a 08 be 7a 7c a2 bd 3d 02 e2 bd 62 f4 21 3e
       -0.13328032 -0.07933898 -0.11035583 0.15815881
000210 aa 99 1b 3e 9b f7 95 3d 12 78 2b be 02 dd 22 3e
       0.15195337 0.073226176 -0.16745022 0.1590462
000220 d3 e7 21 be 6d 08 56 be 2d 65 16 3e 38 bf 85 3d
       -0.1581109 -0.20901652 0.14687033 0.06530613
000230 dc d5 22 be 6a a0 9a 3d 72 98 e3 3d 44 5b 38 3d
       -0.15901893 0.07550128 0.11113061 0.045008913
000240 0c bc 72 be 8d c1 3f 3e 21 b4 59 3e c4 87 11 3e
       -0.23704547 0.18726178 0.2126012 0.14211947
000250 7a 39 35 be e2 ca 39 bd 4f d8 82 3d d7 22 34 be
       -0.17697707 -0.0453595 0.06388914 -0.17591415
000260 73 2f 14 3e cc dd 96 bd 89 c2 22 3e e7 4c 0a 3e
       0.14471225 -0.07366523 0.15894522 0.13505898
000270 73 f2 25 be 7e 25 8c bc a1 d5 0e be e9 c7 4b 3e
       -0.16205768 -0.017107721 -0.1394868 0.19900478
000280 71 77 9a bd 5a 76 70 3e ef 87 b5 bd 95 16 d4 b9
       -0.07542313 0.23482648 -0.08863818 -0.00040452616
000290 77 68 52 be 42 bb 87 bd 77 d6 74 3e df c6 09 3e
       -0.20547663 -0.066275135 0.23909937 0.1345477
0002a0 7c 0e 1d 3e 9b 82 54 bd 7f 10 29 3e e1 cc 0b be
       0.15337557 -0.051882368 0.16510199 -0.13652374
0002b0 58 06 2d 3e 59 22 c2 3d 91 35 48 3e 0f 68 d8 3d
       0.16896951 0.094792075 0.19551684 0.105667226
0002c0 d3 60 72 be a4 52 cd bd 22 85 11 3e a0 fa 61 be
       -0.23669748 -0.10025528 0.14210942 -0.22068262
0002d0 31 7a 31 be 81 16 0a be 57 3a 63 3d 7e 96 4b 3d
       -0.17331769 -0.13485147 0.05547556 0.049704067
0002e0 81 21 31 be 69 da 15 be 0d bd 18 be f0 25 c5 bd
       -0.17297937 -0.14634098 -0.14915867 -0.09626377
0002f0 e9 c0 d3 bd 84 91 46 be b7 5a 04 be db de 05 3e
       -0.10339529 -0.19391447 -0.1292523 0.13073294
000300 52 f6 0d bd c4 38 80 3e 63 57 25 3d 5f 20 83 bd
       -0.034658737 0.2504331 0.04036654 -0.06402659
000310 be 11 01 3e 2f ee 2e 3e ca 84 3a bd 61 a3 f3 bd
       0.12604424 0.17083047 -0.045536794 -0.118963964
000320 32 d2 8e 3d 74 e5 da 3d 56 26 f6 3d 36 80 30 3e
       0.06973685 0.10688296 0.12019031 0.17236409
000330 a5 39 79 3d b3 45 00 3d 1a 12 1e 3e 34 a1 58 3d
       0.06084599 0.03131647 0.15436593 0.05288811
000340 24 a9 81 3d 8e d1 38 bc c2 fa 2b be 2b 12 1d be
       0.06331089 -0.0112804305 -0.16794875 -0.15338962
000350 4e 2a ad 3d 2b cc 16 bd 55 e3 25 3e b9 88 93 bc
       0.084553346 -0.036815803 0.16200002 -0.01800953
000360 03 91 58 3d f5 42 17 be a7 0f ea bd 73 ae 20 bd
       0.05287267 -0.14771636 -0.11428767 -0.039228868
000370 ee f4 e0 3d 52 ac 76 3d 0b 85 b2 3d a7 77 2d 3e
       0.10984217 0.06022293 0.08716782 0.16940175
000380 db ea 08 3e 67 96 a9 3c b6 b1 27 3e 24 e9 48 3e
       0.1337084 0.0207016 0.16376385 0.19620186
000390 d8 b4 e7 bd 6f ef da bd 09 42 90 bd 01 d2 b8 bd
       -0.1131379 -0.106901996 -0.07043845 -0.0902443
0003a0 02 3e f9 3d 91 00 94 3c 3f 9b 8c bd 9c 8f 13 3e
       0.1217003 0.018066676 -0.06865548 0.14410251
0003b0 34 67 5e 3e 6d 65 02 be 59 42 d2 bd 85 26 02 be
       0.21719056 -0.12734003 -0.10266561 -0.12710007
0003c0 74 d9 b3 3c 88 c1 1a 3d e2 1b 14 3e 6d e2 b7 3d
       0.021954276 0.037782222 0.14463761 0.08978734
0003d0 1c 98 2f 3e 52 2b 23 3e 05 11 0a 3e d8 ac f5 bd
       0.17147869 0.15934494 0.13483055 -0.11995858
0003e0 fd cd 98 bd 8e 01 18 bd 51 60 ec 3d 86 5f b5 3d
       -0.07461164 -0.037110858 0.115418084 0.0885611
0003f0 a1 07 61 be 7e d9 3b be 02 84 0f be 84 c1 fe 3d
       -0.21975566 -0.18344685 -0.140152 0.12439254

lstm.weight_hh_l0 f4 [256, 64]
000000 2c 92 b5 3e 7c 74 23 3e 0e 8d a8 3d d1 41 a6 3d
       0.35463083 0.15962404 0.08230029 0.08118022
000010 02 13 0d 3e 23 51 9a 3e 81 1b 40 bd da 02 f9 bd
       0.13776782 0.30140027 -0.04690123 -0.12158747
000020 84 c6 c8 bd 1a 29 03 3e 7c 88 38 3b 6b 69 c5 3e
       -0.09803489 0.12808648 0.0028157523 0.3855699
000030 ae 26 37 be 5e 8c ca 3d 43 56 3a 3e 37 2d 03 3d
       -0.17885849 0.09890054 0.18196969 0.032025542
000040 1b 84 51 be db fb e2 3d df dc c1 bd 66 a1 ab 3e
       -0.2046055 0.11083194 -0.09465956 0.33521575
000050 e2 06 8e be 33 68 cb bd 3d 25 b0 3e 8c 69 79 be
       -0.27739626 -0.09931984 0.3440341 -0.24356669
000060 75 2c 9b 3e fd e3 b5 be cc af 81 3d b5 bf d8 3a
       0.30307356 -0.35525504 0.06332359 0.0016536625
000070 ee e1 08 be a3 cd 2d be 2e 6c 81 3d 47 c7 71 be
       -0.13367435 -0.16972975 0.06319462 -0.23611175
000080 1c 7b e2 3e 75 64 97 bc 0b b9 d6 bd 9d ce 06 bf
       0.4423455 -0.018480519 -0.10484513 -0.52659017
000090 aa 3d 74 3e 7e 74 be bd 4a 93 e2 bd b0 2c 3d be
       0.23851648 -0.09299563 -0.110632494 -0.18474078
0000a0 8f 95 76 bc 09 11 88 be 3f da 16 3e 29 ec f2 3d
       -0.015050306 -0.26575497 0.14731692 0.1186145
0000b0 6e 07 08 3d c8 24 0d 3e 98 0c 89 be 75 6b 90 3d
       0.03321021 0.13783562 -0.2676742 0.07051746
0000c0 22 00 bd bd bd a1 15 bd cd 53 82 3d 57 b2 be bc
       -0.09228541 -0.0365312 0.0636364 -0.023278398
0000d0 72 2e a8 3b ff 32 01 bd cc 83 2b 3e 5d 82 80 3e
       0.00513249 -0.031542774 0.16749495 0.2509946
0000e0 4d 60 e8 3b f4 b7 cb 3c f5 fa 9d 3c 51 86 45 be
       0.007091558 0.02486799 0.019284705 -0.19289519
0000f0 f7 96 4b be b9 11 6d 3e 56 5c 8b 3d 35 f2 4e 3e
       -0.19881807 0.23151292 0.06804721 0.20209582
000100 35 41 d4 3d a1 1c a4 bd ee 84 ec 3d 75 44 c9 bb
       0.10364 -0.08013273 0.11548792 -0.006142194
000110 36 df 0d 3e 01 c8 3f 3e 69 3a 58 be d8 0b df 3d
       0.1385468 0.18728639 -0.21116032 0.10890931
000120 ec ed 1c be 2c 8c b5 bd ec 00 68 3d d6 b7 a9 3e
       -0.15325135 -0.08864626 0.056641504 0.33148068
000130 88 fe a5 bc 6a 12 06 3c 41 b5 48 3e 32 78 d5 3d
       -0.020262972 0.008183101 0.19600393 0.10423316
000140 6f 68 22 be 06 bd 55 3e 19 1b 7e 3e 31 3f 5b 3e
       -0.15860151 0.20872888 0.24815024 0.21410824
000150 63 10 82 bc 9e bd 2f be ae cd 33 3e 89 01 8d be
       -0.015876954 -0.17162177 0.1755893 -0.27540234
000160 7a f4 0e 3e 7c e0 aa be 09 06 40 3e 2e dd 9b 3e
       0.13960448 -0.33374393 0.18752302 0.30442184
000170 fe 33 a0 bd 2d d4 b6 bd 9a fb b6 3d a2 36 3a 3d
       -0.07822417 -0.08927188 0.08934708 0.04546226
000180 29 5c a5 3e a6 0c 38 3e 57 ca 2d 3c ed 48 0d be
       0.32296875 0.17973575 0.010607324 -0.1379735
000190 55 fa 6a be 3a c6 a7 be c6 5c 46 3e 51 a8 8d 3d
       -0.22947057 -0.32768422 0.19371328 0.069168694
0001a0 bd 1f 83 3d 6d 60 07 bd 6f 92 42 3d d1 77 ab 3c
       0.06402538 -0.033050943 0.04750293 0.020931156
0001b0 22 13 e8 3d d4 d6 92 3e 7f 36 76 3e 44 fb 2c 3e
       0.11331774 0.28679526 0.24044226 0.16892725
0001c0 84 0b 2d be 46 7b e9 3d 41 06 7a 3e 9c a5 25 bd
       -0.16898924 0.11400466 0.24416448 -0.04044114
0001d0 f4 f1 09 bd 05 09 ad 3d 7b 1a 58 3e 90 1f 0e 3e
       -0.03367801 0.08448986 0.21103851 0.13879228
0001e0 e2 9e 1b be ba cc 09 be 11 2d 3a be b2 82 2c be
       -0.15197328 -0.13457003 -0.18181254 -0.16846731
0001f0 5d 4b a8 be ac 9f 73 be ff e2 95 be dc 83 80 3d
       -0.32869998 -0.23791379 -0.29274747 0.0627515
000200 6a 7e fa 3c c9 dd a7 3d 31 6c 2f 3e 75 88 5c 3c
       0.030577857 0.08196599 0.17131115 0.013460268
000210 aa ad 6b bd 17 65 18 bb ed 6c 61 bd 73 8c a4 3d
       -0.057538666 -0.0023253614 -0.05503552 0.08034601
000220 95 bb a8 bd 88 a9 2e bd 16 c3 39 3c 12 4d 91 bd
       -0.082389034 -0.042642146 0.011338016 -0.07094778
000230 b2 2f da 3c f8 8e 53 be a4 8b bf bd 10 c1 19 3d
       0.026634071 -0.20660007 -0.09352806 0.037537634
000240 c4 f6 8c 3d 43 80 9c 3d 42 99 43 3e 0f 13 fd bd
       0.06883004 0.076416515 0.19101432 -0.12357151
000250 73 a7 06 bc 03 ff 43 3d 5f f5 ac bd c8 29 12 be
       -0.008218634 0.04785062 -0.08445238 -0.14273751
000260 0d cc 01 3d 3e f1 0e be 5b 81 96 bd 16 f3 06 3e
       0.03168874 -0.13959214 -0.07348891 0.13178667
000270 6c 1a 19 3d 96 12 98 3d 77 0f d5 3d 94 e8 d9 3d
       0.037378713 0.0742542 0.1040334 0.10640064
000280 60 5e 3f bb 9c fe d0 bd 57 4f 0b 3b 77 b5 cf bb
       -0.002920054 -0.10204813 0.0021257007 -0.006338771
000290 ee 63 e2 bd e1 02 1e 3d cc cb e5 3c 0c 48 c6 3c
       -0.11054216 0.038576964 0.02805128 0.024204277
0002a0 e6 ef f5 bc ca dc c5 3d 3c 45 bd 3d 04 5e ae bd
       -0.030021619 0.09661253 0.09241721 -0.08514026
0002b0 20 54 e0 3d cb a0 4b bd bc bb 68 bd ff 19 79 3e
       0.109535456 -0.04971389 -0.056819662 0.24326323
0002c0 22 2a 06 be 76 85 c2 3d 70 1b 38 3c 40 a1 d4 bd
       -0.1310201 0.09498112 0.01123701 -0.103823185
0002d0 e9 aa 00 be 69 9b 45 3e 55 2f 2a 3e 33 96 d3 3c
       -0.12565197 0.19297566 0.16619618 0.025828457
0002e0 6c c4 86 bd 61 2d 0b be 7c 60 e4 3a bc b5 81 bd
       -0.06580433 -0.1359153 0.0017423774 -0.06333491
0002f0 e8 77 2e bd 4d 59 3b be 1b f3 8f 3d bb 31 a0 bd
       -0.04259482 -0.18295784 0.070287906 -0.07821985
000300 be 37 2a be 37 64 10 bd 6f 83 a3 bd 68 be b6 3c
       -0.16622826 -0.035251822 -0.07984053 0.02230759
000310 b0 e4 10 3d d4 91 0c 3e 93 7c 39 bc 6e 43 43 3e
       0.035374343 0.13727504 -0.011321205 0.19068691
000320 c6 00 fa bd 34 d5 ca bd 03 84 a8 bc a8 42 0c 3e
       -0.12207179 -0.099039465 -0.02057076 0.13697302
000330 a9 e9 23 bd 78 98 9f 3c 6c 69 b0 bc f2 2f cd 3d
       -0.040017758 0.019481882 -0.021534644 0.100189105
000340 fd 93 a3 bd b2 44 8c bd e1 44 24 3d 89 0d b7 bc
       -0.07987211 -0.0684904 0.04010475 -0.022345321
000350 34 1d 47 bd 54 64 be 3c a7 97 29 bc cd 38 d6 bc
       -0.048611835 0.0232412 -0.010351098 -0.026150132
000360 a5 1f 97 3d 3d e8 d6 bd fe c9 a1 3d d3 dc 4f bd
       0.073790826 -0.10493515 0.07899855 -0.050747704
000370 f2 d6 9b 3d b2 1d c6 3d 27 7f 9c bc 47 0d 8f 3c
       0.07609357 0.09673633 -0.0191036 0.017462386
000380 7e d1 c3 bd 53 c6 d9 bd 89 d2 4b be 56 c6 81 3b
       -0.09561442 -0.106335305 -0.19904532 0.003960411
000390 20 6a 0d bd de 29 cf b9 84 69 9e 3d 5c 15 1d 3d
       -0.034525037 -0.0003951331 0.07734969 0.038350448
0003a0 9a 54 2a 3e 35 d6 4c 3d 40 de 44 bc ad 45 9f bd
       0.16633835 0.05000897 -0.012015879 -0.077769615
0003b0 54 06 53 3e fb cc 83 bd f9 5a fa 3d de ab de 3c
       0.20607883 -0.06435581 0.12224383 0.027181562
0003c0 87 b0 a7 bd ee 13 6f 3c 68 e5 00 3e ff 05 c4 bd
       -0.08187967 0.014592154 0.12587512 -0.09571456
0003d0 ee 5d 15 be 84 6f ec bd 5a 8d f5 3d 12 41 23 bb
       -0.14586613 -0.115447074 0.11989851 -0.002491061
0003e0 1a 6e 28 3d 69 63 b2 bd d3 60 45 bd c2 17 0c be
       0.041120626 -0.08710367 -0.048188042 -0.13680938
0003f0 b2 37 20 3d 58 d3 5e be d6 61 32 be 75 d8 2b bc
       0.039115615 -0.21760309 -0.17420134 -0.010488619

lstm.bias_ih_l0 f4 [256]
000000 31 4b 72 bd 08 49 17 3e ce a9 83 3c fe e8 79 bb
       -0.05915374 0.14773953 0.01607218 -0.003813326
000010 fc 6a 60 3e 2c 57 01 3c 57 f9 14 bc 7a 79 6a bd
       0.21915811 0.007894319 -0.00909265 -0.057244755
000020 b3 7d 45 3d 26 76 e6 3c a0 cf 25 3e a8 89 1c bd
       0.04821558 0.02813251 0.16192484 -0.038217217
000030 27 d3 b0 3d 52 e1 24 3d 45 7b 88 3b 4c 9f c7 bd
       0.08634024 0.040253945 0.0041650855 -0.0974718
000040 cb 46 71 3d 18 6b 2c 3e 45 7f 82 bd 43 de 0a 3e
       0.058905404 0.16837728 -0.06371931 0.13561349
000050 c0 16 1d 3d 0c 37 0a 3e 65 f7 ac 3d 50 d1 1d 3e
       0.038351774 0.13497561 0.08445624 0.15411878
000060 3f 69 15 3e b4 d5 2c 3e 01 b4 34 3e 08 c4 86 3d
       0.1459093 0.16878396 0.17646791 0.06580359
000070 6a 8f 78 bd 5d 38 13 3d 45 eb 8b 3c e6 7b 8b 3a
       -0.060683645 0.035942424 0.017079959 0.0010641783
000080 a4 b7 e7 3d 47 8a 4c 3e 3d 76 12 3e dc 8a 18 bc
       0.113143235 0.19974624 0.14302917 -0.00931045
000090 24 99 f5 3d 31 ab 0f 3e 3a 44 02 3e ed 38 3c 3e
       0.119921 0.14030148 0.12721339 0.1838109
0000a0 d6 41 28 3d 53 7b 27 3d 11 5b 15 3d b3 13 ee bc
       0.04107841 0.040889096 0.0364638 -0.029062128
0000b0 89 9b 02 3e 00 2c 59 3e 5f d6 c7 3d ca cb 24 3e
       0.12754644 0.21208191 0.09757685 0.16093364
0000c0 1f 22 49 bc ba c9 9f bd df aa b4 bd de 55 89 bb
       -0.0122762015 -0.07802148 -0.088216536 -0.0041911444
0000d0 d4 e6 02 3d c5 63 49 3e ed 61 39 bd 3f 4e 22 3e
       0.031958416 0.19666965 -0.045259405 0.15850161
0000e0 06 9e 9a 3d b9 f8 75 bc 61 e9 2d 3d 04 3f 78 bc
       0.07549672 -0.015012913 0.042458896 -0.015151743
0000f0 1a 55 12 3e 51 67 92 bd f1 6c a6 bd d1 65 4d 3d
       0.14290276 -0.07148612 -0.08126248 0.050145928
000100 fd c7 3e bc 8b 9a f2 bd a7 74 42 3d 3d 91 4e bd
       -0.011644361 -0.11845883 0.04747453 -0.05043148
000110 2e 19 eb 3d 93 9d 9d 3d 17 db 9a 3d f6 0e ba 3d
       0.11479412 0.076960705 0.07561319 0.09084885
000120 98 2f 93 3d 8b 20 d7 bd 59 0b dd bd 8d f9 3d 3e
       0.07186812 -0.10504254 -0.1079318 0.18552227
000130 ab 32 87 3d 22 e9 48 bc b5 6a eb 3d 1e 4b 0b 3e
       0.06601461 -0.012262614 0.11494962 0.13602874
000140 a4 71 45 3d c5 51 7f 3c 91 17 71 3c 1f bd 67 3e
       0.04820408 0.01558346 0.014715091 0.22630738
000150 e4 27 3a 3e aa 58 08 be 0f 7c bc bd 45 55 19 bd
       0.1817928 -0.13315073 -0.0920335 -0.037434835
000160 67 11 ce 3d 45 25 30 3e 45 4a c5 bc d6 8b 50 3d
       0.10061913 0.17201717 -0.024083266 0.050914608
000170 76 c9 0c 3d 13 6c c4 3d ed 65 39 3e 3d 96 ba bd
       0.034371816 0.09590926 0.18105288 -0.09110687
000180 7b 59 b3 bd ea 86 a5 bc 76 b6 bf bd dd af 06 3e
       -0.087573014 -0.020205934 -0.093609735 0.13153024
000190 bf 22 09 be f6 1d 52 bd 6c 7b dd 3c 76 0a 43 bd
       -0.13392161 -0.051298104 0.027036391 -0.0476174
0001a0 95 a1 68 3c 74 04 ac 3d df ab b8 3d 70 9f 3e bd
       0.01419868 0.08399287 0.09017157 -0.04653877
0001b0 97 7f ae bd ad 4f 1c 3e e8 10 e9 bd 90 a1 46 bd
       -0.085204296 0.15264769 -0.11380178 -0.04849392
0001c0 17 62 02 bd 7f 30 c1 3b 22 6a ca bd 05 2e 9c 3c
       -0.031831827 0.0058956738 -0.098835245 0.019064913
0001d0 cc 2b b2 3d 46 d7 c9 3d 16 a7 5d bc 73 ae 87 3d
       0.0869976 0.09855513 -0.013528606 0.066250704
0001e0 a9 e7 f1 bc 13 21 4a bd 55 f7 34 bd 7c f8 63 bd
       -0.02952941 -0.04934795 -0.044181187 -0.055656895
0001f0 c2 36 17 3e 34 78 92 bd 16 a6 e1 bd 5a 2e 54 3c
       0.14766982 -0.07151833 -0.110180065 0.012950504
000200 a9 8c f5 3d 6b aa 37 3d 52 18 81 bd f8 54 9b bd
       0.119897194 0.044840258 -0.06303467 -0.07584566
000210 6c 83 1e 3e dd 6d 25 be ef 5d 87 bb d0 2d 51 be
       0.15479821 -0.16155191 -0.004131071 -0.20427632
000220 28 08 46 bd 06 3b 0a 3e 97 fe 5a 3d 1d 53 00 3e
       -0.048347622 0.13499078 0.053465452 0.12531705
000230 07 57 3f be 6b 91 f2 3b 5b df 62 3e 59 c6 ae bd
       -0.18685542 0.007402589 0.22155516 -0.085339256
000240 2c 23 86 be ac a0 83 3e 5c 89 2d be 66 8d 98 3e
       -0.2619871 0.2570852 -0.1694693 0.29795378
000250 12 97 5d be 12 c3 7b bd 3c b4 81 3d 00 e6 9a 3d
       -0.2163966 -0.06146533 0.06333205 0.075634
000260 d5 68 84 3e 43 0f de 3c 29 aa 85 3d 1e 44 52 bd
       0.2586123 0.027106887 0.06526596 -0.051334493
000270 1e 5f 12 be c4 4d 03 3e 57 4f 97 3d 22 92 2b bd
       -0.14294097 0.12822634 0.0738818 -0.04188741
000280 09 ad 94 3d 42 a0 77 3e 36 2c 72 bd 20 00 55 3e
       0.07259566 0.24182227 -0.059124194 0.20800829
000290 59 c6 1c 3d 8f b3 e0 bd bb 93 0d be aa 9f 4e 3c
       0.038275097 -0.10971748 -0.13825886 0.012611309
0002a0 16 58 3c be 19 c6 c4 bd 06 78 82 3d 5e b6 80 bd
       -0.18392977 -0.09608097 0.06370549 -0.06284784
0002b0 58 f3 12 be e8 1b e5 3d 54 8c d1 bd 0d cc be bd
       -0.14350641 0.11186963 -0.102318436 -0.09316263
0002c0 d3 49 27 3e dd e3 5c 3c f1 31 96 bd 57 ee 1e be
       0.16336755 0.013482061 -0.07333744 -0.15520607
0002d0 00 82 7f bd ea ce 85 3d 30 be 29 3d a0 ef b0 3d
       -0.062379837 0.06533606 0.041441143 0.08639455
0002e0 61 69 97 3d 23 e9 46 3e cc 58 43 be 81 b6 e5 3c
       0.07393146 0.19424872 -0.19076842 0.028041126
0002f0 a9 67 2b be 27 aa 2f 3e 4f 4d c2 3d e1 8b 10 be
       -0.16738762 0.17154752 0.09487402 -0.1411586
000300 29 7e 8b bd 60 62 e7 3d 06 59 1d 3e 41 72 f4 3c
       -0.068111725 0.112980604 0.15365991 0.029839637
000310 b6 e3 2c 3e 17 cf d1 3d 6c bb fb 3d 8c b5 fd 3d
       0.1688374 0.102445774 0.12291607 0.12388143
000320 2d 7c f6 3c 2c ea 07 3e ca 1d 66 3e 75 25 5a 3e
       0.030088509 0.13272923 0.22472301 0.21303351
000330 ae 84 d2 bc 32 1e d8 3c ad 7c 1a 3d 54 ae db 3b
       -0.025698032 0.026381586 0.037716556 0.006704131
000340 9d 26 42 3d 1c c0 82 3d 8f ea 05 3e 50 4b 0a 3e
       0.047400106 0.06384298 0.13077758 0.13505292
000350 20 df c5 3b 4a d7 cb bc d1 01 6b 3d 24 57 1b 3e
       0.0060385615 -0.024882931 0.05737478 0.1516996
000360 c0 8d a6 3d 2a e3 fc bc f2 92 08 3e 42 45 82 bc
       0.081325054 -0.030870039 0.13337305 -0.015902165
000370 67 e6 99 3d e8 13 a6 bd aa 87 48 bd 79 87 3c 3e
       0.07514649 -0.081092656 -0.048957504 0.18411054
000380 3f 03 a9 3d b8 f7 51 3e 6a 34 46 bc 94 02 00 3e
       0.08252572 0.20504653 -0.012097457 0.12500983
000390 45 55 0e 3e 87 ed 5a bd 5e d6 17 3e f4 7a df 3d
       0.13899715 -0.05344918 0.14827868 0.10912123
0003a0 81 05 0a 3e a7 d7 6d 3d 9e b8 92 3d 79 a8 96 3d
       0.13478662 0.05806699 0.07164119 0.07356352
0003b0 13 5b 46 3e bf 1d 34 3d 19 63 6d 3d cf 70 fd 3c
       0.1937068 0.04397368 0.057955835 0.03093758
0003c0 8a f1 a0 3d 6e 75 80 3d de 77 ba 3c e1 9e a7 3d
       0.0785857 0.06272398 0.022762235 0.081846006
0003d0 b7 64 86 3d fa be dc 3d bf f7 da 3c 42 5b 1b bd
       0.065621786 0.107786134 0.026729463 -0.037928827
0003e0 ea 31 18 3e 7a 4e 8a 3d 30 45 0d 3d 7b fd 01 3e
       0.1486279 0.067532495 0.03448981 0.12694351
0003f0 e2 21 54 3e 67 48 ad 3c e3 d7 bf 3c 4f 98 03 bb
       0.2071605 0.021152688 0.023418372 -0.0020079797

lstm.bias_hh_l0 f4 [256]
000000 4a 57 d1 bc 79 1f 9c 3d 1f 3b 20 be 43 3a 8e 3d
       -0.025554318 0.076231904 -0.15647553 0.06944706
000010 16 b5 54 3d a2 6c a9 bc 03 01 2e 3e 08 04 c8 3d
       0.05193051 -0.020681683 0.16992573 0.09766394
000020 dc 41 24 3d d5 4f ae bc 2b e5 9e 3d a3 49 38 3d
       0.04010187 -0.021278301 0.07758554 0.0449921
000030 e4 90 f8 bc 88 4f 14 bd d1 9a fa 3d 23 f2 98 bd
       -0.030342527 -0.03620866 0.1223656 -0.07468059
000040 15 39 0f 3e 3b cb 77 3d 66 27 93 3c 47 8f 8d 3d
       0.13986619 0.06049655 0.017963123 0.069120936
000050 97 68 ec 3d 72 6e 51 3d c9 82 c0 3d 07 e2 cf 3d
       0.115433864 0.05113072 0.09399945 0.10150533
000060 d5 99 20 bd 85 70 a4 3d d4 ff 8f 3d 17 87 45 3d
       -0.039209206 0.08029274 0.07031217 0.048224535
000070 ce 38 22 3c ec ba d5 3d db a3 41 3c 77 2f 5f bc
       0.009901239 0.10436043 0.011818851 -0.013622156
000080 76 19 14 3e ac 8c b7 3d de 94 26 bb 7f c3 db 3c
       0.14462838 0.08962378 -0.0025418322 0.026826618
000090 84 ce 53 3d ad 5c 45 3d ab 5c 64 bd 66 9e d4 3b
       0.05171062 0.048184086 -0.055752438 0.006488609
0000a0 d7 99 16 bc d7 5b ba 3c 41 f1 8c 3d cb 2f 1d bd
       -0.009191952 0.02274887 0.06881953 -0.038375657
0000b0 58 b1 09 3e cc ee 54 3e f9 41 3b 3e a5 2a 20 3d
       0.13446558 0.20794219 0.18286885 0.03910317
0000c0 54 16 65 bd 27 83 09 bd 09 fb c0 3c dc 1f 48 3d
       -0.055929497 -0.033572342 0.023557203 0.04885851
0000d0 29 92 7d 3c e3 a2 49 3e 08 4d b5 bd 13 df d0 3d
       0.015476742 0.19691043 -0.08852583 0.10198798
0000e0 cb 3f 5f bd 21 22 dd bd ea d4 4a 3d 95 d7 ea bd
       -0.054504197 -0.10797525 0.049519457 -0.114669
0000f0 64 3a 2c 3e a2 dd 31 bd 8c c1 24 bd b9 51 a1 bd
       0.1681915 -0.043424256 -0.040223643 -0.078769155
000100 30 08 15 3a 17 af 32 bd 8a 9b e8 3d 99 e0 be bc
       0.0005685119 -0.04362401 0.11357792 -0.023300456
000110 c2 1d df 3c c1 3f b3 bd 25 27 2e bd 27 23 ee 3c
       0.02723587 -0.087523945 -0.0425178 0.029069496
000120 eb f6 91 bd 6b 0f 9c 3d 51 b1 d8 3d 95 44 d5 3d
       -0.07127174 0.07620128 0.105806954 0.104134716
000130 6c 95 26 3c 7a ca 14 3e 55 b3 fd 3d 09 2c de 3c
       0.010167461 0.14530364 0.123877205 0.027120607
000140 ae 43 5a 3e 4b 97 4a 3c 47 84 09 be f3 f4 36 3d
       0.2131488 0.012365173 -0.13429366 0.044667196
000150 00 77 28 3e fe e0 8b 3d f8 94 89 bd d4 f9 c2 bd
       0.16451645 0.06830023 -0.06717867 -0.09520307
000160 37 df df 3d d6 58 b6 3d 40 d0 f7 3b 39 9f a3 bc
       0.10931247 0.08903663 0.007562667 -0.019973384
000170 27 4a 12 3e c1 0b c3 3d 09 24 0e 39 67 7e 18 bd
       0.142861 0.09523726 0.000135556 -0.03722992
000180 46 5d d0 bd 4d ea 1f 3e 9d af f9 bc a6 c3 b7 3d
       -0.101740405 0.15616722 -0.030479247 0.08972864
000190 07 cc c5 bc 1e e9 e2 3c 70 67 df 3d b1 5d 94 3c
       -0.02414514 0.02769905 0.10908401 0.018111082
0001a0 2c 29 a7 3d ce 38 8b bd af a1 4c 3b 8f 57 46 ba
       0.0816215 -0.06797944 0.00312243 -0.0007566148
0001b0 71 39 13 3e 38 7e 81 bc ef df c4 3c 6a f4 20 be
       0.14377381 -0.015807256 0.024032561 -0.15718237
0001c0 0e d6 c5 3d a2 1b a0 3d 5a 29 a5 bd b5 7e e6 3d
       0.09659968 0.078177705 -0.08064528 0.11254636
0001d0 ed 81 07 3e 9a fc bd 3d a3 c2 d2 3d dc df cc 3d
       0.13233157 0.092766955 0.1029103 0.10003635
0001e0 a9 fb a5 3d 5b e6 91 3d 0f 2e 2d 3d a8 3b 35 bd
       0.08104641 0.07124015 0.042280253 -0.044246346
0001f0 b1 72 a7 3e 29 4d ba bd 80 8e e4 3c 09 a5 e0 bd
       0.3270469 -0.090967484 0.02789998 -0.10968978
000200 ab 4a eb bc 90 97 e6 bd 29 a6 10 3e d6 c6 94 bd
       -0.028722128 -0.11259377 0.14125885 -0.072644874
000210 59 34 d6 3d d8 17 f3 bd 9e a6 ac bc 1a 4b 08 be
       0.10459203 -0.11869782 -0.021075543 -0.13309899
000220 35 cf db bb d0 be 50 3d 62 a8 5c 3e 3a d2 6b 3e
       -0.0067080506 0.050963223 0.21548608 0.23029414
000230 4c 23 49 be cb 26 b7 bb c8 df 07 3e 40 27 94 bd
       -0.19642371 -0.0055893413 0.1326896 -0.07234049
000240 76 a4 6a be 48 8a a8 3e 26 dd a3 bd 6c 0d ce 3d
       -0.229143 0.32918 -0.08001165 0.10061154
000250 66 bb 50 bd 7f 0e 71 3d 51 90 be 3d a5 d7 81 bc
       -0.050959967 0.058851715 0.0930487 -0.015849898
000260 c6 36 17 3e 1b e2 bb bb 92 92 84 3d f7 44 eb 3c
       0.14766988 -0.005733741 0.064732686 0.028719408
000270 03 c9 29 be 60 05 8c 3d 40 c6 4d bc bc f0 24 be
       -0.16580586 0.06836963 -0.0125594735 -0.16107458
000280 02 0b 66 3e 46 96 7a 3e c2 c7 64 bd c7 65 2d 3e
       0.22465137 0.24471387 -0.055854566 0.16933356
000290 a6 0d 57 3e 3f fe 9f bc 9b 43 54 bd db 21 e6 bc
       0.210013 -0.019530414 -0.051822286 -0.028092315
0002a0 c3 81 1f be c3 e8 08 bc 03 6d 1b 3e e2 9f 44 bc
       -0.15576844 -0.008356276 0.15178303 -0.01200101
0002b0 4e bc 58 be 71 b9 80 3d ff 3b e6 3b c7 ea 22 3d
       -0.21165583 0.0628537 0.007026195 0.039774682
0002c0 2b 81 12 3e 3c 42 03 bc 8b 66 f4 bd e8 52 51 be
       0.14307086 -0.008011397 -0.11933621 -0.20441782
0002d0 18 4a 24 be f6 b4 de 3d e0 97 75 bd 60 76 c7 3c
       -0.1604389 0.10874359 -0.059959292 0.024348438
0002e0 0b fe 82 bd cc 60 7a 3d ca 01 41 be 2d 5c 1a 3d
       -0.06396111 0.06112747 -0.18848339 0.037685562
0002f0 06 3d aa be 9c e5 fa 3d b0 ba 8a bd e6 ac 44 3a
       -0.33249682 0.12250826 -0.06773889 0.00075025705
000300 36 7f 78 3d 57 16 83 3e ec 7b 8f bc ab d5 55 3d
       0.060668193 0.2560298 -0.017515145 0.052205723
000310 67 04 89 3d 3c e8 23 3d 0e 81 29 3d ff 7d a4 3d
       0.06690293 0.040016398 0.04138284 0.08031844
000320 6d 4d 76 bd 2f 93 07 3e 49 ec a8 3d 53 9e 84 3e
       -0.060132433 0.1323974 0.08248193 0.25902042
000330 79 9a 26 3e 4a 9d 82 bc 05 a1 90 3d 4f 39 5b bc
       0.16269864 -0.015944142 0.07061962 -0.013380363
000340 bb 26 03 3e c8 e9 0f b9 92 1d 45 3a e8 9c af 3d
       0.12807743 -0.00013724633 0.000751936 0.08574849
000350 0c f8 12 3e 72 07 60 3b 04 4f 88 3d 3e 18 37 bd
       0.14352435 0.0034184125 0.06655696 -0.044700854
000360 0c 6f e0 3d de 06 4e 3d 78 02 1d bd e3 77 8b 3c
       0.109586805 0.050299518 -0.038332433 0.01702494
000370 07 80 07 3e 2e e8 d1 bd 30 4b 53 3d 51 6c bc 39
       0.13232432 -0.10249363 0.051585376 0.00035938856
000380 37 c7 0d bd 78 6d d3 3c 85 85 77 3d f2 68 cc 3c
       -0.034613814 0.025809035 0.06043007 0.024952386
000390 9a a8 42 3d b0 82 73 bd ca 26 d7 3d f1 8c 92 3d
       0.047524072 -0.059450805 0.10505445 0.07155789
0003a0 78 a1 2c 3e ac b8 d1 bc 0d 8b 01 3e f3 3a 35 bc
       0.1685847 -0.025600754 0.126507 -0.011061418
0003b0 6a 17 53 3e 73 85 0f 3e a8 4b d4 bc 3c e7 bd bd
       0.206144 0.1401575 -0.025914982 -0.0927262
0003c0 42 6a 93 bd c6 76 ab bc e6 6b fa 3b 92 d7 50 3d
       -0.071980014 -0.020930659 0.007642257 0.050986834
0003d0 08 77 4e 3d 36 78 ea 3d 46 2b 89 bd d2 58 32 3e
       0.050406486 0.1144871 -0.06697707 0.17416695
0003e0 57 48 f5 3d bf 7b fa bc 7c 72 a9 bb 18 f2 07 3e
       0.11976688 -0.030576585 -0.0051711183 0.13275945
0003f0 4a 34 26 3e 7c 5f 24 3e 96 9d 81 3d 5c 8b fd 3d
       0.16230884 0.1605205 0.06328885 0.12380096

lstm.weight_ih_l1 f4 [256, 64]
000000 e7 30 ec 3d 3c d2 21 3e 05 12 ae bd f7 f9 9f bc
       0.11532765 0.15802854 -0.08499531 -0.019528372
000010 4d ef a7 3d be 18 92 3d 26 38 c9 3d 41 fc 8d 3b
       0.0819994 0.071336254 0.098251626 0.0043330495
000020 b5 7c e6 3d 49 4f bf 3d 9b e3 11 3d db 08 62 3e
       0.11254255 0.09341294 0.035617452 0.2207369
000030 62 3f a4 bc aa c7 b4 bc 29 91 da 3c e2 10 a9 3c
       -0.020049755 -0.022067863 0.026680546 0.020637933
000040 e3 65 e9 bd 33 0e b6 3d 3d 55 cc bb 5b c1 7a 3e
       -0.113963865 0.08889427 -0.006235747 0.24487822
000050 e8 fc 9f bd 34 8b 88 bd 1a 37 fc 3d e0 4c 73 be
       -0.0781191 -0.06667176 0.12315197 -0.23759794
000060 6e ce 12 3e 09 bc 3b 3d 09 f4 0f 3e 65 5d ae 3d
       0.14336559 0.04583362 0.14057936 0.08513907
000070 19 ff 73 bd 0d b2 dd bc 6f 21 01 3e 5f 29 e2 3c
       -0.059569452 -0.02706244 0.1261041 0.027607618
000080 4a 32 d6 3d c0 e3 a7 bd ce 60 aa 3d 7e 28 6f bd
       0.104588106 -0.08197737 0.08319245 -0.058388226
000090 1a 14 a4 bd 58 3d 1d bd ea 98 29 bd 54 92 e1 3c
       -0.080116466 -0.03838858 -0.041405596 0.027535595
0000a0 34 a7 8c b9 0a bb 62 bd cd f7 a1 3d f5 19 e1 bd
       -0.00026827457 -0.055354156 0.079085924 -0.10991279
0000b0 e5 ea 15 3d f3 bd f9 3d 2a b3 4b 3d bd b2 89 bd
       0.036600966 0.12194433 0.04973141 -0.06723545
0000c0 d4 67 a0 3b 79 fa ec 3d 56 a1 c7 3d 00 17 03 bd
       0.00489519 0.11571211 0.09747569 -0.032004356
0000d0 13 cf c2 bd bf 72 1f 3e 44 4b 51 3d 5e b0 34 3e
       -0.095121525 0.15571116 0.05109717 0.17645404
0000e0 34 1d e4 bd fb 6d ec 3d 95 1e 01 be ad a3 2f 3d
       -0.111383826 0.115444146 -0.12609322 0.042880703
0000f0 7c 02 56 be dd 63 92 3d 10 ec 7c 3d 1d 0a e0 3d
       -0.20899385 0.07147954 0.061748564 0.10939429
000100 6d dd 65 3d 6b 0e 4a bd da bb b3 3d c4 76 10 3e
       0.05611937 -0.049330156 0.08776064 0.14107805
000110 ab 73 04 3d f2 dd 04 bc 2f a9 77 3d 1c d4 40 3e
       0.032336872 -0.0081095565 0.06046408 0.18830913
000120 7a 03 a7 bd d9 3a 05 be ad 29 3c bc 99 35 c4 3d
       -0.0815496 -0.1301073 -0.011484546 0.095805354
000130 ce 30 31 be ef ae b7 3a d9 58 12 3e 85 63 48 bd
       -0.17303774 0.0014013926 0.14291705 -0.048923034
000140 5c 4b c6 bd 57 c4 d9 3d 7f eb 95 3b 94 5f 82 3e
       -0.096823424 0.10633152 0.0045751925 0.25463545
000150 41 e8 54 3d b4 0d b2 3c b4 80 23 3e 0d 2c 0f be
       0.051979307 0.02173505 0.15967065 -0.13981648
000160 c2 cc 4e 3e 9c e9 af bd 58 69 f3 3c 6b 56 13 3e
       0.20195296 -0.08589479 0.029713318 0.14388435
000170 24 93 22 bd d7 2f 56 bd d4 7c 1d bd d7 ef 36 bc
       -0.039691105 -0.052291717 -0.038449124 -0.011165581
000180 bb 90 c5 3d 67 42 9d 3d 72 77 9c bd e8 26 2a be
       0.09646746 0.07678681 -0.0763997 -0.16616404
000190 1f 72 0d 3d 9e ce 00 be 8f 3e 5d 3d 81 0b c7 3d
       0.034532662 -0.12578818 0.05401474 0.09718991
0001a0 ec 5a 8f bd 35 b6 99 bb 15 7b 21 3d 7d ff 2c 3d
       -0.06999764 -0.00469091 0.03942402 0.04223584
0001b0 48 4d 83 bd ee 08 98 3d c2 93 ee 3a e1 90 54 3e
       -0.064112246 0.07423578 0.0018201994 0.20758392
0001c0 81 48 c2 bd 02 5f 14 be ba f6 02 3d fd 33 00 be
       -0.09486485 -0.14489368 0.031973578 -0.12519832
0001d0 67 39 c8 3b c4 a6 69 bd d5 4b 30 3c 5c fc b0 3d
       0.0061103585 -0.057043806 0.010760267 0.08641884
0001e0 3e 68 33 be 2f e6 23 bd 2a 81 e0 3b cd 9d f2 3c
       -0.17520234 -0.040014442 0.006851335 0.02961626
0001f0 f7 9a f8 bd fe bc 6e 3d 43 f1 bb bd c3 d7 95 bd
       -0.12138932 0.058285706 -0.091768764 -0.07316544
000200 6d dc b8 bd 65 92 26 bd 41 14 5c bd 57 b8 36 3c
       -0.09026418 -0.040666956 -0.053730253 0.0111523485
000210 43 bd 36 3d 39 e4 24 3e 87 d9 1c be fe 27 8a 3e
       0.044614088 0.16102685 -0.15317355 0.26983637
000220 36 24 38 be 76 7f 27 3c 59 87 d9 3d 5e 9f fa bc
       -0.17982563 0.01022326 0.10621519 -0.03059357
000230 80 88 eb bc 7d 2f 43 bc 48 3b f6 3c 8e 71 21 bc
       -0.028751612 -0.011913178 0.030057564 -0.009853734
000240 db e0 be bc 4d e2 02 3e c5 e2 b8 3d 3f ed ef 3c
       -0.023300579 0.1278164 0.09027628 0.029287932
000250 c7 ec 20 be 90 0c 87 3c 16 a0 e1 bb 69 77 2e 3d
       -0.15715323 0.016485482 -0.006885539 0.042594347
000260 6f 1c 2e 3e 0c 01 ab 3c 6b 87 d5 3d 8c 87 3f bd
       0.17003034 0.020874523 0.104262196 -0.046760127
000270 82 ae f2 bd 69 7e 11 be 14 be d4 bd c7 cc 57 3e
       -0.11849691 -0.14208378 -0.10387817 0.2107421
000280 89 c8 95 3d ad 97 08 3e ac de e6 bd d8 3c cc 3d
       0.0731364 0.1333911 -0.1127294 0.099725425
000290 e5 76 36 be 3b d0 59 3a 73 46 8d 3e bf a7 95 3d
       -0.17818792 0.0008308922 0.2759281 0.07307386
0002a0 c0 ef 98 bc 66 ab 1d 3d db 64 a0 3d 51 35 3d bd
       -0.01866901 0.038493536 0.07831737 -0.046193425
0002b0 6e 31 23 bc c3 8e f0 3c 01 16 35 3e e4 76 8a 3d
       -0.009960515 0.02936495 0.17684175 0.06760958
0002c0 c0 5b 3e be 4e fd 9e bd 89 bf 1e 3e 0f a9 0d bd
       -0.18589687 -0.07763158 0.15502752 -0.034585055
0002d0 67 02 22 be fc 74 41 3d 41 dc 3a 3d 8b 20 83 3c
       -0.15821229 0.047230706 0.045620207 0.016006729
0002e0 10 1c ac bd 85 1f 9f 3c d6 b6 9d bc 9f 5c 2b bd
       -0.0840379 0.01942421 -0.019252222 -0.041836377
0002f0 5e 76 9b 3d 90 c1 ad bc 9a 6b 56 bb 5c c8 6f 3d
       0.07590936 -0.021210462 -0.0032717944 0.058540687
000300 44 ef 8d bd 73 8d 07 3c e4 19 db bd 76 d7 32 3d
       -0.06930402 0.00827347 -0.106982976 0.04366251
000310 4e ba 14 3e d7 1d 7c 3d ea cd fb bd db 63 45 bd
       0.14524195 0.061551895 -0.12295134 -0.048190933
000320 fa ff c0 bb 33 1b cc bc 0e 8a f8 3c ee 4f d7 3d
       -0.00588989 -0.024915313 0.030339267 0.10513292
000330 d4 59 65 bd 65 11 ad bd d8 49 f0 3d 78 38 94 bd
       -0.05599387 -0.08450583 0.117328346 -0.07237333
000340 02 d9 88 bd 1e cc 71 3d 16 23 1f 3d 24 bf 37 3e
       -0.06682016 0.059032552 0.03885182 0.17944008
000350 d5 6c 36 be 2a 44 bf 3d 34 95 a0 3d b8 a6 ce be
       -0.17814954 0.09339173 0.07840958 -0.4036157
000360 95 26 3e 3d 9c c6 1a be 50 02 ad 3d 37 23 e2 3c
       0.046423513 -0.15114826 0.08447707 0.027604682
000370 41 7a 8e bd c1 2b 89 bd e1 70 a3 3d 44 8f c7 3d
       -0.06956912 -0.066977985 0.07980514 0.097441226
000380 4c 6f 03 be 92 54 44 bc 8e 7f 01 3d 48 70 bd bd
       -0.12835425 -0.011983054 0.031615786 -0.092499316
000390 1e e2 2c ba 43 c9 4e be a8 4e de 3c ba 69 2d 3d
       -0.00065949734 -0.20193963 0.027137116 0.042337157
0003a0 bf 9c 83 bd 76 9a 35 3d ca a3 dd 3d c4 e8 32 bd
       -0.06426381 0.04433676 0.10822256 -0.043679014
0003b0 c4 72 4b 3d d5 87 1a 3e 59 99 a6 bc 74 0b a9 3d
       0.049669996 0.15090878 -0.020336794 0.08254138
0003c0 57 fb 7d bd 8e 3d 25 be d4 50 53 bd 2a ca c7 3c
       -0.062007274 -0.16136762 -0.051590756 0.024388392
0003d0 c3 54 2f be da 35 2d 3d 8b 3d 89 bc d2 fd ec 3d
       -0.17122178 0.042287685 -0.016752979 0.1157185
0003e0 55 3b d0 bc b2 cb 0c 3d 23 51 93 bd f2 4b 06 bd
       -0.025418917 0.034373946 -0.0719321 -0.03278727
0003f0 c4 f2 8d bd 29 b5 29 3c 48 b3 88 bd 4d fd 9b bd
       -0.069310695 0.010358133 -0.0667482 -0.07616673

lstm.weight_hh_l1 f4 [256, 64]
000000 8f 3e 2c 3e 12 cf 28 bd b4 2c 32 3e 6f a1 4a bd
       0.16820739 -0.041213103 0.17399865 -0.04947036
000010 ee d1 8b bd 8c e4 c6 3b f4 bb 11 be 7f 43 35 bd
       -0.0682715 0.0060697254 -0.14231855 -0.044253822
000020 33 8a 38 be 84 a9 dc 3d d5 7d 83 3d 7d 9d 6e be
       -0.18021469 0.1077452 0.06420485 -0.23302265
000030 c6 44 ce 3d 90 66 2f be 0f ab df 3b e8 77 a5 bc
       0.10071711 -0.17128968 0.0068258117 -0.020198777
000040 36 88 4b 3c 47 90 37 3e 29 45 c8 3d 92 ae 43 be
       0.012422612 0.17926131 0.09778816 -0.19109562
000050 bf f9 63 3e eb e9 f6 bd f1 6e 0f bd 17 5f 29 3e
       0.2226324 -0.12056335 -0.03501791 0.1654018
000060 43 17 c9 3c f7 15 d8 bd 22 92 f1 3d c9 3b c2 3d
       0.024547225 -0.105510645 0.11795451 0.09484059
000070 f4 36 1a 3d 0f 36 c3 bd ce f0 da bd 1a b2 82 3d
       0.037650064 -0.09531795 -0.10690461 0.063816264
000080 84 85 2c bd 97 5e 9a bd 55 05 70 3d 39 93 41 3e
       -0.042119518 -0.07537573 0.058598835 0.18903817
000090 1a 79 6a 3d b1 ce 0f be e7 52 0c be 3f 30 c3 bd
       0.057244398 -0.1404369 -0.137035 -0.095306866
0000a0 65 c2 7f 3c 42 0d bc 3d 1a a7 84 bc 76 36 1f 3e
       0.015610312 0.09182216 -0.016192961 0.15548119
0000b0 db f9 c7 3d be ce 83 3d 11 3e 50 3d c2 07 9f bd
       0.09764453 0.06435917 0.05084044 -0.077651516
0000c0 ec e8 f2 bb bf 3b 56 3d ed b7 7a be 70 41 ff 3c
       -0.0074130204 0.052303072 -0.24484225 0.031159133
0000d0 8b ca 22 be df 4d ac 3d 1e 5f d4 bc 9d 4f bf 3c
       -0.15897577 0.0841329 -0.025924262 0.023353392
0000e0 17 66 c6 3b 80 9c f5 3d 00 fb e2 3d 10 68 f3 bd
       0.0060546505 0.11992741 0.11083031 -0.11885083
0000f0 72 54 8a bd 9f 75 1b be 16 c9 23 3d 72 a8 a9 bb
       -0.06754388 -0.15181588 0.039986692 -0.005177551
000100 17 a3 b3 3d f7 63 80 bc 82 1d 23 3e be 66 04 be
       0.08771341 -0.015672667 0.15929225 -0.12929818
000110 b0 ab d7 bd c9 81 a5 bd 4d 59 8c bd de 4e a2 3d
       -0.10530794 -0.08081395 -0.0685297 0.07925199
000120 2c 07 09 be 7b 20 52 3d d6 5a 58 bd 14 27 1e be
       -0.13381642 0.051300507 -0.052821003 -0.15444595
000130 30 cb 9f 3d 2f 8f 30 3d 84 2c cf 3d 32 3a 83 bc
       0.07802427 0.0431053 0.101159126 -0.01601896
000140 96 2b 79 bd 36 03 3f 3d 12 69 9f bd 11 ec 60 3d
       -0.060832582 0.04663392 -0.077837124 0.05491263
000150 8f 34 1b 3e c6 c0 66 bc 43 55 35 bd 85 98 a9 bd
       0.15156768 -0.014084047 -0.044270765 -0.08281044
000160 0a 30 89 bd 01 05 26 be e5 9d 13 3d 83 92 7c bb
       -0.06698616 -0.16212846 0.03603925 -0.0038539476
000170 7d 9b 3e be 13 8f 46 3c b0 23 1b be 41 6a 95 3d
       -0.18614002 0.0121190725 -0.15150332 0.07295657
000180 66 54 14 be 99 d6 4b 3c 28 b7 0e 3e 75 f9 9a 3d
       -0.1448532 0.012441301 0.13937056 0.075671114
000190 96 c8 0a 3d 59 15 0f bd 54 ea 2e be d5 15 be bd
       0.0338827 -0.034932468 -0.17081577 -0.09281508
0001a0 51 0c 52 bd 75 46 42 bd c6 1d 1e be 44 50 b3 3d
       -0.051281277 -0.047430474 -0.15441045 0.08755544
0001b0 e2 04 66 3c 78 17 59 bc 2e 2c dd bd de 0e 1f 3d
       0.01403925 -0.013250224 -0.10799442 0.038832538
0001c0 8d cd b4 bd e9 a8 20 bd 3b 0d a5 bd 49 a3 97 bd
       -0.08828268 -0.039223585 -0.08059164 -0.07404191
0001d0 7e 8a 2e bd 88 41 1f 3e 63 d3 1c be 19 3c 25 be
       -0.042612545 0.15552342 -0.15315013 -0.16136207
0001e0 e2 f3 05 3e 87 9e 28 3e dc b2 33 bd 0f a1 35 be
       0.13081315 0.16466723 -0.043871745 -0.1773722
0001f0 90 80 6b 3b 55 10 32 be 98 44 21 bd 8b 31 29 3d
       0.0035934784 -0.17389043 -0.039372057 0.041307013
000200 84 c3 d5 bd bf cf 79 bc 01 d7 80 3c 35 b2 31 bd
       -0.10437682 -0.015247284 0.015727522 -0.043382842
000210 e6 36 42 3d 44 a3 1c be 68 4c 7e bd 3c af 0e bd
       0.047415636 -0.15296656 -0.062084585 -0.034835085
000220 41 b6 bd 3d 6e ad 1c 3d b8 9f 8e bd 27 87 ed 3b
       0.09263278 0.038251333 -0.06964058 0.0072487774
000230 0e f3 9e bd 7c b4 a3 bd c9 19 89 3d c8 ed fc bb
       -0.07761203 -0.07993409 0.06694371 -0.0077187754
000240 16 3f a4 3d d1 0a a4 3d 9b 33 85 3d ac b0 83 3d
       0.08019845 0.080098756 0.065039836 0.06430182
000250 54 23 55 3d 4e 3c 32 bd 15 69 87 3c aa f2 93 3d
       0.052035645 -0.043514542 0.0165296 0.07224019
000260 d4 26 e2 bc af f3 27 3d f9 b3 90 3d 7d eb e1 3b
       -0.027606405 0.04100388 0.07065577 0.0068945275
000270 f6 0e 14 3c cb 40 2e be bc cd 91 3c 32 c9 d5 3d
       0.00903677 -0.17016904 0.017798297 0.104387656
000280 b8 11 95 3d 69 fa b5 bc b1 f5 d4 3c b5 05 3e 3e
       0.0727877 -0.022214131 0.025996061 0.18556865
000290 b8 56 27 bd 68 d8 40 3d 83 87 f4 bd 82 a2 14 3d
       -0.040854186 0.04708138 -0.11939909 0.036287792
0002a0 d6 c3 95 3d 67 a4 29 3d 37 58 af 3c fc 8f 8c 3d
       0.07312743 0.041416552 0.021404369 0.068634
0002b0 13 77 ef 3d 13 14 6c bd 07 35 8a bd 2c a7 00 be
       0.116926335 -0.05763633 -0.067483954 -0.12563771
0002c0 13 40 0f be 1e 4a 2b bd 8c 0c 82 bc 70 ae 85 3e
       -0.13989286 -0.04181873 -0.015875123 0.26109648
0002d0 52 f1 35 bc 2f a6 52 3d 4b 11 81 bb 87 95 27 be
       -0.0111048985 0.051428016 -0.003938829 -0.16365634
0002e0 5a 1d 04 3e 6f bd ba 3d 4d 24 5e bd b3 7e 34 3e
       0.12901822 0.09118163 -0.054233838 0.17626457
0002f0 72 8a 16 be e5 11 f9 3b e0 a8 18 be 94 2c 61 3d
       -0.1470125 0.00760101 -0.1490817 0.054974154
000300 21 1a 17 3e 84 3e fe bc ef e8 04 bd 74 50 bb bd
       0.14756061 -0.03103567 -0.032448705 -0.091462046
000310 94 97 cb bd ab f0 12 3d 31 b5 13 be a6 7e ab 3c
       -0.099410206 0.03587405 -0.14424588 0.020934414
000320 60 6f 56 bc 08 f5 a4 3d a1 38 b3 3d be 4b d7 bc
       -0.013088077 0.080545485 0.087510355 -0.026281234
000330 1e 3c 89 bd d3 1a be 3b ba 53 0e bc c8 d4 e6 bd
       -0.067009196 0.0058015375 -0.008686954 -0.112710536
000340 42 60 15 bc 77 9f e4 3d ff cf 4f bd 4f 68 97 bd
       -0.009117188 0.11163228 -0.05073547 -0.07392942
000350 85 16 17 bd 30 1a 93 bd 51 36 fd 3d e6 6b ae bd
       -0.03688671 -0.07182729 0.12363876 -0.08516674
000360 d2 c5 b1 3d c7 0b f5 bd 49 77 9a bd 7c 36 67 3d
       0.08680309 -0.11965137 -0.07542283 0.056448445
000370 7f 55 47 3d ed 2b a1 bd 7a c7 3f bc 16 1f 8e 3c
       0.04866552 -0.07869706 -0.011705274 0.017348807
000380 99 13 5c bd be bc 09 3d 9f 4b 22 3e d2 6a 80 bc
       -0.053729627 0.033627264 0.1584916 -0.015675936
000390 6c c1 cd bc 10 eb 9f 3d 2d e4 6d 3c 48 32 ba 3d
       -0.025116645 0.078085065 0.014519733 0.09091622
0003a0 ec a1 a2 3d 4b 2c 1e bd 85 4a c0 3d 74 66 c0 bc
       0.079410404 -0.03861646 0.093892135 -0.023486353
0003b0 8f 4f 3c 3e 87 77 29 3d c2 ee bb bd 67 dc 31 bd
       0.18389724 0.041373756 -0.09176399 -0.043423083
0003c0 82 a2 03 3c aa 5a 94 3d 5c fb 1c be c5 35 23 bc
       0.00803435 0.07243855 -0.15330261 -0.00996155
0003d0 f9 80 c8 bd c9 9d ac 3c 1f 60 34 be c7 c3 03 be
       -0.097902246 0.021071332 -0.17614792 -0.12867652
0003e0 0e 48 b0 3c 57 b6 d8 3d 8c a4 47 3d bf 3e 6a bd
       0.021518733 0.105816536 0.04874091 -0.057188746
0003f0 cc 67 d7 3d ef d7 89 bd 42 e4 bc 3c ec 77 9b 3d
       0.105178446 -0.06730639 0.02305806 0.07591233

lstm.bias_ih_l1 f4 [256]
000000 07 bd 44 3c 62 95 5d 3d 0d ed 9e bd 49 92 09 3e
       0.012007958 0.05409754 -0.077600576 0.1343471
000010 c4 14 94 ba 84 10 81 bd 98 6a f1 3d 45 32 05 3e
       -0.0011297693 -0.06301978 0.11787909 0.13007458
000020 5d ad 06 bd 1c f7 f3 3d 0d 0d 65 bd 1d d0 05 3e
       -0.032880176 0.11912367 -0.05592065 0.1306767
000030 eb bf ba 3d 26 e0 c4 3d 46 3f f8 3d b5 5d 5f bb
       0.09118637 0.096130654 0.121214435 -0.0034082953
000040 fa e3 0c ba f1 bd 21 3e 94 a7 3d bd 8a bb 1a bc
       -0.00053745473 0.15795113 -0.046302393 -0.009444127
000050 99 a3 f1 3c 75 48 60 bd 9f d4 0a bd 72 16 08 3e
       0.029496955 -0.0547566 -0.033894178 0.13289812
000060 f8 97 d2 3d 63 be 8e bd 39 63 de 3d f9 a2 7a bd
       0.10282892 -0.06969907 0.10858769 -0.06119058
000070 d8 dd b7 bd e0 23 0c be c4 de b1 bd 2c 1d 9f bc
       -0.0897786 -0.1368556 -0.08685067 -0.01942309
000080 2e 84 3d bc 69 d4 74 bd cf 2d 5a 3d 57 c3 0a 3e
       -0.011567159 -0.059772883 0.053266343 0.13551079
000090 59 7c 4e bd 9f b2 f8 3d a0 30 48 3d f7 60 d2 3c
       -0.050411556 0.12143444 0.048874497 0.025681002
0000a0 86 19 a9 bd 28 8d 92 3c c2 1e 2e bd e0 55 8a 3c
       -0.08256821 0.017889574 -0.0425098 0.016886652
0000b0 2c 5f 88 3d dc 6d 86 3b 15 0d 31 3d 1a b9 8b bc
       0.066587776 0.0041024517 0.043225367 -0.017056037
0000c0 97 22 26 3d 6c cc ca 3d 80 6e 60 bc 99 57 2d 3e
       0.04056033 0.09902272 -0.01369822 0.16927947
0000d0 6a 6f 7f bd 56 55 02 3c 5d 1d 1d 3d df af 7c 3d
       -0.062362112 0.007954916 0.03835808 0.06169116
0000e0 94 65 ab bd e9 13 35 3e 0a 04 0a 3d f1 30 61 bc
       -0.08368984 0.17683376 0.03369526 -0.013744579
0000f0 4d 74 2b 3e 72 f8 b6 3d 24 1c 9c 3d 36 38 96 bd
       0.16743584 0.08934106 0.07622555 -0.0733494
000100 8f a8 1a 3d 72 9a 67 bc f3 dd 7e bd 1f 3d 99 bd
       0.037758406 -0.014135944 -0.062223386 -0.07482361
000110 c6 f7 03 3e cf d0 af bd b2 7d 39 bd 1a 8b 3d bd
       0.12887487 -0.08584749 -0.045285888 -0.046275236
000120 86 34 9a 3d 7b 3e be 3d e6 17 58 bd 0e b5 96 bd
       0.07529549 0.09289261 -0.052757166 -0.07358752
000130 77 ed 26 bd 81 62 74 3d 1f 93 a8 bd b0 c7 34 bc
       -0.040753808 0.059664253 -0.08231186 -0.011033937
000140 50 3a e1 3d 2b ee b8 bc 5f f8 6b bc 32 b9 5e bd
       0.1099745 -0.022574505 -0.014402478 -0.054375835
000150 d9 bf 63 3d 37 ff ae 3d 04 64 ea 3d 71 fa 15 3e
       0.055602882 0.08544772 0.11444858 0.14646317
000160 6e 03 50 bc 98 a5 0b 3e ec cb a4 bd ca 37 1f 3e
       -0.01269613 0.13637388 -0.080467075 0.15548626
000170 64 21 d4 3d 17 c0 0c 3e 6f 97 00 3c ba 23 e4 bc
       0.10357931 0.13745151 0.007848605 -0.027849067
000180 e4 25 8f 3d 5d 97 28 3d e2 03 65 bd 35 3f 12 3e
       0.06989649 0.041159976 -0.055911906 0.14281924
000190 ff 60 a8 bd b5 82 08 3e cd dd 3e bc 81 1e 1f bd
       -0.082216255 0.13331111 -0.011649561 -0.03884745
0001a0 e2 05 16 3e 19 ed 36 3d bf 2b 1d 3d 61 3a f8 3c
       0.14650682 0.044659708 0.038371798 0.030301275
0001b0 de e7 26 3d 54 85 80 3d 65 5c 64 3d 36 c7 58 3d
       0.04074847 0.0627543 0.055752177 0.052924357
0001c0 e1 b1 72 bd a7 90 74 3c 8d 54 bb 3c 16 9d 00 be
       -0.05925167 0.014927066 0.022867465 -0.12559924
0001d0 d0 8e bf 3d 68 08 a2 3d 4c 22 03 3e bb e1 40 3d
       0.09353411 0.079117596 0.12806052 0.047090273
0001e0 32 41 fa 3d 8b e3 13 3e 13 54 ba 3d 04 b9 bd bb
       0.12219466 0.1444227 0.09098067 -0.005789878
0001f0 10 93 1f 3e 67 5c 42 3e 2b 18 45 bd 43 70 e7 bb
       0.15583444 0.18980561 -0.04811875 -0.007062943
000200 a3 d9 fe 3d 99 11 a3 bd 49 b1 53 3d 8b 96 c9 bc
       0.12443855 -0.07962341 0.051682744 -0.024607917
000210 45 16 2e bc 0a d8 06 bc dc be 17 bd 9a ba ed 3d
       -0.010625427 -0.008230219 -0.037047252 0.11607857
000220 a9 fe 97 bd 03 39 80 3d 99 07 dc 3d 3c e9 9e 3d
       -0.074216194 0.06260874 0.10743637 0.0775933
000230 65 c0 cf bb f0 3f 05 be 22 92 4d bd 35 7a cc 3d
       -0.006340074 -0.13012671 -0.05018819 0.09984247
000240 e2 76 13 be e8 40 13 3e 85 93 48 3d eb 58 01 be
       -0.14400819 0.14380229 0.04896881 -0.12631576
000250 56 71 97 3d b7 7e 09 be a3 71 de bc 80 cc b1 3d
       0.07394664 -0.13427244 -0.027153796 0.086815834
000260 b6 91 0d 3d 39 47 d1 bc 16 47 43 bd 37 dd d6 3d
       0.03456279 -0.025546657 -0.047675215 0.10491412
000270 f9 5b fd bd 18 15 8d 3d 59 57 c6 bd 59 7f c9 3c
       -0.12371058 0.06888789 -0.09684629 0.024596857
000280 5a 3c 65 3d 60 50 0b 3d 21 d4 b5 3d 56 60 64 bd
       0.05596576 0.0340122 0.08878351 -0.055755936
000290 3b dd 97 bd 4c 30 4f 3d 5c 82 df bd d8 70 71 3d
       -0.07415243 0.05058317 -0.10913536 0.058945507
0002a0 3e 41 9b 3d d5 29 a5 3d e5 21 a0 bc 8a bb c6 3d
       0.07580803 0.080646195 -0.019547412 0.09703739
0002b0 85 27 06 3e 45 6e 9f 3d 43 50 a4 bd 27 1a fb 3d
       0.13101013 0.07784704 -0.08023121 0.122608475
0002c0 97 43 05 3d a2 28 89 ba bd f5 61 bd 6a 59 35 3d
       0.03253516 -0.001046438 -0.055165995 0.044274725
0002d0 2b a6 a3 bc 4c 3d 5f 3b 84 71 5e bd ad 8d a5 3c
       -0.019976696 0.0034063635 -0.054307476 0.020209158
0002e0 35 6e 03 3e 5a c9 01 3d 91 93 95 bd d3 39 ab 3b
       0.1283501 0.031686164 -0.07303537 0.005225399
0002f0 85 85 0e be 6c 1d 2a be 14 46 e8 bd 09 a2 40 bd
       -0.13918121 -0.16612786 -0.11341491 -0.04702953
000300 c6 41 e5 3c c7 99 68 3d 7e 3a a8 3d 4f e5 71 bd
       0.027985465 0.05678728 0.082142815 -0.059056576
000310 74 5b 51 3d 7f d2 ff 3d dc 60 61 3d 99 45 d6 3d
       0.051112607 0.12491321 0.055024013 0.104624934
000320 48 1f e7 3b 75 ad 9a 3d 38 9e bf bd 45 0f d0 bc
       0.0070532896 0.075526156 -0.0935635 -0.025397906
000330 8c 5f d1 3c 7f ce 95 bd 72 9e 93 3d 40 83 30 3d
       0.025558256 -0.07314777 0.072079554 0.04309392
000340 b2 4d 23 3e 02 18 f3 3d dd 8d b6 3d c9 92 bc bd
       0.15947607 0.118698135 0.08913777 -0.092076845
000350 ab ba c6 3d c2 9d 69 3c d1 22 05 3e 45 9f 7a bd
       0.09703573 0.014258804 0.13001563 -0.061187048
000360 db c0 5c 3d 53 b8 f7 3d 45 7f b6 3c 12 e5 9e bd
       0.05389486 0.12095704 0.022277484 -0.077585354
000370 7e 43 e0 bd a9 25 25 3e 5b d2 e3 bd 1d 6f 50 3d
       -0.10950373 0.16127647 -0.111241065 0.050887216
000380 ce 94 8b 3d dd c3 19 3e f1 d9 87 bc 0d 06 53 3d
       0.068154916 0.15016122 -0.016583415 0.051519442
000390 0f 93 d7 3a 3a 6a fa bc 78 74 e5 3d e0 f2 fa bb
       0.0016447025 -0.03056823 0.11203855 -0.0076583475
0003a0 8d 8c 83 3d 59 1b 51 bd 67 96 85 bd 03 ef 6a 3d
       0.06423292 -0.05105147 -0.065228276 0.057356846
0003b0 fa 09 05 3e 85 db 6b 3d a2 80 86 bd 9f 63 8b bd
       0.12992087 0.057582397 -0.065675035 -0.068061106
0003c0 b4 34 c4 3d f9 db 81 3c 79 8e b6 bd a0 70 20 3e
       0.09580365 0.015851961 -0.08913893 0.15667963
0003d0 8c e4 2d 3e cb 2a c0 3d ca 1c 26 bd 90 cd 76 3d
       0.16981715 0.09383162 -0.0405548 0.060254633
0003e0 96 10 89 3d f1 d6 0a 3e d3 83 b9 bd 57 e2 71 3e
       0.06692617 0.13558556 -0.090583466 0.23621498
0003f0 33 b5 7a bd c1 69 91 3d 64 5f 25 bc b9 f5 c4 3c
       -0.06120796 0.07100249 -0.010093544 0.024042951
