model/total_loss_batch_size=2048_epoch=300.pt (torch_old, 210418 bytes, 10 tensors)

lstm.weight_ih_l0 f4 [256, 1]
0.5484701 0.38721046 0.13519807 0.46648479 0.33128908 0.34141594 0.21440616 0.42534918
0.52174044 -0.15375842 0.13355376 0.11157723 0.16412972 0.17042299 0.51413316 0.49296364
0.38811776 0.19375214 0.53234464 0.164998 0.21221893 0.35130054 0.5649335 0.14091462
0.17726474 0.36345232 -0.10688625 0.3461102 0.14110051 0.2000351 0.42118108 0.56365156
-0.07662562 0.54869723 0.077315405 0.22703159 0.37179023 0.09624184 -0.113394365 0.12185253
0.30766803 -0.10430478 -0.100494444 0.46933645 0.4295322 0.33341753 -0.1333463 0.123274855
0.3053809 0.13908096 0.75243884 0.16120794 -0.12508772 0.111180924 0.030462882 0.2455344
0.27399108 0.39837065 0.61003345 0.14225747 0.49791145 0.3595193 0.13117757 0.09554802
0.18461524 0.15384035 -0.18585286 -0.053155035 0.26975504 0.12895413 -0.30342594 -0.0104815895
0.27412078 -0.2706008 0.069672264 0.04631874 0.113517545 0.05552178 -0.07518886 -0.325089
0.17686628 -0.09201463 -0.048007015 -0.16923667 0.07117076 -0.054545753 -0.04418929 0.21247768
-0.13110638 0.029765906 -0.11939388 0.4471609 -0.08514918 -0.1566202 -0.024398215 0.22683398
0.15333247 0.30499396 0.08083922 0.29188135 0.22519553 0.17907408 -0.26128647 0.077870704
0.062995784 -0.1758217 0.047504958 0.18210384 -0.06766823 -0.11443345 -0.16554074 0.18838336
-0.07123603 0.14588657 0.11553163 0.21799369 -0.16713032 0.012164114 0.18408912 0.12749836
0.095821634 0.34968877 -0.05837688 -0.26224896 -0.10025365 0.01617618 0.21391091 0.14774813
0.32662567 0.16373202 0.35461932 -0.5724976 -0.5057354 -0.26977876 0.15119432 0.14294232
-0.2952693 -0.31971714 0.065758355 -0.15464133 0.30917925 0.14948028 0.43661645 -0.40767372
-0.12894481 0.30031794 -0.2340938 -0.22004917 -0.20970532 0.20976463 -0.56531525 0.056037456
-0.1282616 -0.24164046 -0.27360165 -0.15240125 0.19050999 -0.10545762 0.31649902 -0.22895825
-0.17723687 0.4993832 -0.033655822 0.42541486 0.20271264 -0.060013775 -0.3352982 -0.3507661
-0.40056568 0.22712474 0.1254693 -0.16464032 -0.25820628 0.7329989 -0.3268589 -0.5491446
-0.25568327 0.18375397 0.27846327 -0.10131588 -0.54118526 0.29482368 -0.00039557007 -0.21894838
0.079670355 -0.64759684 0.18990667 -0.23465548 0.518292 0.3692065 -0.05210498 0.04336489
-0.13910012 0.38873988 0.10196879 -0.18902133 -0.12602827 -0.08791691 0.1318144 0.3924068
-0.13452825 0.4356436 0.16896331 0.124130145 0.36723295 0.22009726 0.49479917 -0.13574743
0.44073823 0.22112115 -0.16027021 0.17326494 0.21185634 0.4319668 -0.12503949 0.15596873
0.30976814 -0.12266758 0.61180675 0.48253396 0.08368104 0.24949753 0.07636362 0.34339085
0.38338614 -0.12592128 0.12435349 -0.08434281 0.43542546 0.11298929 0.42132723 0.12331949
0.4011421 0.74127513 -0.08331862 0.36470395 -0.043998204 -0.12398005 0.5454903 0.25089806
0.29341155 0.17729528 -0.17156465 0.34937447 0.4908228 0.25796092 0.2967572 -0.101220384
0.26831952 -0.11745926 0.595446 0.16886948 0.68055636 -0.10371257 0.21421248 0.11051693
00000000: 8968 0c3f 7340 c63e 5d71 0a3e 18d7 ee3e
00000010: b99e a93e 12ce ae3e 4a8d 5b3e 5ec7 d93e
00000020: c890 053f d972 1dbe 51c2 083e 9a82 e43d
00000030: 9f11 283e 5d83 2e3e 3b9e 033f bb65 fc3e
00000040: 5fb7 c63e f666 463e bd47 083f 3cf5 283e
00000050: eb4f 593e aadd b33e 7b9f 103f ec4b 103e
00000060: e384 353e 6c16 ba3e 2ee7 dabd 5b35 b13e
00000070: a77c 103e 00d6 4c3e 0ca5 d73e 784b 103f
00000080: e5ed 9cbd 6c77 0c3f 8a57 9e3d f87a 683e
00000090: 4a5b be3e 711a c53d 4e3b e8bd d28d f93d
000000a0: aa86 9d3e bf9d d5bd 08d0 cdbd de4c f03e
000000b0: a5eb db3e b4b5 aa3e ef8b 08be 8777 fc3d
000000c0: e35a 9c3e 3d6b 0e3e d59f 403f b213 253e
000000d0: ff16 00be d3b2 e33d 4b8d f93c 5f6d 7b3e
000000e0: 8f48 8c3e 3df7 cb3e 272b 1c3f f1ab 113e
000000f0: 40ee fe3e ea12 b83e 6a53 063e aeae c33d
00000100: c70b 3d3e 5388 1d3e 3650 3ebe 18b9 59bd
00000110: 551d 8a3e 8d0c 043e a55a 9bbe f9ba 2bbc
00000120: 8f59 8c3e 308c 8abe 55b0 8e3d b8b8 3d3d
00000130: e37b e83d ce6a 633d 9efc 99bd 1172 a6be
00000140: 6f1c 353e 2b72 bcbd 01a3 44bd 614c 2dbe
00000150: fac1 913d 5e6b 5fbd d4ff 34bd c093 593e
00000160: c040 06be a1d7 f33c c784 f4bd 46f2 e43e
00000170: b162 aebd 0c61 20be c4de c7bc 2b47 683e
00000180: 3003 1d3e 2b28 9c3e 088f a53d 7971 953e
00000190: a899 663e 325f 373e 57c7 85be ad7a 9f3d
000001a0: ef03 813d 9b0a 34be 8f94 423d 6e79 3a3e
000001b0: a495 8abd 165c eabd 8383 29be 91e7 403e
000001c0: 32e4 91bd 4a63 153e d99b ec3d bd39 5f3e
000001d0: 3624 2bbe fe4b 473c dc81 3c3e ee8e 023e
000001e0: 223e c43d 680a b33e 981c 6fbd 7f45 86be
000001f0: c951 cdbd e983 843c 760b 5b3e 494b 173e
00000200: 7b3b a73e 5ea9 273e aa90 b53e 348f 12bf
00000210: e077 01bf 7120 8abe afd2 1a3e 795f 123e
00000220: 8a2d 97be f7b1 a3be 51ac 863d 4c5a 1ebe
00000230: be4c 9e3e 5c11 193e 318c df3e 9cba d0be
00000240: 1c0a 04be 46c3 993e 49b6 6fbe 9254 61be
00000250: febc 56be 8acc 563e 80b8 10bf 8887 653d
00000260: 0257 03be 9970 77be 8415 8cbe 130f 1cbe
00000270: 0d15 433e 2afa d7bd 290c a23e 0874 6abe
00000280: 957d 35be 28af ff3e b0da 09bd facf d93e
00000290: e793 4f3e 01d1 75bd 35ac abbe 9d97 b3be
000002a0: f216 cdbe 6393 683e 067b 003e 7997 28be
000002b0: 9d33 84be d1a5 3b3f 0d5a a7be be94 0cbf
000002c0: ebe8 82be 002a 3c3e bd92 8e3e b37e cfbd
000002d0: 1e8b 0abf 21f3 963e 8464 cfb9 0134 60be
000002e0: 362a a33d e8c8 25bf e576 423e 8749 70be
000002f0: c9ae 043f a208 bd3e 086c 55bd 629f 313d
00000300: 4370 0ebe ea08 c73e 03d5 d03d cf8e 41be
00000310: 8e0d 01be c80d b4bd 5bfa 063e 8be9 c83e
00000320: c6c1 09be ae0c df3e b804 2d3e f237 fe3d
00000330: f505 bc3e 2d61 613e 5156 fd3e 6001 0bbe
00000340: 71a8 e13e 956d 623e e01d 24be 5d6c 313e
00000350: def0 583e c12a dd3e 5a0a 00be 44b6 1f3e
00000360: ee99 9e3e 2439 fbbd 5e9f 1c3f b10e f73e
00000370: f760 ab3d 487c 7f3e 8864 9c3d edd0 af3e
00000380: 304b c43e 82f1 00be 0bad fe3d ecbb acbd
00000390: 16f0 de3e ee66 e73d 34b8 d73e ee8e fc3d
000003a0: 7f62 cd3e 35c4 3d3f f4a2 aabd 7aba ba3e
000003b0: 7637 34bd 41e9 fdbd 41a5 0b3f b675 803e
000003c0: 0a3a 963e e58c 353e a5ae 2fbe 36e1 b23e
000003d0: 204d fb3e 7413 843e 8ff0 973e a24c cfbd
000003e0: 2d61 893e 7b8e f0bd 266f 183f 1fec 2c3e
000003f0: f138 2e3f 4267 d4bd 845a 5b3e b356 e23d

lstm.weight_hh_l0 f4 [256, 64]
0.07328699 -0.009726803 0.13709393 0.012893239 -0.11020132 -0.21875365 -0.40254322 0.2842998
-0.042786825 -0.322756 0.17379226 -0.12120189 0.09925333 0.5886139 0.37520057 0.31433344
-0.18222333 -0.27919954 0.122450024 0.08613111 0.2037385 0.04655381 -0.67219347 0.08699369
-0.19503982 0.07123989 0.047232997 -0.29557732 0.42813975 -0.076373994 0.7916588 -0.2714524
0.0054176715 0.5053043 -0.0195518 0.2731224 0.42696562 0.16788925 0.2808754 -0.43020582
-0.34513414 0.3026173 0.16291074 0.033988643 -0.095073305 0.14464848 -0.32340518 -0.0036291573
-0.19927791 0.3257495 0.3219517 0.031618904 -0.029726302 -0.050581656 -0.007609668 -0.1839737
-0.0028803567 -0.1398592 -0.1268927 0.3105578 0.69535106 0.0009721334 0.10976137 0.1391506
-0.023621697 0.13545471 -0.07568242 -0.20833479 -0.42038608 -0.06115786 -0.09553143 -0.11081108
-0.023427311 0.25451216 0.44378018 -0.31518593 0.110681005 0.34318843 -0.11931092 0.22009079
0.020428183 0.060771383 -0.48202345 0.111728154 0.020512082 -0.10783738 0.038582347 0.19628294
-0.080459245 -0.3072767 -0.46313095 0.00937511 0.46789885 -0.3468298 0.4154663 0.06228215
0.05542281 0.022676682 -0.15557246 0.27315906 -0.17425339 -0.17602237 -0.23387182 -0.19452482
-0.54110974 -0.18502103 0.14212862 0.0825684 -0.5172656 0.19654463 0.06392508 -0.45044354
-0.14534244 0.027784042 -0.33353302 -0.04825906 0.010850722 0.39161286 0.03060148 -0.10678896
-0.01380541 -0.37708452 0.04172241 0.44450137 0.030710934 0.104601786 0.03736686 0.3069086
0.77386487 -0.12087062 -0.006850283 -0.17818835 -0.5645832 0.21062915 -0.32026422 0.18267018
-0.8666177 -0.20141034 0.42270988 -0.39462483 0.084913425 0.2720613 0.24510922 -0.85474384
-0.19037385 0.32835495 -0.28539294 0.18089731 -0.11210151 0.011984709 -1.4380372 0.3171841
-0.1695867 -0.26247516 -0.3069524 -0.6433795 -0.040570017 -0.29265904 -0.079496 -0.13151659
0.013060599 1.1807214 -0.38907945 0.4349203 0.3752123 -0.1919246 -0.34377527 -0.42785123
-0.22896597 0.113338806 0.19710967 -0.11459149 -0.15281773 1.3336104 -0.19100855 -0.5301744
-0.17115194 -0.04647165 1.1437857 -0.4535929 -1.1622468 0.4240804 0.3820148 -0.20390907
0.14831983 -0.24321568 0.4325769 -0.27472165 1.0323617 0.41323707 -0.13496795 0.25352797
-0.17747167 0.18615739 -0.13533437 -0.085638225 -0.04214706 0.09470144 -0.24310675 -0.23169266
-0.0923984 0.27816406 0.18282747 -0.15177585 0.0015862412 0.22258894 0.01646357 0.3857967
0.46642303 -0.33863544 -0.10787135 -0.02401058 -0.03513067 -0.15375307 -0.010658017 0.051380567
-0.022973085 0.05110308 -0.23319055 -0.08065709 0.2209792 -0.32548755 0.1413486 -0.01423235
0.07570596 -0.2562709 -0.30616572 0.17118461 -0.2037811 -0.012182889 -0.31932747 -0.14229475
-0.64099807 -0.5731913 0.33890462 -0.005484886 -0.09961251 -0.035300326 0.6692873 -0.23118238
0.20846419 -0.073124886 -0.10695224 -0.08931093 -0.049786594 0.10787913 0.30186167 0.044789083
0.17533132 -0.1893109 -0.009296058 0.2882716 -0.30979443 0.0035713634 -0.038246874 0.3387108
00000000: 7d17 963d 2b5d 1fbc 5a62 0c3e 2a3e 533c
00000010: 3bb1 e1bd f500 60be 251a cebe be8f 913e
00000020: 3d41 2fbd 4640 a5be 99f6 313e b238 f8bd
00000030: 5445 cb3d 67af 163f 4a1a c03e 50f0 a03e
00000040: c198 3abe 3ef3 8ebe 14c7 fa3d 8265 b03d
00000050: d3a0 503e 35af 3e3d df14 2cbf bf29 b23d
00000060: 85b8 47be 38e6 913d 6377 413d e955 97be
00000070: 2235 db3e f869 9cbd 27aa 4a3f cffb 8abe
00000080: b986 b13b 9f5b 013f 192b a0bc b3d6 8b3e
00000090: 3d9b da3e 29eb 2b3e e7ce 8f3e f043 dcbe
000000a0: 6cb5 b0be a8f0 9a3e 13d2 263e ad37 0b3d
000000b0: cbb5 c2bd bb1e 143e 5d95 a5be 28d7 6dbb
000000c0: 820f 4cbe a3c8 a63e dad6 a43e d382 013d
000000d0: 9384 f3bc b62e 4fbd 865a f9bb 9a63 3cbe
000000e0: 5ec4 3cbb 4037 0fbe 29f0 01be 6f01 9f3e
000000f0: 8702 323f c5d6 7e3a 92ca e03d 7f7d 0e3e
00000100: 4a82 c1bc a4b4 0a3e 62ff 9abd b755 55be
00000110: d83c d7be aa80 7abd fba5 c3bd ebf0 e2bd
00000120: a2ea bfbc 6b4f 823e 2837 e33e 0d60 a1be
00000130: b9ac e23d 65b6 af3e 4959 f4bd 7b5f 613e
00000140: 0159 a73c 6aeb 783d c7cb f6be bbd1 e43d
00000150: f408 a83c d8d9 dcbd 8608 1e3d 65fe 483e
00000160: d1c7 a4bd 5f53 9dbe 801f edbe 109a 193c
00000170: 7090 ef3e ad93 b1be 00b8 d43e 911b 7f3d
00000180: 0703 633d 73c4 b93c 634e 1fbe 81db 8b3e
00000190: 7b6f 32be 353f 34be 187c 6fbe 8431 47be
000001a0: 2b86 0abf 2776 3dbe 2a8a 113e 9f19 a93d
000001b0: 856b 04bf ff42 493e 27eb 823d 89a0 e6be
000001c0: a6d4 14be 5c9b e33c d7c4 aabe 4bab 45bd
000001d0: 3ac7 313c 7b81 c83e f4af fa3c 2cb4 dabd
000001e0: 1630 62bc 3911 c1be 1ee5 2a3d af95 e33e
000001f0: 7f95 fb3c 7639 d63d fe0d 193d 2023 9d3e
00000200: 021c 463f 048b f7bd 5778 e0bb 0277 36be
00000210: 8688 10bf 2baf 573e acf9 a3be e40d 3b3e
00000220: a8da 5dbf 833e 4ebe 6e6d d83e 440c cabe
00000230: 17e7 ad3d 9e4b 8b3e e9fd 7a3e 7ed0 5abf
00000240: 5df1 42be 241e a83e 061f 92be 253d 393e
00000250: 7a95 e5bd 835b 443c 9a11 b8bf f465 a23e
00000260: 23a8 2dbe 2563 86be dd28 9dbe 85b4 24bf
00000270: bf2c 26bd 68d7 95be cdce a2bd 49ac 06be
00000280: 1ffc 553c e121 973f 6c35 c7be e0ad de3e
00000290: d41b c03e e287 44be 5003 b0be 510f dbbe
000002a0: 0e76 6abe 2d1e e83d 1ed7 493e f1ae eabd
000002b0: 407c 1cbe bfb3 aa3f bf97 43be 82b9 07bf
000002c0: 7442 2fbe 0f59 3ebd 9267 923f 543d e8be
000002d0: 81c4 94bf 1121 d93e 7297 c33e 8acd 50be
000002e0: 27e1 173e 880d 79be b87a dd3e 51a8 8cbe
000002f0: 6e24 843f cf93 d33e 0a35 0abe 6bce 813e
00000300: 22bb 35be 0ba0 3e3e 1895 0abe 1863 afbd
00000310: 65a2 2cbd d4f2 c13d faf0 78be d740 6dbe
00000320: 5f3b bdbd 856b 8e3e 2037 3b3e 216b 1bbe
00000330: 6ce9 cf3a 5bee 633e 9cde 863c 2587 c53e
00000340: 00cf ee3e a061 adbe a8eb dcbd d6b1 c4bc
00000350: 2de5 0fbd 7271 1dbe f79e 2ebc 6e74 523d
00000360: 0d32 bcbc 7751 513d 81c9 6ebe 8b2f a5bd
00000370: 5f48 623e 4ea6 a6be b0bd 103e cd2e 69bc
00000380: ba0b 9b3d f035 83be c1c1 9cbe 054b 2f3e
00000390: feab 50be bd9a 47bc e47e a3be b7b5 11be
000003a0: 7318 24bf aabc 12bf e884 ad3e 8fba b3bb
000003b0: a501 ccbd 1397 10bd 6a56 2b3f 13bb 6cbe
000003c0: a377 553e 80c2 95bd c709 dbbd a6e8 b6bd
000003d0: 07ed 4bbd bcef dc3d 9d8d 9a3e c274 373d
000003e0: 0e8a 333e b7da 41be 7e4e 18bc 5698 933e
000003f0: 609d 9ebe 890d 6a3b c1a8 1cbd 816b ad3e

lstm.bias_ih_l0 f4 [256]
0.7997492 0.3641466 -0.19969141 0.56440145 0.2638594 0.38005796 0.053797312 0.44254267
0.002441501 1.097959 0.14326304 0.07430571 0.27447447 0.29262003 0.84002197 0.37066463
0.57236636 0.20956166 0.4704778 -1.3816686 -0.24235862 0.12253684 0.35198355 -0.2597305
0.29838565 0.35004598 0.51852137 0.19163372 0.37418622 -0.017655307 0.32158893 0.5509968
0.17775191 0.65900123 -0.003669585 0.24876957 0.90243125 0.005471027 0.46729693 0.13908352
0.6727297 0.72167206 0.19228241 0.051304325 0.58914286 0.4305274 1.0240648 0.44413877
0.16030677 0.04476786 1.1576686 0.18203413 0.6112069 0.20982839 0.14120108 0.050629027
0.30545887 0.6768362 0.5770117 -1.1485277 0.9630201 0.1724436 -0.3201151 -0.16251126
0.18137889 0.04510841 -0.10206938 0.19502789 -0.03127935 0.01958482 0.092790805 0.059799075
-0.10681304 -0.048779942 -0.04748964 -0.02572595 -0.0912801 -0.14359386 -0.160258 -0.14157721
0.018767396 -0.24675834 0.14951842 -0.008854307 -0.14428258 -0.070927545 0.050339546 0.105071224
0.09872593 0.23834705 0.09928542 -0.21467404 0.12528105 -0.017347483 -0.029216334 -0.104950935
-0.17619121 -0.15332358 0.120458186 0.03842408 0.032908257 0.13556123 0.25568113 0.091035575
0.13789971 0.17251773 0.022072705 -0.14944646 0.1633438 -0.27161494 0.01008223 -0.06912477
0.03692501 0.013861086 -0.11010791 -0.0390857 -0.056731045 0.0040622074 0.013147568 0.03361684
0.011317164 0.057652157 0.18300384 0.024333676 -0.1670819 0.054724462 0.010656425 -0.052696332
-0.6167991 -0.40149602 0.3392814 -0.35933587 0.038658813 0.17277747 -0.2553901 -0.39677072
0.18084791 0.6517648 0.1839627 0.17257383 0.17124237 0.11198811 -0.7615183 0.45089594
0.39883092 -0.31012225 -0.4001594 0.3264975 0.08658401 -0.29915366 0.39640635 -0.22724077
0.45949733 0.06754566 -0.17487283 0.6515632 0.22033025 0.048609767 0.1328663 0.46645
0.19999748 -0.503503 -0.09403299 0.013779187 -0.6657728 -0.06040703 -0.11720728 -0.18071896
-0.53449315 -0.39093626 0.105972774 0.27635702 -0.29824978 -0.27929905 0.399643 -0.24508421
0.20007889 0.15579233 -0.66585636 0.29515514 0.1401679 -0.088373624 -0.07525808 0.015102566
-0.6292883 -0.37705958 -0.36914268 0.42960593 -0.6405815 0.12800302 0.25524142 -0.0142202955
0.9813019 0.3980162 -0.3037504 0.8576007 0.6450076 0.44702375 -0.05003385 0.48644838
0.9767698 0.643907 0.039395068 0.1457442 0.22748065 0.12236487 0.58036876 0.90517193
0.40506095 0.06572366 0.61592954 -1.2947222 -0.010741598 0.1842508 0.6981098 -0.1304016
0.17030895 0.72493553 0.088886864 -0.07703426 0.24581636 0.030012103 0.37344122 0.5091707
-0.01835129 0.36835706 0.05133577 0.3042107 0.86905706 0.0943875 0.22044323 0.23346539
0.75030905 0.77276045 0.20380917 0.37860522 0.32069367 0.61043066 0.6640606 0.5409028
0.2835196 0.17110363 1.3936994 0.17871897 0.15184584 0.24288562 0.00044233113 0.5695295
0.12344314 0.51079446 0.5053067 -1.1492239 1.0353884 0.33268994 -0.14659305 -0.20853725
00000000: 5dbc 4c3f 6c71 ba3e e87b 4cbe 9d7c 103f
00000010: 9418 873e f596 c23e 925a 5c3d f494 e23e
00000020: 9701 203b ec89 8c3f 8cb3 123e 982d 983d
00000030: eb87 8c3e 4bd2 953e ae0b 573f c1c7 bd3e
00000040: 9a86 123f 5597 563e 77e2 f03e 84da b0bf
00000050: dc2c 78be 98f4 fa3d 3037 b43e 65fb 84be
00000060: 01c6 983e 3a39 b33e d1bd 043f a13b 443e
00000070: 5695 bf3e dda1 90bc 4ea7 a43e 200e 0d3f
00000080: 9904 363e 4eb4 283f 6c7d 70bb 73bd 7e3e
00000090: bc05 673f 4d46 b33b 8b41 ef3e e96b 0e3e
000000a0: 0338 2c3f 80bf 383f aee5 443e 7c24 523d
000000b0: 11d2 163f 166e dc3e 8e14 833f 2866 e33e
000000c0: 7527 243e 815e 373d 7c2e 943f 2867 3a3e
000000d0: 0e78 1c3f 41dd 563e 0497 103e 6260 4f3d
000000e0: 1b65 9c3e 2345 2d3f 0ab7 133f f502 93bf
000000f0: 7c88 763f 0e95 303e 20e6 a3be 5a69 26be
00000100: 63bb 393e 99c3 383d c009 d1bd 64b5 473e
00000110: c71e 00bd 5870 a03c 1b09 be3d e0ef 743d
00000120: ccc0 dabd 7acd 47bd 7f84 42bd 3abf d2bc
00000130: 10f1 babd 450a 13be ac1a 24be 9ef9 10be
00000140: 15be 993c 38ae 7cbe 5b1b 193e a811 11bc
00000150: d0be 13be 7642 91bd d730 4e3d 952f d73d
00000160: d230 ca3d 4011 743e 2756 cb3d 83d3 5bbe
00000170: ad49 003e 4f1c 8ebc 1857 efbc 84f0 d6bd
00000180: 786b 34be db00 1dbe c8b2 f63d 9162 1d3d
00000190: cfca 063d 90d0 0a3e a3e8 823e dc70 ba3d
000001a0: 9535 0d3e 7da8 303e d1d1 b43c 7e08 19be
000001b0: 9943 273e 1d11 8bbe f02f 253c 4a91 8dbd
000001c0: ae3e 173d 9c19 633c 4280 e1bd 5418 20bd
000001d0: d05e 68bd 441c 853b e668 573c d0b1 093d
000001e0: a06b 393c ab24 6c3d 5c65 3b3e 6b57 c73c
000001f0: 8517 2bbe c226 603d 4998 2e3c 1cd8 57bd
00000200: 8ce6 1dbf e390 cdbe 4bb6 ad3e dffa b7be
00000210: b458 1e3d 94ec 303e 7ec2 82be 8825 cbbe
00000220: 3230 393e 0fda 263f b860 3c3e 32b7 303e
00000230: 295a 2f3e 065a e53d ddf2 42bf d5db e63e
00000240: 9133 cc3e 58c8 9ebe b1e1 ccbe ae2a a73e
00000250: f552 b13d ab2a 99be c6f5 ca3e ceb1 68be
00000260: 3c43 eb3e 6155 8a3d dd11 33be d9cc 263f
00000270: 419e 613e 091b 473d 1a0e 083e 89d2 ee3e
00000280: 24cc 4c3e 93e5 00bf 5e94 c0bd 19c2 613c
00000290: 1670 2abf 5d6d 77bd 5f0a f0bd 640e 39be
000002a0: 8bd4 08bf cc28 c8be 4108 d93d ab7e 8d3e
000002b0: 32b4 98be 4900 8fbe 029e cc3e 5bf7 7abe
000002c0: 7be1 4c3e 0688 1f3e 9075 2abf 931e 973e
000002d0: 2d88 0f3e 3bfd b4bd e920 9abd c170 773c
000002e0: 0a19 21bf f40d c1be 4500 bdbe 4ff5 db3e
000002f0: 26fd 23bf 3913 033e 01af 823e 3efc 68bc
00000300: 9a36 7b3f c8c8 cb3e 2c85 9bbe b88b 5b3f
00000310: 381f 253f 4ce0 e43e 4bf0 4cbd c30f f93e
00000320: 960d 7a3f 17d7 243f b95c 213d f83d 153e
00000330: b0f0 683e 6f9a fa3d 0c93 143f 59b9 673f
00000340: 2664 cf3e 209a 863d 8fad 1d3f 75b9 a5bf
00000350: 87fd 2fbc 3eac 3c3e 53b7 323f ff87 05be
00000360: 7865 2e3e 6095 393f 510a b63d 23c4 9dbd
00000370: 49b7 7b3e f1db f53c b033 bf3e 0359 023f
00000380: 7255 96bc 4c99 bc3e 7545 523d 81c1 9b3e
00000390: 867a 5e3f 3c4e c13d dfbb 613e 8d11 6f3e
000003a0: 4114 403f a1d3 453f 5ab3 503e 8bd8 c13e
000003b0: f631 a43e 2f45 1c3f e0ff 293f 9b78 0a3f
000003c0: 7b29 913e ca35 2f3e be64 b23f 1b02 373e
000003d0: 7a7d 1b3e 02b7 783e aee8 e739 afcc 113f
000003e0: c2cf fc3d 6dc3 023f c85b 013f c519 93bf
000003f0: 9b87 843f 5656 aa3e 7d1c 16be ca8a 55be

lstm.bias_hh_l0 f4 [256]
0.8184726 0.4258835 -0.16551039 0.44657773 0.30637455 0.16946284 -0.009364912 0.40703014
0.16390248 1.1279681 0.116626285 0.12027617 0.12006284 0.193009 0.8853596 0.45101976
0.6996337 0.14652495 0.46097875 -1.4690952 -0.18628299 0.017174048 0.47413737 -0.27469158
0.10460182 0.3190181 0.4908187 0.38891044 0.14237885 0.08935852 0.27739882 0.61359483
0.06407329 0.6968111 -0.049988415 0.3459137 0.95054954 0.0075357575 0.43843314 0.08990748
0.73225355 0.7382337 0.13123207 -0.07136011 0.6290586 0.3628333 0.94936115 0.53204423
0.13365819 -0.021763867 1.2753725 0.16849439 0.6825617 0.38493407 0.27496815 -0.038662236
0.22620356 0.5184613 0.42900604 -1.2761005 0.86486274 0.0815459 -0.38398418 -0.24785979
-0.040868558 -0.05441047 -0.05555462 -0.046543784 -0.1259506 -0.07221672 0.10815067 -0.0071880273
-0.08435746 -0.07873586 0.17101471 0.15048693 -0.03281894 -0.03751022 -0.06679755 -0.21670632
0.0028242131 -0.17914599 0.1992158 0.024416292 -0.16350938 -0.0762711 -0.14138381 0.07276066
0.18142556 0.21612808 0.1630944 -0.30064306 0.121091194 0.1564618 -0.012517263 -0.064840466
-0.050518233 -0.13036704 0.033316717 -0.15798469 -0.08922597 0.041547395 0.1341192 -0.012839613
0.182184 0.057071205 0.07593785 0.062115062 0.00041657386 -0.31997654 -0.07544292 -0.12323266
-0.0058876644 0.022918928 -0.31190932 0.032052908 -0.10137375 0.120125584 0.08545306 0.06270941
0.053021073 -0.010713981 0.11773623 0.021872003 -0.16230293 -0.07018948 -0.0997153 -0.019677235
-0.54508984 -0.49547186 0.21216999 -0.22150356 -0.08117103 0.08576985 -0.11545842 -0.42606598
0.34503618 0.4264742 0.16309008 0.12997492 0.12545058 0.068937205 -0.70732844 0.3723527
0.4383487 -0.20275171 -0.28036427 0.31561363 0.06806386 -0.39812428 0.4338482 -0.4027358
0.46565986 -0.10394014 -0.13479713 0.55913603 0.06368618 -0.012054291 0.25707498 0.48331445
0.110391915 -0.5637022 -0.056318726 0.22795632 -0.7310328 0.032960333 -0.13188615 -0.25956383
-0.35498542 -0.5672492 0.12257021 0.31925258 -0.4417427 -0.24152772 0.512898 -0.06759058
0.22542913 0.0095374575 -0.7292837 0.40117535 0.044985693 0.00945436 -0.22236551 -0.027356552
-0.6432493 -0.3218866 -0.5693789 0.38471487 -0.75291187 0.07380985 0.14698632 0.0577835
0.92636603 0.37437016 -0.32445595 0.8291753 0.8063653 0.3972198 0.06117903 0.58948624
0.8910916 0.61688066 -0.039461914 0.19352315 0.16113456 0.3238574 0.80022204 0.8635117
0.5365591 0.20618221 0.71677256 -1.3257387 0.008627065 0.10646755 0.85971516 -0.15153065
0.21871276 0.8602752 0.2507434 -0.06490816 0.20408694 0.1110174 0.5200314 0.48644456
0.030460432 0.59885126 -0.057668738 0.15753548 0.8153924 0.07536125 0.29027238 0.21514647
0.7291135 0.81498516 0.32853916 0.31318492 0.43173915 0.5942564 0.6655354 0.4019158
0.2501125 0.17597921 1.6136824 0.0026429938 0.33851 0.31684566 -0.1664723 0.6405247
0.022874244 0.64888936 0.46047187 -1.3274465 0.927171 0.4615969 -0.21313669 -0.17669274
00000000: 6c87 513f 670d da3e 8e7b 29be d6a5 e43e
00000010: 20dd 9c3e ab87 2d3e 4a6f 19bc 4166 d03e
00000020: 0dd6 273e 4261 903f c3d9 ee3d 5a53 f63d
00000030: 82e3 f53d 27a4 453e eda6 623f 10ec e63e
00000040: 321b 333f a30a 163e 6805 ec3e 500b bcbf
00000050: f8c0 3ebe 97b0 8c3c 22c2 f23e 60a4 8cbe
00000060: 7b39 d63d 5756 a33e 974c fb3e 451f c73e
00000070: c3cb 113e 9a01 b73d 3807 8e3e 8d14 1d3f
00000080: db38 833d 3662 323f a7c0 4cbd 9a1b b13e
00000090: 3757 733f 84ee f63b 4f7a e03e 6a21 b83d
000000a0: f874 3b3f e2fc 3c3f b361 063e 4025 92bd
000000b0: fc09 213f 49c5 b93e 5509 733f 0d34 083f
000000c0: b1dd 083e 234a b2bc 683f a33f cb89 2c3e
000000d0: 5dbc 2e3f 1416 c53e a0c8 8c3e 4b5c 1ebd
000000e0: e8a1 673e e1b9 043f aea6 db3e 4357 a3bf
000000f0: a567 5d3f 8901 a73d 9399 c4be f5ce 7dbe
00000100: ca65 27bd 83dd 5ebd 3e8d 63bd b2a4 3ebd
00000110: 32f9 00be 5ce6 93bd 197e dd3d 8b89 ebbb
00000120: 9bc3 acbd 4440 a1bd 7b1e 2f3e 3f19 1a3e
00000130: 276d 06bd 51a4 19bd 27cd 88bd 43e8 5dbe
00000140: 6f16 393b 0c72 37be 3aff 4b3e ad04 c83c
00000150: 016f 27be 0634 9cbd ebc6 10be 8a03 953d
00000160: 9fc7 393e ae50 5d3e 3802 273e e3ed 99be
00000170: a9fe f73d 8637 203e 3515 4dbc 14cb 84bd
00000180: 35ec 4ebd f07e 05be 1c77 083d bdc6 21be
00000190: 1bbc b6bd 9a2d 2a3d 8b56 093e 3d5d 52bc
000001a0: 718e 3a3e 7fc3 693d 4e85 9b3d 5d6c 7e3d
000001b0: 9967 da39 f7d3 a3be d181 9abd 6861 fcbd
000001c0: 4fed c0bb 7ac0 bb3c 94b2 9fbe e949 033d
000001d0: 0a9d cfbd 6704 f63d 0402 af3d cb6d 803d
000001e0: a02c 593d b289 2fbc b11f f13d ea2c b33c
000001f0: bd32 26be 81bf 8fbd 8937 ccbd 2732 a1bc
00000200: 028b 0bbf 7dae fdbe 1743 593e d4d1 62be
00000210: ff3c a6bd 1aa8 af3d 7775 ecbd 5225 dabe
00000220: 95a8 b03e d45a da3e 1601 273e 2518 053e
00000230: 1e76 003e f32e 8d3d 7a13 35bf 03a5 be3e
00000240: 3e6f e03e 259e 4fbe e88b 8fbe 1c98 a13e
00000250: 1165 8b3d f2d6 cbbe 5a21 de3e 6333 cebe
00000260: f86a ee3e 91de d4bd 4208 0abe 8a23 0f3f
00000270: e66d 823d 5c7f 45bc 559f 833e fe74 f73e
00000280: 2815 e23d ca4e 10bf 77ae 66bd 626d 693e
00000290: f724 3bbf 6a01 073d 2a0d 07be 8de5 84be
000002a0: a6c0 b5be 3e37 11bf 1706 fb3d 1375 a33e
000002b0: 192c e2be 0b53 77be 494d 033f ee6c 8abd
000002c0: e5d6 663e ff42 1c3c 56b2 3abf db66 cd3e
000002d0: eb42 383d 76e6 1a3c c9b3 63be d91a e0bc
000002e0: fcab 24bf 52ce a4be d1c2 11bf 59f9 c43e
000002f0: d5be 40bf 9e29 973d 9583 163e 64ae 6c3d
00000300: 5326 6d3f 72ad bf3e 171f a6be d544 543f
00000310: f56d 4e3f 6560 cb3e dd96 7a3d 92e8 163f
00000320: 941e 643f e4eb 1d3f d1a2 21bd ef2a 463e
00000330: 7500 253e a3d0 a53e 5adb 4c3f 1a0f 5d3f
00000340: f05b 093f 6e21 533e 687e 373f ceb1 a9bf
00000350: 8958 0d3c a90b da3d 4b16 5c3f da2a 1bbe
00000360: 3df6 5f3e ff3a 5c3f 7061 803e 92ee 84bd
00000370: 2bfc 503e 175d e33d c720 053f 430f f93e
00000380: 2888 f93c 514e 193f 0e36 6cbd fb50 213e
00000390: 8ebd 503f 0057 9a3d 959e 943e 5b4f 5c3e
000003a0: 2fa7 3a3f dea2 503f 4936 a83e c659 a03e
000003b0: ea0c dd3e 3021 183f 8760 2a3f e8c7 cd3e
000003c0: bf0e 803e e533 343e 258d ce3f 1436 2d3b
000003d0: 2f51 ad3e 9839 a23e b777 2abe 6df9 233f
000003e0: c462 bb3c 9d1d 263f f8c2 eb3e c4e9 a9bf
000003f0: 145b 6d3f 6e56 ec3e 8140 5abe f1ee 34be

lstm.weight_ih_l1 f4 [256, 64]
0.74048114 0.2336715 -0.50704265 -1.0238563 -0.67829937 -0.5175365 -0.09253766 -0.36249262
-0.34474143 0.11853822 0.052304443 -0.047506057 0.10880618 0.0026170667 -0.07483776 -0.092621304
0.8328779 -0.22078784 -0.79582155 0.7201607 0.4683702 -0.4388912 -0.52707446 -0.76084495
0.07023776 -0.7859491 -1.047935 -0.25387144 0.051013645 -0.20145583 0.19452423 -0.08720529
0.66068053 0.40598124 0.37170532 0.4358162 -0.10130919 0.052569915 -0.5570816 0.0273298
-0.40135005 -0.11693787 -0.2150067 0.27126154 -0.47123924 0.5523206 -0.44725478 -0.13675955
-0.38332412 0.1872132 0.54021764 0.02251765 -0.59968704 0.19374384 -0.7542824 -0.63226056
-0.564545 -0.8619243 0.3168939 0.91163445 -0.5321296 0.42623103 0.7995655 -0.5852733
0.119631805 -0.08454491 0.18520382 -0.17101127 0.060609043 0.05435459 -0.09134483 0.16234097
0.07609318 0.10484301 0.081440255 -0.21812072 0.002111492 -0.1614239 0.040729 0.09790237
-0.24823722 -0.079957195 -0.16777283 -0.014127598 0.01990591 -0.02447443 -0.02530979 0.18789093
-0.17083408 -0.12964514 -0.1813677 -0.30980748 0.15166847 -0.08282358 0.046654087 -0.012919175
-0.01176405 0.04422014 -0.21317518 0.0031703084 0.3262167 -0.0926399 0.04603988 -0.14708403
-0.2778555 0.022149833 0.12483258 -0.2632744 -0.0138505 -0.024929572 0.0412957 0.1433811
0.040657174 -0.053382207 0.32296467 -0.36124927 -0.16088583 0.16709532 -0.00032013998 -0.04955832
0.4077203 -0.078739926 0.12181286 -0.0074912794 0.009702391 0.14674649 -0.160309 0.2892128
0.31383657 0.5431907 0.17145239 0.2347398 -0.09336273 0.048229784 0.2097401 0.46518478
-0.2063484 -0.62262607 0.15907139 -0.25765082 0.07735518 0.39513686 0.40038 -0.49830675
-0.6581013 0.30006427 0.07500306 -0.109167024 -0.24591959 0.33805078 -0.041832864 0.27871463
-0.35606718 -0.0026870084 -0.21429631 -0.3729159 0.08308666 -0.21013804 0.11386004 -0.029988341
-0.45411098 0.18115027 -0.27862662 0.13444813 0.69355613 -0.09975068 -0.26135796 -0.1394682
-0.08756162 0.9008504 -0.0895147 -0.5006827 0.018497588 -0.010587557 -0.445379 -0.1719114
-0.3004647 0.27200273 1.3885182 -0.42814294 -0.16104303 0.26148528 0.53629875 -0.44366935
0.20401171 -0.054989103 0.4555495 -0.30744314 0.4173152 0.09645708 -0.3381957 0.2639117
0.2812282 0.22194292 0.059107404 -0.1489053 -0.14557008 -0.17749766 0.602819 0.13495803
-0.023974132 0.25899366 0.097450204 -0.21481277 0.07390352 0.10888712 0.23625453 0.12126654
0.18744582 0.12069377 -0.13037954 -0.036653414 -0.35328868 0.10719699 -0.17293447 -0.012386817
0.14350305 -0.3796217 -0.25934315 0.013236649 0.13297667 -0.18983607 0.0562846 -0.33520454
0.068098575 -0.14226885 -0.06774514 -0.079123214 0.1550554 -0.1548015 -0.22415891 -0.17112033
-0.017988699 -0.015766313 -0.20669177 -0.22700623 -0.28643626 0.0014911336 -0.21652097 -0.08032703
-0.2529495 0.4277774 0.17769875 0.07167052 -0.055602875 0.15004301 -0.12797593 -0.20996904
0.17680892 -0.28431314 0.1438676 -0.14878634 0.21153447 0.43118405 -0.09257281 -0.033985727
00000000: 2c90 3d3f 9547 6f3e 8ccd 01bf b90d 83bf
00000010: 07a5 2dbf 467d 04bf 6284 bdbd a298 b9be
00000020: f381 b0be 2bc4 f23d 2f3d 563d b695 42bd
00000030: c6d5 de3d 1883 2b3b 8a44 99bd 3db0 bdbd
00000040: 7c37 553f 3516 62be f6ba 4bbf 745c 383f
00000050: 38ce ef3e 59b6 e0be 5aee 06bf bcc6 42bf
00000060: d1d8 8f3d f633 49bf bc22 86bf 70fb 81be
00000070: aff3 503d 704a 4ebe 5c31 473e b098 b2bd
00000080: 5c22 293f c6dc cf3e 2950 be3e 4d23 df3e
00000090: 317b cfbd 8d53 573d e69c 0ebf bfe2 df3c
000000a0: c17d cdbe 1f7d efbd b72a 5cbe cbe2 8a3e
000000b0: 4546 f1be e264 0d3f 94fe e4be b20a 0cbe
000000c0: 0f43 c4be d1b4 3f3e b44b 0a3f ef76 b83c
000000d0: 1785 19bf c964 463e a718 41bf d4db 21bf
000000e0: 0586 10bf 12a7 5cbf eb3f a23e e060 693f
000000f0: a539 08bf f43a da3e 53b0 4c3f 79d4 15bf
00000100: 8501 f53d e225 adbd 12a6 3d3e 941d 2fbe
00000110: 3041 783d eba2 5e3d 0013 bbbd b63c 263e
00000120: bed6 9b3d efb7 d63d 26ca a63d 0a5b 5fbe
00000130: f560 0a3b 4f4c 25be 74d3 263d 0a81 c83d
00000140: e631 7ebe 99c0 a3bd a4cc 2bbe 7177 67bc
00000150: b811 a33c 9a7e c8bc 7a56 cfbc 7b66 403e
00000160: 21ef 2ebe b2c1 04be 74b8 39be 169f 9ebe
00000170: fb4e 1b3e 699f a9bd 5b18 3f3d f3aa 53bc
00000180: 01be 40bc 2d20 353d 984a 5abe f3c4 4f3b
00000190: e005 a73e fdb9 bdbd 5094 3c3d 329d 16be
000001a0: 1343 8ebe 9173 b53c 39a8 ff3d e7cb 86be
000001b0: 35ed 62bc 1a39 ccbc ae25 293d 7fd2 123e
000001c0: 2388 263d 4da7 5abd a05b a53e aaf5 b8be
000001d0: 41bf 24be 091b 2b3e 76d8 a7b9 aafd 4abd
000001e0: b7c0 d03e 6642 a1bd 0579 f93d 6879 f5bb
000001f0: c7f6 1e3c b644 163e 0b28 24be b313 943e
00000200: 30af a03e 8c0e 0b3f 3791 2f3e a15f 703e
00000210: f634 bfbd 988c 453d 1cc6 563e b32c ee3e
00000220: ff4c 53be 6c64 1fbf 9ce3 223e cfea 83be
00000230: 656c 9e3d 614f ca3e 9bfe cc3e 1022 ffbe
00000240: 5479 28bf 06a2 993e 349b 993d f692 dfbd
00000250: 58d2 7bbe fe14 ad3e f058 2bbd afb3 8e3e
00000260: 704e b6be 8518 30bb 7e70 5bbe d5ee bebe
00000270: 5729 aa3d 6d2e 57be 742f e93d 1caa f5bc
00000280: 3c81 e8be 757f 393e 26a8 8ebe c5ac 093e
00000290: e58c 313f 164a ccbd b6d0 85be c0d0 0ebe
000002a0: 8253 b3bd 229e 663f 7c53 b7bd be2c 00bf
000002b0: 4188 973c 6f77 2dbc b708 e4be 8b09 30be
000002c0: 82d6 99be f143 8b3e f7ba b13f 8d35 dbbe
000002d0: 77e8 24be 66e1 853e e04a 093f a128 e3be
000002e0: 72e8 503e 413c 61bd c93d e93e 3069 9dbe
000002f0: 57aa d53e 4a8b c53d fd27 adbe 6f1f 873e
00000300: 25fd 8f3e 0145 633e 9b1a 723d a27a 18be
00000310: 5310 15be f2c1 35be 5952 1a3f 7032 0a3e
00000320: 6665 c4bc d19a 843e f993 c73d e1f7 5bbe
00000330: bb5a 973d 3600 df3d b5ec 713e 975a f83d
00000340: ccf1 3f3e 4c2e f73d 3782 05be e421 16bd
00000350: 41e2 b4be 188a db3d bc15 31be 13f2 4abc
00000360: 77f2 123e c75d c2be a0c8 84be 88de 583c
00000370: 092b 083e 6364 42be ae8a 663d ee9f abbe
00000380: 4477 8b3d edae 11be f7bd 8abd 5a0b a2bd
00000390: d8c6 1e3e 4984 1ebe ea89 65be 2b3a 2fbe
000003a0: 095d 93bc 5b28 81bc 02a7 53be 5274 68be
000003b0: c6a7 92be 2472 c33a acb7 5dbe 7f82 a4bd
000003c0: 9982 81be a405 db3e a9f6 353e fec7 923d
000003d0: d7bf 63bd e0a4 193e 1f0c 03be 2002 57be
000003e0: 660d 353e 7e91 91be 0752 133e 725b 18be
000003f0: 7e9c 583e 28c4 dc3e d096 bdbd 9e34 0bbd

lstm.weight_hh_l1 f4 [256, 64]
0.1582007 -0.4550614 -0.17884317 0.2827146 -0.24861148 0.022095613 -0.019993775 0.05787624
0.23340884 0.39752698 -0.4146298 0.21482119 -0.23952898 0.25623053 0.29509 0.37802497
0.15254158 -0.063135825 -0.62133217 0.13519602 -0.5415692 0.42446968 -0.26722595 0.67335075
0.30739704 -0.5536239 0.13096672 0.503988 -0.2561554 -0.2161297 0.054029737 -0.38232008
0.2840526 -0.36565366 0.1787469 -0.30783162 0.2925875 -0.21346812 -0.18680403 0.042110913
0.0362642 0.37943345 0.20390484 0.43738928 -0.16568863 -0.06294076 0.22623014 -0.19225518
-0.2437228 0.071691655 -0.100148074 -0.08075885 0.23874468 0.25996998 -0.3717613 0.15188557
0.44829324 0.12437578 -0.044855684 -0.08584537 0.15760039 -0.32026112 0.012460073 -0.015510547
-0.98314047 -0.13486761 -0.012171438 0.20605357 0.17482139 0.07332331 0.060275946 0.11799875
-0.14848694 0.08912974 -0.13019308 -0.4947927 -0.055447828 0.00095611025 -0.19217874 0.01819744
-0.1505988 0.06470646 -0.14661425 0.030093495 0.15998466 -0.17987464 -0.4410936 -0.1611606
0.043180775 -0.12247488 -0.03711251 -0.07316247 0.09968987 0.07518198 -0.06761779 0.047226015
0.4009228 0.29923385 -0.07059509 0.824035 0.12528159 -0.049839005 0.37958416 -0.48178384
0.0782752 -0.047338188 -0.1923055 -0.44791716 0.09956905 -0.36584768 0.039730854 0.17321335
0.5979054 0.044374328 0.07332782 0.0015181524 -0.094206534 0.01712474 -0.08674177 -0.104544304
-0.14396267 -0.1804986 0.045115914 0.188485 0.052002236 0.2711476 -0.013102303 -0.03982972
-0.004154949 -0.01922807 0.1992689 0.14688088 0.5171021 -0.10357832 -0.3028367 0.1570193
0.094923876 0.009789452 -0.034242354 -0.18242298 -0.17467451 -0.02589986 -0.013650975 -0.10017117
-0.14975953 0.022607353 0.09691113 -0.20092976 -0.32854292 -0.26868653 -0.11403847 -0.30318356
0.50553614 -0.107008025 0.03336166 0.043763373 -0.243932 -0.26255235 -0.00999031 0.38276866
0.29205826 0.028706027 0.034923274 0.06836928 0.08598357 0.045236923 0.13195772 -0.22410968
0.019081209 0.27054906 -0.12113525 0.06479086 0.3046912 -0.032451153 0.1507289 0.17515859
0.10941404 -0.56976134 0.07862191 0.32525945 0.4947094 -0.07361131 0.05837065 -0.07415835
0.2254083 0.1212528 0.15735303 -0.10575663 -0.31855884 0.08918115 0.15948269 0.10303906
0.01755482 0.08642516 -0.48441344 -0.011344012 0.45902464 0.042895816 -0.29294425 0.21536095
-0.09965276 0.21569064 0.30293083 0.011423398 -0.26111183 0.02647654 0.13749675 0.048348956
-0.124858014 0.092639595 0.762034 -0.6434265 -0.26467746 0.079854086 -0.37108597 0.098988816
0.24245699 0.46299687 0.034766883 -0.0029357763 -0.08713461 -0.18743166 -0.17205176 0.08780696
0.38723072 0.08822334 0.22404923 -0.050856914 0.10319278 0.1235201 -0.08419511 0.3735983
0.26932228 0.29808712 0.0067489324 0.16482575 0.06971143 -0.013759909 0.29691258 0.021155301
0.046096742 -0.12645833 0.086342834 -0.1782422 -0.009084161 0.047991462 -0.34484094 -0.03561945
0.023942413 0.013017289 0.026429657 -0.059344355 -0.091494724 0.08687024 -0.17054869 0.011098465
00000000: 5dff 213e cffd e8be aa22 37be f8bf 903e
00000010: 0294 7ebe dc01 b53c fcc9 a3bc a30f 6d3d
00000020: ba02 6f3e a888 cb3e 5b4a d4be 16fa 5b3e
00000030: 1647 75be a630 833e 0916 973e 7d8c c13e
00000040: dc33 1c3e 5b4d 81bd a00f 1fbf d370 0a3e
00000050: 47a4 0abf 1754 d93e d7d1 88be b760 2c3f
00000060: 2563 9d3e 4cba 0dbf 241c 063e 5c05 013f
00000070: cd26 83be 1b51 5dbe 494e 5d3d 75bf c3be
00000080: 586f 913e f536 bbbe 6d09 373e 1b9c 9dbe
00000090: 07ce 953e 6397 5abe 8e49 3fbe 7e7c 2c3d
000000a0: c589 143d 1a45 c23e 6ecc 503e 7df1 df3e
000000b0: 48aa 29be 16e7 80bd e0a8 673e 8bde 44be
000000c0: 7892 79be 13d3 923d 6f1a cdbd e564 a5bd
000000d0: 7c79 743e c91a 853e 7f57 bebe e487 1b3e
000000e0: b186 e53e bbb8 fe3d 98ba 37bd b3cf afbd
000000f0: ff61 213e 44f9 a3be 5625 4c3c f31f 7ebc
00000100: 18af 7bbf bc1a 0abe b66a 47bc b5ff 523e
00000110: 6104 333e 882a 963d e9e3 763d 54a9 f13d
00000120: f60c 18be a789 b63d 5651 05be 7855 fdbe
00000130: 431d 63bd 79a3 7a3a 81ca 44be cc12 953c
00000140: 9236 1abe d284 843d 0c22 16be a286 f63c
00000150: 05d3 233e 0f31 38be 05d7 e1be 4907 25be
00000160: 53de 303d 1cd4 fabd 4a03 18bd 34d6 95bd
00000170: 342a cc3d 03f9 993d 327b 8abd 1170 413d
00000180: c145 cd3e 2e35 993e 2994 90bd f5f3 523f
00000190: d149 003e fc23 4cbd db58 c23e 5fac f6be
000001a0: c04e a03d b0e5 41bd bceb 44be 6655 e5be
000001b0: dcea cb3d 6350 bbbe d2bc 223d d75e 313e
000001c0: 5410 193f dbc1 353d e52c 963d befc c63a
000001d0: 5bef c0bd 2f49 8c3c aba5 b1bd 531b d6bd
000001e0: f36a 13be a0d4 38be 77cb 383d 3602 413e
000001f0: 4c00 553d dcd3 8a3e 0bab 56bc 7d24 23bd
00000200: 3d26 88bb 2f84 9dbc 260d 4c3e f167 163e
00000210: ce60 043f df20 d4bd 690d 9bbe abc9 203e
00000220: 7367 c23d f063 203c b641 0cbd 17cd 3abe
00000230: e0dd 32be f12b d4bc 57a8 5fbc 8b26 cdbd
00000240: 905a 19be 0e33 b93c 5879 c63d 88c0 4dbe
00000250: c736 a8be 4891 89be 008d e9bd e03a 9bbe
00000260: d16a 013f 0627 dbbd 3ca6 083d 3941 333d
00000270: 4fc9 79be 436d 86be 66ae 23bc 41fa c33e
00000280: a988 953e e728 eb3c b50b 0f3d 3105 8c3d
00000290: 2718 b03d 5a4a 393d ed1f 073e 027d 65be
000002a0: 3250 9c3c 6885 8a3e c215 f8bd 12b1 843d
000002b0: 7c00 9c3e 80eb 04bd ad58 1a3e c65c 333e
000002c0: 7814 e03d e1db 11bf 8604 a13d 6888 a63e
000002d0: 8d4a fd3e 87c1 96bd 1016 6f3d 55e0 97bd
000002e0: 6fd1 663e 6353 f83d 2721 213e ef96 d8bd
000002f0: 251a a3be 9ba4 b63d 6e4f 233e 2506 d33d
00000300: 20cf 8f3c adff b03d 0a05 f8be 3cdc 39bc
00000310: 4705 eb3e 86b3 2f3d cafc 95be 9587 5c3e
00000320: bf16 ccbd 02de 5c3e c019 9b3e 3429 3b3c
00000330: 73b0 85be 54e5 d83c f3cb 0c3e 8e09 463d
00000340: 8fb5 ffbd d4b9 bd3d a914 433f 99b7 24bf
00000350: ce83 87be 8a8a a33d fbfe bdbe a6ba ca3d
00000360: a546 783e ed0d ed3e b867 0e3d 2766 40bb
00000370: a173 b2bd 16ee 3fbe 562e 30be 23d4 b33d
00000380: 1b43 c63e 70ae b43d 296d 653e 574f 50bd
00000390: bc56 d33d 1bf8 fc3d 7c6e acbd 4748 bf3e
000003a0: 9ce4 893e e09e 983e 2626 dd3b 15c8 283e
000003b0: dec4 8e3d 3e71 61bc ed04 983e e24d ad3c
000003c0: f0cf 3c3d 4b7e 01be 83d4 b03d 2085 36be
000003d0: bcd5 14bc b292 443d fe8e b0be b3e5 11bd
000003e0: e122 c43c 7846 553c 0283 d83c 1113 73bd
000003f0: 9661 bbbd 06e9 b13d 51a4 2ebe 56d6 353c

lstm.bias_ih_l1 f4 [256]
0.55565685 -0.027663453 -0.015292576 0.028351378 -0.10574369 -0.094357744 0.05315481 -0.3571352
0.23395087 -0.023838967 0.1361861 0.22500724 0.166935 0.1326464 0.015226253 0.05615538
0.13951015 0.18600884 0.05544879 0.0481403 0.21396923 -0.054680683 -0.044405058 -0.012893796
0.45052826 0.028199129 0.055639736 0.39252645 0.20751455 0.15382214 0.15242055 -0.032177426
0.28593254 0.19286028 0.18180351 0.09909949 -0.019618833 0.25582066 0.05441011 -0.07392646
0.11487875 0.38579297 0.24926487 0.023823706 -0.0074107186 0.41640192 0.40519416 0.18888624
0.326571 -0.07743902 0.31882015 0.16189365 0.3083212 0.062154096 -0.06220329 0.359457
0.38008878 0.22874379 0.34091336 0.22933632 -0.033524334 0.15018043 0.22499685 0.1468696
-0.0011708388 -0.0025247184 -0.0922442 0.08676304 -0.07310888 0.1987101 -0.0011067049 0.20323375
-0.15310636 0.16209072 0.03189875 -0.08022969 0.0595495 0.053924464 0.13379972 0.052650765
0.041262656 0.15829107 -0.062127985 0.25635052 -0.013199446 -0.061077945 0.018141242 -0.03471271
-0.05178429 -0.13922918 0.025410008 0.15539679 0.0030544936 -0.06091597 0.06359367 -0.032798443
-0.1308114 -0.110322066 -0.010051674 0.148684 0.042815294 0.057747226 -0.012029691 0.13314353
0.094141215 -0.11504424 0.020787826 0.0102158245 0.067708805 -0.053870175 0.10023975 0.16246185
-0.003026135 -0.043538537 0.0809566 0.117019966 -0.115054056 -0.117738456 -0.024201842 0.07601742
-0.0031904716 0.033845797 0.117317505 -0.0042021438 0.14791864 0.11465698 -0.005925277 0.09881347
-0.050133824 -0.09763487 -0.12134602 -0.14768249 0.05245858 0.09832626 0.036878448 0.17448995
-0.09701787 0.10497127 -0.00510325 -0.14737515 0.028866814 0.03838495 -0.03453624 -0.122125
-0.1813515 0.19263887 -0.12483925 -0.051103145 0.08218932 0.25788727 -0.066457056 0.2072123
0.17688768 0.23819779 -0.059324455 -0.19307426 0.17129385 0.04739588 -0.11445941 0.019782485
0.24467966 0.0013132589 -0.09727937 0.12766534 0.16353007 0.042208117 -0.21904433 0.08938099
0.008261469 0.018529637 -0.2160539 0.16559574 0.07294356 -0.1212391 0.23092267 0.24215002
0.11341219 -0.08957966 0.18461691 5.9468704e-05 0.018782454 -0.0023866554 -0.20001242 -0.034331623
0.17368738 -0.08792075 0.23540156 -0.078753084 -0.09018151 -0.05779847 0.022375466 -0.21552965
0.25060192 0.06467778 -0.25944594 0.05638352 0.2686618 0.073897496 0.09791944 0.013678306
0.34479925 0.033803742 0.024039332 0.08930382 0.30492228 0.13603269 0.18774767 0.15508518
0.13855778 0.1591332 -0.18887398 -0.102566466 0.26127282 0.04047183 -0.02835846 0.1176912
0.49477184 -0.12254054 0.083060406 0.109283306 0.12391969 0.12517418 0.24381018 -0.005460718
0.2824628 0.250221 0.0028706219 0.22716352 0.08130363 0.08484016 0.10159706 0.002290227
0.24143447 0.3319964 0.3825704 0.16064104 0.09232226 0.49768552 0.12539952 0.32970887
0.2564911 0.03729907 0.3040706 -0.03219547 0.4119791 -0.061679106 -0.03140153 0.3431166
0.21571563 0.24623595 0.10409661 0.068094164 0.103352435 0.41503328 0.12144026 0.004428785
00000000: 873f 0e3f 779e e2bc b68d 7abc 2641 e83c
00000010: 2690 d8bd a23e c1bd dcb8 593d 6dda b6be
00000020: d190 6f3e f049 c3bc 5e74 0b3e 4c68 663e
00000030: 02f1 2a3e 75d4 073e 8977 793c 2f03 663d
00000040: c0db 0e3e 1a79 3e3e 451e 633d c32e 453d
00000050: c01a 5b3e daf8 5fbd 14e2 35bd 8040 53bc
00000060: a4ab e63e dc01 e73c 7ee6 633d 3af9 c83e
00000070: b27e 543e 8d83 1d3e 2214 1c3e 7acc 03bd
00000080: c065 923e 2a7d 453e b32a 3a3e acf4 ca3d
00000090: adb7 a0bc edfa 823e 23dd 5e3d c266 97bd
000000a0: 8d45 eb3d a886 c53e 4a3f 7f3e ef29 c33c
000000b0: 9dd5 f2bb a232 d53e 9c75 cf3e 656b 413e
000000c0: 5034 a73e 5998 9ebd 653c a33e 73c7 253e
000000d0: 47dc 9d3e 4b95 7e3d e1c8 7ebd bf0a b83e
000000e0: ff9a c23e d03b 6a3e 328c ae3e 24d7 6a3e
000000f0: d050 09bd e6c8 193e 9365 663e fc64 163e
00000100: d576 99ba bf75 25bb 87ea bcbd d2b0 b13d
00000110: 1cba 95bd a97a 4b3e db0e 91ba 821c 503e
00000120: eac7 1cbe 1cfb 253e 44a8 023d 774f a4bd
00000130: 2dea 733d e6df 5c3d cb02 093e 54a8 573d
00000140: 0803 293d 0e17 223e ea79 7ebd 6040 833e
00000150: 7d42 58bc de2c 7abd f19c 943c ea2e 0ebd
00000160: c31b 54bd 1892 0ebe a628 d03c 5620 1f3e
00000170: e62d 483b 0683 79bd 663d 823d a957 06bd
00000180: 6cf3 05be 89f0 e1bd c7af 24bc 9e40 183e
00000190: 175f 2f3d 5b88 6c3d 2e18 45bc c756 083e
000001a0: 1ccd c03d 519c ebbd 3b4b aa3c 4660 273c
000001b0: eaaa 8a3d f9a6 5cbd 804a cd3d 665c 263e
000001c0: 1f52 46bb 7755 32bd 93cc a53d 2aa8 ef3d
000001d0: 76a1 ebbd dc20 f1bd f142 c6bc 05af 9b3d
000001e0: 3b17 51bb e4a1 0a3d 2944 f03d 23b2 89bb
000001f0: fc77 173e 47d1 ea3d d328 c2bb b75e ca3d
00000200: 2059 4dbd caf4 c7bd 4384 f8bd 143a 17be
00000210: cfde 563d 475f c93d db0d 173d 7ead 323e
00000220: 4eb1 c6bd 2dfb d63d 2a39 a7bb 83e9 16be
00000230: 197a ec3c 8a39 1d3d df75 0dbd ac1c fabd
00000240: 35b4 39be 2043 453e b9ab ffbd 8851 51bd
00000250: e052 a83d cd09 843e a31a 88bd 762f 543e
00000260: 0b22 353e 1fea 733e 33fe 72bd 42b5 45be
00000270: a867 2f3e 2f22 423d b269 eabd e10e a23c
00000280: 4e8d 7a3e a821 ac3a 683a c7bd b4ba 023e
00000290: 6d74 273e 6be2 2c3d 284d 60be 610d b73d
000002a0: 1d5b 073c 77cb 973c 3c3d 5dbe ee91 293e
000002b0: 6f63 953d 354c f8bd fe76 6c3e 2df6 773e
000002c0: a644 e83d 8a75 b7bd 370c 3d3e 096e 7938
000002d0: a9dd 993c 6f69 1cbb 0ed0 4cbe 519f 0cbd
000002e0: 1bdb 313e cb0f b4bd 1b0d 713e 4c49 a1bd
000002f0: 15b1 b8bd 17be 6cbd c14c b73c ceb3 5cbe
00000300: e54e 803e c975 843d 19d6 84be 68f2 663d
00000310: 0a8e 893e 9257 973d fd89 c83d f91a 603c
00000320: 8789 b03e cb75 0a3d 22ee c43c ece4 b63d
00000330: c61e 9c3e 274c 0b3e ed40 403e a6ce 1e3e
00000340: 17e2 0d3e d0f3 223e 2e68 41be 5e0e d2bd
00000350: 8dc5 853e cac5 253d 0050 e8bc 1508 f13d
00000360: bc52 fd3e 89f6 fabd 931b aa3d edcf df3d
00000370: 9bc9 fd3d a92d 003e 60a9 793e d3ef b2bb
00000380: f79e 903e f81c 803e 0b21 3c3b 8e9d 683e
00000390: 8482 a63d aec0 ad3d 1f12 d03d a217 163b
000003a0: 993a 773e 6ffb a93e 44e0 c33e 167f 243e
000003b0: 7413 bd3d a3d0 fe3e bb68 003e 9acf a83e
000003c0: cd52 833e e9c6 183d 24af 9b3e 66df 03bd
000003d0: edee d23e 3ba3 7cbd e49e 00bd fbac af3e
000003e0: 8fe4 5c3e 4725 7c3e 9a30 d53d f474 8b3d
000003f0: 71aa d33d 3e7f d43e acb5 f83d 571f 913b

lstm.bias_hh_l1 f4 [256]
0.5143543 0.114569 -0.079272024 0.22387446 -0.12316835 0.019773977 -0.054839846 -0.32357642
0.2538971 0.07534653 0.18854256 0.18616118 0.33575815 0.07766914 0.18036872 0.13282433
0.03263277 0.1288473 0.15570575 0.04046154 0.11472403 -0.07743612 -0.04457417 0.08076487
0.4522872 0.19248106 -0.027963 0.16406518 0.28728437 0.17450328 0.20277885 -0.009504448
0.060603186 0.21111943 0.060931373 0.2630743 0.02806244 0.15223734 -0.05388961 0.02869828
0.072901964 0.24569234 0.34958184 -0.0045927055 0.13855378 0.40914553 0.50776035 0.4213355
0.27808127 -0.04094297 0.27808166 0.17753796 0.15818027 0.116220064 -0.074852586 0.19697867
0.39150307 0.113410264 0.22120893 0.1716628 -0.05305053 0.26250285 0.15128082 0.13122575
0.095396504 -0.09983637 -0.13388987 0.20861785 -0.051110346 0.07833684 0.04597324 0.15842286
-0.080954194 0.040748708 -0.062759005 -0.028965216 -0.10477418 0.040062305 0.059165683 0.054910086
-0.07461853 0.0068942048 -0.017363204 0.08937904 -0.11251204 -0.025108391 -0.009222935 -0.083978586
-0.021015802 -0.057187486 -0.0006057899 0.021581104 -0.024743188 -0.049462594 -0.053282842 -0.0878574
-0.16241458 -0.12255522 0.002950438 0.040973194 0.0063927644 0.21198675 -0.042857297 -0.020534957
0.010980129 0.025332855 0.14684762 0.03606462 -0.109694004 0.11328219 0.037595406 -0.008308332
-0.02372164 -0.029967308 0.033230178 0.015129211 0.035061922 -0.04732184 0.12556937 -0.027398566
0.06053958 -0.06876437 0.022413636 0.11920918 0.03095686 0.079796046 0.11566741 0.099440366
-0.10997879 0.111493096 -0.07356506 0.068179004 -0.10369969 0.08989611 0.10884094 0.048956066
-0.04962296 -0.092964746 0.0016193085 -0.09975956 -0.058726974 -0.17862992 -0.10170861 -0.039038446
-0.1383218 0.06263042 -0.1574721 -0.020939961 0.10170963 0.031530414 -0.07667276 0.19143191
0.30847916 0.30519977 0.057816893 -0.13442999 0.15541339 0.10671295 -0.19162212 0.06472784
0.14678955 0.22898926 0.027243685 0.03245294 0.26260743 0.1308755 -0.1718668 0.10401662
-0.02296419 0.04948689 -0.1917393 -0.058934312 0.068507314 -0.22111925 0.062661156 0.09034378
0.10779022 -0.10506179 0.005947048 -0.042144652 0.07610957 0.0019794016 -0.05236396 -0.06708422
-0.008775798 -0.105493486 0.22429705 -0.01850579 -0.06363052 0.15472266 0.041020196 -0.02423598
0.30894834 0.04738726 -0.24953927 0.14120886 0.23203309 0.22347733 0.014149227 0.12684591
0.2822677 0.10347784 0.19909488 -0.014647973 0.16633983 0.12948027 0.023304528 0.14709686
0.009676918 0.23150456 -0.11610179 -0.038180616 0.110102914 -0.056887973 -0.116643205 0.10725283
0.32449344 -0.064072184 0.12917577 0.10669133 0.29391643 0.31676373 0.20387422 -0.000789121
0.254623 0.1534381 0.1516558 0.15928762 0.116462275 0.06422285 0.14089619 0.10567025
0.035883896 0.41379878 0.37233812 0.200006 0.2884782 0.4122404 0.28715867 0.44737452
0.16708586 -0.0053333123 0.34489283 0.03994813 0.21747155 -0.013901485 -0.044666912 0.34355617
0.37879074 0.25885123 0.28674477 -0.030811433 -0.017160328 0.36185202 0.23080145 -0.053363387
00000000: b9ac 033f 27a3 ea3d 5f59 a2bd 593f 653e
00000010: b03f fcbd 09fd a13c bf9f 60bd cfab a5be
00000020: cdfe 813e 484f 9a3d 4d11 413e 09a1 3e3e
00000030: 7ee8 ab3e 0011 9f3d 94b2 383e 1a03 083e
00000040: f0a9 053d 8cf0 033e 5471 1f3e 00bb 253d
00000050: 6ff4 ea3d d496 9ebd 6893 36bd 0d68 a53d
00000060: 3092 e73e c119 453e a912 e5bc b400 283e
00000070: f016 933e fdb0 323e 42a5 4f3e 8bb8 1bbc
00000080: 0c3b 783d b12f 583e 2d93 793d adb1 863e
00000090: 34e3 e53c 1be4 1b3e 5abb 5cbd a818 eb3c
000000a0: a04d 953d c696 7b3e 64fc b23e 687e 96bb
000000b0: 0be1 0d3e 867b d13e 95fc 013f 49b9 d73e
000000c0: ab60 8e3e d1b3 27bd b860 8e3e 83cc 353e
000000d0: 02fa 213e c904 ee3d 504c 99bd c7b4 493e
000000e0: 1773 c83e a443 e83d 9884 623e 5fc8 2f3e
000000f0: 834b 59bd c666 863e 5ce9 1a3e 0b60 063e
00000100: 3e5f c33d 0377 ccbd 6d1a 09be eb9f 553e
00000110: 1559 51bd 116f a03d 704e 3c3d 9a39 223e
00000120: 50cb a5bd 1ee8 263d cb87 80bd 7648 edbc
00000130: d893 d6bd 5f18 243d b757 723d 66e9 603d
00000140: 9ad1 98bd c8e8 e13b 473d 8ebc 5c0c b73d
00000150: b66c e6bd 1db0 cdbc cb1b 17bc f7fc abbd
00000160: 5529 acbc 6d3d 6abd dfcd 1eba dbca b03c
00000170: 3ab2 cabc 4a99 4abd 1c3f 5abd 95ee b3bd
00000180: 0250 26be 3bfe fabd 235c 413b 82d3 273d
00000190: 657a d13b 0e13 593e 228b 2fbd ed38 a8bc
000001a0: 00e6 333c d986 cf3c 395f 163e 7fb8 133d
000001b0: 40a7 e0bd 7e00 e83d a4fd 193d ac1f 08bc
000001c0: e353 c2bc 007e f5bc 5e1c 083d 83e0 773c
000001d0: 179d 0f3d 8cd4 41bd 4295 003e f572 e0bc
000001e0: 5af8 773d 56d4 8cbd cd9c b73c f123 f43d
000001f0: 3e99 fd3c 1c6c a33d 09e3 ec3d 64a7 cb3d
00000200: 8f3c e1bd 7e56 e43d 47a9 96bd 6fa1 8b3d
00000210: 8160 d4bd 741b b83d 00e8 de3d 2886 483d
00000220: 7241 4bbd 4d64 bebd fa3e d43a bd4e ccbd
00000230: b28b 70bd c3ea 36be 9b4c d0bd c7e6 1fbd
00000240: 3ba4 0dbe 6144 803d 5e40 21be 488a abbc
00000250: 234d d03d 0926 013d 9c06 9dbd ba06 443e
00000260: fbf0 9d3e 2543 9c3e 68d1 6c3d 04a8 09be
00000270: b024 1f3e 528c da3d 9738 44be 0890 843d
00000280: 0050 163e 297c 6a3e 262e df3c 60ed 043d
00000290: 7b74 863e 3a04 063e dafd 2fbe aa06 d53d
000002a0: 661f bcbc c4b2 4a3d 4f57 44be 1b65 71bd
000002b0: 904d 8c3d 166d 62be 7e54 803d 2906 b93d
000002c0: 1ec1 dc3d a32a d7bd 74df c23b df9f 2cbd
000002d0: 56df 9b3d d9b8 013b 977b 56bd 7463 89bd
000002e0: 5dc8 0fbc f80c d8bd 20ae 653e 7499 97bc
000002f0: b850 82bd 9e6f 1e3e cb04 283d 898a c6bc
00000300: 7a2e 9e3e 2519 423d 3987 7fbe 0e99 103e
00000310: 159a 6d3e 3ed7 643e 29d2 673c e5e3 013e
00000320: 6485 903e 31ec d33d 87df 4b3e 0dfe 6fbc
00000330: fd54 2a3e 7a96 043e 23e9 be3c 8fa0 163e
00000340: f08b 1e3c 880f 6d3e c6c6 edbd 4763 1cbd
00000350: a37d e13d 5d03 69bd a2e2 eebd 5fa7 db3d
00000360: 0124 a63e 4738 83bd a746 043e fc80 da3d
00000370: 377c 963e db2e a23e 67c4 503e 04dd 4eba
00000380: f25d 823e e11e 1d3e a84b 1b3e 4b1c 233e
00000390: c683 ee3d 4587 833d 1747 103e a569 d83d
000003a0: fefa 123d 6fdd d33e 1aa3 be3e 5fce 4c3e
000003b0: 6ab3 933e 2c11 d33e 7606 933e 460e e53e
000003c0: 8e18 2b3e 11c3 aebb cb95 b03e a6a0 233d
000003d0: ddb0 5e3e 0ec3 63bc a7f4 36bd 98e6 af3e
000003e0: dcf0 c13e 2688 843e 36d0 923e 4268 fcbc
000003f0: d193 8cbc ab44 b93e 3757 6c3e 9193 5abd
